model/classifier_8d.pt (torch, 2673 bytes, 4 tensors)

fc1.weight f4 [16, 8]
-1.0998198 -1.024424 -1.0036331 -0.08641861 -0.06898002 1.4158612 -0.49594146 -0.4351947
-0.008795654 -1.1528445 -1.0675972 -0.4971333 -0.5758753 0.5650898 -0.42410085 0.5778093
-0.35681966 -0.56115574 -0.34606457 -0.91910154 -0.33262643 0.6878079 -0.41270015 0.6783491
0.03469578 0.096734196 -0.6552055 -0.20593736 0.04654934 -0.3409617 0.14491455 -0.45977244
0.8743145 0.2544065 0.070718 -0.7730973 -0.2270292 -0.457468 0.032955334 1.0184249
0.8691823 -0.15005979 -0.3704004 -0.3612552 -0.048574332 -0.48981595 -0.48778728 1.026867
0.85783976 -0.07886586 0.4272667 -0.08257294 -0.6732163 0.30419326 -1.2810769 -0.63496727
0.09746973 -0.35325637 -0.066844024 -1.0950668 -0.47797284 0.5164298 -0.54214185 0.3902954
1.3156015 2.209318 0.89155036 -0.06914168 -0.13680556 -1.8156096 0.80981743 0.52899814
-0.16302346 -1.1428866 -0.8095299 -0.68534565 -0.09222457 0.25339767 -0.3442316 0.43544185
1.4975361 0.4340255 0.10363581 -0.99692994 -0.3789375 -0.71050715 0.42238334 1.1898645
-0.10334487 0.5265123 -0.07889728 0.33611706 0.6276238 0.9356514 1.2279096 0.40290546
-0.72453904 -1.1504121 -0.53505206 0.21490207 0.21353865 0.8565712 -0.32197753 -0.30704343
-0.32909587 -0.24918315 -0.93427694 0.28682488 0.6667419 -0.9277106 -0.38854674 0.35125193
0.5176589 0.25728446 0.5216232 -1.026982 -0.4777636 -0.31885868 0.44879246 0.46695286
-1.2924917 -1.636189 -0.71967286 0.0972895 -0.1484605 1.152956 -0.36427656 -0.334978
00000000: e5c6 8cbf 5320 83bf 0d77 80bf 3dfc b0bd
00000010: 6645 8dbd f13a b53f 0aec fdbe d7d1 debe
00000020: a61b 10bc 6990 93bf 06a7 88bf 4288 febe
00000030: 906c 13bf baa9 103f bf23 d9be 4feb 133f
00000040: 11b1 b6be e7a7 0fbf 602f b1be 3d4a 6bbf
00000050: 034e aabe 2e14 303f 6f4d d3be 49a8 2d3f
00000060: 2a1d 0e3d 941c c63d 8cbb 27bf 3ee1 52be
00000070: 85aa 3e3d 8892 aebe 7b64 143e 4b67 ebbe
00000080: 13d3 5f3f 9241 823e 99d4 903d b4e9 45bf
00000090: 587a 68be 3f39 eabe 2cfc 063d bf5b 823f
000000a0: bb82 5e3f 46a9 19be 1fa5 bdbe 71f6 b8be
000000b0: e1f5 46bd 28c9 fabe 41bf f9be 6170 833f
000000c0: 639b 5b3f 6d84 a1bd b3c2 da3e 001c a9bd
000000d0: e757 2cbf 38bf 9b3e 54fa a3bf 378d 22bf
000000e0: 369e c73d 05de b4be 85e5 88bd 262b 8cbf
000000f0: dbb8 f4be be34 043f cfc9 0abf ccd4 c73e
00000100: a165 a83f 7765 0d40 a53c 643f 279a 8dbd
00000110: c216 0cbe e565 e8bf 3250 4f3f 6c6c 073f
00000120: 9fef 26be 1c4a 92bf 5a3d 4fbf d072 2fbf
00000130: 3ce0 bcbd 57bd 813e 203f b0be 3cf2 de3e
00000140: 43af bf3f 9738 de3e 033f d43d cd36 7fbf
00000150: 1904 c2be cce3 35bf a142 d83e 7b4d 983f
00000160: 7aa6 d3bd 83c9 063f e694 a1bd 8917 ac3e
00000170: f4ab 203f da86 6f3f 242c 9d3f a049 ce3e
00000180: 647b 39bf b440 93bf 2cf9 08bf 4a0f 5c3e
00000190: e0a9 5a3e 4048 5b3f 3dda a4be cc34 9dbe
000001a0: 417f a8be de29 7fbe c62c 6fbf b6da 923e
000001b0: 99af 2a3f 717e 6dbf 99ef c6be 4bd7 b33e
000001c0: 4b85 043f caba 833e 1989 053f 2574 83bf
000001d0: 6e9d f4be 7241 a3be 20c8 e53e 7214 ef3e
000001e0: 5e70 a5bf a46e d1bf 7b3c 38bf b83f c73d
000001f0: 0806 18be 1094 933f 7582 babe 3d82 abbe

fc1.bias f4 [16]
0.61163324 2.520056 2.7809424 2.4462204 2.228703 0.7600691 0.69090873 1.2810665
-0.9704263 -0.96512187 0.4786013 0.20515919 0.9872556 -0.09849264 2.3443549 -0.6306393
00000000: ff93 1c3f 9948 2140 f6fa 3140 e08e 1c40
00000010: 12a3 0e40 e393 423f 65df 303f fdf9 a33f
00000020: dc6d 78bf 3a12 77bf 3b0b f53e 4015 523e
00000030: c8bc 7c3f 82b6 c9bd e909 1640 9471 21bf

fc2.weight f4 [7, 16]
0.83674514 0.27871358 -0.16677581 -2.2171435 -3.2416136 -1.3978031 -1.1083101 0.04714751
-5.5700865e-22 0.5235871 -0.87529796 -0.5335288 0.83985615 0.09906414 -2.115544 1.245343
-2.0982115 0.27437156 0.4891628 0.111944295 0.5766321 0.89361024 -0.61478853 0.5923284
-2.487708 0.06019046 0.70204186 -0.56824154 -2.3524122 -0.6980728 0.41032308 -2.1915114
-5.7722175e-20 -2.4068236 -2.0663993 -1.1514094 0.6055626 0.36458787 -1.0868481 -1.2166157
1.5276073 -0.15665537 0.9554575 -1.1182201 -5.9258276e-20 -0.31472427 0.04354729 -7.240798e-20
-0.19895586 -0.19408417 0.30669245 0.4165632 0.38667527 -0.0622905 0.94426084 -0.0016250312
0.41988927 -1.0589277 0.21287715 0.9902243 -0.15002984 0.84509325 0.3496569 -0.15285742
0.22575 0.17313759 0.10640922 -0.8940878 -0.04192111 0.21030289 -0.36381912 0.18435107
-0.01625866 0.44401804 0.011719751 -0.6157279 0.3112485 -0.31050485 -0.08291863 0.44051144
0.0029365555 0.240631 0.35150725 1.4843892 0.3938347 -0.36910227 1.8699474 0.2980297
-2.9677482 -0.5720009 -0.2873839 1.9467306 -0.08389901 1.8371136 0.8418715 -0.9350244
0.8591698 0.43952864 0.13624412 1.5028816 -0.24823141 0.14649577 -0.87740207 -0.14994502
-2.7557973e-10 -0.09072607 -2.8682783 -1.3277797 1.2124699 -1.4992596 -0.79702336 0.2670698
00000000: ee34 563f 8cb3 8e3e 47c7 2abe aee5 0dc0
00000010: 9976 4fc0 36eb b2bf 1bdd 8dbf bf1d 413d
00000020: 7558 289c ce09 063f 8713 60bf 5895 08bf
00000030: d000 573f 24e2 ca3d 1365 07c0 6667 9f3f
00000040: 1949 06c0 6e7a 8c3e 8c73 fa3e 0d43 e53d
00000050: 299e 133f a4c3 643f c862 1dbf d6a2 173f
00000060: 9c36 1fc0 468a 763d 04b9 333f 4778 11bf
00000070: ec8d 16c0 e6b4 32bf de15 d23e b941 0cc0
00000080: ea4a 889f 6609 1ac0 e33f 04c0 6261 93bf
00000090: 2706 1b3f 43ab ba3e d71d 8bbf 10ba 9bbf
000000a0: a388 c33f 446a 20be dd98 743f d621 8fbf
000000b0: 6eeb 8b9f 8a23 a1be a55e 323d f0f7 aa9f
000000c0: 16bb 4bbe 00be 46be cb06 9d3e c647 d53e
000000d0: 4dfa c53e 5324 7fbd 14bb 713f 00ff d4ba
000000e0: bafb d63e f18a 87bf 78fc 593e 577f 7d3f
000000f0: 6ca1 19be 0858 583f 3b06 b33e a886 1cbe
00000100: 022b 673e fb4a 313e 14ed d93d f0e2 64bf
00000110: 78b5 2bbd a459 573e 8046 babe 87c6 3c3e
00000120: e230 85bc 5556 e33e 3304 403c 58a0 1dbf
00000130: f75b 9f3e 7efa 9ebe 3ed1 a9bd b78a e13e
00000140: 3a73 403b f967 763e c2f8 b33e 7700 be3f
00000150: b4a4 c93e f9fa bcbe 705a ef3f 5997 983e
00000160: 96ef 3dc0 a76e 12bf fc23 93be 782e f93f
00000170: 3fd3 abbd 8a26 eb3f e484 573f c25d 6fbf
00000180: 8df2 5b3f e609 e13e 9483 0b3e 6d5e c03f
00000190: 6030 7ebe fd02 163e 6c9d 60bf 308b 19be
000001a0: 6680 97af 97ce b9bd df91 37c0 aff4 a9bf
000001b0: 3732 9b3f bde7 bfbf b909 4cbf 5fbd 883e

fc2.bias f4 [7]
-1.433466 0.3064435 -1.3340462 0.9995224 -0.36201096 1.3945527 0.9006578
00000000: d07b b7bf 2ae6 9c3e 07c2 aabf b3e0 7f3f
00000010: 8059 b9be b480 b23f 8291 663f
