model/classifier_16d.pt (torch, 3185 bytes, 4 tensors)

fc1.weight f4 [16, 16]
000000 e3 ea cc 3e 4d c4 26 bf 3d f5 5d 3d a4 0b 5e 3e
       0.40022954 -0.6514328 0.054188956 0.21684128
000010 e3 41 f9 3e b1 e1 b3 3e 06 57 05 3e 9f d6 e6 bc
       0.4868308 0.35133126 0.13021478 -0.028178511
000020 93 ce 37 3e 25 9a d6 3d 44 89 f3 3e 99 18 59 be
       0.17949896 0.104786195 0.47565663 -0.2120079
000030 cc e7 c2 3e 6e 48 b0 3e 3a c9 e5 bc c5 6a 02 bf
       0.38067472 0.3443026 -0.028050054 -0.5094417
000040 a7 77 dd 3e 07 ab ec be 37 43 1d be 1d 44 c0 3e
       0.4325535 -0.46224234 -0.15357672 0.37551966
000050 e4 2c be 3e 57 46 aa 3e 68 a4 39 3b a1 63 62 be
       0.37143624 0.3325679 0.0028326754 -0.22108318
000060 58 8c 8c 3c 68 db 36 3e dd 78 9c 3e 03 34 e9 be
       0.017156765 0.17857134 0.3056096 -0.45547494
000070 b4 6c 98 3d bb c2 2a 3f 86 c4 3b 3d 04 11 08 bf
       0.074426085 0.66703385 0.045841716 -0.53150964
000080 68 f1 e8 3e 3e b9 43 bf f8 6d 3f 3d 23 89 32 3e
       0.45496678 -0.7645453 0.046735734 0.17435126
000090 f0 2e f7 3e 98 4a 42 3e a1 d9 3f 3d d1 ba 0c bd
       0.48277998 0.18973768 0.046838406 -0.03435785
0000a0 3e 7d 82 3e ec 9a 81 3e c6 e5 e1 3e 39 bb 8c be
       0.25486177 0.2531351 0.44120616 -0.2748659
0000b0 7e ee 29 3f e0 da 19 3f 8b 1d 22 3d 8f 94 3a bf
       0.66379535 0.600996 0.039578956 -0.7288293
0000c0 b6 83 0c 3f 28 25 b3 be a7 8d 40 be ea ed 0a 3e
       0.54888475 -0.34989285 -0.18804036 0.1356732
0000d0 28 63 9e 3c d6 14 10 3f 47 03 20 be f5 9a 97 bd
       0.01933439 0.56281793 -0.1562625 -0.074026026
0000e0 eb 19 5c 3d a0 f5 d6 3d 94 8f 22 3f 5d 2a ad be
       0.053735655 0.10496068 0.6350033 -0.33821383
0000f0 95 2a 67 3e d3 a0 2a 3f 87 ba c3 3d 1e 12 c6 3d
       0.22574838 0.6665165 0.09557062 0.09671424
000100 0f ee b3 bd 3a f8 a3 3e 6d 71 3e bd b2 6f 3a be
       -0.087856404 0.3202532 -0.04649489 -0.18206671
000110 e6 bf 3e bf 7c bd 13 bd d1 ac a5 3e 37 a1 d8 bd
       -0.74511564 -0.03606938 0.3235841 -0.10577624
000120 c0 03 f9 3c c3 02 07 3e b7 0c 3a bf f1 ea a5 3e
       0.030397296 0.13184647 -0.7267565 0.3240581
000130 01 8c 8c be c0 3a 40 bf ea 10 90 3e 4b dc 50 3e
       -0.27450565 -0.75089645 0.28137904 0.20396535
000140 83 ff 12 3e 9e b0 eb be 11 86 a0 be fb 4a d8 3d
       0.14355282 -0.46033186 -0.31352285 0.105611764
000150 e9 7a a6 3c b2 4f 4a be 5e ce 19 3e 4c e9 86 bb
       0.02032228 -0.19756964 0.15020129 -0.0041171666
000160 a0 6c aa 3e a2 9d 80 3d 24 4a 5c 3b 71 9d 8c be
       0.33286 0.06280066 0.0033613527 -0.27463868
000170 20 93 02 be fa 2b 09 3e b7 ad 92 3e 12 20 7b be
       -0.12751436 0.13395682 0.2864816 -0.24523953
000180 fe 96 f2 3e c3 b4 fd be 62 d1 51 be 30 25 d3 3e
       0.47380823 -0.49551973 -0.2049003 0.4123931
000190 6c 71 0f 3f e3 67 fb 3e 76 26 ab be 1a e5 7e be
       0.56032443 0.49102697 -0.3342778 -0.24892083
0001a0 a4 03 a8 be 25 9e 46 3e 91 48 72 3f ee 4a de bd
       -0.32815278 0.19396265 0.9464198 -0.108541355
0001b0 4f b1 68 3e c1 0f 7e 3f 26 c9 a2 3e c3 ac 27 3b
       0.22723888 0.9924279 0.3179409 0.0025585152
0001c0 e6 aa c2 3e 03 85 d7 be 37 be f9 bd e3 67 08 3e
       0.3802101 -0.42093667 -0.12194484 0.1332088
0001d0 05 e7 8f be 4a 83 dc be 33 70 0a be bf 95 87 3e
       -0.2810594 -0.43068916 -0.13519363 0.26481435
0001e0 12 63 85 3e d7 8a 00 be 3e cf 25 bc 30 c8 bf 3b
       0.26052147 -0.12552963 -0.010120211 0.0058527216
0001f0 96 af 98 be 2c 88 2a 3c f1 0a 9d 3e ca 42 7d be
       -0.2982146 0.0104084425 0.3067241 -0.2473251
000200 cb b5 28 be ae d6 8c 3d c7 11 5a bd 0b 6e 2f be
       -0.16475599 0.068768844 -0.05323961 -0.17131822
000210 4c 69 9c 3e 1d 0b 35 bd cb d8 5f 3c 49 83 1b be
       0.30549085 -0.04420005 0.013662527 -0.151868
000220 25 75 0e 3e eb d0 d7 be 24 4c e0 3e 0b 4f aa be
       0.13911875 -0.4215158 0.4380809 -0.3326343
000230 7d 15 8e 3e af 2d c1 3e 16 cb 06 be 55 20 07 be
       0.2775077 0.37730166 -0.13163409 -0.13195927
000240 4d fc 78 ba c8 7b 97 3f 51 06 59 bf 08 cb f8 bd
       -0.0009498045 1.183465 -0.84775263 -0.121481
000250 4a f3 b2 be 3e b0 4f 3e 21 a2 05 bd 7e 5e 28 bf
       -0.3495124 0.20282075 -0.03262532 -0.65769184
000260 b4 5c 28 3f 4b 41 91 3b e7 8c fc be 05 5b bd be
       0.65766454 0.0044328324 -0.4932625 -0.36983505
000270 ef 1f 57 bf 47 c7 4a bd 44 7f 5f 3e 7e 53 82 3e
       -0.840331 -0.049506452 0.21825892 0.25454324
000280 42 b3 d3 3e e1 d8 4c bf fc bf a0 be 10 a8 0a 3f
       0.413477 -0.8001843 -0.31396472 0.54162693
000290 0c 3c cb 3e a5 3e 06 3e 9a 7f ec be f0 17 73 bd
       0.3969425 0.13109834 -0.46191102 -0.059349
0002a0 bb 69 70 be 63 53 a1 3e 54 c7 29 3f be 5d d5 be
       -0.23477833 0.31508932 0.66319776 -0.41673082
0002b0 83 ba 7e 3b 2e 0d 37 3f 69 1a 0b 3e 70 5c 9a be
       0.0038868494 0.71504486 0.13584293 -0.3014865
0002c0 53 04 10 3e bc 19 de bd 2e 4f 35 be d8 a7 43 bd
       0.1406415 -0.10844752 -0.17705986 -0.04776749
0002d0 30 7f 38 3d aa 90 45 3e f5 e6 0b 3f 60 71 0d be
       0.04504317 0.19293466 0.5464929 -0.1381278
0002e0 cc 16 ee 3e f3 2e a6 3e 28 85 2e bf 98 09 66 be
       0.46501768 0.32457694 -0.6817193 -0.22464597
0002f0 4a 51 42 3e 10 ec 99 be 3a 9c 5a be b0 31 01 bf
       0.18976322 -0.30062914 -0.21348658 -0.5046644
000300 a8 73 93 3e 95 da 25 3e 35 f9 9f be 57 4b 91 3e
       0.28799176 0.16196664 -0.31244817 0.28377792
000310 f2 26 0b be 08 b3 df bd 4a fb 22 3f 62 0a d2 bc
       -0.13589075 -0.109228194 0.63664687 -0.025639717
000320 25 03 77 3e d1 39 08 be 13 b4 1d be 50 58 b3 bc
       0.24122293 -0.13303305 -0.15400724 -0.021892697
000330 1d 34 0f bf 7e 12 80 bc d4 27 8e 3d 0e 78 d7 bd
       -0.55938894 -0.015633818 0.0694119 -0.105209455
000340 4d fa 11 3f 1f 37 ea be e3 aa 04 be 67 07 66 3e
       0.57022554 -0.4574518 -0.12955813 0.22463761
000350 02 5b 26 3f 96 ca e5 3e 13 3d 86 3d 5d e2 b7 bd
       0.64982617 0.44881123 0.06554618 -0.08978722
000360 f3 5f e2 bc 72 c3 0b 3f f4 3a 3e 3f b9 6f e4 bd
       -0.027633643 0.545951 0.74308705 -0.11154122
000370 a3 1c b3 3e ea bd 27 3f df 3c 33 bc f3 9d 01 bf
       0.34982786 0.6552416 -0.010939806 -0.50631636
000380 8b 5e 97 3e 50 b9 3a 3d f9 36 8d be e8 d9 ea bb
       0.29564318 0.045586884 -0.27581003 -0.0071670897
000390 2d 4c cd be ae b8 6c 3d 32 38 09 bd 28 25 6c bd
       -0.4009718 0.05779331 -0.033500858 -0.057652622
0003a0 3f e7 88 3d f3 e1 80 3e fd cd 25 be 59 69 24 3c
       0.06684732 0.25172386 -0.1619186 0.010034882
0003b0 18 91 dd be a7 03 fb 3c 86 5f 9d 3e 0b 74 ff 3d
       -0.4327476 0.03064139 0.3073694 0.12473305
0003c0 5a 10 b0 be f0 b7 21 3f 5e b6 74 3e 0c cc 98 be
       -0.34387475 0.6317129 0.23897693 -0.29843175
0003d0 10 75 51 bf b1 27 6a 3e e8 d7 41 be c9 4d c1 be
       -0.8181925 0.22866704 -0.18930018 -0.37754658
0003e0 4f 7d e0 be 31 0c 7d 3e 69 92 11 bf 00 f8 c9 3e
       -0.43845603 0.24711682 -0.5686403 0.3944702
0003f0 3a 86 3e be 36 31 1b bf 97 46 15 3f 02 06 2f 3f
       -0.18605891 -0.60621965 0.58310837 0.6836854

fc1.bias f4 [16]
000000 d5 a4 e2 be ac 4c 1e 3f 5a b9 8a be 4e 74 dd 3d
       -0.44266382 0.6183574 -0.27094537 0.10813199
000010 fc 5e 87 3e 06 aa 6d 3f b4 0f 0a 3d d0 04 14 bf
       0.26439655 0.9283756 0.033706382 -0.57819843
000020 1e 3e 27 bf 5e 86 25 3f 66 20 ac 3e 0d 3b d6 be
       -0.6532916 0.64658153 0.33618468 -0.41841927
000030 f2 aa 36 3f 9d d9 76 3d 28 f6 5e 3f 32 71 26 3e
       0.7135459 0.060266126 0.87094355 0.16254118

fc2.weight f4 [7, 16]
000000 1e 71 b5 3e 6c 8a 5c 3e ff c0 f6 3e 82 98 4b 3e
       0.35437864 0.21537179 0.4819412 0.19882396
000010 66 88 54 bf 9a d7 49 be 46 b9 86 3e 08 d6 96 3e
       -0.8302063 -0.19711152 0.26313227 0.29460168
000020 27 e3 11 3f 90 03 2d bf 66 22 6b 3e 8c 64 64 3e
       0.5698723 -0.6758356 0.2296234 0.2230398
000030 a5 4d 5a be 41 b6 3c 3e ed ff 90 be 07 1b 83 bf
       -0.21318682 0.184289 -0.28320256 -1.0242623
000040 6a d0 42 3e 28 91 d6 3e 18 3a 35 3e 18 fb 1e 3e
       0.19024816 0.4190762 0.17697942 0.15525472
000050 ce 8c ac bf a6 ff cb 3e a5 42 c2 3d 15 1a 53 bf
       -1.348047 0.39843482 0.09485368 -0.82461673
000060 0c db a0 be bf 58 30 bc 4d db c4 3e 63 44 3f bf
       -0.3141712 -0.010763346 0.38448563 -0.74713725
000070 f8 e3 3b 3e 01 5e 47 3e d4 2b 11 bc 3d 3f 8d bf
       0.18348682 0.19469453 -0.008860547 -1.1034924
000080 1a 2f a6 b8 3f d4 14 bf 8d 2b f0 b7 78 a2 18 bf
       -7.92427e-05 -0.5813636 -2.863051e-05 -0.5962291
000090 c3 7c 32 3f 57 a6 32 3e 27 ea c4 bf 6c fc 30 bf
       0.6972162 0.17446266 -1.5383958 -0.69135165
0000a0 25 86 a0 3e d6 89 5e 3f 48 67 a6 bf 69 f4 0f bf
       0.31352344 0.8692907 -1.3000269 -0.56232315
0000b0 d9 e2 4d 3e 07 bd d9 bf 57 84 e1 3e 10 94 25 3f
       0.20106067 -1.7010812 0.4404628 0.6467905
0000c0 97 cb 68 bf 0d 40 bc 3d 8d 44 c4 bf 41 80 c2 3e
       -0.90935653 0.09191904 -1.533342 0.37988475
0000d0 51 6b b7 be b8 30 65 3d 72 ad 5e 3e fd 24 a5 3f
       -0.35824063 0.055954665 0.21745852 1.2901913
0000e0 52 8c 48 bd 48 5c cd 3e a2 12 0e 3e 90 0f 9f 3f
       -0.048961945 0.40109468 0.13874295 1.2426624
0000f0 57 7c 2f be ce d5 dc bd c4 81 c2 3e 9a 24 dc 3e
       -0.17137276 -0.107829675 0.37989628 0.42996675
000100 24 38 7f bd 53 5f 88 bd 76 56 61 bd 19 d1 ae bd
       -0.0623094 -0.06658807 -0.055014096 -0.08535976
000110 d8 47 96 bd 54 48 43 bd 06 d8 8b bd 4b ee f8 bb
       -0.07337922 -0.0476764 -0.068283126 -0.007596766
000120 00 23 81 32 6c f6 36 bd 43 89 65 bd 87 8a 8b bd
       1.5033493e-08 -0.0446686 -0.056039106 -0.06813531
000130 6f fa aa bd fc 5a fd bd 06 c4 bf bd 9f 5b 53 bd
       -0.08348548 -0.123708695 -0.093635604 -0.05160105
000140 47 37 7f bd 8e 5e 88 bd 23 55 61 bd b2 d0 ae bd
       -0.062308576 -0.0665866 -0.055012833 -0.08535899
000150 47 48 96 bd 5d 48 43 bd 06 d7 8b bd 10 ee f8 bb
       -0.073380046 -0.047676433 -0.06828122 -0.0075967386
000160 54 17 85 32 0e f6 36 bd 63 87 65 bd a9 8a 8b bd
       1.5493846e-08 -0.04466825 -0.056037318 -0.06813557
000170 b3 fa aa bd a4 5a fd bd 09 c4 bf bd 1a 5c 53 bd
       -0.08348598 -0.12370804 -0.093635626 -0.051601507
000180 22 38 7f bd 53 5f 88 bd 75 56 61 bd 1a d1 ae bd
       -0.06230939 -0.06658807 -0.055014092 -0.08535977
000190 da 47 96 bd 56 48 43 bd 03 d8 8b bd 47 ee f8 bb
       -0.07337923 -0.047676407 -0.0682831 -0.0075967642
0001a0 42 6e 84 32 6b f6 36 bd 45 89 65 bd 86 8a 8b bd
       1.5416962e-08 -0.044668596 -0.056039114 -0.068135306
0001b0 6e fa aa bd fd 5a fd bd 05 c4 bf bd a0 5b 53 bd
       -0.08348547 -0.1237087 -0.0936356 -0.051601052

fc2.bias f4 [7]
000000 f3 64 83 bf af aa 71 3f 72 bb 94 3e 99 27 c5 3c
       -1.0265182 0.9440107 0.2904926 0.024066733
000010 0c 86 82 bc 4c 86 82 bc 0b 86 82 bc
       -0.01593306 -0.015933178 -0.015933057
