model/classifier_20d.pt (torch, 3441 bytes, 4 tensors)

fc1.weight f4 [16, 20]
-0.022582678 0.034737602 0.07185571 -0.107593045 -0.22501074 -0.14245102 -0.1460644 0.06823998
0.090340205 -0.15847419 0.13810296 0.14934696 0.11416002 0.06243224 0.16919322 -0.22081855
-0.14175555 0.11275331 0.12940006 0.15725721 -0.029770404 0.0041415594 -0.025994493 -0.13952048
-0.18080106 0.060081366 -0.09841263 -0.15335955 -0.15046528 -0.16883224 0.06500587 -0.041524157
-0.10442893 0.22182776 0.16145298 0.1757921 0.07174334 -0.008269303 -0.13261163 -0.19049038
-0.1135624 -0.1297246 0.08953993 0.09209576 -0.12967935 0.2048435 -0.007747816 0.030597467
0.15116486 0.17651507 0.06743055 0.16498005 0.122197755 -0.09143055 -0.17272218 0.19751298
0.15199336 -0.090311006 0.19418 0.011645294 0.023481362 -0.036922548 -0.16293587 0.009893099
-0.09335129 0.20737025 -0.17898387 0.042896397 0.12522992 -0.039003916 -0.09868559 0.02097883
0.1416592 0.21405302 0.20432985 -0.11407173 0.15875421 0.2106971 -0.009584547 0.19544351
0.16918933 0.12602887 -0.010687573 0.028961765 0.06148564 -0.010542127 -0.057909824 -0.028154649
-0.06319209 0.21338415 0.050528955 -0.0768918 0.0076148235 -0.12524977 -0.16677283 0.04561965
0.2010522 0.11601874 0.18629247 -0.14192788 -0.18663222 -0.13187075 0.12424081 -0.18265156
0.12722102 0.0008839653 -0.020791031 -0.08299253 -0.0153107075 0.085305355 -0.14859502 -0.07798446
0.18320408 0.049430758 -0.027634017 0.111582085 -0.10166078 0.004861894 0.20497908 0.20445071
0.028623676 -0.09881079 0.15377387 -0.01731205 0.14729145 -0.19362473 0.064303875 0.1413582
0.12444499 0.06661722 0.2196426 -0.17910257 0.17020008 -0.20483884 -0.06596542 -0.00379751
-0.05809468 -0.16209762 0.19765112 -0.072562136 -0.048021406 0.15617557 -0.022540007 -0.12722915
0.17413816 -0.054719735 -0.036515858 0.19806911 0.2246638 0.1577464 0.16743729 0.16570336
-0.100670986 0.108092114 -0.09690894 0.057450082 0.17156821 0.15882072 -0.021749673 0.11175954
0.03538382 0.20971583 -0.031526953 -0.2082323 0.19978516 -0.0017117498 -0.098682836 0.17906804
0.014362026 -0.1135906 -0.21110979 0.11680666 0.07829079 -0.21418194 -0.08910544 -0.19733864
0.113461025 0.19603558 -0.03338325 -0.004341213 -0.14494878 0.12767544 -0.01474482 0.049617097
0.10340094 0.15380819 -0.05631772 0.20502153 0.12023369 0.15619838 0.10676525 -0.027886637
-0.097378194 -0.18873714 0.1227964 -0.18874843 0.13324964 0.11007841 0.14856037 0.104412034
0.053077616 0.04355341 -0.14126165 0.059606735 0.13141906 -0.15346761 0.21715657 0.0019317516
0.09314374 0.068982154 0.20952602 0.14791076 -0.13112512 0.18092714 0.12188253 -0.11207018
0.042652696 -0.15891266 -0.038759746 0.030111615 0.18326984 -0.13782038 -0.0670498 -0.13447498
-0.1195825 0.045751754 -0.22258188 -0.045812566 0.0391318 0.1784926 -0.06323266 0.1427961
-0.056410603 0.21364135 -0.09580287 0.101562165 0.1328995 0.16454002 0.1500848 -0.11300444
0.18732572 0.094653346 0.0008163045 -0.19664824 0.07105099 0.116358526 -0.19773681 -0.12262881
-0.18789275 0.10692871 0.13737288 0.060291942 -0.05737337 -0.014761525 0.024073506 0.025247289
00000000: 4fff b8bc 0449 0e3d 1629 933d be59 dcbd
00000010: 3769 66be aede 11be e891 15be 67c1 8b3d
00000020: 4904 b93d 0f47 22be dd6a 0d3e 69ee 183e
00000030: bbcc e93d f3b8 7f3d fd40 2d3e 421e 62be
00000040: 5e28 11be 35eb e63d 7381 043e 0908 213e
00000050: 10e1 f3bc ebb5 873b 67f2 d4bc 75de 0ebe
00000060: ea23 39be e117 763d 908c c9bd 490a 1dbe
00000070: 9213 1abe 5ce2 2cbe cc21 853d 3c15 2abd
00000080: d6de d5bd d126 633e ee53 253e d802 343e
00000090: 2cee 923d f87b 07bc 58cb 07be e90f 43be
000000a0: 6793 e8bd 87d6 04be b660 b73d b49c bc3d
000000b0: aaca 04be 7fc2 513e 64e1 fdbb 8aa7 fa3c
000000c0: f6ca 1a3e 5ec0 343e 0719 8a3d 88f0 283e
000000d0: d142 fa3d f13f bbbd 15de 30be d840 4a3e
000000e0: 26a4 1b3e faf4 b8bd 1fd7 463e e7cb 3e3c
000000f0: fc5b c03c 193c 17bd a9d8 26be aa16 223c
00000100: f62e bfbd de58 543e 8c47 37be 22b4 2f3d
00000110: 463c 003e 92c2 1fbd ac1b cabd ccdb ab3c
00000120: 1c0f 113e b730 5b3e d83b 513e 709e e9bd
00000130: 7790 223e fbc0 573e 8108 1dbc 5822 483e
00000140: f83f 2d3e b60d 013e ee1a 2fbc 3941 ed3c
00000150: 5ed8 7b3d e3b8 2cbc da32 6dbd 94a4 e6bc
00000160: db6a 81bd 6081 5a3e 73f7 4e3d 7379 9dbd
00000170: c585 f93b 7a41 00be 7fc6 2abe acdb 3a3d
00000180: a1e0 4d3e 3c9b ed3d 74c3 3e3e 8b55 11be
00000190: 841c 3fbe 2009 07be f771 fe3d 0309 3bbe
000001a0: 3a46 023e e8b9 673a f451 aabc fdf7 a9bd
000001b0: c3d9 7abc 93b4 ae3d 4b29 18be 51b6 9fbd
000001c0: da99 3b3e e877 4a3d bc60 e2bc 2685 e43d
000001d0: 8733 d0bd 8650 9f3b 09e6 513e 875b 513e
000001e0: 337c ea3c 505d cabd e676 1d3e 00d2 8dbc
000001f0: 92d3 163e 9045 46be c0b1 833d 34c0 103e
00000200: 04dd fe3d 9c6e 883d fde9 603e aa66 37be
00000210: ee48 2e3e 46c1 51be e118 87bd a5df 78bb
00000220: b0f4 6dbd ebfc 25be 0e65 4a3e 759b 94bd
00000230: 18b2 44bd 7dec 1f3e d2a5 b8bc 5c48 02be
00000240: 4651 323e cd21 60bd a791 15bd a1d2 4a3e
00000250: 440e 663e 4688 213e ae74 2b3e 24ae 293e
00000260: 972c cebd 665f dd3d 3278 c6bd c750 6b3d
00000270: 94af 2f3e e6a1 223e 5f2c b2bc 30e2 e43d
00000280: a0ee 103d bfbf 563e 6822 01bd d93a 55be
00000290: 7b94 4c3e cb5c e0ba 3a1a cabd 9d5d 373e
000002a0: b44e 6b3c 30a2 e8bd 2a2d 58be 5538 ef3d
000002b0: ec56 a03d 8352 5bbe ea7c b6bd 2413 4abe
000002c0: 415e e83d 8dbd 483e e0bc 08bd bc40 8ebb
000002d0: 746d 14be 5abd 023e 4294 71bc 4c3b 4b3d
000002e0: dfc3 d33d e57f 1d3e 69ad 66bd 2af1 513e
000002f0: 153d f63d 78f2 1f3e bda7 da3d 8472 e4bc
00000300: 386e c7bd 4f44 41be ae7c fb3d 4547 41be
00000310: 9872 083e ca70 e13d 3620 183e fad5 d53d
00000320: ea67 593d 0f65 323d e5a6 10be 3126 743d
00000330: b892 063e 9d26 1dbe 4b5e 5e3e d432 fd3a
00000340: 25c2 be3d 8446 8d3d fd8d 563e eb75 173e
00000350: aa45 06be f744 393e 8c9d f93d 0d85 e5bd
00000360: 98b4 2e3d 00ba 22be 8ac2 1ebd a2ac f63c
00000370: 17ab 3b3e c920 0dbe 6851 89bd cfb3 09be
00000380: abe7 f4bd 3166 3b3d 81ec 63be f5a5 3bbd
00000390: ab48 203d c4c6 363e 2080 81bd 2439 123e
000003a0: ce0e 67bd ccc4 5a3e 4c34 c4bd d3ff cf3d
000003b0: ce16 083e 2e7d 283e d4af 193e df6e e7bd
000003c0: 50d2 3f3e 9dd9 c13d 45fd 553a 285e 49be
000003d0: 2e83 913d 614d ee3d 857b 4abe d024 fbbd
000003e0: f566 40be 71fd da3d 7aab 0c3e aff4 763d
000003f0: 5700 6bbd 53da 71bc cd35 c53c 67d3 ce3c

fc1.bias f4 [16]
-0.082739115 0.00026219166 -0.2088749 0.060467962 0.08179851 0.051132023 -0.03787339 0.09416528
0.12859705 0.17482598 -0.08214681 -0.13040471 0.13770467 -0.18881741 -0.11723646 0.21641134
00000000: 2073 a9bd c576 8939 4de3 55be 41ad 773d
00000010: fa85 a73d d06f 513d 2121 1bbd bad9 c03d
00000020: f2ae 033e 9505 333e 963c a8bd d088 05be
00000030: 7402 0d3e 5a59 41be ab19 f0bd ef9a 5d3e

fc2.weight f4 [7, 16]
-0.05696752 -0.030142883 -0.14831695 -0.22336563 0.2464496 -0.22520478 -0.15942632 -0.22576082
0.2138192 0.14997508 0.21882467 0.038301438 0.055065483 0.18311417 0.24801083 -0.17097257
0.21892098 0.010693378 0.22461475 0.0047446387 0.05701738 0.21477951 0.041668557 0.17765534
-0.0064381436 0.21215084 0.037920754 -0.142804 -0.12229442 -0.17614873 -0.18705067 -0.016921816
-0.034994923 0.018984744 -0.2247776 -0.044590544 -0.051896937 -0.2042741 -0.25179428 0.10719548
0.19500735 -0.120378405 0.094583586 0.11649645 -0.14922918 -0.24946082 -0.16524002 -0.189614
0.00021863153 -0.111790024 0.19495593 -0.21517922 -0.19827333 0.22299582 0.09645288 -0.23966564
0.004812941 -0.017345374 0.10075365 -0.08851293 0.00016129781 0.19872992 0.07768985 0.086198986
-0.09307721 -0.24796107 -0.23057258 -0.043359265 -0.19227943 -0.024206316 0.23499765 -0.20644727
0.053077597 -0.16250479 0.11113884 0.04850107 0.09168738 0.14189103 0.24082126 -0.089820765
-0.15397021 -0.22133392 0.08414822 -0.18768798 0.18517727 0.033692673 0.08916367 0.21971601
-0.10288045 0.16471608 0.091275565 -0.17680427 -0.25427938 -0.05905026 0.15624659 0.055638436
0.024310663 0.14387706 0.16109024 0.06952461 -0.073496684 -0.21853967 -0.11344784 0.20571604
-0.1601869 -0.24837099 0.06670104 0.15316553 0.008022449 -0.204384 -0.056018304 -0.036561687
00000000: c656 69bd 35ee f6bc 66e0 17be f6b9 64be
00000010: 495d 7c3e 159c 66be a740 23be d82d 67be
00000020: 6cf3 5a3e 1193 193e 9313 603e f8e1 1c3d
00000030: 588c 613d 4882 3b3e 8df6 7d3e 6f13 2fbe
00000040: d22c 603e 4733 2f3c 6901 663e ea78 9b3b
00000050: 0e8b 693d 29ef 5b3e a6ac 2a3d 48eb 353e
00000060: 10f7 d2bb 123e 593e cb52 1b3d 363b 12be
00000070: 7f75 fabd 5560 34be 368a 3fbe 9f9f 8abc
00000080: d656 0fbd e585 9b3c 192c 66be 93a4 36bd
00000090: e291 54bd 3b2d 51be 2eeb 80be 4e89 db3d
000000a0: 02b0 473e f488 f6bd 0ab5 c13d b195 ee3d
000000b0: 89cf 18be a872 7fbe ae34 29be 2c2a 42be
000000c0: 7440 6539 2bf2 e4bd 87a2 473e f157 5cbe
000000d0: 2a08 4bbe 0459 643e 1689 c53d e96a 75be
000000e0: e0b5 9d3b e317 8ebc ee57 ce3d 4446 b5bd
000000f0: 0d22 2939 db7f 4b3e db1b 9f3d 1889 b03d
00000100: 449f bebd 82e9 7dbe 381b 6cbe 7c99 31bd
00000110: e6e4 44be 534c c6bc 39a3 703e ea66 53be
00000120: e567 593d a867 26be c39c e33d 0fa9 463d
00000130: 98c6 bb3d e24b 113e d999 763e f3f3 b7bd
00000140: 5eaa 1dbe 5ca5 62be e755 ac3d 4731 40be
00000150: 1c9f 3d3e 5401 0a3d 719b b63d 3cfd 603e
00000160: fcb2 d2bd 55ab 283e afee ba3d 2e0c 35be
00000170: e830 82be afde 71bd 1bff 1f3e 21e5 633d
00000180: 2827 c73c 8254 133e d7f4 243e eb62 8e3d
00000190: 6e85 96bd ddc8 5fbe 5757 e8bd 3aa7 523e
000001a0: 0908 24be f754 7ebe 8e9a 883d 6dd7 1c3e
000001b0: 9770 033c 0a4a 51be 7373 65bd b5c1 15bd

fc2.bias f4 [7]
0.1765843 0.05698769 -0.06452463 -0.045964837 0.11320456 0.18654394 0.004774849
00000000: 84d2 343e ed6b 693d 7d25 84bd a045 3cbd
00000010: cbd7 e73d 6005 3f3e 5676 9c3b
