model/classifier_16d.pt (torch, 3185 bytes, 4 tensors)

fc1.weight f4 [16, 16]
00000000: 9d7c 113e 0ead da3e 6c25 333e ef24 0b3f
00000010: 43d3 573e c1d4 f63e d232 c53e 6591 b13c
00000020: 3f5b 793e 6100 c63e 2889 11be 1ba6 533e
00000030: b4ef fb3e 4850 f53d 1d8e c73e 7aa5 d1bd
00000040: 589d f1be caf0 c43d bc64 02bf 884f 2e3f
00000050: d380 1abf 18e9 013e 484a 9bbd 8632 25bf
00000060: d480 18be de21 b6be 9f24 a3bf 8a3e 1c3c
00000070: 1732 04be 3951 53bf 3eae df3e 3e46 65be
00000080: 49a9 4abe 3510 8ebe 7d0e ad3e 3a92 04bf
00000090: 0480 f03e c7b5 d93d 7e1a bc3e 3002 43be
000000a0: 9d30 96bd ac96 c3be 1a61 19bf 78a7 a13d
000000b0: ed01 07bf 7f72 b03e 9669 b93d f0b3 d33e
000000c0: f164 373d 9161 a03e 1caa b5bd 9904 9fbe
000000d0: 80f8 073f 5ff5 903e d3e5 de3e d49e c0be
000000e0: fd23 39be c980 5a3c c19e 8fbf 8fa2 963e
000000f0: 882d 58bd f94e 833e 1ff8 7b3e 8b90 e63c
00000100: 1ee3 6f3d 39d9 a13e a46b fbbe 06ab fcbe
00000110: 89a3 69bd 7e23 f5be 82c9 ea3e 30be 75be
00000120: 8dbc fc3d 31d5 12be 0e03 cebb 4504 a7bd
00000130: 53e0 093e 2086 24bd 4aa2 c6be add0 f5be
00000140: 2ba1 6e3f c53b 2abe 4612 fb3c d879 623e
00000150: a585 383f 2916 7bbd c506 b83e ea99 85be
00000160: 4a7c dabc ab14 093e d3a2 663f cff4 36be
00000170: 387b 23be 6c62 d0bd 8fe8 64bd ba93 be3e
00000180: c933 81bf c2ea bebe 3293 efbc 0d5c d83e
00000190: 4da6 bcbe 8eb9 303f 620f 283e 4446 09bf
000001a0: 6e6f 8a3e e545 fabe 3a06 27bf 7ed1 70bf
000001b0: d542 4dbe 902d c7be e9a2 1d3e 598f d0be
000001c0: 6462 2d3f ff12 02bd 88d1 fdbe 95f4 1e3f
000001d0: 813a 2b3f 5342 0abe 85a2 053e e0b7 48be
000001e0: 3cf3 51be 2355 44bd f27e f23e d55e d03d
000001f0: 8b8c c5be a500 e83e 0447 bdbb deda ce3d
00000200: 2e45 bc3d eb91 a5be 4f0f dc3c 1fe9 58bc
00000210: f268 f63e 5e6c 36be 84ff 4bbf d682 d63d
00000220: 7327 633e f671 4ebd dbd5 29be 9b69 ab3e
00000230: 82dc 75be abf5 54be cca1 6a3c 24a7 5cbe
00000240: 61b2 71bb 9863 b83d 1f1f 013f be2f 1fbe
00000250: 297c 333f f849 64be 5c24 363e 519c 5dbe
00000260: 8fb3 8fbe bd36 443e f79d 02be 2851 17bf
00000270: 08b5 7fbe 6de8 383f e33f 80be 9a40 19be
00000280: dca9 773f b6af 043d b492 adbd c014 de3c
00000290: 33e5 b63e ae94 d93d a8ae 103f cae3 4dbd
000002a0: 6b85 b4be 60c7 a6bc 3d17 153f a88d bebe
000002b0: c89a 9dbe d756 35bf 69b9 d53d 6724 d03e
000002c0: 82cd 253f 0049 e93e 04ca afbd d7ec 83be
000002d0: e24d 523d 7447 e8be cfa0 013f 7eb1 2b3f
000002e0: 8da2 88be 3488 22be c134 1c3f f02a bdbd
000002f0: e7ff cdbe b009 e43d 3db8 c7be 6a93 aebe
00000300: 1c65 eebe e03a cfbe 347b 8dbd e641 9e3d
00000310: bd57 a1be 3f0f d13e 180e 063d 59b8 fbbe
00000320: 3280 2a3e 4a29 ebbe 613b 2ebf afe1 fabe
00000330: 3cef e5bd bd07 dbbe 0319 2a3d 7509 12bf
00000340: 1823 2d3e f7a1 8ebe e36e afbd c16b da3e
00000350: bbdc 5d3e 5fbe b43c 0f92 89bd 3711 303e
00000360: 9736 273f ef9b 01bc f2fb fc3e 6382 59bf
00000370: 793e 293e 64c8 50bf 383f 07bd fb77 66bf
00000380: bc29 1a3f 3c72 9cbd 23e3 39be aefe 923d
00000390: 3a4d 9f3f 8bef d03c 0f59 d53e d176 4fbe
000003a0: 166f f6be 6767 6cbe 056b 2d3d 61f9 803d
000003b0: ad5e 07bf d4df 543e 8670 d23d 3571 173d
000003c0: 2d7b 063b f658 503d 658f cdbc 0fd2 0bbf
000003d0: 97e8 363f d76d 9c3e c21f 593e 65ed 003f
000003e0: 0cd5 223f 4d0c c0bd bf37 4dbe 88c3 343f
000003f0: 12ad 8ebe 8866 923d 11aa 46bd a6c3 27bf
0.14207692 0.42710155 0.17494744 0.5435323 0.21076684 0.48209193 0.38515335 0.021675775
0.24351214 0.38672164 -0.14212477 0.20668833 0.49206316 0.11978203 0.3897561 -0.1023664
-0.47190356 0.09616239 -0.5093496 0.68090105 -0.6035282 0.12686574 -0.075825274 -0.6453022
-0.14892894 -0.35572714 -1.2745551 0.009536395 -0.12909733 -0.8254581 0.43687624 -0.22390077
-0.1979114 -0.2774674 0.33800116 -0.51785624 0.46972668 0.106303744 0.36738962 -0.19043803
-0.07333491 -0.3820089 -0.5991379 0.0789327 -0.52737314 0.34462354 0.09053342 0.4134822
0.044774 0.31324437 -0.088703364 -0.31058195 0.53113556 0.28312203 0.43534717 -0.37621176
-0.18080135 0.013336369 -1.1220323 0.29420897 -0.052777797 0.2564619 0.2460637 0.028145095
0.058566205 0.3161104 -0.4910556 -0.4934923 -0.057040725 -0.4787864 0.45856863 -0.23998332
0.12340651 -0.14339139 -0.0062869852 -0.08155111 0.13464479 -0.040166974 -0.38795692 -0.4801077
0.9321467 -0.16624363 0.030648362 0.22116792 0.72078925 -0.06130043 0.35942665 -0.2609399
-0.026670594 0.1338679 0.900922 -0.17866825 -0.15964973 -0.101750225 -0.055885848 0.3722208
-1.0093929 -0.3728848 -0.029244993 0.4225773 -0.36845627 0.69033134 0.16412118 -0.5362284
0.2703814 -0.4888145 -0.65243876 -0.9406966 -0.20045026 -0.3890195 0.15394177 -0.40734366
0.6772826 -0.031756397 -0.49573922 0.6209195 0.66886145 -0.13501863 0.13050278 -0.19601393
-0.20502943 -0.047932755 0.47362477 0.10174338 -0.38583788 0.45312992 -0.005776288 0.10100339
0.091928825 -0.3233789 0.026862768 -0.013239174 0.48126942 -0.17814776 -0.7968676 0.10474174
0.22183017 -0.05040165 -0.16585486 0.33479008 -0.24009898 -0.2079684 0.014320802 -0.21548134
-0.0036880004 0.09003371 0.5043811 -0.15545556 0.7011133 -0.22293842 0.17787308 -0.21641661
-0.2806668 0.19161506 -0.12755571 -0.5910821 -0.24971402 0.72229654 -0.25048742 -0.1496605
0.9674356 0.032394134 -0.08475247 0.027109504 0.3572174 0.106240615 0.56516504 -0.050266065
-0.3525804 -0.020358741 0.58238584 -0.3721745 -0.3078215 -0.7083563 0.10435755 0.40652773
0.64766705 0.45563507 -0.08583453 -0.25766632 0.051343806 -0.45367014 0.50636 0.67067707
-0.26686516 -0.1587227 0.61017996 -0.09236705 -0.402343 0.1113466 -0.3900775 -0.34096843
-0.46561515 -0.40474606 -0.06908265 0.07727413 -0.31512251 0.40831944 0.032728285 -0.49164084
0.16650465 -0.4592994 -0.68059355 -0.49000308 -0.11227271 -0.4277934 0.04152776 -0.5704568
0.16907918 -0.27857944 -0.08566072 0.42660335 0.21666233 0.022063432 -0.067173116 0.17194067
0.6531767 -0.007910713 0.4941097 -0.8496458 0.16527738 -0.8155577 -0.033019274 -0.90026826
0.6021993 -0.07638976 -0.18153052 0.071774825 1.2445443 0.025504848 0.4166951 -0.20260169
-0.48131627 -0.2308632 0.04233839 0.06297565 -0.5287884 0.20788509 0.102753684 0.036973197
0.0020520196 0.05086609 -0.02509279 -0.546174 0.71448654 0.3055255 0.21203521 0.50362235
0.63606334 -0.09377346 -0.20040797 0.70610857 -0.27866417 0.071484625 -0.04850203 -0.6553291

fc1.bias f4 [16]
00000000: 86a0 c63f 81b5 aebe 2af8 c83c 2edf d3bf
00000010: d622 963f cc5d 983e b1d1 433e e47f 0a3e
00000020: ffdd e33f 27cb 933f 8488 f23f d760 323f
00000030: 633f 0d3f 899d a8bf ae94 9dbf b6d2 123d
1.5517738 -0.34122851 0.024532396 -1.6552484 1.1729381 0.2975906 0.1912296 0.13525349
1.7802123 1.1546372 1.8947911 0.69679016 0.55174845 -1.3173076 -1.2310998 0.03584548

fc2.weight f4 [7, 16]
00000000: 4481 1abf 877c 5abf a28a 3fbe 1173 c53e
00000010: 5f06 4cbf 3eea 493f 5523 ebbf 5685 b43e
00000020: a6cd 83bf aeeb 9f3e 6b3c b73e 5ae8 553f
00000030: 0467 a5bf 56dd 5c3f 7462 b13b c423 9f3e
00000040: 2c7e afbf ce85 003f c127 1f3f ad6f 3d3f
00000050: d4af 5ebf 3082 7cbf 635a 143e 9011 0ebe
00000060: cd13 bcbf ca81 b9bf 95b5 eabe 30d9 07c0
00000070: 246e d33e c4df 0e40 be2e 403e 0153 59bf
00000080: fdc4 dbbb 7ccb babd 4c52 88bd 4e55 1fbd
00000090: e85e 5fbc 79ac 4abd 83dd 92bd 2bce 9fbd
000000a0: ce0c 44bc 87f1 10bc 7032 cdbd 454d ebbc
000000b0: 4e5e 76bd 50c8 ffbb ad0e e5bd 5e01 68bc
000000c0: 899d 09be f0f3 0c3f 1ee6 78be e7e3 a83d
000000d0: d0f5 143e 9509 02ba 690d 603f 63da fdbf
000000e0: 2b9f 31bd a860 123f 43dd eebf f99c 4db3
000000f0: 1c0d 253f d605 09bf 6916 85bf 092c 013f
00000100: ddc1 6bbe c9c1 133d 9269 0ebe 122d a9bd
00000110: 3924 20bf ebc6 383e aa6b fabb 502e c33e
00000120: 2ef8 9abe 5514 b63d 5d07 4c3d ed76 ca3b
00000130: e535 5f3d 1616 e2be 7eb6 e83d 881d 823d
00000140: d47c fb3c 2871 103f a4e3 bbbe a8ef 19bf
00000150: 3f53 4c3d 375b 21bf c511 0c3e a5f7 3cbd
00000160: 574e 523e 3725 b43f cda2 153f 80d5 eabf
00000170: 5904 dd3e cf8a a6bf fa06 f2be 6c30 a83f
00000180: 91e5 fa3f e3ae 40bf 2b6c b03e 45fc f9be
00000190: 3c74 ac3f f090 513d 49b4 cabe fd12 793d
000001a0: 20ab cd3f 1da4 6e3e 7989 da3e 8c0a 383f
000001b0: 58ef 443d 521b e1bf e20c 06be bf4d bbbf
-0.60353494 -0.85346264 -0.18705228 0.3856435 -0.7969722 0.7887305 -1.8370157 0.35257977
-1.0297134 0.31234497 0.35788283 0.83557665 -1.2922063 0.8627523 0.005413348 0.31081975
-1.371038 0.5020417 0.62170035 0.7399853 -0.8698704 -0.9863615 0.14487605 -0.13873887
-1.4693543 -1.4492733 -0.4584166 -2.122631 0.41294968 2.2324076 0.1876783 -0.8489228
-0.0067068324 -0.09120843 -0.06656322 -0.038899712 -0.013633467 -0.04948089 -0.07171156 -0.07802995
-0.0119659435 -0.008846647 -0.10019386 -0.028723368 -0.06014853 -0.0078058615 -0.1118444 -0.014160482
-0.13439001 0.5505972 -0.24306533 0.08246594 0.14546895 -0.0004960534 0.8752046 -1.9832271
-0.043364685 0.57178736 -1.8661274 -4.7873048e-08 0.6447313 -0.5352453 -1.0397464 0.5045782
-0.23023172 0.03607348 -0.1390746 -0.082605496 -0.6255527 0.18044631 -0.007642229 0.3812127
-0.3026747 0.08890597 0.04981171 0.006178728 0.054494757 -0.44157475 0.113629326 0.06353289
0.030699171 0.5642266 -0.36697114 -0.6013131 0.049884077 -0.6302981 0.13678654 -0.04613461
0.20537697 1.4073857 0.5845154 -1.8346405 0.4316738 -1.3011111 -0.47270948 1.3139777
1.9601308 -0.75266856 0.34457526 -0.4882528 1.3472972 0.051163614 -0.39590672 0.060809124
1.6067848 0.23304792 0.42683008 0.71891093 0.04807982 -1.7586462 -0.13090852 -1.4633101

fc2.bias f4 [7]
00000000: 97a3 c7be 56a8 4bbf 7d8d e8bb 8a88 85be
00000010: 2f31 88bf cc15 6b3f 959c dc3f
-0.38991997 -0.79553735 -0.007096945 -0.26080734 -1.064001 0.91830134 1.7235285
