model/classifier_20d.pt (torch, 3441 bytes, 4 tensors)

fc1.weight f4 [16, 20]
-0.1743619 -0.0433941 0.4714324 -0.121153675 0.49703896 -0.14912617 -0.055832937 -0.23459654
0.16916575 0.008707309 -0.019959744 0.036177836 0.30951393 -0.7346105 -0.2000749 0.030566527
0.47655708 0.10831057 -0.38681594 0.14176078 0.16718884 -0.13437948 0.15851445 -0.037278228
0.0061321687 -0.13046075 -0.5784859 -0.5687696 0.084508404 -0.21877383 -0.36240348 0.14329876
0.7713601 -0.027611956 0.2575194 -0.15899034 0.12758502 -0.22744119 -0.7221852 0.022533724
0.025036477 0.07581685 -0.06472825 -0.28711516 -0.09693831 0.067207925 -0.57142687 -0.3006569
0.019313224 -0.04225069 -0.31681916 0.11656753 0.4608359 -0.26253724 -0.06297017 0.2306168
0.05831643 -0.3223047 -0.520291 0.10216019 0.09931058 -0.17144486 -0.16188914 -0.05695771
-0.30627695 0.011825136 -0.44992837 -0.0572801 -0.281241 -0.30794024 -0.2884227 0.055419676
0.6319786 0.043510772 0.057304356 0.22281103 -0.009440763 -0.17443906 -0.41115567 0.011204602
-0.13114409 0.25340134 0.56233484 0.09110315 0.73252475 -0.3109029 0.23964207 0.45989826
0.0015851834 1.0023357 -0.24820262 -0.26878777 0.47306892 -0.35964766 -0.3934303 0.5097263
-0.025369175 0.046754967 0.32207474 0.33657172 -0.018356606 -0.2714883 0.41315028 -0.1599581
-0.5537486 -0.4661279 0.28645983 0.11922498 -0.09502193 0.197346 0.050975926 0.08443423
-0.3368013 -0.45276558 0.13980566 -0.20012942 -0.006611269 -0.77603203 0.14774959 -0.107143864
0.03676003 -0.09831092 -0.2484136 -0.10339501 -0.4795903 0.15659654 -0.3088126 -0.34818634
-0.25961915 -0.23026468 -0.03744233 -0.19125691 0.2291892 -0.18899292 0.2557813 0.15588544
0.24421057 -0.21704784 -0.5723545 -0.19642282 0.04166531 0.15756632 0.0021327734 -0.1795954
0.2658064 0.09382902 -0.4131377 -0.12949708 0.031163368 0.11387791 -0.21534336 -0.008940658
0.44112754 0.03607065 0.019604595 0.24202748 0.22671917 0.13128592 -0.23183547 0.021969048
0.49308315 0.5168461 -0.070928015 -0.13527232 -0.69685 -0.52827954 -0.01084208 0.3868243
-0.45018634 -0.19240029 0.15348032 -0.15369919 -0.629459 0.15039727 0.2611274 0.34522188
0.16499628 -0.67994523 0.17046583 -0.5629378 0.11031725 0.14243786 0.02860598 0.065018475
-0.21119095 -0.28151944 0.1183652 0.49113458 -0.15685858 -0.06643198 0.1211544 -0.1566091
-0.63457274 0.3622741 -0.046505786 0.14193682 -0.27172917 -0.13020502 0.46395698 -0.15352146
-0.05421367 0.16984417 -0.5229949 0.25759205 -0.4558132 -0.017797355 -0.1814748 -0.08474057
-0.16065189 0.47884747 -0.37325218 0.13430575 0.6089967 0.6821898 -0.02022305 0.21552105
-0.54630554 -0.23991492 0.5263032 0.03395364 0.18502629 0.6494666 -0.18003985 -0.41071704
-0.1747754 -0.019176073 0.07748396 0.42300856 -0.058994982 -0.7071035 0.120009124 -0.25625065
-0.33041182 0.09206316 0.43202105 0.50565225 0.31365082 -0.39863837 -0.12336799 -0.38250187
5.05721e-33 1.3654119e-32 5.659853e-34 -2.3312725e-33 5.9083285e-34 -1.1848276e-34 -3.210271e-32 -6.9187462e-34
-3.055146e-34 2.6662655e-34 -6.538407e-34 -1.6885978e-33 -1.51400045e-33 -2.1556665e-34 -3.131555e-34 -5.06278e-27
00000000: ed8b 32be 03be 31bd 965f f13e 6b1f f8bd
00000010: e47b fe3e 88b4 18be 14b1 64bd 133a 70be
00000020: c939 2d3e 1aa9 0e3c 9e82 a3bc 362f 143d
00000030: 9c78 9e3e 6f0f 3cbf 6fe0 4cbe a766 fa3c
00000040: 4aff f33e efd1 dd3d bd0c c6be bd29 113e
00000050: 8d33 2b3e c69a 09be 9d51 223e 0eb1 18bd
00000060: 5cf0 c83b 8197 05be a717 14bf e29a 11bf
00000070: be12 ad3d 3f06 60be f38c b9be e9bc 123e
00000080: db77 453f 7832 e2bc 95d9 833e 5dce 22be
00000090: a6a5 023e 58e6 68be 21e1 38bf a598 b83c
000000a0: 4c19 cd3c dd45 9b3d 3f90 84bd c200 93be
000000b0: 9887 c6bd 4fa4 893d 0849 12bf b4ef 99be
000000c0: c436 9e3c 0f0f 2dbd 1f36 a2be f5ba ee3d
000000d0: aff2 eb3e 486b 86be 81f6 80bd cf26 6c3e
000000e0: 35dd 6e3d 1f05 a5be ca31 05bf 5d39 d13d
000000f0: 5863 cb3d 3e8f 2fbe 44c6 25be 7d4c 69bd
00000100: 55d0 9cbe 37be 413c 035d e6be 8a9e 6abd
00000110: d2fe 8fbe 58aa 9dbe 24ac 93be beff 623d
00000120: 59c9 213f 5a38 323d f9b7 6a3d 9328 643e
00000130: 6ead 1abc 27a0 32be ff82 d2be 8293 373c
00000140: a34a 06be d2bd 813e 2df5 0f3f 4a94 ba3d
00000150: be86 3b3f aa2e 9fbe bb64 753e c977 eb3e
00000160: eec5 cf3a 894c 803f d428 7ebe 8d9e 89be
00000170: 1736 f23e bd23 b8be b26f c9be 6c7d 023f
00000180: 04d3 cfbc 2382 3f3d fbe6 a43e 2153 ac3e
00000190: 9860 96bc 8400 8bbe 6f88 d33e 0ecc 23be
000001a0: 78c2 0dbf 51a8 eebe ddaa 923e 3a2c f43d
000001b0: dc9a c2bd 1215 4a3e 22cc 503d dbeb ac3d
000001c0: 3871 acbe e4d0 e7be 3729 0f3e baee 4cbe
000001d0: 58a3 d8bb 09aa 46bf ab4b 173e 3e6e dbbd
000001e0: af91 163d 3c57 c9bd 2260 7ebe c3c0 d3bd
000001f0: dc8c f5be d85a 203e af1c 9ebe 7b45 b2be
00000200: cdec 84be 81ca 6bbe 215d 19bd dad8 43be
00000210: 93b0 6a3e 5c87 41be c4f5 823e 6fa0 1f3e
00000220: 5612 7a3e ca41 5ebe d385 12bf 1023 49be
00000230: 3ea9 2a3d 1159 213e 00c6 0b3b dbe7 37be
00000240: c717 883e 6e29 c03d c986 d3be e29a 04be
00000250: 524a ff3c d238 e93d f882 5cbe d67b 12bc
00000260: 78db e13e d1be 133d d199 a03c 0dd6 773e
00000270: 1229 683e d16f 063e 4766 6dbe 6ff8 b33c
00000280: 6575 fc3e 0750 043f b542 91bd d484 0abe
00000290: c364 32bf 543d 07bf fba2 31bc d60d c63e
000002a0: d37e e6be 9504 45be f229 1d3e 5263 1dbe
000002b0: 3a24 21bf be01 1a3e 7eb2 853e ecc0 b03e
000002c0: c9f4 283e e410 2ebf 988e 2e3e b11c 10bf
000002d0: 03ee e13d 3bdb 113e 1757 ea3c 6828 853d
000002e0: 7142 58be 5123 90be 7469 f23d fe75 fb3e
000002f0: 899f 20be 7d0d 88bd cc1f f83d 235e 20be
00000300: 5c73 22bf fe7b b93e da7c 3ebd e357 113e
00000310: 1620 8bbe 7754 05be c58b ed3e bb34 1dbe
00000320: 270f 5ebd a1eb 2d3e fee2 05bf 1be3 833e
00000330: 5960 e9be c2cb 91bc 88d4 39be 778c adbd
00000340: ee81 24be 7f2b f53e e91a bfbe 7287 093e
00000350: 35e7 1b3f fea3 2e3f cfaa a5bc 8db1 5c3e
00000360: aeda 0bbf 42ac 75be cebb 063f f912 0b3d
00000370: 8877 3d3e 7143 263f 5e5c 38be 8149 d2be
00000380: 53f8 32be 2417 9dbc e9af 9e3d 9494 d83e
00000390: b9a4 71bd bc04 35bf 58c7 f53d 4933 83be
000003a0: bd2b a9be 9c8b bc3d dd31 dd3e 6d72 013f
000003b0: d796 a03e 541a ccbe 5ba8 fcbd 49d7 c3be
000003c0: 7b11 d209 e0ca 8d0a b414 3c08 afac 4189
000003d0: 8056 4408 987d 1d87 d2af 268b 2fea 6588
000003e0: 9e0c cb87 2834 b107 9e46 5988 8148 0c89
000003f0: 758e fb88 c444 8f87 a620 d087 b08e c893

fc1.bias f4 [16]
0.7021986 -0.1440114 0.7475739 -0.062858656 0.2120645 -0.42388734 -0.36757952 1.5977141
-0.6256479 -0.009606815 0.38640884 -0.513553 -9.5621e-36 0.5520679 1.2167846 0.81439006
00000000: 4ac3 333f b977 13be 0161 3f3f 0abc 80bd
00000010: 7027 593e c307 d9be 6233 bcbe e581 cc3f
00000020: 762a 20bf e765 1dbc 61d7 c53e 3678 03bf
00000030: 065d 4b85 5254 0d3f 99bf 9b3f de7b 503f

fc2.weight f4 [7, 16]
-0.076948084 -0.78610855 -0.3988364 -0.13917696 -1.0432837 0.40169373 0.085506335 -0.9918051
0.3766723 0.5225724 0.58360255 0.28452167 1.0034961e-28 -1.4912522e-05 -0.879054 0.1321105
-1.0393698 0.66923577 0.40284654 0.46446416 1.3584918 -1.6180042 0.35222283 0.06211174
0.029038921 -0.5898582 -1.4908801 0.13089772 -8.751095e-16 -2.6085005 -0.121561676 0.053030454
0.18601446 0.42009306 0.24417372 0.40543354 0.7785024 -0.24843031 0.06237119 0.36811036
-2.4636679 -2.123008e-06 -0.37647197 -0.78395844 -5.58572e-40 1.4621379 0.2944481 -0.84825385
0.41270342 0.22368906 0.38559428 0.24867448 0.36154947 -0.23235522 0.077963576 0.4479105
-1.0168056 -0.35306892 0.44683206 -0.11393112 -2.0164449e-23 -0.15084335 0.35450077 0.07602967
-0.024851253 -0.025828512 -0.059084006 -0.036353193 -0.027192652 -0.006383109 -0.035212416 -0.057959776
-0.060218148 -0.010451218 -0.011016966 -0.08020478 6.763e-41 -0.01439329 -0.027720232 -0.0814341
0.4509822 -0.5004016 0.0008163803 -0.27775902 -1.5426557 0.6995118 -0.114310354 0.20920311
0.069783375 0.29524025 0.8291693 0.030489724 -8.144119e-16 -1.7217364 0.38692182 0.45001647
-0.02478305 -0.0257299 -0.05904032 -0.036315337 -0.0271589 -0.006375535 -0.03523964 -0.057882957
-0.06053675 -0.010577324 -0.01095207 -0.080510624 3.58982e-40 -0.014342542 -0.02763311 -0.08167554
00000000: f596 9dbd 693e 49bf 4934 ccbe 6884 0ebe
00000010: 528a 85bf cdaa cd3e f21d af3d f0e6 7dbf
00000020: 31db c03e 4ec7 053f fa66 153f d3ac 913e
00000030: 9f6a fe10 cb30 7ab7 af09 61bf fa47 073e
00000040: 120a 85bf 0953 2b3f e741 ce3e 3fce ed3e
00000050: 0fe3 ad3f c31a cfbf 8d56 b43e e168 7e3d
00000060: 08e3 ed3c f200 17bf 29d5 bebf 0d0a 063e
00000070: af3b 7ca6 acf1 26c0 54f5 f8bd 7636 593d
00000080: 937a 3e3e 7016 d73e ad08 7a3e fc94 cf3e
00000090: ef4b 473f 8464 7ebe ef78 7f3d f678 bc3e
000000a0: bcac 1dc0 0079 0eb6 efc0 c0be 80b1 48bf
000000b0: 1215 0680 5627 bb3f e7c1 963e 2a27 59bf
000000c0: dd4d d33e bf0e 653e 9d6c c53e 86a4 7e3e
000000d0: 031d b93e 87ee 6dbe 5eab 9f3d 8654 e53e
000000e0: b026 82bf 73c5 b4be 2cc7 e43e b854 e9bd
000000f0: c204 c399 ae76 1abe 2081 b53e 72b5 9b3d
00000100: db94 cbbc 5196 d3bc 1202 72bd 16e7 14bd
00000110: 20c3 debc 6629 d1bb e53a 10bd 3b67 6dbd
00000120: 4ea7 76bd 963b 2bbc 8180 34bc 6742 a4bd
00000130: 86bc 0000 d5d1 6bbc 8a15 e3bc ecc6 a6bd
00000140: 24e7 e63e 521a 00bf 5b02 563a 6e36 8ebe
00000150: be75 c5bf 3513 333f 8c1b eabd 5739 563e
00000160: 96ea 8e3d bb29 973e 7044 543f 96c5 f93c
00000170: febc 6aa6 dc61 dcbf 9e1a c63e 8f68 e63e
00000180: d305 cbbc 83c7 d2bc 43d4 71bd 64bf 14bd
00000190: 577c debc dde9 d0bb 7157 10bd ae16 6dbd
000001a0: 62f5 77bd 834c 2dbc 5070 33bc c1e2 a4bd
000001b0: b2e8 0300 fbfc 6abc d55e e2bc 8145 a7bd

fc2.bias f4 [7]
-1.0798837 -0.4048897 -0.24571131 1.1150494 -0.008816846 0.7853829 -0.008812616
00000000: a139 8abf b44d cfbe bf9b 7bbe f0b9 8e3f
00000010: 8874 10bc db0e 493f ca62 10bc
