model/decoder_8d.pt (torch, 454633 bytes, 17 tensors)

fc1.weight f4 [128, 8]
2.704268e-05 -0.07480124 0.3613106 -0.07057072 -0.08388391 0.040935963 0.230896 -0.17064382
0.0471294 -0.12858514 -0.3272066 0.12015027 -0.27734235 0.0033315297 0.2686901 -0.121476084
0.28979254 0.25460064 0.59715706 0.31824607 0.06962024 -0.117817976 0.044870302 0.20333456
0.034120563 -0.03903426 -0.035061415 -0.11998729 0.25793535 0.07280459 -0.049336128 0.031635806
0.13882227 0.5272732 -0.1544811 0.063887596 0.17498532 -0.6110434 -0.17902869 -0.23883271
0.2622571 0.09677589 0.16917668 0.27036837 -0.25870255 0.097943485 0.11169212 0.28918472
0.01684029 -0.05627156 0.026789544 0.2017945 -0.16916744 0.011375433 0.20907895 0.042148508
-0.0627612 -0.003224117 0.12161769 0.10804552 -0.1030559 0.17078266 -0.05787342 0.054003146
0.08733593 -0.11095534 0.1711408 -0.051977746 -0.026021399 0.047685917 0.038712505 -0.065389104
0.009459161 0.11109334 0.21228275 0.051250946 0.1535276 0.31224447 0.15062757 0.0035542229
0.21160163 -0.2616337 -0.21626386 0.08687168 -0.2812287 -0.13874511 0.24572298 -0.1139775
-0.12713464 -0.06106491 0.68697166 0.34565187 0.1041202 0.037149034 -0.09452786 -0.11725896
-0.08770761 -0.10371646 -0.09745181 -0.15812424 -0.13651402 -0.24991213 -0.11231634 0.07820508
-0.007260217 -0.10263976 0.13671176 0.15700045 -0.11301844 -0.13082257 -0.12671018 0.05108693
0.10957939 -0.20777988 -0.14761046 -0.226627 0.015880344 0.1859292 -0.17287911 -0.20787077
0.105596475 -0.20893346 0.09639203 0.1080924 -0.003464301 -0.08994233 0.04722686 0.062369104
0.07699781 0.2760366 0.20870976 -0.25369498 -0.2262822 0.0889022 -0.17444749 0.12859745
0.21262018 0.04997745 -0.34062922 -0.025429528 0.21718085 -0.112483844 -0.082734704 0.011789801
0.09116698 -0.052359495 0.07075284 0.020685036 0.112371966 -0.014611789 -0.15817076 -0.022006067
-0.43813604 0.12831591 0.22625534 0.1522989 -0.27124622 -0.33656064 -0.10463505 0.18431006
0.03445668 -0.055912264 -0.069577426 -0.26301938 -0.057906248 0.020064509 0.016024135 -0.025486419
-0.12102129 -0.24696316 0.062397543 0.15921402 0.09930521 -0.19663736 -0.022063367 0.28899866
0.27850756 -0.1789629 -0.12175269 0.10846582 -0.11067294 -0.037166357 0.013417837 0.0013880259
-0.29514825 0.090096176 -0.13672353 -0.05111477 0.073372096 0.013828496 0.05812483 -0.14372881
-0.13011308 0.55013585 0.14043671 0.074128024 0.30602148 0.2130432 0.58627874 -0.18285789
0.0032387583 -0.26064098 -0.17246346 0.21874231 0.09856281 0.20639496 0.17823644 0.13360234
-0.32350257 0.27183086 -0.23466982 -0.41735402 -0.20858791 -0.060746472 0.002333211 -0.19405755
0.030212728 0.29491904 0.4491204 0.17956068 0.04211155 -0.40571663 0.19660641 -0.21189478
-0.018944915 0.025722217 -0.090580925 0.21211997 0.18612337 0.09523217 -0.1910584 0.21154504
0.13223855 -0.12339182 -0.0691393 0.3571295 0.10732164 0.04695069 0.016779006 0.17825569
0.17377438 -0.008421175 -0.15474635 -0.14299418 0.119951725 -0.035943005 -0.08401523 -0.24119061
0.09608538 0.11756465 -0.38607255 -0.167253 0.11325842 0.16413322 -0.073248714 -0.25008398
00000000: b7d9 e237 6431 99bd b4fd b83e 6287 90bd
00000010: 54cb abbd 78ac 273d 0070 6c3e 41bd 2ebe
00000020: c20a 413d d3ab 03be a087 a7be 5811 f63d
00000030: d1ff 8dbe cb55 5a3b c091 893e 74c8 f8bd
00000040: b05f 943e 045b 823e 49df 183f 26f1 a23e
00000050: 0e95 8e3d 8d4a f1bd ecc9 373d ef36 503e
00000060: 01c2 0b3d 63e2 1fbd 8f9c 0fbd e5bb f5bd
00000070: 1a10 843e 931a 953d ae14 4abd 8c94 013d
00000080: 6d27 0e3e 60fb 063f 4b30 1ebe 80d7 823d
00000090: 5a2f 333e 576d 1cbf 4c53 37be 9090 74be
000000a0: 9046 863e 7032 c63d a73c 2d3e b96d 8a3e
000000b0: a974 84be 9896 c83d d7be e43d 0510 943e
000000c0: a6f4 893c 027d 66bd bf75 db3c 38a3 4e3e
000000d0: 3b3a 2dbe 0660 3a3c cb18 563e eaa3 2c3d
000000e0: f288 80bd b54b 53bb b212 f93d f846 dd3d
000000f0: f90e d3bd a6e1 2e3e ae0c 6dbd 6732 5d3d
00000100: 2edd b23d 8e3c e3bd 893f 2f3e 9ee6 54bd
00000110: d42a d5bc 4f52 433d 0191 1e3d b9ea 85bd
00000120: 99fa 1a3c e884 e33d a660 593e 83ec 513d
00000130: 5736 1d3e 82de 9f3e 1d3e 1a3e f7ed 683b
00000140: 19ae 583e daf4 85be 4674 5dbe c8e9 b13d
00000150: 35fd 8fbe 3313 0ebe ce9e 7b3e 096d e9bd
00000160: 952f 02be 331f 7abd 60dd 2f3f 48f9 b03e
00000170: f93c d53d 9629 183d d397 c1bd 7725 f0bd
00000180: 0ca0 b3bd 4c69 d4bd d194 c7bd 52eb 21be
00000190: 55ca 0bbe f7e8 7fbe 1c06 e6bd fc29 a03d
000001a0: 1de7 edbb cb34 d2bd 2bfe 0b3e bac4 203e
000001b0: 3676 e7bd 5af6 05be 50c0 01be 8740 513d
000001c0: 296b e03d 40c4 54be 3227 17be e910 68be
000001d0: 7f17 823c 3964 3e3e 3907 31be 13dc 54be
000001e0: f742 d83d a7f2 55be 2f69 c53d 8c5f dd3d
000001f0: 5309 63bb af33 b8bd f470 413d bf76 7f3d
00000200: 07b1 9d3d ab54 8d3e 03b8 553e 4fe4 81be
00000210: 85b6 67be 5b12 b63d 5da2 32be 0daf 033e
00000220: 1bb9 593e 28b5 4c3d f466 aebe 9651 d0bc
00000230: a864 5e3e ee5d e6bd d070 a9bd 022a 413c
00000240: c1b5 ba3d e976 56bd dde6 903d aa73 a93c
00000250: 4623 e63d 4966 6fbc 84f7 21be 1146 b4bc
00000260: 5e53 e0be 3f65 033e 7baf 673e 3ef4 1b3e
00000270: c9e0 8abe ad51 acbe e74a d6bd c7bb 3c3e
00000280: 7322 0d3d 4204 65bd 9c7e 8ebd 7aaa 86be
00000290: 1a2f 6dbd 535e a43c 0c45 833c e5c8 d0bc
000002a0: 03da f7bd e9e3 7cbe 9194 7f3d 0009 233e
000002b0: 8860 cb3d 4e5b 49be 3cbe b4bc a2f7 933e
000002c0: 8b98 8e3e 0d42 37be 7959 f9bd 5423 de3d
000002d0: 7fa8 e2bd c03b 18bd 7dd6 5b3c 6cee b53a
000002e0: ac1d 97be 5884 b83d 4101 0cbe b95d 51bd
000002f0: 1c44 963d eb90 623c 4d14 6e3d a52d 13be
00000300: 5d3c 05be b4d5 0c3f a4ce 0f3e 6fd0 973d
00000310: d9ae 9c3e ff27 5a3e 5d16 163f 193f 3bbe
00000320: 5941 543b bc72 85be 439a 30be fcfd 5f3e
00000330: 4cdb c93d 3359 533e 9d83 363e 0dcf 083e
00000340: 21a2 a5be 6a2d 8b3e 494d 70be 6daf d5be
00000350: 1298 55be 4bd1 78bd c9e8 183b 06b7 46be
00000360: af80 f73c a1ff 963e 1cf3 e53e c1de 373e
00000370: 297d 2c3d 17ba cfbe 3153 493e f2fa 58be
00000380: 5e32 9bbc 66b7 d23c 7e82 b9bd fa35 593e
00000390: 2097 3e3e 1509 c33d d0a4 43be 439f 583e
000003a0: 8b69 073e dab4 fcbd e898 8dbd aed9 b63e
000003b0: 73cb db3d 5e4f 403d 2074 893c a988 363e
000003c0: e9f1 313e f8f8 09bc d475 1ebe 116d 12be
000003d0: 40a9 f53d f938 13bd 2d10 acbd acfa 76be
000003e0: 69c8 c43d bcc5 f03d 4dab c5be 5f44 2bbe
000003f0: 08f4 e73d 8a12 283e 6c03 96bd 020b 80be

fc1.bias f4 [128]
0.39570802 0.43327063 -0.46838972 0.3817065 -0.43749863 -0.17874952 0.7170693 0.66699314
0.26605156 0.48063087 -0.22522709 0.3883187 0.4072596 0.7536398 -0.5776402 0.10535929
-0.028807716 -0.08550625 0.820527 0.02107277 -0.6905833 0.14259507 -0.20111617 0.6874122
-0.3368524 0.10608098 0.07144959 0.38109207 0.6339846 0.6157109 0.7375081 -0.16837989
0.19633704 0.6865749 -0.7692474 -0.3821011 -0.4551837 0.77503806 -0.16296193 -0.45552963
0.67322993 -0.5223974 0.6761649 0.5678219 0.9180248 -0.6938812 0.80172276 -0.68454695
0.45818073 -0.16823106 0.32694393 -0.11248637 0.24164312 0.6663701 0.1609269 -0.25863504
-0.20566665 -0.30690593 -0.13077986 -0.329306 0.6417916 -0.22525497 0.3431717 -0.4582097
-0.29798394 0.025496181 -0.372524 0.11025148 0.2569528 0.16263375 0.26772544 -0.20063582
-0.3142018 0.55640316 0.28077576 0.21054007 -0.21825033 -0.4302069 -0.23541738 -0.362969
-0.3665183 -0.09096296 -0.6009205 0.52463216 0.35077566 0.082959265 -0.5347766 0.534254
0.38766018 0.28146514 -0.21481526 -0.40584138 -0.71533954 0.19038884 0.0922983 1.002454
0.0050230836 0.32864696 0.29449376 -0.07986816 0.8522986 -0.028114753 -0.100277185 -0.11329006
0.12504949 0.27806482 0.5198092 -0.070541464 0.40495175 0.11608237 0.6051213 0.37571648
-0.7020972 0.6979647 0.20304489 -0.09827247 0.24607687 -0.038403857 -0.4757474 -0.07372973
-0.33212864 -0.24583596 0.8062415 0.04151923 -0.21477696 -0.22903748 -0.00083576975 -0.65136683
00000000: 3e9a ca3e a6d5 dd3e c7d0 efbe 096f c33e
00000010: d2ff dfbe 1d0a 37be db91 373f 10c0 2a3f
00000020: e937 883e 4015 f63e eea1 66be b5d1 c63e
00000030: 5584 d03e 8aee 403f 3ae0 13bf 9dc6 d73d
00000040: 29fe ebbc e71d afbd 0f0e 523f cda0 ac3c
00000050: 11ca 30bf 7104 123e 66f1 4dbe 3ffa 2f3f
00000060: eb77 acbe fc40 d93d 2a54 923d 801e c33e
00000070: d14c 223f 3b9f 1d3f 55cd 3c3f c76b 2cbe
00000080: 940c 493e 5fc3 2f3f 66ed 44bf c1a2 c3be
00000090: d70d e9be e568 463f 7edf 26be 2e3b e9be
000000a0: cc58 2c3f d6bb 05bf 2519 2d3f c75c 113f
000000b0: ac03 6b3f 33a2 31bf b43d 4d3f 783e 2fbf
000000c0: aa96 ea3e c344 2cbe 3265 a73e 415f e6bd
000000d0: 4b71 773e 3b97 2a3f 05ca 243e d06b 84be
000000e0: 479a 52be c622 9dbe 28eb 05be cc9a a8be
000000f0: 744c 243f 3da9 66be 33b4 af3e 769a eabe
00000100: 5a91 98be 5edd d03c 77bb bebe 87cb e13d
00000110: 518f 833e 7689 263e 4f13 893e 7a73 4dbe
00000120: 0fdf a0be 7070 0e3f d7c1 8f3e d197 573e
00000130: 047d 5fbe 1444 dcbe 4111 71be 13d7 b9be
00000140: 49a8 bbbe ca4a babd edd5 19bf 4b4e 063f
00000150: de98 b33e 8ce6 a93d 1fe7 08bf dfc4 083f
00000160: 657b c63e 331c 903e 88f8 5bbe 71ca cfbe
00000170: 7e20 37bf 4bf5 423e e406 bd3d 6a50 803f
00000180: ae98 a43b 6a44 a83e e3c7 963e eb91 a3bd
00000190: 3e30 5a3f e950 e6bc 205e cdbd 9e04 e8bd
000001a0: f90c 003e 835e 8e3e 3712 053f 0b78 90bd
000001b0: d655 cf3e 98bc ed3d 3be9 1a3f e95d c03e
000001c0: a4bc 33bf d1ad 323f 00eb 4f3e 1443 c9bd
000001d0: 93fb 7b3e 5d4d 1dbd 2a95 f3be 9dff 96bd
000001e0: c40c aabe 6cbc 7bbe d865 4e3f 1110 2a3d
000001f0: 7eee 5bbe cd88 6abe 8f17 5bba fabf 26bf

fc2.weight f4 [736, 128]
0.017916968 0.023349544 0.023343792 -0.047109045 0.009003148 -0.0075356085 0.030600104 0.003624662
-0.011684548 -0.003487862 0.007904359 0.07022912 0.0073366994 0.010793098 -0.046855085 -0.0008696762
-0.021283707 0.017449163 -0.010266393 0.05168204 0.011045291 0.014600839 -0.014053146 -0.037735652
0.011513477 0.013127776 0.029492088 0.03731561 0.024338132 0.028485315 -0.016109841 -0.0045757587
-0.03660179 -0.0032581466 -0.111903235 0.04751996 -0.059005763 0.01533597 0.0046191574 -0.026338859
0.008328576 -0.02143561 0.00039311778 -0.0025465603 0.012656447 0.022914639 0.044550736 -0.009342257
0.0358027 -0.007440287 -0.0028808226 0.016206773 -0.031610418 0.018916585 -0.009179525 0.04491625
-0.0031190081 0.042795677 -0.0119119035 -0.06624642 -0.021233806 0.03886328 -0.0031580746 -0.014634611
-0.018173734 0.009961979 0.03178195 -0.03471002 0.0039413036 -0.01552432 -0.09319956 0.0039943885
-0.004258435 0.00384333 -0.04218695 -0.013051734 0.00040953714 0.018430147 -0.016025757 -0.0061512114
0.0384414 0.010869655 -0.06589667 -0.06188051 0.021772055 0.02863002 0.009462918 0.038716003
-0.009186518 0.019211708 0.008866264 0.035012096 -0.098549455 -0.04411076 -0.01313238 0.067190394
0.016722811 0.06355531 0.019509288 0.016028745 -0.016989797 -0.04450051 0.03833353 -0.0026166274
0.0011607537 -0.012860586 0.0055613765 -0.021799905 0.024604559 0.020437384 0.034775805 -0.027026368
-0.028942486 -0.0036889326 0.051700808 -0.043267988 0.030963607 -0.045827974 0.029240888 -0.060160924
-0.013157328 -0.020677423 0.034186225 0.01771723 0.040654667 0.051970232 -0.03951961 0.017119503
0.05834457 0.15636364 0.08468349 0.05998737 0.117573455 -0.032527454 0.17704846 0.02253001
-0.01770972 -0.12972666 0.0868263 0.0701705 -0.02205974 0.13587137 -0.019234622 -0.00867468
-0.015032331 0.03410845 -0.03334535 -0.10077388 0.0937353 0.013862555 -0.09387373 -0.16237076
-0.13857128 -0.09700917 0.09261962 0.07749578 -0.02874828 -0.002616574 0.03785922 0.20258139
0.014810579 0.14464591 -0.19286509 0.04480149 0.059035193 -0.036049563 0.085999236 0.0015263488
0.072944805 0.07671293 0.019168366 0.05101198 0.0016770803 -0.005546949 0.10483798 -0.035089023
0.12720494 0.020716911 0.082062386 -0.02714951 0.07181125 0.015118377 0.098499216 -0.15336068
0.1101555 0.08736768 0.02382066 -0.08784077 0.015032517 -0.015815843 -0.020209212 -0.123633295
0.040660866 -0.0045581544 0.06393267 0.013974029 0.044162117 -0.0012305123 0.16010223 0.05181345
-0.01335297 0.03537745 0.094709635 -0.014231125 -0.17686434 -0.03478149 -0.06121268 -0.055493835
0.04064086 0.001691111 -0.07898496 0.021415018 -0.054831088 0.06613379 0.03151086 0.054696105
-0.006515686 -0.016093353 -0.03234902 0.17726173 -0.06837051 0.08534365 -0.053895168 -0.044833064
-0.02729713 -0.0008080698 -0.06376439 0.05112217 0.053460423 -0.025654297 -0.036432974 0.008103849
0.19189255 -0.056898158 0.102142826 -0.046300564 0.06611584 0.018681707 0.086170524 -0.02008171
-0.060370553 -0.0143201575 -0.026401434 -0.0091823535 0.0799843 0.023065941 -0.21443044 -0.13864355
-0.09914766 0.04767984 0.2257779 -0.018379252 -0.020941036 -0.20373987 0.087177336 -0.15387936
00000000: 9bc6 923c 8b47 bf3c 7b3b bf3c 6af5 40bd
00000010: f181 133c 44ed f6bb 12ad fa3c bd8b 6d3b
00000020: 8c70 3fbc 9d94 64bb 4981 013c 49d4 8f3d
00000030: b268 f03b 89d5 303c 1eeb 3fbd fbfa 63ba
00000040: 2b5b aebc 8cf1 8e3c 6034 28bc 8cb0 533d
00000050: 4ff7 343c 5b38 6f3c 2b3f 66bc b390 1abd
00000060: 06a3 3c3c e215 573c 6499 f13c 41d8 183d
00000070: c360 c73c 095a e93c c9f8 83bc 3ff0 95bb
00000080: c2eb 15bd a186 55bb 862d e5bd 4aa4 423d
00000090: 07b0 71bd b843 7b3c 4d5c 973b 97c4 d7bc
000000a0: 9474 083c bb99 afbc 601b ce39 31e4 26bb
000000b0: fc5c 4f3c 7bb7 bb3c d57a 363d 4410 19bc
000000c0: daa5 123d a7cd f3bb 2fcc 3cbb 11c4 843c
000000d0: ed79 01bd f4f6 9a3c b865 16bc 1afa 373d
000000e0: 4668 4cbb 854a 2f3d 252a 43bc 34ac 87bd
000000f0: 85f2 adbc 1a2f 1f3d b3f7 4ebb 02c6 6fbc
00000100: 15e1 94bc 9237 233c ca2d 023d 182c 0ebd
00000110: 0d26 813b b859 7ebc 69df bebd 5ce3 823b
00000120: 588a 8bbb 61e0 7b3b 39cc 2cbd f1d6 55bc
00000130: 25b7 d639 d2fa 963c 7348 83bc 1a90 c9bb
00000140: bb74 1d3d a316 323c d5f4 86bd 6b76 7dbd
00000150: 4f5b b23c 8189 ea3c 5b0a 1b3c ac94 1e3d
00000160: 0d83 16bc df61 9d3c ce43 113c d868 0f3d
00000170: 4cd4 c9bd 7cad 34bd 3229 57bc 1e9b 893d
00000180: 47fe 883c 4929 823d f1d1 9f3c b74e 833c
00000190: 302e 8bbc 2b46 36bd 9f03 1d3d b97b 2bbb
000001a0: 6e24 983a 35b5 52bc 353c b63b b795 b2bc
000001b0: 808f c93c 4d6c a73c 1371 0e3d 6766 ddbc
000001c0: cb18 edbc 05c2 71bb 3ac4 533d c639 31bd
000001d0: 64a7 fd3c 1db6 3bbd 968a ef3c 4d6b 76bd
000001e0: d591 57bc b363 a9bc db06 0c3d b923 913c
000001f0: 8285 263d bdde 543d 51df 21bd 333e 8c3c
00000200: b7fa 6e3d ca1d 203e 8a6e ad3d 51b5 753d
00000210: 5aca f03d 823b 05bd 314c 353e db90 b83c
00000220: fa13 91bc 11d7 04be fdd1 b13d 8db5 8f3d
00000230: a1b6 b4bc dd21 0b3e ed91 9dbc 3f20 0ebc
00000240: 2b4a 76bc 4db5 0b3d 2295 08bd 8962 cebd
00000250: 4bf8 bf3d c51f 633c df40 c0bd 8544 26be
00000260: a1e5 0dbe beac c6bd 5baf bd3d 1cb6 9e3d
00000270: 8381 ebbc d47a 2bbb 4512 1b3d 7f71 4f3e
00000280: 12a8 723c 0f1e 143e 6d7e 45be c481 373d
00000290: e3ce 713d b5a8 13bd 5e20 b03d c40f c83a
000002a0: 1664 953d ab1b 9d3d fa06 9d3c f0f1 503d
000002b0: 7ad1 db3a 2ec3 b5bb 4bb5 d63d 82b9 0fbd
000002c0: 0342 023e 83b6 a93c 5310 a83d a668 debc
000002d0: c711 933d 12b3 773c f5b9 c93d 950a 1dbe
000002e0: 3599 e13d d4ed b23d 8b23 c33c dde5 b3bd
000002f0: f24a 763c 3a90 81bc ca8d a5bc 7433 fdbd
00000300: 028c 263d 925c 95bb 22ef 823d 53f3 643c
00000310: 56e3 343d 2449 a1ba d7f1 233e 573a 543d
00000320: 6ac6 5abc f2e7 103d 20f7 c13d aa29 69bc
00000330: ed1b 35be 0977 0ebd 26ba 7abd 814d 63bd
00000340: 0877 263d 45a8 dd3a dec2 a1bd 8c6e af3c
00000350: 9096 60bd 2771 873d 8811 013d 0609 603d
00000360: 8981 d5bb 35d6 83bc 6880 04bd 1984 353e
00000370: d705 8cbd a7c8 ae3d 2ec1 5cbd e0a2 37bd
00000380: 3b9e dfbc a5d4 53ba e896 82bd 7b65 513d
00000390: 51f9 5a3d f628 d2bc be3a 15bd 02c6 043c
000003a0: 7b7f 443e 0b0e 69bd 4230 d13d a9a5 3dbd
000003b0: be67 873d 610a 993c 2c7a b03d 6682 a4bc
000003c0: 1d47 77bd 189f 6abc d247 d8bc 9571 16bc
000003d0: cfce a33d c9f4 bc3c a793 5bbe 93f8 0dbe
000003e0: ee0d cbbd f04b 433d 5232 673e 1690 96bc
000003f0: 898c abbc 2fa1 50be 088a b23d 8d92 1dbe

fc2.bias f4 [736]
0.0038330846 0.10457672 0.0728453 0.16391186 0.0053512654 0.05328362 0.017648572 -0.0028468953
-0.02519673 0.043260366 0.017355837 0.017766017 0.15192838 0.025952177 0.11895703 0.08934928
0.15752803 0.21460375 0.08172813 0.08399919 0.20174241 0.033853505 0.36638594 0.060358763
0.057853755 0.04427786 0.086589515 0.14043644 0.10378514 0.17869376 0.025631582 0.005480819
0.09596905 0.12522864 0.15406065 0.18184423 0.18533887 0.09793871 0.17776348 0.07787508
0.055378422 0.04843968 0.114674546 0.18733719 0.17009336 0.1776354 0.29716283 0.22341543
0.215287 0.22170825 0.27921245 0.25376415 0.25959924 0.15748014 0.2637489 -1.0955642e-36
0.23662044 0.19594611 0.10128566 0.0943138 0.105222665 0.16452383 0.14790255 0.076212324
0.04535285 0.14390804 0.17182793 0.16311881 0.30890432 0.0046663606 0.12802787 0.05752023
0.09727389 0.077596426 0.09106739 0.036505632 0.035254132 -1.9044384e-12 -0.025202613 -7.5966407e-22
0.04616557 0.019604728 0.019407718 0.074617445 -0.017490847 -0.020058932 0.10757065 -5.456548e-39
0.05340932 0.13263525 0.055310234 -0.003897888 -0.028523408 -0.0068648527 0.09329417 -0.010946261
-0.008339897 -0.05573095 0.005304328 -0.060063705 -0.026431223 0.021796424 0.007245895 0.044653416
0.014648504 0.07012017 0.09255047 0.029583985 0.093005665 0.0781456 0.082634814 0.2067917
0.14629297 0.096245185 0.14656715 0.30663595 0.08404181 0.19230843 -0.027849121 -0.041906573
0.08389734 0.086234055 0.09632583 0.07342211 0.07379882 0.15738963 0.12647632 0.05838794
0.005908621 -0.017325755 0.021097573 0.12153365 0.0647536 0.054162066 0.050944153 0.14985418
0.092921905 -0.009143492 -1.0500207e-05 0.04842674 0.042072296 -0.0010524222 0.043973394 -1.2031266e-14
0.08687724 0.06690936 0.092532985 0.044585653 -1.5379954e-06 0.07862086 0.053212427 -0.0024173171
0.034914427 0.06334054 -0.002081106 0.029230447 0.035768732 0.05471156 0.03019455 -1.301199e-10
-0.0071659293 0.041878927 0.10960947 0.1057863 0.13640293 0.1545066 0.092192166 0.20060597
0.11266825 0.14122243 0.11090226 0.035879463 0.09525148 0.23366876 0.07208541 0.10167715
0.20843032 0.22129917 0.1318513 0.117468484 0.05563993 0.17932595 0.02616767 0.26511425
-0.011240739 0.080380626 -0.0054940167 0.06780793 0.053804956 -0.050488513 -0.111729816 -0.14363365
-0.019612536 -0.07247245 0.036035698 0.03996654 0.02501174 0.0059809587 0.055895012 0.03998871
0.036510676 0.057212315 0.20861559 0.0901207 0.10970543 -0.0031502943 0.14857088 0.14757437
0.079029545 0.12695433 0.12612422 0.15829188 0.13549268 0.16795824 0.21967502 0.28476733
0.14173268 0.2337288 0.11941104 0.17831087 0.038180407 0.18255977 0.15990554 0.110668756
0.13967381 0.060549524 0.17759906 0.18100812 0.122871146 0.11578656 -0.1662827 -0.026709005
-0.03851064 0.014833711 0.013738875 0.02589696 -0.1427118 -0.11091037 -1.702166e-39 0.013371155
-0.010774251 -0.03922589 0.03212584 0.027606787 -0.0966194 -0.081092164 -0.11330499 -0.04101331
0.007993732 -0.0016318569 0.033662315 0.09382164 0.05123478 -0.068047605 -0.008458094 -0.07451973
00000000: 7d34 7b3b 522c d63d eb2f 953d 83d8 273e
00000010: ab59 af3b ed3f 5a3d bd93 903c fa92 3abb
00000020: 5f69 cebc c831 313d d42d 8e3c 0a8a 913c
00000030: 1d93 1b3e a999 d43c be9f f33d c1fc b63d
00000040: 074f 213e 16c1 5b3e 1461 a73d c407 ac3d
00000050: 9095 4e3e f9a9 0a3d f096 bb3e c03a 773d
00000060: 0ff8 6c3d b45c 353d d855 b13d 92ce 0f3e
00000070: 4e8d d43d 7ffb 363e 53f9 d13c 7198 b33b
00000080: 6c8b c43d f03b 003e 13c2 1d3e 6035 3a3e
00000090: 79c9 3d3e 1794 c83d a107 363e f87c 9f3d
000000a0: 7cd4 623d b068 463d 7dda ea3d 52d5 3f3e
000000b0: f42c 2e3e 0ee6 353e ba25 983e 04c7 643e
000000c0: 3274 5c3e 7d07 633e eff4 8e3e 60ed 813e
000000d0: 31ea 843e 7942 213e 190a 873e 8d66 ba83
000000e0: a14c 723e 19a6 483e db6e cf3d 9827 c13d
000000f0: fb7e d73d ef78 283e c473 173e 3515 9c3d
00000100: e9c3 393d a15c 133e a9f3 2f3e 9e08 273e
00000110: b528 9e3e 45e8 983b bd19 033e 559a 6b3d
00000120: 8937 c73d e0ea 9e3d 8a81 ba3d ee86 153d
00000130: a366 103d 5003 06ac b675 cebc 2998 659c
00000140: 1c18 3d3d 189a a03c effc 9e3c 08d1 983d
00000150: f748 8fbc a152 a4bc 004e dc3d a36a 3b80
00000160: bbc3 5a3d 89d1 073e fc8c 623d b573 7fbb
00000170: eca9 e9bc 8ff2 e0bb 0411 bf3d f257 33bc
00000180: 10a4 08bc 2346 64bd eecf ad3b 5c05 76bd
00000190: 4b86 d8bc 6a8e b23c f96e ed3b 80e6 363d
000001a0: 4700 703c 2a9b 8f3d 1a8b bd3d 1d5a f23c
000001b0: c179 be3d cd0a a03d 713c a93d 34c1 533e
000001c0: d3cd 153e 321c c53d b315 163e 63ff 9c3e
000001d0: 1d1e ac3d 80ec 443e d723 e4bc 3aa6 2bbd
000001e0: 5ed2 ab3d 7b9b b03d 7a46 c53d 555e 963d
000001f0: d623 973d bf2a 213e 0283 013e 3128 6f3d
00000200: 1b9d c13b beee 8dbc d1d4 ac3c a2e6 f83d
00000210: 899d 843d 0bd9 5d3d d1aa 503d 6073 193e
00000220: d74d be3d 96ce 15bc 0c2a 30b7 1e5b 463d
00000230: 0054 2c3d 6ef1 89ba 721d 343d 6cbc 58a8
00000240: b2ec b13d c607 893d ef81 bd3d 729f 363d
00000250: 1f6d ceb5 f903 a13d 46f5 593d da6b 1ebb
00000260: 6e02 0f3d afb8 813d 2a63 08bb b174 ef3c
00000270: 3c82 123d 3b19 603d 905a f73c 7f11 0faf
00000280: 2cd0 eabb 3d89 2b3d ee7a e03d 7da6 d83d
00000290: 36ad 0b3e fa36 1e3e 3fcf bc3d a76b 4d3e
000002a0: 9dbe e63d 9d9c 103e b920 e33d 58f6 123d
000002b0: 3513 c33d dd46 6f3e 84a1 933d 1c3c d03d
000002c0: c26e 553e 409c 623e 0704 073e 5193 f03d
000002d0: b2e6 633d 39a1 373e 955d d63c 0ebd 873e
000002e0: 142b 38bc 999e a43d 2707 b4bb e2de 8a3d
000002f0: 9662 5c3d 0bcd 4ebd 9ad2 e4bd b314 13be
00000300: 78aa a0bc 706c 94bd 2b9a 133d f4b3 233d
00000310: 6ce5 cc3c ebfb c33b 2bf2 643d 34cb 233d
00000320: 388c 153d 7657 6a3d 539f 553e 3491 b83d
00000330: 3ead e03d 2b75 4ebb f722 183e bc1d 173e
00000340: 3eda a13d 5100 023e b526 013e 4417 223e
00000350: 98be 0a3e 3ffd 2b3e 7df2 603e 06cd 913e
00000360: 5f22 113e 9a56 6f3e c68d f43d 2097 363e
00000370: 0f63 1c3d f3f0 3a3e 47be 233e 4da6 e23d
00000380: a706 0f3e c702 783d 87dc 353e 315a 393e
00000390: dea3 fb3d 8121 ed3d 0346 2abe d8cc dabc
000003a0: 55bd 1dbd 1809 733c 0519 613c dd25 d43c
000003b0: 0b23 12be fa24 e3bd f288 1280 b012 5b3c
000003c0: 7c86 30bc 54ab 20bd 6396 033d a127 e23c
000003d0: 64e0 c5bd a613 a6bd 720c e8bd 93fd 27bd
000003e0: 24f8 023c 08e4 d5ba 7fe1 093d 8f25 c03d
000003f0: 90db 513d 8b5c 8bbd d193 0abc cd9d 98bd

deconv1.weight f4 [32, 16, 5, 5]
-0.1968155 -0.19053024 -0.21261741 -0.24278162 -0.24447846 0.017533183 -0.054140847 -0.086602814
-0.04514743 -0.018510768 -0.057564404 -0.048586063 -0.07762461 -0.09490376 -0.062181182 -0.021419989
0.057075206 0.017979069 0.032102853 0.07552365 0.018307457 -0.06670444 -0.05818876 0.025672378
-0.018331913 0.059366256 -0.00196301 -0.103153974 -0.12227704 -0.17108196 -0.009067312 -0.033938356
-0.016401727 -0.01582667 -0.00070917245 -0.039187543 -0.043497745 -0.044183362 -0.0598833 0.008924403
-0.024518088 -0.012935308 -0.024987124 -0.027689502 0.004437478 -0.053904112 -0.06760229 -0.038259402
-0.095442556 0.013474077 0.08851494 0.06334932 0.08994273 0.07603024 0.03372163 0.12960711
0.12066518 0.105301686 0.27026895 0.29744568 -0.027093342 -0.018873675 -0.015418182 -0.023523126
-0.011312767 0.012742022 -0.058084603 -0.009850606 0.01765801 -0.021655206 0.06302221 0.018694662
0.07138013 0.067877464 0.0060153543 -0.050688636 0.008936995 0.037193235 -0.019826176 0.06348268
0.02734985 -0.001709641 0.02772372 0.07050091 0.076072775 -0.41162714 -0.0046773045 -0.030759629
0.025367202 -0.01237749 -0.012852176 0.034781348 0.03711738 0.034200117 0.02886755 0.039882727
0.14198957 0.07232489 0.061180603 0.106721394 0.24278393 0.19885312 0.1744644 0.13245016
-0.061547495 0.025177555 -0.008463084 -0.034575865 -0.081602395 -0.064303175 -0.006821049 -0.013366397
-0.038813338 -0.01906338 -0.012082051 0.040358175 -0.010005022 -0.050986934 -0.046416033 0.006952145
0.085501306 -0.04240877 -0.08502498 -0.09895322 -0.06691928 -0.1465092 -0.3176539 -0.23959532
-0.103027165 -0.34716707 -0.059767473 0.039385162 -0.020592479 0.00029723684 0.006276037 -0.010333347
-0.044531666 -0.05704303 -0.027545517 -0.014200106 -0.016622942 0.010048496 -0.031731885 -0.08648086
0.1039194 -0.029550236 0.036084473 0.005731401 -0.02362732 0.077269554 -0.056920476 -0.032955978
-0.041701876 -0.01938129 0.008947348 0.008706381 -0.08729504 -0.02792351 0.093203686 0.289664
-0.0035268816 -0.05484305 -0.06252624 -0.03994768 -0.10683257 0.0034846023 -0.0012628045 -0.036299154
-0.056747526 -0.09344599 0.03207469 0.08027671 0.033377744 0.024787681 -0.01550008 0.09229017
0.04358804 0.023433017 0.062302366 0.07004422 -0.17113324 -0.18075947 0.05247117 -0.04905209
-0.06342568 -0.0281974 -0.041898157 -0.06990041 -0.030592706 -0.031759553 -0.06836182 -0.05447095
-0.07278636 -0.07030493 -0.04341237 0.07297518 0.05219218 0.017055318 -0.006574927 0.0033348026
-0.31711152 -0.24744764 -0.3465465 -0.31293678 -0.2622281 0.018234542 0.009720052 0.045588966
0.026320452 -0.0029032214 0.09738309 0.059721608 0.034388755 0.03490881 0.042709935 0.048461564
0.04493806 0.065734826 0.071672566 0.12984487 0.015806854 0.03937832 0.09031446 0.09012154
0.15447316 -0.014500637 0.12936485 0.11594858 0.07650642 0.06500253 0.030212287 0.09496033
0.1335784 0.118157394 0.045593243 0.018900627 -0.0103953155 0.011590948 -0.009309357 0.01715985
-0.1897002 -0.13548636 -0.13259959 -0.03105115 -0.23766838 -0.19150206 -0.01840859 -0.030286048
-0.09944363 -0.13955362 0.07021152 0.012034038 0.035333127 0.048725117 0.047145493 0.0062318784
00000000: 018a 49be 5c1a 43be 61b8 59be bf9b 78be
00000010: 9058 7abe c0a1 8f3c cbc2 5dbd d15c b1bd
00000020: 83ec 38bd e5a3 97bc a7c8 6bbd 2e02 47bd
00000030: a7f9 9ebd e75c c2bd b2b1 7ebd f978 afbc
00000040: b1c7 693d d748 933c 487e 033d 25ac 9a3d
00000050: 85f9 953c 569c 88bd 5657 6ebd e14e d23c
00000060: cf2c 96bc 082a 733d d8a5 00bb 6442 d3bd
00000070: 626c fabd 1c30 2fbe 108f 14bc f202 0bbd
00000080: ea5c 86bc efa6 81bc c2e7 39ba 1e83 20bd
00000090: b12a 32bd 9df9 34bd 3148 75bd a937 123c
000000a0: 28da c8bc 9dee 53bc ccb1 ccbc 18d5 e2bc
000000b0: 4368 913b 8fca 5cbd 1273 8abd e4b5 1cbd
000000c0: 6377 c3bd 60c2 5c3c 5247 b53d 4abd 813d
000000d0: e533 b83d beb5 9b3d b11f 0a3d bab7 043e
000000e0: 4e1f f73d 69a8 d73d b160 8a3e cd4a 983e
000000f0: dbf2 ddbc f79c 9abc 8b9c 7cbc 92b3 c0bc
00000100: 2f59 39bc eac3 503c 1fea 6dbd 7064 21bc
00000110: 88a7 903c 4266 b1bc ca11 813d 8c25 993c
00000120: bf2f 923d 5703 8b3d 731c c53b e39e 4fbd
00000130: 796c 123c ef57 183d 816a a2bc 3503 823d
00000140: cb0c e03c 0816 e0ba db1c e33c c862 903d
00000150: 0bcc 9b3d cbc0 d2be 1344 99bb 9efb fbbc
00000160: e1ce cf3c f5ca 4abc ef91 52bc e376 0e3d
00000170: 6508 183d 6c15 0c3d a47b ec3c 125c 233d
00000180: b765 113e 121f 943d 8398 7a3d bf90 da3d
00000190: 5a9c 783e 27a0 4b3e cca6 323e 04a1 073e
000001a0: 3a19 7cbd 2941 ce3c bfa8 0abc 6c9f 0dbd
000001b0: 281f a7bd 62b1 83bd 1b83 dfbb bbfe 5abc
000001c0: bcfa 1ebd ce2a 9cbc cbf3 45bc 9d4e 253d
000001d0: 1bec 23bc add7 50bd bd1e 3ebd d2ce e33b
000001e0: 4f1b af3d d2b4 2dbd 9421 aebd fca7 cabd
000001f0: fa0c 89bd 8206 16be 88a3 a2be 7a58 75be
00000200: e8ff d2bd e2bf b1be bdce 74bd 5652 213d
00000210: 8fb1 a8bc 74d6 9b39 37a7 cd3b 334d 29bc
00000220: d666 36bd f4a5 69bd 23a7 e1bc 90a7 68bc
00000230: d62c 88bc 72a2 243c 4bf9 01bd e11c b1bd
00000240: b2d3 d43d 5613 f2bc 50cd 133d 7ace bb3b
00000250: 158e c1bc 803f 9e3d 7225 69bd d9fc 06bd
00000260: 96cf 2abd 83c5 9ebc e697 123c 35a5 0e3c
00000270: bec7 b2bd d8bf e4bc 93e1 be3d d74e 943e
00000280: 4123 67bb 1ba3 60bd c20d 80bd 2ea0 23bd
00000290: 09cb dabd ed5d 643b b084 a5ba 6cae 14bd
000002a0: 1870 68bd 9c60 bfbd c060 033d 1e68 a43d
000002b0: 1ab7 083d 890f cb3c 0cf4 7dbc a102 bd3d
000002c0: 5f89 323d 99f6 bf3c c430 7f3d 5873 8f3d
000002d0: 8d3d 2fbe 0319 39be 02ec 563d d8ea 48bd
000002e0: 53e5 81bd 3cfe e6bc 679d 2bbd f227 8fbd
000002f0: 8e9d fabc 4e16 02bd 4801 8cbd ee1c 5fbd
00000300: 0411 95bd 08fc 8fbd 2bd1 31bd 0374 953d
00000310: 78c7 553d 98b7 8b3c 7c72 d7bb b48c 5a3b
00000320: 715c a2be ea62 7dbe 8b6e b1be 4039 a0be
00000330: c342 86be 9b60 953c da40 1f3c 7fbb 3a3d
00000340: fd9d d73c f943 3ebb c970 c73d a59e 743d
00000350: 39db 0c3d 8afc 0e3d 9df0 2e3d a27f 463d
00000360: f910 383d fb9f 863d 11c9 923d 0ef6 043e
00000370: 607d 813c 294b 213d caf6 b83d a491 b83d
00000380: 362e 1e3e 1494 6dbc 3878 043e 7376 ed3d
00000390: 66af 9c3d 0c20 853d c27f f73c 907a c23d
000003a0: c7c8 083e 81fc f13d fbbf 3a3d 7dd5 9a3c
000003b0: 1d51 2abc f6e7 3d3c 4686 18bc d092 8c3c
000003c0: c540 42be f0bc 0abe 30c8 07be fb5e febc
000003d0: 575f 73be 1e19 44be 9dcd 96bc 721a f8bc
000003e0: 1aa9 cbbd 25e7 0ebe 0fcb 8f3d 6a2a 453c
000003f0: 78b9 103d fd93 473d a21b 413d c934 cc3b

deconv1.bias f4 [16]
0.0001393023 -0.0012320083 0.0003813632 8.8888664e-05 -0.00017427087 -0.00034047148 -0.0005106991 -0.00058579474
-0.0009284515 0.00015707688 -0.0010091789 -0.00107105 0.000437418 6.228708e-05 -0.0003104582 -0.00014243419
00000000: ad11 1239 577b a1ba b4f1 c739 bd69 ba38
00000010: 7bbc 36b9 4f81 b2b9 70e0 05ba 0590 19ba
00000020: 5363 73ba 01b5 2439 6d46 84ba 7962 8cba
00000030: 4055 e539 1fa0 8238 ffc4 a2b9 635a 15b9

bn1.weight f4 [16]
1.0159775 1.0081633 0.81642926 1.053044 0.9346556 0.95461184 1.0116056 1.0694158
0.84896857 0.9692567 0.84367037 1.036301 0.8657554 0.9356319 1.0107685 0.939481
00000000: 8d0b 823f 7f0b 813f 8201 513f 25ca 863f
00000010: 9745 6f3f 7161 743f 4b7c 813f 9ee2 883f
00000020: 0156 593f 3521 783f c8fa 573f 83a5 843f
00000030: 25a2 5d3f 9285 6f3f dd60 813f d481 703f

bn1.bias f4 [16]
0.12539272 0.2595094 0.14250194 0.16430959 0.18003298 0.20289314 0.21297286 0.17136864
0.16716313 0.13386205 0.2618298 0.18753965 0.17901495 0.15577298 0.22932357 0.17562473
00000000: f366 003e 6bde 843e 07ec 113e c640 283e
00000010: 915a 383e 38c3 4f3e 8f15 5a3e 437b 2f3e
00000020: d02c 2b3e 2213 093e 8e0e 863e 650a 403e
00000030: b24f 373e f482 1f3e ccd3 6a3e f8d6 333e

bn1.running_mean f4 [16]
-1.1959996 -0.18331628 -0.2901437 -1.0323848 -0.89410126 -0.9897617 -0.9182 -0.9050194
-1.2804382 -0.9871013 -0.6267437 -0.41882956 -1.0749058 -0.65954876 -0.3638044 -1.3163301
00000000: 8416 99bf 43b7 3bbe b78d 94be 2f25 84bf
00000010: d2e3 64bf 0661 7dbf 280f 6bbf 5aaf 67bf
00000020: 66e5 a3bf acb2 7cbf 4672 20bf d470 d6be
00000030: 8396 89bf 30d8 28bf 9244 babe 817d a8bf

bn1.running_var f4 [16]
9.031709 7.587256 1.709364 7.564176 5.051993 7.9892497 4.398484 9.324658
7.02364 5.1334076 3.656082 3.400464 4.722073 5.0434194 6.648836 8.433311
00000000: e181 1041 cdca f240 71cc da3f bb0d f240
00000010: eda9 a140 efa7 ff40 62c0 8c40 cd31 1541
00000020: a9c1 e040 e044 a440 3ffd 6940 34a1 5940
00000030: 391b 9740 b163 a140 44c3 d440 d8ee 0641

deconv2.weight f4 [16, 8, 5, 5]
-0.0072155376 0.086040005 0.043654177 0.032034747 0.09312128 0.05070276 -0.021566687 -0.0139847705
0.065447696 -0.10000644 -0.07312035 -0.024020514 -0.011191006 -0.07322162 0.03150295 -0.082965754
0.033534728 -0.012136408 -0.039870776 0.0031335698 -0.0575269 0.005292433 -0.027346581 0.11117249
-0.057411183 0.0044929385 -0.021633502 0.0022195932 0.039242737 0.019533709 0.037351355 0.004320553
0.0045524226 -0.014747304 -0.039662432 -0.06481134 -0.06886377 -0.028228736 -0.098689675 -0.002082364
-0.034946468 -0.11744499 -0.19839863 -0.027167844 0.037320662 -0.11212272 -0.116358414 0.034243446
-0.07471674 -0.032567196 -0.051584188 0.022719542 0.037920512 -0.016522676 -0.0035662195 0.03039458
0.08629618 0.14930873 -0.0017412913 -0.011025574 0.09178041 0.09414447 0.117462866 0.08360721
-0.03386875 -0.03872934 -0.042566553 -0.019695494 -0.020664113 0.015325744 -0.09315314 -0.057586525
0.0806573 -0.15568027 -0.0847312 0.06803413 0.0033664478 0.0027102907 0.009756382 0.0026128935
-0.10623102 0.007961518 -0.0329871 -0.058527682 -0.076354496 0.12162498 0.077414766 -0.005541807
0.020748142 -0.12147816 0.09737203 0.10845806 0.124477535 -0.037527587 0.002293007 -0.02388452
0.122683145 -0.049771167 -0.0667121 -0.07515146 0.0014270309 0.010428704 0.024121845 -0.008920337
-0.039958976 -0.053821594 -0.081139065 -0.007029584 -0.04510502 -0.06904326 0.06301564 0.09483565
0.21531895 0.1275128 0.100494824 -0.038304012 -0.05499938 -0.010816238 0.09800967 -0.020819506
-0.011497014 0.010332779 0.07541041 0.06805779 -0.008260896 0.07487581 0.11668261 0.11334575
0.13263567 0.008132242 0.048572615 0.16916554 0.15069479 0.09550292 0.11630136 0.018612701
-0.0830133 -0.037641685 -0.059750646 -0.13640444 -0.10669123 0.056984894 -0.0037208982 -0.047920633
0.02238074 -0.14217041 -0.06978886 -0.054168627 -0.0072718547 -0.14498568 -0.04079302 -0.009285959
-0.07185746 0.00907508 -0.03312138 0.055774335 0.05518148 0.022964392 0.04851805 -0.0041510477
-0.0033769954 0.018452024 0.07271904 0.11684675 -0.008754344 -0.018043954 0.10725347 0.03464096
0.038082357 0.043747287 -0.07021755 0.04587715 0.06613086 0.045021683 0.08264646 -0.010605293
-0.06191234 -0.08925506 -0.021920208 -0.011771072 -0.04078679 -0.20087643 -0.056189075 -0.050872523
-0.083410874 -0.062106702 -0.017182972 -0.1813476 -0.24739023 -0.07493751 -0.0028304288 -0.019875754
-0.06656791 0.01750547 0.001786648 0.008420578 0.031710565 -0.010202835 0.027260164 0.091021135
0.04945742 -0.15033089 -0.30046946 -0.23459628 -0.0957255 -0.028134106 -0.2930823 -0.6821794
-0.31371242 -0.051801007 -0.09656764 -0.2097574 -0.27476966 -0.24778946 -0.2017239 -0.038454905
-0.06616595 -0.35119364 -0.23561712 -0.14445308 -0.007838548 -0.025570186 -0.08329565 -0.087230645
-0.08338491 0.018680967 -0.24695928 -0.07549672 -0.08026642 -0.01177265 0.14237343 -0.0038544708
-0.35803887 -0.23487297 -0.061888542 0.031005459 0.08241055 0.06548409 0.026273172 -0.053744096
0.008892772 -0.060792748 0.0039476184 0.0070996694 -0.019065533 0.006265366 0.045826532 0.0354414
-0.010230324 0.009526703 -0.25936303 -0.21715869 0.06926527 -0.16342504 -0.17936322 -0.22677316
00000000: 5170 ecbb be35 b03d b9ce 323d de36 033d
00000010: 5fb6 be3d b3ad 4f3d 9fac b0bc 6120 65bc
00000020: 7109 863d 2dd0 ccbd 1fc0 95bd abc6 c4bc
00000030: 7b5a 37bc 37f5 95bd 3d09 013d f3e9 a9bd
00000040: b65b 093d c9d7 46bc 8a4f 23bd 945c 4d3b
00000050: 54a1 6bbd 256c ad3b f005 e0bc 67ae e33d
00000060: fd27 6bbd 8039 933b be38 b1bc 9876 113b
00000070: febc 203d 2805 a03c bcfd 183d 6d93 8d3b
00000080: 7d2c 953b ad9e 71bc 1375 22bd cfbb 84bd
00000090: 7308 8dbd f33f e7bc d01d cabd 4578 08bb
000000a0: 0724 0fbd 0087 f0bd 0329 4bbe 198f debc
000000b0: 8ddd 183d 99a0 e5bd 524d eebd db42 0c3d
000000c0: 1705 99bd 2e65 05bd f149 53bd 551e ba3c
000000d0: 8a52 1b3d 905a 87bc 3cb7 69bb 0efe f83c
000000e0: 0dbc b03d 63e4 183e 0a3c e4ba 9ca4 34bc
000000f0: 5ef7 bb3d d1ce c03d 5f90 f03d 423a ab3d
00000100: f5b9 0abd a8a2 1ebd 445a 2ebd 7258 a1bc
00000110: c947 a9bc d418 7b3c 13c7 bebd d9df 6bbd
00000120: a82f a53d a66a 1fbe 8d87 adbd 7a55 8b3d
00000130: 9f9f 5c3b 229f 313b 3bd9 1f3c 143d 2b3b
00000140: a68f d9bd 0771 023c 7b1d 07bd b9ba 6fbd
00000150: bf5f 9cbd 8416 f93d a28b 9e3d 0c98 b5bb
00000160: 02f8 a93c 8bc9 f8bd fd6a c73d 421f de3d
00000170: 14ee fe3d 87b6 19bd 4646 163b 78a9 c3bc
00000180: 4d41 fb3d dadc 4bbd 5aa0 88bd 02e9 99bd
00000190: 360b bb3a 28dd 2a3c 2d9b c53c 9b26 12bc
000001a0: 06ac 23bd 0874 5cbd 3d2c a6bd 6d58 e6bb
000001b0: 0bc0 38bd 8d66 8dbd 580e 813d 3139 c23d
000001c0: 927c 5c3e b792 023e 3bd0 cd3d abe4 1cbd
000001d0: 0847 61bd 9736 31bc 4bb9 c83d ab8d aabc
000001e0: f95d 3cbc d14a 293c c670 9a3d e261 8b3d
000001f0: b658 07bc 7d58 993d 4bf7 ee3d d121 e83d
00000200: a5d1 073e 183d 053c 14f4 463d bb39 2d3e
00000210: bc4f 1a3e 0997 c33d 682f ee3d aa79 983c
00000220: e102 aabd 2b2e 1abd 18bd 74bd 9bad 0bbe
00000230: ee80 dabd fe68 693d 50da 73bb 6d48 44bd
00000240: d057 b73c 1f95 11be 76ed 8ebd ecdf 5dbd
00000250: bd48 eebb 2077 14be 9516 27bd 2324 18bc
00000260: 012a 93bd a5af 143c 49aa 07bd a173 643d
00000270: fa05 623d d21f bc3c ddba 463d 8305 88bb
00000280: 9550 5dbb b328 973c b8ed 943d 594d ef3d
00000290: 616e 0fbc ead0 93bc b5a7 db3d aee3 0d3d
000002a0: 3ffc 1b3d 5b30 333d 38ce 8fbd aee9 3b3d
000002b0: 9e6f 873d a868 383d 8c42 a93d d3c1 2dbc
000002c0: cb97 7dbd 5bcb b6bd 0292 b3bc 74db 40bc
000002d0: 0d10 27bd 8db2 4dbe 8426 66bd b55f 50bd
000002e0: 52d3 aabd 9963 7ebd 4ec3 8cbc 2fb3 39be
000002f0: dd53 7dbe d678 99bd b77e 39bb 7ad2 a2bc
00000300: c254 88bd a267 8f3c f52d ea3a 77f6 093c
00000310: f0e2 013d cb29 27bc b550 df3c 4a69 ba3d
00000320: dd93 4a3d 57f0 19be 22d7 99be 023a 70be
00000330: bb0b c4bd 7f79 e6bc e20e 96be 4fa3 2ebf
00000340: ea9e a0be 4b2d 54bd 41c5 c5bd a5ca 56be
00000350: 9cae 8cbe 85bc 7dbe b690 4ebe e482 1dbd
00000360: 0382 87bd a7cf b3be 9d45 71be 82eb 13be
00000370: 416d 00bc 9178 d1bc e996 aabd fba5 b2bd
00000380: b5c5 aabd d408 993c e5e2 7cbe 069e 9abd
00000390: b962 a4bd 13e2 40bc 57ca 113e 4a9b 7cbb
000003a0: df50 b7be 8a82 70be d77e 7dbd 29ff fd3c
000003b0: ddc6 a83d 861c 863d d63a d73c c522 5cbd
000003c0: fdb2 113c d101 79bd 065b 813b 58a4 e83b
000003d0: 522f 9cbc b34d cd3b 9ab4 3b3d 002b 113d
000003e0: 179d 27bc e315 1c3c 3bcb 84be d95e 5ebe
000003f0: f3da 8d3d e558 27be feaa 37be 3937 68be

deconv2.bias f4 [8]
-0.00029246192 0.0031568527 -0.0015962888 0.003072614 0.0003296302 0.00043991313 -0.00045851403 0.0015663769
00000000: 9355 99b9 33e3 4e3b 903a d1ba e95d 493b
00000010: 37d2 ac39 24a4 e639 b664 f0b9 e34e cd3a

bn2.weight f4 [8]
2.0767093 1.8302269 1.9406319 2.0695107 1.971973 1.7971003 1.9521675 2.199609
00000000: cee8 0440 e044 ea3f a066 f83f dd72 0440
00000010: 9c69 fc3f 6207 e63f a0e0 f93f 65c6 0c40

bn2.bias f4 [8]
0.9584692 0.7051315 0.8473984 0.7585263 0.73958164 0.85820144 0.6716168 0.15350679
00000000: 3d5e 753f 7f83 343f 1aef 583f c82e 423f
00000010: 3955 3d3f 17b3 5b3f 14ef 2b3f e230 1d3e

bn2.running_mean f4 [8]
0.055179346 -0.15217264 0.2041866 -0.21544641 -0.37950626 0.17592475 -0.449094 -0.2957474
00000000: bd03 623d 25d3 1bbe 4b16 513e fc9d 5cbe
00000010: a54e c2be 9e25 343e a6ef e5be 346c 97be

bn2.running_var f4 [8]
0.43980256 0.27422017 0.3549731 0.42645591 0.38403913 0.3058337 0.2966204 0.2514311
00000000: cd2d e13e 9666 8c3e 09bf b53e 6e58 da3e
00000010: c7a0 c43e 3c96 9c3e a1de 973e 94bb 803e

deconv3.weight f4 [8, 1, 3, 3]
0.25273937 -0.87294066 0.44043216 -0.011552957 -0.93010646 0.13431613 -0.10438266 -1.8417886
-0.18529834 -0.19671148 -0.30678457 -1.6818949 -0.38341996 -0.50001985 -0.0768672 -0.17822792
-0.2845197 0.38748565 -0.28595322 -0.47860947 -1.6677325 0.21928331 -0.15678377 -0.41300976
0.01389113 0.015358427 -1.1002133 -0.97948915 -0.1554772 0.6014759 -0.7155306 -0.26261634
0.19108568 -1.0557301 -0.99368536 -1.112788 -0.64835364 0.52973026 -0.7249705 -1.5358554
-0.12622812 -1.0738865 -0.49561724 -0.82595724 -0.7605733 -0.43401238 -1.4649379 -0.1370836
-0.8457232 -0.13408132 -0.4498107 -0.49445492 0.5966449 -0.23124878 -0.76586676 -0.6985674
-0.46744838 -0.60015386 -0.981767 -0.8607245 -0.9300017 -0.66108966 -0.38131246 -0.15741694
-0.19681911 -0.19384046 -0.033217832 -1.9620278 -0.33425412 0.39033923 0.005915142 0.015863433
00000000: 0e67 813e 0a79 5fbf 5380 e13e 9d48 3dbc
00000010: 751b 6ebf 2b8a 093e 93c6 d5bd bbbf ebbf
00000020: d9be 3dbe bc6e 49be de12 9dbe 5548 d7bf
00000030: 9f4f c4be 4d01 00bf 8d6c 9dbd 6181 36be
00000040: 91ac 91be 8564 c63e 7668 92be 4d0c f5be
00000050: 4278 d5bf ce8b 603e ed8b 20be 0476 d3be
00000060: 9f97 633c e9a1 7b3c cad3 8cbf cdbf 7abf
00000070: 6a35 1fbe 53fa 193f 032d 37bf a675 86be
00000080: f7ab 433e 2a22 87bf 2a62 7ebf d66f 8ebf
00000090: 81fa 25bf 679c 073f ab97 39bf e996 c4bf
000000a0: f241 01be 1d75 89bf 8bc1 fdbe ef71 53bf
000000b0: efb4 42bf df36 debe 1683 bbbf a55f 0cbe
000000c0: 5181 58bf 9d4c 09be 974d e6be 3229 fdbe
000000d0: b8bd 183f 7bcc 6cbe d80f 44bf 50d5 32bf
000000e0: 6555 efbe afa3 19bf 1555 7bbf 7158 5cbf
000000f0: 9714 6ebf 2c3d 29bf 633b c3be e831 21be
00000100: f38a 49be 1d7e 46be 6c0f 08bd ba23 fbbf
00000110: 5b23 abbe 8bda c73e cfd3 c13b 08f4 813c
