model/decoder_20d.pt (torch, 131567 bytes, 15 tensors)

fc1.weight f4 [736, 20]
000000 94 78 bf 3e 9c 0b 83 3e 85 36 ff 3e 6e b5 bf 3b
       0.3739668 0.25594795 0.49846283 0.0058504855
000010 e4 d0 70 be ed cd 50 bd c2 38 c3 be 82 a3 e3 3c
       -0.23517185 -0.050977636 -0.3812924 0.027787928
000020 0d 92 ce 3d fe d3 ee 3c 9e 39 1d bf 7b c5 95 be
       0.10086451 0.02915382 -0.6141604 -0.29252228
000030 a6 e3 f0 bc 3a 58 f7 be fd e0 cf be 9a 1c 47 3e
       -0.029405426 -0.483095 -0.4060134 0.19444504
000040 51 e4 4a 3e 96 04 9c bd 20 43 7a be bd e2 e5 bd
       0.19813658 -0.07618062 -0.24439669 -0.112248875
000050 65 a4 fc bc f8 88 ba bd 4d 7b 71 be ac a1 4f be
       -0.030840108 -0.09108156 -0.23582192 -0.20276517
000060 c8 72 10 bd 45 fe 0b 3b 87 38 e3 3c 97 88 fc bd
       -0.035265714 0.0021361273 0.027736915 -0.1233074
000070 34 1f 2d 3e ff eb 11 be 93 21 03 be 61 8b 14 be
       0.16906434 -0.14250182 -0.12805776 -0.14506294
000080 6a a6 33 be 39 96 10 bd 80 11 d9 3d b5 db a3 3e
       -0.1754395 -0.035299513 0.10599041 0.3200356
000090 c2 2f 20 bd 6a 98 85 be 65 e3 65 be c3 f3 fb 3c
       -0.039108045 -0.26092845 -0.22450025 0.030755883
0000a0 ab a5 39 be 5a a0 f9 3d dd 64 3e be 6b 50 00 3c
       -0.18129604 0.12188788 -0.18593164 0.007831673
0000b0 1c 6f 83 ba 12 c9 1d 3a b1 43 5d bd 14 79 fa 3d
       -0.001002762 0.00060190365 -0.054019634 0.12230125
0000c0 8d d0 26 3e 12 77 b3 bd bb 74 bc bd 12 80 04 be
       0.16290493 -0.08762945 -0.09201952 -0.1293948
0000d0 cb 02 c6 3c 2f 01 74 be cb 85 a4 bc a8 74 fe bd
       0.024171254 -0.23828577 -0.020083329 -0.12424594
0000e0 61 c7 dd 3d b6 e1 4b be 3f 71 48 be dd a5 44 be
       0.10829044 -0.1991032 -0.1957445 -0.19203897
0000f0 ef f7 16 bd 45 27 f4 3d d3 06 89 3c 12 7f d1 bc
       -0.03685754 0.119215526 0.016726887 -0.025573287
000100 d4 70 65 bc ea c5 84 3c 60 b0 85 3d c6 52 79 3d
       -0.014003951 0.016207654 0.065277815 0.060869955
000110 fa e5 01 bd 94 3f 3f bd 95 5c 62 bb 66 2d a7 bc
       -0.031713463 -0.046691492 -0.0034540046 -0.02040739
000120 49 ef 89 3d 94 96 0f be 9d 7c 45 bd f1 cf ff bd
       0.06735093 -0.14022285 -0.048214544 -0.124908336
000130 c3 05 4e 3e 19 c2 1b be 38 19 2c 3d 3e a3 1a be
       0.20119385 -0.15210761 0.042016238 -0.15101334
000140 11 40 b5 bd 2e fc cb 3c a0 76 f8 3d 38 ba 93 bd
       -0.0885011 0.024900522 0.12132001 -0.07213253
000150 37 b6 7f 3d af b0 f8 3c f0 92 92 3d 7a e0 4e 3d
       0.062429633 0.030357687 0.07156932 0.050507046
000160 4d 09 66 be 27 62 fd bd e4 56 b5 3d db 6b a8 3e
       -0.22464485 -0.12372237 0.08854464 0.32894787
000170 c8 72 94 bd 18 25 2c 3d d8 14 a0 bd 76 02 ff bd
       -0.07248455 0.042027563 -0.07816476 -0.12451641
000180 5a 02 89 bd f8 d7 22 3e fd 08 03 be f5 11 72 3e
       -0.06689902 0.15902698 -0.12796398 0.23639663
000190 e3 1f b7 3d e2 0f 22 3e 46 81 a6 3d a8 8b 86 3c
       0.08941629 0.15826371 0.08130126 0.016424015
0001a0 9e 1a 28 be 4a 2c c4 bc fe 86 da 3d 19 14 b0 3b
       -0.16416404 -0.0239469 0.10670279 0.0053734896
0001b0 b7 49 ea 3b 33 06 2e be 69 9a de 3d 7e 03 99 bc
       0.007149901 -0.16994552 0.10869295 -0.018678423
0001c0 7b c4 13 3d de ff 89 bd a0 00 13 bd 1b 0a b6 3d
       0.03607605 -0.06738256 -0.035889268 0.08888646
0001d0 78 03 0b 3e 4d 5d 3c 3d b2 10 93 bc 9c ea 26 3e
       0.13575542 0.045987416 -0.017952297 0.16300434
0001e0 4b 68 25 bb 7e 83 cf ba 17 6e 03 bb 6a 3e bc 3b
       -0.0025239165 -0.0015832034 -0.0020054632 0.005744745
0001f0 4d 06 af bb 55 8c e4 ba 46 1c 71 3b 16 fb 11 3b
       -0.0053413273 -0.0017436842 0.0036790534 0.0022274903
000200 96 b6 81 ba 00 89 bc 3b 20 0f fc bb c4 d3 57 3b
       -0.0009896334 0.0057536364 -0.0076922327 0.0032932619
000210 de 7d 34 bb 4e 96 88 3b 7c 8a b0 bb 29 91 1e 38
       -0.0027540843 0.0041683083 -0.0053876024 3.7805326e-05
000220 6e ba df bb 45 c9 9e bb 6a 57 f9 3b 86 e1 cf 3a
       -0.006827644 -0.0048457705 0.0076092975 0.0015860058
000230 27 81 eb ba 1f db 19 bb 0d 4e b6 38 2a 70 3b 3b
       -0.0017967568 -0.0023476554 8.6929744e-05 0.002860079
000240 75 1c 1e 3a 51 69 57 3a c5 bf bb 3a d0 22 4f 39
       0.0006031462 0.00082172925 0.001432412 0.00019754027
000250 ff cb 3a ba 56 e9 9f 3a 09 17 2c 3a e0 87 0a 3b
       -0.00071257347 0.0012200277 0.0006564712 0.0021138117
000260 73 97 88 3a 03 5a 18 3a 17 b7 47 3a 45 c1 7d bb
       0.0010421112 0.00058117526 0.000761853 -0.0038719934
000270 d5 3c c6 b9 59 13 71 3a eb 3e 3c 3a e8 d3 33 3b
       -0.00037810826 0.00091963034 0.00071810064 0.0027439538
000280 52 82 27 3d a2 8a 8e be f6 6a d5 bd 3b db ad 3d
       0.040895768 -0.27840143 -0.10420792 0.084890805
000290 b7 85 80 bc 70 de 33 3e a0 99 48 bd 10 3a ee 3d
       -0.01568876 0.17565322 -0.048974633 0.11632168
0002a0 dc b4 4a 3d bd f1 3e 3e b5 c4 11 be 77 71 f7 3d
       0.049488887 0.18646903 -0.14235194 0.120821886
0002b0 45 f6 25 3e b9 b7 eb 3d a8 f7 05 3e e0 3d c5 bd
       0.16207226 0.11509652 0.13082755 -0.09630942
0002c0 05 62 a3 bd 0d 64 02 3e ee 0c 93 3e 9f 1f 54 3e
       -0.0797768 0.12733479 0.28720802 0.20715187
0002d0 81 01 b0 bc db a6 d2 3d d6 4d 27 3d 17 2f a9 bc
       -0.021485092 0.102857314 0.040845715 -0.020652337
0002e0 2a fe 8e 3c 9a b3 a2 3d 2f 97 c7 bd 48 06 d3 3d
       0.01745518 0.079444125 -0.09745633 0.103039324
0002f0 22 cf 79 3d 1d 1e c0 bd 6e e1 f8 3d 7d 54 1d 3e
       0.060988553 -0.09380744 0.12152372 0.15364261
000300 67 cb f8 bc be db 09 be e6 74 3b bd 1d 2b 17 3e
       -0.030370427 -0.13462731 -0.04576578 0.1476254
000310 a9 67 db bd 0d 73 1a 3e 20 16 31 bd 49 d6 d0 bd
       -0.10713131 0.15082951 -0.04323399 -0.10197122
000320 42 5b 21 bd cf ea b1 3d 0f 57 0b bd 9a 9e ae 3d
       -0.03939367 0.08687364 -0.034018572 0.085263446
000330 50 f7 ad 3d 24 a9 de 3d 8f 02 f0 bd f1 be a8 3b
       0.08494437 0.10872105 -0.11719238 0.005149715
000340 87 86 30 3b 8b 52 4f bc d1 49 78 3e f7 a8 a0 bd
       0.0026935653 -0.012653957 0.24246909 -0.078447275
000350 71 ce 43 bc 40 9d 32 be 82 41 ba bd 07 b7 0d 3d
       -0.011951075 -0.17442799 -0.09094526 0.034598377
000360 56 f4 6c bd d4 a2 6f 3b d5 78 51 3d 5f 8c 66 be
       -0.057850204 0.003656556 0.051140625 -0.22514485
000370 6e 7b 40 bd 27 56 0e 3d dc 38 ad bd b5 0b 3d be
       -0.04699271 0.03475013 -0.08458111 -0.18461497
000380 a9 d5 bb bd dd 39 9d 3d a6 e7 25 3d 7a 67 86 3d
       -0.09171612 0.07677052 0.04050412 0.06562705
000390 ca 19 0f 3e 61 46 cd bd 58 8f b7 3d 12 66 8f be
       0.13974681 -0.10023189 0.089628875 -0.2800756
0003a0 ea b0 19 3e 9f 26 c0 3c 6a ac 87 bd 01 c6 80 bc
       0.15008894 0.023455916 -0.06624682 -0.015719416
0003b0 00 fb d0 3b 07 64 0f 3e 79 38 7c 3d ac 85 00 be
       0.006377578 0.14003001 0.061577294 -0.12550992
0003c0 09 19 b8 bd ba 10 2b 3d 34 6a d6 3d 92 0d c3 bd
       -0.0898915 0.041764 0.104694754 -0.09524073
0003d0 d4 de 55 3d 83 0c 33 3c d5 c3 ee 3d 85 3f ef bb
       0.05221446 0.010928276 0.11658446 -0.0073012733
0003e0 bb 82 11 3e c9 62 d9 bd 20 2e 66 bd b1 02 06 3d
       0.14210026 -0.10614545 -0.056196332 0.03271741
0003f0 ed e8 4d 3d c9 b1 13 3e ec bc ff 3d 4a f8 3b 3e
       0.050270963 0.14423288 0.12487206 0.18356434

fc1.bias f4 [736]
000000 a0 5b 3a 3e 94 3e 94 3c 2c 2c 89 3b 5d f9 a8 3e
       0.18199015 0.018096246 0.004186174 0.3300275
000010 1b ef 8a 3c 14 37 99 bd a8 e8 23 bb 6e f0 b8 b9
       0.016959717 -0.074812084 -0.00250105 -0.0003527435
000020 4f 9b 4a 3e db 57 91 3d 56 a4 18 3d 96 b5 0b be
       0.19785808 0.07096835 0.037266098 -0.13643488
000030 d0 b2 4a bd 60 a9 64 bd be 3e f6 3d 96 3c d8 bd
       -0.049486935 -0.05582559 0.12023686 -0.10558431
000040 b7 14 bf bd 34 1a fa 3d 6b 05 2b bd ae 06 63 3e
       -0.09330123 0.12212029 -0.041753214 0.22170517
000050 3f 55 12 ba 05 7f d0 3d 91 d0 fb 3d b9 d4 56 be
       -0.00055821607 0.10180477 0.1229564 -0.20979585
000060 1d a2 9e 3e 24 ba aa bd 32 64 b3 bd 16 8c b5 bd
       0.30983058 -0.08336285 -0.08759345 -0.0886461
000070 af f7 f5 3d 3a 09 bc 3d 23 0f 6d bc d9 c3 93 be
       0.120101325 0.09181447 -0.014468941 -0.28860357
000080 5f 57 27 bb d5 8b f7 3c 4d ee 71 be 70 04 fd 3d
       -0.0025534255 0.030218044 -0.23626061 0.12354362
000090 2d f4 0c 3e b7 c3 25 3e 52 a9 8e be 54 9e f9 bd
       0.1376502 0.1618794 -0.27863556 -0.12188402
0000a0 96 dc 69 be d3 d0 a2 be fe 3d f0 bd 3c cf 4e be
       -0.22838053 -0.31799945 -0.11730574 -0.20196241
0000b0 bd 74 a3 3d 45 b3 15 3e e0 05 af 3e 86 68 0d 3e
       0.079812504 0.14619167 0.3418417 0.13809404
0000c0 ff 6c 67 bd 70 fc 9c bd 28 88 70 3e be 76 08 bc
       -0.05650043 -0.07665336 0.2348944 -0.008329092
0000d0 fa c0 3c 3e 1d d2 b1 3d 65 6a 0e 3d 6b 74 97 3b
       0.1843299 0.08682654 0.034769434 0.0046220324
0000e0 91 c4 68 3e fb 39 2b be 1b a0 72 3c 33 b4 23 3d
       0.22731234 -0.16721337 0.01480868 0.039966773
0000f0 27 65 87 3d 1c ae 21 be e4 13 ce bc 2b 1c 4d 3d
       0.0661109 -0.15789074 -0.025155969 0.05007569
000100 05 45 fa bd c3 2a 05 3e 0b 8e 11 bd 2b 36 86 bd
       -0.12220196 0.13004594 -0.035535853 -0.065533005
000110 f1 76 ab 3e 5a d5 98 bc 51 69 8e bd 0b 97 8c 3d
       0.33489183 -0.018656421 -0.06953681 0.06864747
000120 52 13 7c 3d 1d 17 7d bd 26 4e b2 3d fe bb 37 3e
       0.061541863 -0.06178962 0.08706312 0.17942807
000130 c0 5c 4e bc dd d5 00 3e ab 7b 22 3c 8c 83 bb be
       -0.0125953555 0.12581582 0.00991718 -0.366238
000140 a9 a7 6a bd c3 2b 1e 3e 42 83 27 be 5b 5f 0e bd
       -0.0572888 0.15446381 -0.16358665 -0.034758907
000150 bf 1c 3a be d6 69 2d 3e 7a 72 71 3c e8 36 5e bc
       -0.18175028 0.16934904 0.014736766 -0.013562895
000160 73 f8 cf bd c1 b3 86 bc 67 60 50 3e a6 4f 36 3e
       -0.1015481 -0.016443135 0.20349275 0.17803821
000170 12 42 2e 3d 80 30 29 be cb 16 8f bc 0e 00 a7 bd
       0.04254348 -0.16522408 -0.017466923 -0.08154307
000180 e4 87 47 be bb 43 86 3c 0b 24 34 3e 82 e2 0a 3e
       -0.19485432 0.016389718 0.17591874 0.13562968
000190 4a ec 68 be ae f5 2b 3e e3 e8 02 be be a1 d5 3d
       -0.22746387 0.16792938 -0.12784152 0.104312405
0001a0 f9 02 28 3d 92 70 4a 3e 4a f5 c8 3d af 4f 6a bb
       0.04101846 0.19769505 0.0981241 -0.0035753062
0001b0 62 b1 f4 bd 92 34 eb 3c d2 f4 60 3d aa 37 28 3e
       -0.119478956 0.02871159 0.05492098 0.16427484
0001c0 53 67 ee bd ef 13 2c 3c f3 cd 92 3e 4e c3 18 3e
       -0.11640801 0.010502799 0.28672752 0.14918253
0001d0 d0 be d3 3d f6 24 22 be f1 12 30 bd ce c3 af ba
       0.10339129 -0.15834412 -0.042986814 -0.0013409795
0001e0 ca 4c 31 be e8 3b da bd 78 f9 e0 bd 5c d8 3a 3a
       -0.17314449 -0.106559575 -0.109850824 0.0007127577
0001f0 7c 86 aa be 27 2a 1e bf 47 60 f1 be 30 fb 7b 3d
       -0.33305728 -0.6178307 -0.47143766 0.061518848
000200 8d 06 b5 bd df 72 43 3d 0a e4 6d be 5c 01 0e be
       -0.0883914 0.04771697 -0.23231521 -0.13867706
000210 42 1b b4 3c 49 49 27 3e 4e 05 8a be 1a eb 8d 3b
       0.021985654 0.1633655 -0.26957172 0.004331005
000220 99 dd b9 bb 44 99 5a be d1 d9 03 3e 47 a8 5c 3d
       -0.0056721685 -0.21347529 0.12876059 0.05387142
000230 44 96 49 3e ed 93 4f 3e eb dd db ba 40 7e 18 3c
       0.19686228 0.20271273 -0.0016774511 0.009307444
000240 0c 9c 2f bd 9c d1 b3 3d 15 db 38 3b 3e 70 47 3e
       -0.042873427 0.08780214 0.0028206755 0.19476411
000250 d4 63 47 bd 7b 81 57 be bc d8 82 bd 6f f7 60 38
       -0.048679188 -0.21045487 -0.06388995 5.3636202e-05
000260 0b ef b6 3d 6f 79 12 3e 04 c9 28 3e e4 bf 83 3e
       0.089323126 0.14304136 0.16482931 0.25732338
000270 b6 86 f0 bd 71 26 c1 bd 9e e4 3b 3e 0f c5 b9 3d
       -0.11744444 -0.0943116 0.1834893 0.09070789
000280 4d 23 90 be 4b 4e 8f 3d 38 c8 b2 3e 63 8c 2b 3e
       -0.28151932 0.06997355 0.3491838 0.16752772
000290 f7 db 48 bd 64 7d 74 3d f6 84 2e bd 49 fa 15 bc
       -0.0490379 0.059689894 -0.04260727 -0.009153911
0002a0 59 be 41 be 6d 96 72 bd 3b 79 8e 3d 57 0b 24 3d
       -0.18920268 -0.05922549 0.069567166 0.040049877
0002b0 38 38 e4 bd 4f 8d f5 3b b2 0b ee 3a ce 53 b7 3e
       -0.111435354 0.007493652 0.0018161444 0.35806125
0002c0 d2 35 e8 3d 2e 0d 4c 3d 94 11 66 3e 4c 9f a7 3e
       0.113383904 0.049817257 0.22467643 0.3273872
0002d0 21 1d 82 3e ea e5 95 3e b6 47 ec 3d b4 d6 d1 3d
       0.2541285 0.29276973 0.11537115 0.102460295
0002e0 ab d2 16 bd 0d f4 c3 3d 41 09 3c 3e 82 7b c4 bd
       -0.036822002 0.09568033 0.18362905 -0.0959387
0002f0 f5 98 3a 3d 22 46 56 be 77 47 4b 3e 08 7c 8e 3d
       0.045556027 -0.20925191 0.1985148 0.06957251
000300 54 2b 62 bc db a3 48 be 21 4e 32 3d cf 60 20 3e
       -0.013804276 -0.19593756 0.04353154 0.1566193
000310 17 6c f7 3d 07 c7 05 3d 03 e0 33 be 08 ec 81 3e
       0.120811634 0.03266051 -0.17565922 0.2537539
000320 4d aa dd be 81 95 88 3d 05 bb 2a be e5 df e8 3d
       -0.43293992 0.066691406 -0.16672905 0.113708295
000330 16 78 86 be 5f de b4 3d 4e 47 5b 3d 5a 5b 9b 3d
       -0.26263493 0.088314764 0.0535348 0.07585783
000340 d3 bf 8a 3e b1 c2 3b 3d c0 d2 aa bd 2c f2 4e 3e
       0.27099475 0.04583997 -0.083409786 0.20209569
000350 b5 11 73 bd 91 fb f8 bd 09 8e 81 3d e5 bd 9e 3e
       -0.05934306 -0.121573575 0.06325919 0.31004253
000360 ac bb af be 94 6a 6d bd 8b 7f 42 3d 93 b5 f8 bd
       -0.3432287 -0.05796297 0.047484916 -0.121440075
000370 0a 01 fc bc 80 8a 8a bb df 35 a6 3d 62 15 25 bd
       -0.030762214 -0.0042279363 0.08115744 -0.040303595
000380 bc ef 36 3d 5b f1 3c 3e ce 03 e3 bc d7 2a 2f 3e
       0.044662222 0.18451445 -0.027711775 0.17106186
000390 0e fd 47 3d 97 60 9b bd 1b 7e 2c 3c 2b 63 c9 3d
       0.048825316 -0.075867824 0.010528113 0.09833368
0003a0 df b2 93 be 0e 65 bf 3b 49 cb 73 3e a9 24 65 be
       -0.28847405 0.005840904 0.23808016 -0.22377266
0003b0 1c a3 d1 3d 2c 1f 24 3d f5 c8 72 3d 6d 2c 18 3e
       0.10236189 0.04006879 0.05927368 0.14860697
0003c0 7f 31 4e bd 49 7e 9f bd 50 ba 24 3e 52 ca 65 bd
       -0.050340172 -0.07787759 0.16086698 -0.05610115
0003d0 28 59 ab bd 70 9f 2c 3e e4 8b 3e 3e dc d5 b2 be
       -0.083666146 0.16857696 0.18608052 -0.34928787
0003e0 cc 9d 1e 3e 85 91 7b 3e 09 06 53 3e 2b 74 01 be
       0.15489882 0.2456723 0.20607771 -0.12641971
0003f0 bd 79 31 be 67 9f a4 3e fc 0a d1 3d 82 d6 c5 be
       -0.17331596 0.32152864 0.10207173 -0.3864022

deconv1.weight f4 [32, 16, 5, 5]
000000 ed 86 48 3d a9 3a 05 bd 9a 06 7a 3d 2a 47 d6 3c
       0.0489568 -0.032526646 0.061041452 0.02615698
000010 61 1b 70 bc 35 17 bf bd f6 11 4c bd f1 15 0d bc
       -0.014654965 -0.09330598 -0.049821816 -0.008611188
000020 b9 41 fd bd ed 18 74 bd b9 a1 39 3d ae 90 b4 3c
       -0.12366051 -0.059594084 0.045320246 0.022041645
000030 2f 5e 59 bd de 85 06 bd a8 95 0a be 56 98 26 bd
       -0.053068336 -0.03284251 -0.13533652 -0.040672623
000040 26 d2 88 3e 39 e1 76 3d ef a1 84 3d af 26 a9 bc
       0.2672283 0.060273383 0.06476199 -0.020648329
000050 bb d1 08 3d 55 9f 7c bb c4 9c 1f 3d 99 63 a5 3c
       0.03340314 -0.0038547118 0.038967863 0.020189093
000060 dc 6a ab bc ad 4f f4 3d 3b 58 78 3d 97 0a 48 bc
       -0.020924978 0.119292594 0.060631018 -0.012209556
000070 b5 e6 11 3d 17 60 18 3d da 34 e2 3c e1 bd 1a bd
       0.03562041 0.037201013 0.027613092 -0.03777874
000080 4a 70 e3 3c 02 62 53 bb 8b f1 9b bc 36 97 c6 bc
       0.027763505 -0.0032254462 -0.019036075 -0.024242025
000090 6e a7 b8 3c ea 81 8e 3b a1 06 06 be 3e 0f 4a bd
       0.022540774 0.004348983 -0.13088466 -0.049330942
0000a0 74 91 2d bd dc f6 9d bb 65 6c b3 3d 41 8b 02 bc
       -0.042375043 -0.0048206877 0.08760909 -0.007967771
0000b0 ad 30 9f bc 5a 2a 77 bc 9f e7 c2 bd b0 9e 43 bc
       -0.01943239 -0.015085781 -0.095168345 -0.0119396895
0000c0 d1 fa de 3d 33 9c e8 bd a0 d9 a0 ba 2d 0d 8b 3c
       0.10887683 -0.11357918 -0.0012271889 0.016974056
0000d0 a7 6a 20 bb 53 e8 21 bd dd 93 a7 3c 08 08 2f bd
       -0.0024477632 -0.039528202 0.020456249 -0.04273227
0000e0 7b 38 b0 ba 5e 85 35 bb 6e 85 48 3d d4 d3 e1 3c
       -0.0013444567 -0.0027697901 0.048955373 0.027566828
0000f0 91 da 26 bd b9 20 27 bb 9c 16 25 bd a8 1d c8 bc
       -0.040735785 -0.0025501682 -0.040304765 -0.024428204
000100 1d 30 18 3c fd 38 a4 3d 1d 8a 69 bd 2f 9b 0c 3d
       0.009288815 0.08018682 -0.05701648 0.034327682
000110 3b 69 b4 bd 2a 9f 34 3d 99 bb fc bc 94 fd e6 bb
       -0.088091336 0.044097103 -0.030851172 -0.007049272
000120 b3 99 a4 bd 8c 69 cd 3c 60 45 1d 3c e5 8b 03 3e
       -0.08037128 0.025074743 0.00959906 0.12846334
000130 cf ac ad 3d c7 95 92 3d 5b d1 27 3c ba 28 35 3d
       0.08480226 0.07157474 0.010242785 0.044228293
000140 5c ba 97 3d bc f1 e0 3d df 36 4b 3c 34 4f 94 3c
       0.07408592 0.10983607 0.012403219 0.018104173
000150 0a 29 a3 bd 72 b6 3c 3d 2f e7 5b bb 01 ba a0 3d
       -0.07966812 0.04607243 -0.0033554544 0.078479774
000160 ae 04 e5 bb 74 60 8e 3d fc ec cc 3d c1 c2 d5 3c
       -0.0069890833 0.06951991 0.10006139 0.026093842
000170 ee 4c 8b 3d 7b cf 3c bc 7a 1c 26 3d f4 0a a2 3d
       0.068017825 -0.011524077 0.0405545 0.079122454
000180 d3 00 17 bd 67 be cc 3d e3 7c 29 bc 63 0d a6 3d
       -0.03686602 0.09997254 -0.010344717 0.08108022
000190 b6 12 9c 3d e8 1d 46 bd a0 6b c4 3d fc 87 c7 3b
       0.07620756 -0.048368365 0.0959084 0.0060892086
0001a0 1c ab 4c 3d 5d 36 37 be b4 18 1f bc e8 d4 1b bd
       0.04996787 -0.17891832 -0.0097104795 -0.03804484
0001b0 a5 68 27 bb c6 4b 8c 3c fe 8e e3 bc 24 fa 6d 3c
       -0.002554455 0.017125975 -0.027778145 0.01452497
0001c0 9d 15 52 be 5c 10 52 bd 1c 18 1d bc eb 4a 15 bd
       -0.20516057 -0.051285133 -0.009588268 -0.0364484
0001d0 b6 4f be bb 72 bc b4 bd ef 89 bb bb 99 ff bd bd
       -0.005807842 -0.088250056 -0.00572323 -0.09277267
0001e0 f7 f1 0b be 09 39 31 3d 71 52 20 3d 12 fe f2 3c
       -0.13666521 0.043267284 0.039141122 0.029662166
0001f0 40 9f c5 bb d1 72 45 be d2 8b 0f be 43 a9 74 bd
       -0.006030947 -0.1928208 -0.14018181 -0.059731733
000200 69 63 fb bc cc 01 7e 3d 4b 07 9a 3d c7 3b ed 3b
       -0.03068705 0.062013432 0.07520922 0.007239792
000210 56 b0 e9 3c 86 49 c0 3c 1d 55 11 3c 0f 05 00 3d
       0.028526466 0.023472559 0.00887039 0.031254824
000220 63 6f 5b 3d 78 53 f0 3c 48 7d 80 bc 79 4e d0 3c
       0.053573024 0.029336676 -0.015684739 0.025428044
000230 e6 ca ed 3c 14 c6 a5 3c 55 ce 2c bc da a7 0c be
       0.029027414 0.020236053 -0.01054724 -0.13735905
000240 3a f1 ee 3b ab ea 8f 3d 20 18 b0 3d a5 07 3e 3d
       0.00729194 0.07027181 0.085983515 0.04639401
000250 d4 46 a5 3d 58 50 40 3d 93 54 01 be dd af 63 3d
       0.0807015 0.04695162 -0.12629919 0.05558764
000260 6a 8d 0b bc ae 91 e8 3c d4 db e6 bc dd 91 ad bc
       -0.008517602 0.028389778 -0.028180994 -0.021187717
000270 06 ce ee bd 1a e6 b4 bd 43 8a 68 bd eb 59 ec bd
       -0.116603896 -0.08832951 -0.05677248 -0.11540588
000280 d9 ae aa bd 47 94 3d 3c 42 f8 e3 bc 7a 81 11 bd
       -0.08334131 0.011570997 -0.02782834 -0.03552387
000290 ed a2 c9 3c 2b 2c 18 3b 72 51 cc bd 19 b8 e6 3c
       0.024613822 0.0023219686 -0.09976472 0.028163956
0002a0 9e 59 40 bd 50 0e 53 3d 32 83 43 bd a9 cd a3 3c
       -0.046960466 0.05152732 -0.04773254 0.019995527
0002b0 aa 4b 35 3b 4d 51 4b 3b c9 98 41 3d 4a 98 22 3e
       0.0027663507 0.00310238 0.047264848 0.15878406
0002c0 b8 8e 08 3d 13 a8 eb 3d 46 d7 1d 3c d6 03 f6 3b
       0.033339232 0.11506667 0.009633845 0.0075077815
0002d0 42 a5 77 3d 7e 87 d9 3d 92 d3 b2 3d 73 0c 92 3d
       0.060460337 0.10621546 0.0873176 0.07131281
0002e0 39 e2 a3 3d 68 be 92 3d b0 6a c8 3c b7 62 3c 3d
       0.08002133 0.07165223 0.024464935 0.04599258
0002f0 89 26 0e 3c a6 b0 e0 3c 39 27 cc 3d ad 64 8c 3d
       0.00867618 0.027427983 0.09968419 0.0685514
000300 b4 a0 0b 3d 95 0c ac 3a 16 26 81 3d 9b b8 f4 3d
       0.034088805 0.0013126308 0.063060924 0.11949273
000310 6a e2 66 3d 6d c8 6e 3d c9 fd 32 bc 52 c7 66 3c
       0.05636827 0.05829661 -0.010924765 0.014085608
000320 34 ab 2c be 79 bd 7e 3d f6 1e f6 bd b9 eb 7a 3d
       -0.16862184 0.062192414 -0.12017624 0.06125996
000330 b9 f4 53 bc 1b 39 c7 bc 0c 8d a2 3d 3e dc 70 3d
       -0.012936764 -0.024319222 0.07937059 0.05880379
000340 b5 73 32 3d 36 c4 d9 bc 36 e4 87 bd 0b 43 0d 3c
       0.043567378 -0.026582818 -0.06635325 0.008621941
000350 4f 69 ee bc 71 69 13 3d 20 ca 03 bd d4 b2 ec 3a
       -0.02910295 0.03598923 -0.032175183 0.0018058666
000360 e0 b9 43 bd fe f9 16 bc b4 68 69 bd aa eb 46 bd
       -0.047784686 -0.009214876 -0.05698462 -0.04856459
000370 99 b2 20 3d 9e c0 62 bd b8 89 b3 bb 69 42 c9 bb
       0.039232824 -0.055359475 -0.005479064 -0.00614195
000380 b3 08 ff bc 2e ff 57 bc 64 b3 0e be ed 33 93 bd
       -0.031132078 -0.013183398 -0.1393562 -0.071876384
000390 a6 01 49 3d 86 eb 3a bc 25 3d 13 be e9 41 06 be
       0.049073838 -0.011408692 -0.14378794 -0.1311108
0003a0 f3 d5 28 3c 1b c1 99 3d dc 14 77 3d 2b 46 07 3b
       0.010304916 0.07507535 0.060322627 0.0020641189
0003b0 f0 1a 8c bd 92 2c a4 3d fd 60 9b bc d5 b6 e1 3c
       -0.068410754 0.080163136 -0.018967146 0.027553001
0003c0 15 98 b8 3d 4b 99 93 3b 55 27 57 3d e6 04 51 3d
       0.09013382 0.004504358 0.052527744 0.051030062
0003d0 37 6b c6 3a cd a7 4f 3d d0 ad 9d 3d aa 6d 13 3d
       0.0015138154 0.050697137 0.07699168 0.035993256
0003e0 f8 20 06 3b 9c fb 53 3b 48 7c 8e bc 49 af 95 bd
       0.0020466428 0.0032346016 -0.017393246 -0.073088236
0003f0 32 80 e6 3c 82 84 2b bd 2c 50 bb 3d dd 44 bc 3d
       0.0281373 -0.041874416 0.09146151 0.09192822

deconv1.bias f4 [16]
000000 c8 9e a9 39 92 f9 9d b8 28 26 89 39 0b e7 3c ba
       0.00032352493 -7.5328295e-05 0.00026159105 -0.0007206059
000010 cc 23 c0 39 38 a9 d0 39 36 67 5d b8 c2 5c b0 38
       0.00036647765 0.0003979893 -5.278663e-05 8.4096115e-05
000020 f5 01 4e ba cc 01 4d 39 c8 34 00 39 4c 13 3a 39
       -0.0007858568 0.00019550993 0.00012226694 0.00017745531
000030 da eb 2c b9 c7 0c c6 39 45 a1 20 3a 96 fd a0 39
       -0.0001649106 0.00037775023 0.00061275467 0.00030706514

bn1.weight f4 [16]
000000 af 30 6f 3f f5 3f 83 3f 7d 6b 84 3f ad e7 78 3f
       0.9343366 1.0253893 1.0345303 0.9722851
000010 6c ba 82 3f 23 23 7b 3f 9a 6c 7d 3f a4 f7 80 3f
       1.0213141 0.9810049 0.9899384 1.0075574
000020 a9 21 83 3f e2 93 7d 3f 36 95 7c 3f d5 a7 7c 3f
       1.0244647 0.99053776 0.9866518 0.9869359
000030 5d 92 89 3f de e1 83 3f bd 5d 79 3f 41 42 83 3f
       1.0747792 1.0303304 0.9740866 1.0254594

bn1.bias f4 [16]
000000 cf 70 de bd 44 92 19 3b c5 6b 61 bd 69 fd ab bd
       -0.1086136 0.0023433128 -0.055034418 -0.083979435
000010 5c 4d b7 3d a7 8c ce bd 2b 13 81 ba f6 c1 8b be
       0.08950302 -0.10085421 -0.0009847631 -0.27296418
000020 18 1b e4 bc 95 cb 18 3d b3 5d 0e bd ab d0 97 bd
       -0.02784495 0.037303526 -0.034757327 -0.07412847
000030 99 82 bc 3d 42 d9 2e 3d de 99 44 bc ba bf 8e bd
       0.09204597 0.042687662 -0.011999575 -0.06970163

bn1.running_mean f4 [16]
000000 b6 45 01 bf 6b c0 52 c0 b9 a9 a9 bf 7a 4e 16 bf
       -0.50496995 -3.2929943 -1.325492 -0.58713496
000010 2d 7b f9 bf 76 b3 e9 bf 98 5c 01 c0 87 e4 2f 40
       -1.9490715 -1.8257892 -2.0212765 2.7483232
000020 db 8f 0c c0 5f c0 2d c0 a6 a2 ad 3f e3 c7 bd bf
       -2.1962802 -2.7148664 1.3565261 -1.4826626
000030 01 20 d7 bf 85 88 d2 bf 44 45 3b c0 5e 9e 9b bf
       -1.6806642 -1.6447912 -2.9261026 -1.2157705

bn1.running_var f4 [16]
000000 24 3d 07 41 e3 e9 dc 40 85 f8 74 40 ea e4 43 40
       8.452427 6.9035506 3.8276684 3.0608468
000010 a5 1c 44 40 c0 6e df 40 40 20 cb 40 c1 75 5b 40
       3.0642483 6.9822693 6.347687 3.4290621
000020 54 72 65 40 d9 f6 77 41 9e 29 ca 40 b0 b8 96 40
       3.585103 15.497766 6.31758 4.710045
000030 fb c2 bd 40 05 e3 c8 40 24 86 33 41 45 bd c7 40
       5.9300513 6.2777123 11.220249 6.241854

deconv2.weight f4 [16, 8, 5, 5]
000000 15 0b b4 3d 36 56 f0 3d 52 28 aa 3d c1 71 8d 3c
       0.08791176 0.117351934 0.08308472 0.017266156
000010 1c 16 9d 3c 2c 1d c9 3d 01 4b 2d 3c 5a 9f 49 3d
       0.019175582 0.09820017 0.010576964 0.049224235
000020 6a 34 88 3d 84 a6 c4 3d 50 88 a3 3c cc ad 93 bd
       0.06650622 0.09602073 0.01996246 -0.072108835
000030 68 b9 b9 bd 02 93 a8 3d 52 ab 0a bd 4c 46 04 bd
       -0.090685666 0.082311645 -0.03385479 -0.032293603
000040 1a 83 91 3c 65 44 a1 bd 44 07 5d bd d6 12 85 bd
       0.01776271 -0.07874373 -0.053962007 -0.06497733
000050 a9 a0 1f bd 63 7d 5a bd 22 4f c4 3b 9d 9f b2 bd
       -0.038971577 -0.053342234 0.0059908787 -0.0872185
000060 33 e5 d3 bc 31 bb e1 bb 45 7c 1b be bf 0e 9c bd
       -0.025866127 -0.00688877 -0.15184124 -0.0762
000070 ef 44 32 be 38 cb ae bc a0 a7 11 3d 3d cb 9d 3d
       -0.17409109 -0.021337137 0.03556025 0.0770478
000080 3e 70 fa 3c db e4 d1 3c d8 6a 34 3d 87 36 f3 3d
       0.0305711 0.025621822 0.044047207 0.11875635
000090 98 24 89 3d 99 66 89 3d d0 42 0f 3e b2 84 5a 3d
       0.06696433 0.06709022 0.1399033 0.053349204
0000a0 3a 1d 96 3b 61 ce b7 3d 1c 8c df 3c b7 d3 58 bd
       0.004581121 0.089749105 0.027288489 -0.052936282
0000b0 fa 46 17 3c 56 2c 80 bc 32 83 21 3c 63 cc 97 bd
       0.009233231 -0.015646141 0.00985794 -0.074120305
0000c0 13 7a 58 3b b1 1f 8f bd f2 5b 65 bd d8 16 9a bd
       0.0033031746 -0.069884665 -0.05599589 -0.07523888
0000d0 59 1a 47 3b af 72 0c bd 27 8b 43 3c b9 4d c6 3c
       0.0030380695 -0.03428906 0.011935032 0.024206983
0000e0 8b 23 56 3d f9 e9 98 3d 42 c7 bd 3d d1 c4 d8 3d
       0.05227999 0.07466502 0.09266521 0.10584415
0000f0 c7 15 87 3d ba 10 8b bd 72 bf 07 3d a6 b4 80 bd
       0.065959506 -0.067903 0.03314156 -0.06284456
000100 15 e5 21 bd 4f aa 4e bd 9f 1c ad bd eb da 0d bd
       -0.03952511 -0.050455388 -0.08452725 -0.034632605
000110 a8 d5 0f be e9 95 03 3c fb d1 84 bd d3 97 97 bc
       -0.14046347 0.008031347 -0.06485363 -0.018505013
000120 ce ae c2 3d c0 fa 9b 3c 37 74 83 3d f0 74 75 bd
       0.095059976 0.019040465 0.064186506 -0.059925973
000130 18 82 c1 bd e4 3d fc bc d9 62 4d bb e9 1e 4a 3d
       -0.094486415 -0.03079123 -0.0031339435 0.049345884
000140 cc cd 84 bd d2 bb 0c bd f0 96 97 3c 75 bc 37 3d
       -0.06484565 -0.034358807 0.01850459 0.04485746
000150 2b 82 a8 b9 02 eb ea bd 0d f4 59 bc 8c c6 74 bd
       -0.0003214044 -0.114706054 -0.013302815 -0.05975966
000160 c9 78 e4 bc bd 04 92 bd 44 aa 95 bd ff 03 2c bd
       -0.027889626 -0.0712981 -0.07307866 -0.041996
000170 23 ca 8b bd 55 11 aa bc ad 01 50 bd 03 8f 4e bd
       -0.06825664 -0.020760218 -0.05078285 -0.050429355
000180 37 1f 8e 3d ac 79 a2 3c 1e a2 ec bc 79 f0 dd bd
       0.069395475 0.019833408 -0.028885897 -0.10836882
000190 64 42 05 bc a5 71 ea 3d 16 b1 f1 bc 6b bf 37 3d
       -0.008133505 0.11447457 -0.029503386 0.044860285
0001a0 7f fd 2e 3d 8c aa 3f bd a4 2b 17 3d 2b e9 79 bd
       0.04272222 -0.046793506 0.036906853 -0.061013382
0001b0 4c 44 6c 3d 17 1a 9e 3b 02 55 8c 3b 45 fb 14 ba
       0.05768232 0.0048248875 0.0042825947 -0.0005683194
0001c0 38 66 4d bc 65 76 eb 3a c7 df e9 bc 66 fe b6 bc
       -0.012536578 0.0017964361 -0.028549088 -0.022338104
0001d0 09 c1 c2 3d 2f 25 e9 bc 4b a1 64 3c bb 35 25 bc
       0.09509475 -0.028460113 0.013954471 -0.010083611
0001e0 27 01 9f bd d8 59 b8 3c 14 e3 3d bd dc c3 2d 3c
       -0.07763892 0.022503778 -0.046359137 0.010605779
0001f0 17 a7 02 bd b2 ab 26 bd db 57 e7 bd 4b bc fa bd
       -0.03189763 -0.040691085 -0.11296054 -0.12242945
000200 34 60 b3 bd 0a bc 04 3d 0d 65 8a 3d 1b e0 42 3d
       -0.08758584 0.03240589 0.06757555 0.047577005
000210 a0 a3 c3 3d 8c 2f c6 3d 76 9e 4a 3e bc eb 2d 3e
       0.09552693 0.096770376 0.1978701 0.16984457
000220 88 1b 22 3e 03 4f 34 3e 83 9a 0b 3e 10 32 9e 3b
       0.15830815 0.17608266 0.1363316 0.0048277453
000230 17 6f 99 bd 9d da 47 be ba 21 28 be 07 c2 24 bd
       -0.07491892 -0.19516988 -0.16419116 -0.0402241
000240 4e 89 ab bc 73 5f 0d bd 8f e0 1e bd af 6e cb bd
       -0.020939495 -0.034514856 -0.038788375 -0.099332206
000250 b5 43 87 3c 5b 48 1a bd 5d 0f 37 3d 47 4e a2 3d
       0.016511777 -0.03766666 0.044692386 0.079250865
000260 1b 05 24 3d 11 7c ff 3c d4 61 d1 3c 99 df d5 3c
       0.04004393 0.03118709 0.025559343 0.026107596
000270 9d 89 08 3d 1f cd a5 bc 46 8e bf 3b c6 ba 7b bd
       0.033334363 -0.02023941 0.0058458177 -0.061457418
000280 61 2f 2f b9 9a cf cb bd 06 d7 23 bd 14 46 7e 3b
       -0.0001670695 -0.09951706 -0.039999984 0.0038799094
000290 8e 44 d3 bc 53 3a 25 bd 39 0a e2 bb ea a9 18 3c
       -0.025789525 -0.040338825 -0.0068981913 0.009317854
0002a0 64 32 83 3d 4a 2b 49 bc 79 bd 9b bd d0 96 74 bd
       0.064060956 -0.012278387 -0.076044984 -0.05971414
0002b0 a9 6c f3 bd a2 68 5f 3d c5 87 e7 bd 42 05 10 be
       -0.1188596 0.054543145 -0.11305193 -0.14064506
0002c0 55 52 d5 bd 38 e3 b5 bd 50 74 62 be 2f fb f9 bd
       -0.10416094 -0.08881229 -0.22114682 -0.122061126
0002d0 42 5a cd 3c 08 6c 27 bc dc 6f 5b bc b9 e8 52 3d
       0.025067452 -0.010218628 -0.013393369 0.051491473
0002e0 66 3a b8 bb bf e6 81 3c a3 13 be 3d 44 34 88 3d
       -0.005622196 0.015857099 0.09281089 0.06650594
0002f0 3e 65 e2 3d b0 e0 4d 3d 5e e2 a7 bc ee 00 9d bd
       0.11054467 0.050263107 -0.020493682 -0.07666193
000300 f4 a4 d5 3d ac 57 ca 3d ca 91 97 3d ad f5 17 bc
       0.10431853 0.09880003 0.07400854 -0.009274882
000310 82 df 48 bd 0a 4b fb bb 84 e2 21 3d 24 ec ad bd
       -0.04904128 -0.0076688575 0.039522663 -0.08492306
000320 fa 67 10 bd 3f 57 52 3d 10 68 f3 bd 05 30 a1 bd
       -0.03525541 0.051352736 -0.11885083 -0.07870487
000330 31 a8 2d be 3b 15 5a 3d 53 f1 70 3d f6 67 df 3a
       -0.16958691 0.053242903 0.058823895 0.0017044533
000340 20 36 28 bd e9 1c 83 3d 37 35 1c 3d 34 90 b7 3c
       -0.041067243 0.064019985 0.038136687 0.022407629
000350 ba b2 6d 3d c8 42 40 3d b0 1f 99 3c d6 63 f1 3b
       0.058031775 0.046938688 0.018691868 0.0073666377
000360 dc ac 3b be 0e d4 49 3c cb 1c 83 3d 41 d4 0b 3d
       -0.1832766 0.012318624 0.06401976 0.034137968
000370 a3 54 54 3e 60 43 8b 3c 09 a3 60 3e 93 44 4e 3e
       0.20735411 0.0169999 0.21937193 0.20143346
000380 8b 91 26 3c 7c 04 f4 3c 69 b1 63 3c b4 f1 8c 3d
       0.010166536 0.029787295 0.013897278 0.06882039
000390 16 8b e7 3d 2c cc 38 bc 3b 3c 3b 3d 6a 50 fc bc
       0.113058254 -0.011279147 0.045711737 -0.030800063
0003a0 2a 9b 64 3d ef 9c 56 3d bd ca bb bd d1 56 48 3d
       0.05581204 0.052395757 -0.09169529 0.04891092
0003b0 34 28 12 3b 7b cb 04 3e 4d 22 04 3e 61 b9 2c 3d
       0.0022301795 0.12968247 0.1290371 0.04216898
0003c0 fa 24 16 3d db f2 df 3c a3 30 81 3d a1 78 c1 3c
       0.036656357 0.027337482 0.06308105 0.02361709
0003d0 e5 6c c3 bc 6c d4 b1 3d 63 29 27 3e 87 5a cd 3c
       -0.023855636 0.086830944 0.16324382 0.02506758
0003e0 a7 29 f8 bd 6f 46 4b 3d 23 88 0a be 5a 4f b4 bc
       -0.121173196 0.049627718 -0.13528495 -0.022010494
0003f0 c2 b3 1d be 93 bc 13 bd 14 1e 0c be 6b 55 d5 3c
       -0.15400603 -0.03606851 -0.13683349 0.026041707

deconv2.bias f4 [8]
000000 76 cb ff 39 ba 84 58 3a 0b 51 1d ba da 8a c8 39
       0.0004878898 0.0008259524 -0.0006001151 0.00038250425
000010 99 72 66 b9 5b a0 41 ba a0 15 32 39 00 87 1f ba
       -0.000219772 -0.00073862605 0.00016983459 -0.0006085485

bn2.weight f4 [8]
000000 ec 8a ea 3f 50 03 e5 3f fa d7 db 3f 12 53 e3 3f
       1.8323646 1.7891636 1.7175286 1.7759726
000010 67 fd dd 3f 1e 20 d6 3f cb cd e1 3f 70 98 dc 3f
       1.7342957 1.6728551 1.7640928 1.723402

bn2.bias f4 [8]
000000 15 da 42 3f 62 26 30 3f c2 ee 28 3f cf 1f 37 3f
       0.76114017 0.6880857 0.65989316 0.7153291
000010 fa 0f 25 3f 82 8d 1e 3f 3a 73 30 3f 3b 70 20 3f
       0.64477503 0.61934674 0.6892582 0.6267125

bn2.running_mean f4 [8]
000000 75 48 bd bd ab a8 35 3e ca 4d b4 3c d9 14 c0 be
       -0.09242336 0.17740123 0.022009749 -0.37515905
000010 3f aa c8 3e 80 4f 93 3c 11 06 58 3d 29 2a 34 3e
       0.39192387 0.017982244 0.05274016 0.17594208

bn2.running_var f4 [8]
000000 bb bf 91 3e b9 fd 4e 3e ec 11 cc 3e 30 be 2d 3e
       0.2846659 0.20213975 0.39857423 0.16967082
000010 7d 39 24 3e 0a ea 8c 3e b9 fa 63 3e 72 11 2e 3e
       0.16037555 0.27522308 0.22263612 0.16998842

deconv3.weight f4 [8, 1, 3, 3]
000000 23 42 ce be 1f 6e 14 bf 69 8f 9d be 98 9f 3f bf
       -0.40284833 -0.5798053 -0.30773476 -0.74852896
000010 8a 7b 14 bf b7 32 10 bf 3d e1 ef be 35 2b 6c bf
       -0.58001006 -0.56327385 -0.4685153 -0.9225343
000020 dd e0 20 bf 01 68 d6 be a4 e5 39 bf 54 53 20 bf
       -0.62843114 -0.41876224 -0.7261603 -0.6262715
000030 40 c9 3f bf f9 da 41 bf 25 0f 78 bf 2a 59 9c 3b
       -0.7491646 -0.7572475 -0.9689811 0.0047713714
000040 0c 75 f6 be f8 ab f5 bd c7 94 f9 be 96 df fd be
       -0.48136175 -0.11995691 -0.4874632 -0.49584645
000050 46 7d ae be 93 17 94 be 53 1a 85 be 73 a7 aa be
       -0.3407995 -0.28924236 -0.25996646 -0.3333088
000060 02 0c 90 bf d0 80 46 bf 66 56 15 bf 53 3f cd be
       -1.1253664 -0.775403 -0.5833496 -0.40087375
000070 6f b6 4a bf 78 93 30 bf 82 60 21 bf 54 ca 68 bf
       -0.7918462 -0.6897502 -0.63037884 -0.9093373
000080 7d a2 68 be 08 d4 6e be a4 ba 3f bf c1 e0 18 bf
       -0.22718234 -0.23323071 -0.74894166 -0.5971795
000090 9e fb 17 3d a2 a6 12 bf 90 b1 a0 be 47 39 b9 be
       0.037105195 -0.5728551 -0.3138547 -0.36176512
0000a0 fb 1b 66 bf 77 06 ef be 13 48 1f bf b2 bd 4b bf
       -0.89886445 -0.4668462 -0.6221935 -0.7958633
0000b0 5c ee 1f bf 73 a7 08 bf 13 70 a9 be 9f fa 3d be
       -0.6247308 -0.5338051 -0.33093318 -0.18552636
0000c0 20 12 34 bf 8d bf 3c bf 04 9a 22 bf c6 e1 19 bf
       -0.70340157 -0.73729783 -0.6351626 -0.6011013
0000d0 f7 c4 81 be f1 3c 41 bf 73 d2 0e bf 3f b8 4d be
       -0.25345585 -0.75483614 -0.5578987 -0.20089816
0000e0 3a fb bc be b2 60 93 be 93 f7 4c be a2 b9 2f bf
       -0.3691042 -0.2878471 -0.20016317 -0.6864263
0000f0 46 08 ee be db 57 2c bf d0 a3 86 bf 9d 67 24 3c
       -0.46490687 -0.67321557 -1.0518742 0.010034469
000100 c5 84 03 3d ce 2a 1d be 15 7a 4b bf f5 f1 26 bf
       0.03210904 -0.1534836 -0.7948316 -0.6521295
000110 c2 95 7a bf 16 e9 25 bf f5 6f b5 be ce 9d 35 bf
       -0.9788476 -0.64808786 -0.3543698 -0.70943916
