model/encoder_20d.pt (torch, 188905 bytes, 18 tensors)

conv1.weight f4 [8, 1, 3, 3]
000000 c3 d1 71 3d 58 c8 8b be 55 57 16 3e 76 68 21 3e
       0.059037935 -0.27301288 0.14681752 0.15762505
000010 7f 07 a8 be a6 41 da 3e 85 fb 3b 3d d2 f1 c3 3c
       -0.3281822 0.4262821 0.045894165 0.02391902
000020 5c 40 74 3e 6d 58 f2 bd 90 15 30 be 74 05 bd 3e
       0.23852676 -0.11833272 -0.17195725 0.36918223
000030 a6 29 22 be 5d ec 4b be 36 71 4f 3e c1 05 51 3e
       -0.158362 -0.19914384 0.2025803 0.20412351
000040 63 e0 b7 3e e1 46 bd be fa 4d 8b bc 6e 57 7a 3e
       0.3591338 -0.3696814 -0.017004956 0.24447414
000050 e2 08 87 3e 63 2e 95 be ff 69 56 bd 74 82 15 be
       0.26373965 -0.29136953 -0.05234718 -0.14600545
000060 0e ac a1 bd 72 48 0c bc f5 e0 e7 3c 12 3a d1 be
       -0.07894145 -0.008562194 0.02830551 -0.40864617
000070 c1 6b 24 bd 1d 65 90 be f7 7b 45 3d 9c 50 85 3e
       -0.040141825 -0.28202143 0.048213925 0.26038063
000080 57 eb 53 be 6e 0c e1 bd 14 1b 0d 3e 42 e0 a4 3e
       -0.20695244 -0.10988699 0.1377986 0.32202345
000090 89 31 d7 3d fd 82 38 be 90 f2 81 be cb f2 8e be
       0.10507495 -0.18018718 -0.25380373 -0.2791961
0000a0 1e ef 86 be 71 6f 86 3e 5c 2f a3 3d 8c f1 fb 3d
       -0.26354307 0.26256898 0.079680175 0.12301931
0000b0 bf ca 03 3f 95 59 85 be 76 ba 52 3e d8 6b 74 be
       0.5148124 -0.26044908 0.20578942 -0.23869264
0000c0 ab bb 96 3c 39 bf 31 be 3d 00 6a be 40 3c 3d be
       0.018400034 -0.17358102 -0.22851653 -0.18480015
0000d0 bf 92 14 be 1b 54 66 be 8a 13 03 bd 5e a3 20 3e
       -0.14509104 -0.22493021 -0.032001056 0.1568732
0000e0 07 c2 c8 3c 43 f9 19 3e 49 d1 56 3e 1d de c6 be
       0.024506582 0.15036492 0.20978273 -0.38841334
0000f0 fd a5 a7 bd ef 15 69 3e f5 a7 aa bd ab ab 4f 3d
       -0.081859566 0.22762273 -0.083328165 0.050700825
000100 7c 59 19 be e9 b6 7a be 12 94 2a 3e d6 20 87 be
       -0.14975542 -0.24483837 0.16658047 -0.2639224
000110 88 ae 1c 3e 20 13 ee 3e b3 38 95 3e e3 aa 6a be
       0.15300953 0.46498966 0.2914482 -0.2291675

conv1.bias f4 [8]
000000 94 c0 43 3f e3 30 b7 3e b8 a9 f1 bc 81 31 05 3f
       0.76465726 0.35779485 -0.029499874 0.5202866
000010 2c bb 75 3e a8 a7 d0 3e 2c 8a 81 3d fe 98 a7 3e
       0.23997182 0.40752912 0.06325182 0.3273391

conv2.weight f4 [16, 8, 5, 5]
000000 8f 83 b1 bd fe 38 dd be 00 cb 65 bd c4 96 0d 3d
       -0.08667671 -0.43207544 -0.0561018 0.03456761
000010 db be 73 be 51 0c e0 3d fe 5a d9 3d e8 76 06 bd
       -0.23803274 0.10939849 0.106130585 -0.03282824
000020 05 a4 7f bd 9c f4 ac bd a8 2c 14 be 68 33 05 be
       -0.06241228 -0.08445093 -0.1447016 -0.13007891
000030 fc 08 9f 3b 51 ce 89 be 23 fd 05 be c8 2f 0f 3d
       0.004853366 -0.2691522 -0.13084845 0.034957677
000040 e3 df 20 3e 1f 1c 44 bd 7b 29 f0 bd 5c 5d f5 bd
       0.15710406 -0.04787838 -0.11726662 -0.119806975
000050 e7 d5 7f be 06 98 3e be ba 81 1c 3d f8 fe 0e bd
       -0.24983941 -0.1861268 0.038209654 -0.034911126
000060 c0 26 81 bd 7f 8f 70 3d e6 ed db 3c fc 27 2b 3d
       -0.06306219 0.0587306 0.026846837 0.04178618
000070 6f 25 0a 3e e1 a5 14 be 2c 5d e8 3c 32 02 fb 3c
       0.13490842 -0.14516403 0.02836474 0.030640695
000080 21 cb a2 bd 66 81 37 bd 82 8b 2b 3e 93 c4 05 be
       -0.079489 -0.04480114 0.16752437 -0.13063268
000090 35 23 37 3d 4e 5f f8 3d 8b 8d c9 3c 83 36 1c 3d
       0.04471131 0.12127553 0.024603626 0.038137924
0000a0 d5 d2 5c be b4 e0 aa bd 28 fd 79 bd db d7 8d bd
       -0.21564801 -0.0834364 -0.061032444 -0.06925937
0000b0 45 38 7c bb 01 7f 88 3d 24 1a 82 3d 7b 32 87 bd
       -0.0038485688 0.06664849 0.06352642 -0.06601425
0000c0 5a 3e 99 bb c9 f1 f7 3d 34 41 85 3c f8 64 14 3c
       -0.0046766223 0.12106664 0.016266443 0.009057276
0000d0 03 93 a0 bd e0 4a 47 bc 89 51 1f 3e b9 f2 b7 3d
       -0.0784054 -0.012163848 0.15558447 0.089818425
0000e0 9e 63 7c bd d8 ae 04 bc 66 69 dd 3d 2b 3c 38 3e
       -0.06161844 -0.008098327 0.10811119 0.17991702
0000f0 47 5a 7c 3c 51 44 0e bc 06 11 4e bb 3a a1 13 3d
       0.015402383 -0.00868328 -0.0031443252 0.03604243
000100 cd 3a 2d 3d 69 4c a1 bc 9f fb 70 bd 01 b3 fd 3d
       0.042292405 -0.019689756 -0.058833715 0.12387658
000110 fe af 4a 3d ff 57 f5 3c bc df 58 be e1 8d 4e bd
       0.049484245 0.029949186 -0.21179098 -0.050428275
000120 69 fe 65 bd fb 99 1c bd f7 b9 ac bd c9 bc b4 be
       -0.056150828 -0.038232785 -0.084339075 -0.35300282
000130 4b fa b9 bd 71 a1 17 be 05 7a d5 bd 83 46 9c bd
       -0.09080943 -0.14807679 -0.10423664 -0.076306365
000140 c5 e9 19 3d 9b 1e b2 bc e5 6a 1c 3d e2 7d 78 3d
       0.037576456 -0.02174311 0.03818788 0.060666926
000150 99 a8 23 bb f3 38 30 bc b9 dd a0 3c 25 16 5c bd
       -0.0024972318 -0.010755765 0.019636976 -0.053732056
000160 97 67 06 bc 65 4a 45 3d 26 ea b6 3d 1c fa 95 3d
       -0.008203409 0.04816665 0.08931379 0.07323095
000170 aa c2 06 3d 04 c9 4b bc 8d d8 bb 3b ff d4 f7 3d
       0.03290049 -0.012438063 0.005732602 0.12101173
000180 d2 8c 0f 3e 2b 82 e8 3c a6 15 88 bd e3 df 6c bc
       0.14018562 0.028382381 -0.06644754 -0.014457676
000190 70 11 00 bd e9 5d d5 3d 05 a2 a0 3d 74 df c1 3d
       -0.03126663 0.104183026 0.07843403 0.094664484
0001a0 20 89 a3 bb 31 be 50 3d dc 61 35 3d 88 f2 6f 3c
       -0.004990712 0.05096263 0.04428278 0.014645226
0001b0 37 00 17 3e f7 79 a7 3d 17 78 ed bc 65 ae e9 3c
       0.14746176 0.0817756 -0.028987927 0.02852554
0001c0 9c ac 8c ba 01 ac cb bc 3a 2f 85 3d 96 2b 5d 3d
       -0.0010732594 -0.024862291 0.065031484 0.053996645
0001d0 f2 82 e6 3c f4 d2 6e bc f4 90 73 3d 65 ad 8d 3c
       0.028138611 -0.014576662 0.05946441 0.017294595
0001e0 31 54 6f bd 96 f2 16 be 89 ad 4e bc 7d 76 3f bd
       -0.0584299 -0.14740977 -0.012614616 -0.04674386
0001f0 12 38 d0 bd 1c fd 9f bd ca 35 a6 bd cd ea 4a bc
       -0.101669446 -0.07811949 -0.08115728 -0.012385082
000200 a9 e1 c3 bb d8 cc 65 3c 87 1f 63 bd c9 55 ef bd
       -0.0059778285 0.014025889 -0.05544999 -0.11686284
000210 1d 74 5f bd d4 d3 f6 3c 56 4e 85 bd 1d d1 05 bd
       -0.054554094 0.030130304 -0.06509082 -0.03267013
000220 e0 1d 01 bd 23 56 1f bd 9c f4 1f bd a6 41 9c 3c
       -0.03152263 -0.038900506 -0.039051637 0.019074272
000230 bd 3f 72 bd 08 ef 96 bc 8e ce b5 b8 d2 f8 df bd
       -0.059142817 -0.018424526 -8.6692264e-05 -0.109361306
000240 ff a8 7d bd 5a 71 35 bd 3a dc 06 be f7 f0 66 ba
       -0.061928745 -0.044297554 -0.13169947 -0.000880971
000250 f4 2d db bc cf b9 a9 bd f5 a0 87 bd 46 09 b9 bd
       -0.02675531 -0.08287393 -0.06622497 -0.09034972
000260 1d b7 19 be 6c 9f f7 3c 06 4a e1 bc 8d 0f 94 bc
       -0.15011258 0.030227385 -0.027501117 -0.018073821
000270 5d a1 cf bd f4 16 cb 3c 31 ef ea 3c 19 96 a0 bd
       -0.101381995 0.024791218 0.028678508 -0.07841129
000280 a9 8c 4c be 6b 50 fe 3d 8b 88 9b bd 31 de 5e 3d
       -0.19975533 0.12417682 -0.07594403 0.054411117
000290 42 12 a4 bb 11 fb 78 bd 74 1d 79 be f8 ec 8e be
       -0.0050070593 -0.06078631 -0.24327642 -0.27915168
0002a0 29 97 04 be b8 fa 12 bd cd 74 33 be 97 17 ba bd
       -0.12948288 -0.035883635 -0.17525025 -0.09086531
0002b0 9a 4d 83 be 6f 50 81 be f7 a6 41 bd 50 fc 9e be
       -0.25645143 -0.25256678 -0.04727837 -0.31051874
0002c0 a9 f7 5f bd b2 0f 60 3d 19 8d 29 3e d0 7e 93 be
       -0.054679547 0.05470247 0.1655773 -0.28807688
0002d0 b7 5d 89 3d 83 94 27 3e 08 ab 08 3e 27 e8 b4 3d
       0.06707328 0.16365246 0.13346493 0.08833342
0002e0 e9 8f 4b 3d 8f d1 fb 3c 42 82 ca 3d 7c e9 90 bb
       0.04969779 0.030739574 0.09888126 -0.0044223648
0002f0 36 20 a9 bd fb bc 30 bd eb 35 d4 39 47 69 79 3d
       -0.08258097 -0.043148976 0.00040475963 0.060891416
000300 c8 22 82 3c 38 3d 24 bc 4a ff 0a bd 33 b0 fa 3c
       0.015885726 -0.010024361 -0.03393487 0.030601596
000310 08 f1 e1 3d 73 85 c3 bd 56 01 92 3d 6c 7d 55 be
       0.11032301 -0.09546938 0.07129161 -0.20848626
000320 62 ea c7 3d 39 16 55 3e b3 5f cb bd 99 d9 09 3e
       0.09761502 0.20809259 -0.099303626 0.13461913
000330 fd 76 b8 3d 45 29 ba 3d 0b 99 45 be 35 04 ca 3d
       0.0900707 0.09089903 -0.19296663 0.09864084
000340 0f f6 cc 3d a1 46 ff bc 56 ac 15 bf 81 1a 38 3e
       0.100078695 -0.031161608 -0.5846609 0.1797886
000350 d1 70 19 3d 90 8a 8a 3d eb 68 7e bd 89 6c a5 3c
       0.037461106 0.0676471 -0.062111776 0.020193355
000360 ed 50 67 bc b6 4b 9a bd 9a 5e ad bd 31 32 0e 3d
       -0.014118415 -0.07533972 -0.084653094 0.034715835
000370 ce dd e5 3d e1 fe 34 3e a6 bd 3e b9 04 8a 53 3d
       0.112239465 0.17675354 -0.00018190462 0.051645294
000380 6d 08 1d 3e ca b3 83 3d 9b a6 b6 3c ab b5 03 3e
       0.15335245 0.064307764 0.02229624 0.1286227
000390 c4 0e 2f bd 73 61 fa 3c 92 42 4d bd 13 52 d1 bc
       -0.04273869 0.030564046 -0.050112315 -0.025551831
0003a0 9c 62 bb 3c a5 65 27 3d 67 8d f1 3d fd 4f 40 be
       0.022874169 0.04086842 0.117945485 -0.18780513
0003b0 8a 08 ea 3c b1 5b ca 3d 7c 80 b9 bc cd 8d 25 be
       0.028568525 0.0988077 -0.022644274 -0.16167374
0003c0 17 fa ef bd d2 79 cd bd 6f 1f 25 3e 34 39 20 3b
       -0.11717623 -0.10033001 0.16125272 0.0024448158
0003d0 b0 96 bd bc 8d 53 9e 3d 9c d3 f3 3c ee 34 dc 3c
       -0.023143142 0.0773078 0.02976399 0.026880708
0003e0 92 3e 92 3d 30 6f 38 3e 1b 8b 09 3d 6f 75 03 3e
       0.071408406 0.18011165 0.033579927 0.12837766
0003f0 12 22 ac 3d be 3b b5 3d 73 f0 0f 3d 43 f7 4c 3d
       0.08404936 0.088492855 0.03514142 0.050040495

conv2.bias f4 [16]
000000 43 60 75 38 3d f4 1c b7 4a fa b7 37 6b 97 a8 38
       5.8502203e-05 -9.355191e-06 2.193185e-05 8.039068e-05
000010 c7 47 5d 37 3d 91 33 b8 6d 37 ac b5 2a 81 16 38
       1.31893385e-05 -4.281219e-05 -1.283113e-06 3.588308e-05
000020 b1 65 09 36 a0 d6 5b 38 ff cb 64 34 e0 9a bc b4
       2.0473783e-06 5.2413554e-05 2.1308368e-07 -3.5130415e-07
000030 0d 8b 94 b7 15 d6 fa b7 55 b1 75 b8 da 89 40 b6
       -1.7707725e-05 -2.9902012e-05 -5.8577705e-05 -2.869047e-06

bn1.weight f4 [16]
000000 93 7e 81 3f 79 72 7a 3f b1 72 88 3f 98 96 83 3f
       1.0116752 0.9783092 1.0660001 1.0280333
000010 2d b3 79 3f 75 01 80 3f 7a 2e 8d 3f 99 e0 81 3f
       0.97539026 1.0000445 1.1029809 1.0146667
000020 53 05 6f 3f f6 7c 86 3f a4 44 73 3f 81 63 8c 3f
       0.933675 1.0506885 0.9502661 1.0967866
000030 db 89 70 3f 23 eb 82 3f ec 48 84 3f 4a 10 79 3f
       0.9396035 1.0228008 1.0334754 0.9729048

bn1.bias f4 [16]
000000 ee 36 f5 3d 49 a7 1a bd 3d cf 05 bd 26 7f 67 3d
       0.11973368 -0.03775719 -0.03266834 0.056517743
000010 5b a1 8d 3d 18 8b 27 bd 16 ed df bd 67 b8 64 3d
       0.06915542 -0.040904135 -0.109338924 0.055839922
000020 45 30 f3 bd 46 86 fc 3c f0 b6 b0 3d c4 25 74 3c
       -0.11874441 0.030825745 0.086286426 0.014901582
000030 e0 1f 8d bd 5f 4d 3e 3d 0f 18 68 3d 9d f8 ff 3c
       -0.06890845 0.046460506 0.05666357 0.031246478

bn1.running_mean f4 [16]
000000 48 10 13 c2 02 b4 f7 40 e7 32 12 c2 d3 71 f9 c1
       -36.7659 7.7407236 -36.54971 -31.180578
000010 05 fe b5 41 ec 50 cc c1 2a 97 aa c1 01 41 1a c2
       22.749033 -25.539513 -21.32381 -38.56348
000020 d2 7e 38 c1 40 52 13 c2 b7 46 87 c0 73 c1 bb 41
       -11.530962 -36.830322 -4.227382 23.469458
000030 f3 3e 53 41 c6 f4 81 41 9c 60 8a c1 f4 85 1f 42
       13.202868 16.244518 -17.297173 39.880814

bn1.running_var f4 [16]
000000 45 82 ac 43 c3 7e 2e 43 47 72 a3 43 9c 9b 4d 43
       345.01773 174.49516 326.8928 205.60785
000010 30 52 05 44 66 31 ea 42 c7 67 3d 43 80 26 77 43
       533.2842 117.09648 189.40538 247.15039
000020 74 24 73 42 3e 3f 61 43 b2 82 c1 42 87 2a ad 43
       60.7856 225.24704 96.755264 346.33224
000030 1a 8b a1 43 1f 8d 06 43 50 5c 2e 43 94 0c ba 43
       323.08673 134.55125 174.3606 372.09827

conv3.weight f4 [32, 16, 5, 5]
000000 43 0d 86 bc a3 18 00 3d 16 11 c3 3b aa fb 8f ba
       -0.016363746 0.031273495 0.0059529645 -0.0010985036
000010 ea 06 56 bd 4b 3c 6f bd e0 46 8d bd 4a 4d 86 bd
       -0.052252688 -0.05840711 -0.06898284 -0.065577105
000020 65 0f 07 bd 89 c0 79 bc 3b 88 90 3d 7e de 34 3d
       -0.032973666 -0.015243658 0.07057234 0.044157498
000030 86 3e 55 3d da b5 46 3d 38 46 b7 3d ac 33 c5 bc
       0.05206158 0.04851327 0.0894894 -0.02407249
000040 00 fc 88 bc 02 67 11 3d 37 76 24 3c 26 ae a5 3c
       -0.016721725 0.035498627 0.01003795 0.020224642
000050 66 eb dd bd c1 e1 7f 3e 10 9a 47 3e 3b 2f 44 3e
       -0.10835914 0.24988462 0.19492364 0.19158642
000060 0d ac 3c 3c 7d ee 86 bd e3 e7 cf bd 64 d5 3e bd
       0.0115156295 -0.06588457 -0.10151651 -0.046590224
000070 10 bd d7 bd 5e 33 5c bd 62 71 45 3d 55 31 84 3b
       -0.10534108 -0.053759925 0.048203833 0.004034201
000080 af 68 f5 3d ca 11 31 3c 7f be 94 3b 59 d4 aa 3d
       0.119828574 0.010807464 0.0045393105 0.08341283
000090 4a 2c 0a 3c a2 16 98 3d 1d 39 92 3d a8 a0 30 bd
       0.008433411 0.07426192 0.071398 -0.043121964
0000a0 da 58 7b 3d cd 2e f7 bb 53 c1 48 bd 56 4a b5 bc
       0.061364032 -0.007543421 -0.049012493 -0.022130173
0000b0 8a ce 63 3b 10 48 e4 3d 06 04 9f 38 11 15 11 3b
       0.0034760558 0.11146557 7.58246e-05 0.00221378
0000c0 e3 dd 9a 3c 74 b1 f5 bc 18 bc 66 bd e4 ac 1c 3c
       0.018904632 -0.029991843 -0.056331724 0.009562705
0000d0 e3 70 8e bc ea f0 e5 bc 3d f6 cc 3d a9 9d 28 3e
       -0.017387813 -0.028068978 0.10007904 0.16466393
0000e0 11 37 d3 3d 7e 06 ed bc 90 1e 0f bb d4 bf 1b 3d
       0.103132375 -0.02893376 -0.0021838285 0.03802474
0000f0 36 3e d3 bc 34 94 be 3c ba c5 27 3d 49 30 6f 3c
       -0.0257865 0.023264028 0.04096005 0.014598914
000100 74 ca 6c bc 99 f6 25 3d 38 f5 ea bc be eb a1 bd
       -0.014452565 0.040518377 -0.028681383 -0.079062924
000110 c6 cb 93 3d d7 5d 9d 3d 0c 5c 3e 3d 08 a3 4e bc
       0.07216601 0.07683914 0.0464745 -0.012612112
000120 cc 6e 17 3c e6 ce b4 bc d8 5e e8 3d d4 86 84 3a
       0.009242725 -0.022071313 0.11346215 0.0010110983
000130 cf a6 73 3d e6 8d 85 3d 71 7c 41 3d fe 7f 72 3c
       0.059485253 0.065212056 0.047237817 0.0148010235
000140 5d e2 37 3d ff d6 12 bc 3e 20 58 bd 7c 9b 2b 3d
       0.04489361 -0.008962392 -0.052765124 0.04189633
000150 b8 55 4e 3d 7c eb c4 bd b9 73 5d bd 04 77 04 bd
       0.050374717 -0.096152276 -0.05406544 -0.032340065
000160 b3 68 91 bc ad 7f 7e 3b f4 5f 04 bd 28 d9 65 3d
       -0.01775012 0.0038833425 -0.03231807 0.0561153
000170 ec 7e 9a 3d cb f8 33 3d 1c 51 6d bd 29 55 d8 bd
       0.0754374 0.04393844 -0.05793868 -0.10563118
000180 63 b4 b3 3c 00 7f b3 bd 9f f1 15 bd fa 00 45 3c
       0.021936601 -0.08764458 -0.03660738 0.012024159
000190 59 97 ab be 95 05 92 be 3a d9 9c be de a2 9d be
       -0.33513907 -0.28519884 -0.3063448 -0.3078832
0001a0 15 c3 99 be f6 cd 18 3d 4f 46 4a bc f4 2f e3 bc
       -0.30031648 0.037305795 -0.012345864 -0.027732827
0001b0 58 37 64 bd bd ff 3c bc 27 84 6c 3b f0 ce a8 3d
       -0.055716842 -0.011535582 0.003608951 0.08242595
0001c0 52 01 af bc 58 82 47 3c 4a a3 96 3b 8e 37 e9 bc
       -0.021362934 0.012177072 0.0045971023 -0.028468873
0001d0 ca 3d 7b 3d b8 0f 39 3c 9e c4 d2 3c 18 43 32 3d
       0.061338224 0.011295252 0.02572852 0.043521017
0001e0 68 87 00 3d f8 c9 67 bc a8 d8 1a 3d cd ff 96 3c
       0.031379133 -0.014147274 0.037804276 0.018432522
0001f0 7a 4e f8 3d 50 30 91 3c c1 c1 88 bc 11 09 20 bc
       0.12124343 0.017723233 -0.016693952 -0.009767787
000200 fb 2f 83 bd 28 b1 b5 bd 52 49 23 3d 54 55 c8 bc
       -0.06405636 -0.088716805 0.039864846 -0.02445475
000210 74 a8 05 3d 59 a0 f1 3b 78 5f 3f 3c d9 89 da 3c
       0.032631353 0.0073738513 0.011680476 0.026677059
000220 27 69 04 3c f3 c4 7e 3d bd f8 53 3c cb 34 09 3d
       0.008081711 0.062199544 0.012937722 0.033497613
000230 8a 1c 81 bd 35 58 78 bd 61 fc a0 3c 2f f3 15 3d
       -0.063042715 -0.060630996 0.019651594 0.03660887
000240 a8 d3 c4 3d de ae 05 be 2c 5a c1 bb b3 fa 6e bd
       0.09610683 -0.13054988 -0.005900642 -0.058344554
000250 d8 ca 38 bc f8 81 fd bd e2 4e 05 3e c2 3a 92 3b
       -0.0112788305 -0.12378305 0.13018373 0.004462571
000260 06 87 85 3d 77 df 1a 3d fa 29 a7 bd f6 f6 9b bc
       0.06519894 0.03781077 -0.08162303 -0.019038659
000270 4d 2b 8f bd d2 94 0f bd bf 01 45 bd 3d 0a 2e 3d
       -0.06990681 -0.035054035 -0.04809737 0.042490233
000280 e3 b9 56 bd 21 2f 6d 3d 7e 47 3c bd 13 57 7f 3a
       -0.05242337 0.057906274 -0.045966618 0.0009740453
000290 f5 b8 8e 3d 3a 45 13 3d b6 68 2e 3e 8a a7 ee 3d
       0.069688715 0.03595469 0.17032132 0.11653049
0002a0 f4 a7 94 3d c7 da f8 3d 49 41 94 be e5 ed 51 be
       0.07258597 0.121511035 -0.2895606 -0.20500906
0002b0 db 3d 91 bd 8d 73 02 be 2c 3e 7c 3d b6 19 cf 3b
       -0.07091876 -0.12739392 0.06158273 0.0063202037
0002c0 73 8b 5f 3d cd 90 f4 3c 1e 38 39 bc 68 5b 11 3c
       0.05457635 0.029854203 -0.011304883 0.008871891
0002d0 d5 9e b4 bc 5d 78 87 bd 61 e8 8e bd 98 1c 95 bd
       -0.022048393 -0.06614754 -0.069779165 -0.072808444
0002e0 91 36 7d bd 0d cf 57 bd d5 e0 77 bc 49 bb c0 bb
       -0.061819617 -0.052687693 -0.015129288 -0.005881701
0002f0 10 d2 45 bd b5 e7 ac 3d c4 d9 6b 3d 18 61 3b bd
       -0.048296034 0.08442632 0.057580724 -0.045746893
000300 9e 4a 12 bd 09 0d 5b 3d 4a f0 01 3e 05 56 cc bc
       -0.03571569 0.05347923 0.12689319 -0.024943361
000310 4b 9b 85 bc 39 99 a4 3d 5e 32 0e 3d 3d e8 b9 3d
       -0.016309401 0.080370374 0.034716003 0.09077499
000320 e7 54 1a 3d 63 26 90 3d cc 10 9b 3d 75 8b 45 3d
       0.037678625 0.07038572 0.07571563 0.0482287
000330 a0 2f 5b bd 2a 18 37 3d 9f 81 58 3c 1e 42 d6 3c
       -0.053512216 0.04470078 0.013214498 0.026154574
000340 3e 3a 26 bc 8f 9f d3 3d 8c fa 6c 3b d1 87 1d bd
       -0.010145722 0.10333168 0.003616008 -0.038459603
000350 46 1d 3d 3d ca 9a 9b bc 3d 61 1b bc 98 f4 ad 3d
       0.046170495 -0.018994708 -0.009483633 0.08493918
000360 1d c9 4a 3d 90 0c f0 3c 4e e2 72 bd d2 95 dc 3d
       0.049508203 0.029302865 -0.059297852 0.107707635
000370 a9 a7 83 3c c9 25 96 3d 3b d4 cd 3d 5f ee f4 bc
       0.016071158 0.07331426 0.100502454 -0.02989882
000380 0f 38 d9 3d 23 e2 c8 3c c5 e8 30 3d 35 cc 16 3d
       0.106063955 0.024521893 0.043190736 0.03681584
000390 1e c9 08 bd 67 77 db 3b a7 26 2a 3d 4b 7b 84 3d
       -0.033394925 0.0066975835 0.041540768 0.06468829
0003a0 b2 b0 0e bd 42 f0 28 3b b2 82 f7 bc 6f 20 d3 b9
       -0.03483648 0.002577797 -0.030213688 -0.0004026922
0003b0 40 99 df 3b c0 a8 13 bd e1 bd 8b 3d ae 9d f7 ba
       0.0068236887 -0.036049604 0.06823326 -0.0018891597
0003c0 46 82 2a be 2f de f4 bd 82 88 cf bd 1c 2e 1b be
       -0.16651258 -0.11956441 -0.10133459 -0.15154308
0003d0 bc 54 18 bd cd 40 7a be 26 d3 c5 bd e4 9b 9e bd
       -0.037190184 -0.24438782 -0.09659414 -0.077445775
0003e0 f7 3a 34 be c8 c9 6a bd 8b 47 93 bd ce 1b be bd
       -0.17600618 -0.05732134 -0.0719138 -0.09282647
0003f0 6d ff 89 3b e6 da c9 3c 99 be 64 be 8c f7 79 3c
       0.0042113573 0.024640512 -0.22338332 0.015256774

conv3.bias f4 [32]
000000 36 58 fb 37 f6 40 57 b9 34 c5 dc 38 04 bb d2 b8
       2.9962608e-05 -0.00020528198 0.000105271494 -0.00010048415
000010 79 1e 6a 39 24 31 2e 38 48 9a 1b b8 e8 78 4c b9
       0.00022327331 4.15306e-05 -3.7098565e-05 -0.00019499997
000020 db 19 2f 39 7c 7c 3e 37 2a 70 64 39 16 38 38 b9
       0.00016698932 1.1353866e-05 0.00021785559 -0.00017568501
000030 55 66 a5 36 78 e4 8f b8 2c 1f 8c b8 ed 21 90 38
       4.929296e-06 -6.861327e-05 -6.6815264e-05 6.872774e-05
000040 b2 2e 4d 39 db 45 19 39 f4 40 72 b6 b8 56 ba b8
       0.00019567719 0.0001461724 -3.6098618e-06 -8.885324e-05
000050 45 5c 7b 39 fa e2 6d b9 15 ff be 38 d5 3d 1d 38
       0.00023971598 -0.00022686637 9.107419e-05 3.7489302e-05
000060 ab e6 26 39 98 18 0f 39 15 fc a2 b8 37 2a dd b8
       0.00015916924 0.00013646705 -7.771716e-05 -0.00010545964
000070 3f 1e 84 37 22 34 a4 38 ad 43 2e b6 d2 47 7c 38
       1.574971e-05 7.82984e-05 -2.5967413e-06 6.014837e-05

bn2.weight f4 [32]
000000 35 9d 91 3f 6a ac 91 3f 56 44 92 3f e3 8d 93 3f
       1.1376101 1.1380742 1.1427104 1.1527675
000010 09 d3 6e 3f d5 d4 60 3f e6 fd 77 3f a8 56 64 3f
       0.93290764 0.87824756 0.96871793 0.89194727
000020 c3 f4 92 3f 6f 39 99 3f b2 a2 87 3f 45 7b a8 3f
       1.1480945 1.1970652 1.0596526 1.3162619
000030 70 c9 65 3f e2 50 82 3f 0b 74 85 3f 67 a7 90 3f
       0.89760494 1.0180933 1.0426039 1.1301087
000040 c9 82 83 3f 5b ab 7c 3f 65 4e 73 3f bb 8c 7a 3f
       1.0274287 0.9869897 0.95041496 0.9787099
000050 57 5a 88 3f 82 8a 64 3f 0d bd 87 3f ef 26 93 3f
       1.065257 0.89273846 1.0604569 1.1496257
000060 4e aa 78 3f eb 59 84 3f cb 65 8e 3f 6b 00 95 3f
       0.97134864 1.0339941 1.1124815 1.1640753
000070 61 8f 76 3f 55 55 94 3f f0 0b 8b 3f 17 cf 8d 3f
       0.9631253 1.1588541 1.0863018 1.1078824

bn2.bias f4 [32]
000000 eb ef e4 bc c2 3f 9b 3e cf 2c a2 3e ef e7 76 3d
       -0.027946433 0.3032208 0.3167481 0.060279783
000010 9e a2 4a 3d 01 f8 20 3e 73 8a ce bd 38 c4 6f 3d
       0.04947149 0.15719606 -0.10085001 0.05853674
000020 b1 07 b1 3e 83 61 f7 3d 4e 5d d9 bd 05 88 b9 3d
       0.3457618 0.12079146 -0.106134996 0.09059147
000030 c6 2b b1 3c bc 24 9b 3e a9 af 80 bd 33 c4 b4 bd
       0.021627318 0.30301464 -0.062835045 -0.088264845
000040 28 b3 6a 3e a6 34 81 3e ff 3c a5 3e f5 e7 7f 3e
       0.22919905 0.2523548 0.322731 0.24990828
000050 0e c5 24 3e b5 ce 80 3e e5 8a df 3d 1a 50 77 3c
       0.16090795 0.25157705 0.10915164 0.015094781
000060 2f e4 11 3e 2b 5a 77 3e 81 40 99 3e e5 11 05 bc
       0.14247201 0.2415549 0.29932025 -0.008121942
000070 45 75 6b 3e fb 1b e0 3d 13 0a 5a 3e ae f9 50 3e
       0.22993954 0.10942837 0.21292906 0.20407745

bn2.running_mean f4 [32]
000000 be 23 d0 be 26 52 82 bf 37 f2 46 3f ce 1b 09 3f
       -0.4065227 -1.018132 0.7771334 0.5355805
000010 4a af c6 3e 60 76 ce be 96 7e fd be 63 90 89 bf
       0.3880561 -0.40324688 -0.4951064 -1.0747188
000020 21 49 21 bf 3b 62 3e bf 34 1b 3c 3f 56 de 23 40
       -0.6300221 -0.7436864 0.7347901 2.5604453
000030 9c e7 dd be e1 7d ba 3f a0 1f 5b 3f bb 84 87 3f
       -0.43340766 1.4569665 0.8559513 1.0587381
000040 c3 67 9e bf 39 bb 6e bf f5 43 17 40 9e 5b 2d bf
       -1.2375416 -0.9325443 2.3635228 -0.6771792
000050 ae 93 25 bf 6d 43 0a 40 0d 2b 6b 3f c8 ed dc be
       -0.64678466 2.1603653 0.91862565 -0.43150163
000060 4d bb a1 bf d7 d1 88 be 55 35 38 3f 98 9b e9 3e
       -1.2635285 -0.26722595 0.7195638 0.4562652
000070 5d 5a d8 3f d2 b5 8e bf 49 01 87 3f ad d6 06 bf
       1.6902577 -1.1149237 1.0547267 -0.5267132

bn2.running_var f4 [32]
000000 b8 68 4a 3f bc f3 33 3f c9 ec 26 3f 04 dd dc 3e
       0.7906604 0.70293784 0.65205055 0.43137372
000010 92 f5 c3 3e 62 fa 2c 3f 7e 78 d9 3e b1 bc 84 3f
       0.38273293 0.67569554 0.4247474 1.0370084
000020 a8 7b 00 3f cf e3 43 3f 25 46 45 3f 19 ed 7f 3f
       0.50188684 0.76519483 0.7706016 0.9997116
000030 bf 7d d5 3e ab e4 6f 3f af bd da 3e c4 88 d8 3e
       0.416975 0.93708295 0.42722842 0.42291844
000040 d5 7e 9e 3f b1 7c 61 3f 22 2c 98 3f f6 90 48 3f
       1.2382456 0.8808089 1.1888468 0.7834619
000050 0c a3 43 3f 8a 7f fd 3e 8d ff 79 3e 30 d7 a5 3f
       0.76420665 0.49511367 0.24413891 1.2956295
000060 e6 d0 7c 3f a4 ae 5e 3f c5 d9 92 3f 55 25 4b 3f
       0.98756254 0.8698523 1.1472708 0.7935384
000070 57 f9 5b 3f 3f f5 3d 3f 46 38 fd 3e 64 25 68 3f
       0.8592734 0.7420234 0.49456996 0.90682054

fc1.weight f4 [20, 736]
000000 6d 52 56 bc da 24 bf bd 09 af 77 bd 89 57 0c bd
       -0.013081175 -0.09333201 -0.06046966 -0.034263168
000010 83 40 56 bc db 09 b7 bc 5d 99 08 bd ab cd 9a bc
       -0.013076904 -0.022343567 -0.033349384 -0.018896898
000020 88 5f a2 bc 74 23 ad 3c e0 e3 1e 3d 1d a0 f4 3c
       -0.019820943 0.02113507 0.038791537 0.029861504
000030 dd 0b db 3c 41 c0 8f 3c be 2f 3b 3d 27 0a 95 3d
       0.026739055 0.017547728 0.045699827 0.07277327
000040 df 48 c7 3c 0a 8b cd 3d b6 6b 6a 3d 59 07 b0 bd
       0.02432674 0.10036285 0.057231627 -0.085951515
000050 a3 23 0b be f3 a8 00 be 1b ed a0 3d 0f a4 d3 3d
       -0.13587813 -0.12564449 0.07857724 0.10334026
000060 2b 7e 61 3c 0d 9e 13 bd 44 96 f0 3c cd 4e 15 3d
       0.013762991 -0.0360394 0.029368527 0.036452103
000070 2b 5a 6e bc 1a cd 5b bd 98 16 05 bd 42 a0 7d bd
       -0.014547865 -0.053662397 -0.03249225 -0.061920412
000080 11 d6 9b bd 00 9a c0 bc 29 b1 28 bd 4a 59 e8 bd
       -0.07609189 -0.023510933 -0.041184578 -0.113451555
000090 ac f9 a3 bd 1a 11 68 bc 84 fc 7e bd 23 45 77 bd
       -0.080066055 -0.014164234 -0.062252536 -0.06036867
0000a0 4c 9c 51 3c a7 31 e0 bc 15 1e d8 bd 75 41 e1 bd
       0.012793612 -0.027367426 -0.10552613 -0.10998813
0000b0 3c 98 29 bc 14 6e 05 3e a6 4d a0 3c 25 24 28 bd
       -0.010351237 0.13030273 0.019568276 -0.041050095
0000c0 08 7a 96 3c 57 00 31 3d d5 a8 c3 bc 59 f6 b2 bc
       0.018368736 0.043213215 -0.023884216 -0.021845983
0000d0 71 0d cc 3c 9d d5 57 3c 65 1a 26 bc 6c 7e 51 3c
       0.024908753 0.013173488 -0.010138129 0.012786489
0000e0 f1 99 9d 3c f0 f7 74 bd 80 08 5b bd a6 09 29 3c
       0.019238444 -0.059806764 -0.053474903 0.010317242
0000f0 e5 dc 83 bd 46 1b ae bd c2 77 be bc 88 ef 92 bd
       -0.06438617 -0.08501296 -0.023250464 -0.07174593
000100 b7 05 e0 bd f6 41 a6 bd d0 eb 11 3c 51 ed 0e bc
       -0.1093859 -0.0811805 0.00890632 -0.008723573
000110 a0 ae ea 3c 8e dd 53 3d c2 f1 00 3d 2c 10 01 3d
       0.02864772 0.051724963 0.03148056 0.031509563
000120 14 74 79 3d ca 50 7a 3d 2b ee 73 3d f6 d6 af 3d
       0.060901716 0.061112203 0.059553307 0.085859224
000130 3a 75 77 3d e5 4c 93 3d f9 fb 3d 3d e9 10 8a 3d
       0.06041453 0.07192401 0.046382878 0.067415066
000140 19 f8 29 3d 70 13 6a 3c 0b 28 54 3d 18 b4 56 3d
       0.04149637 0.014286861 0.051796 0.052417845
000150 1a 7d 01 3d 90 ed 00 3d 17 a6 75 3d de e5 25 3d
       0.031613447 0.031476557 0.05997285 0.04050242
000160 6f 8f 88 3c 5a 42 07 bc 5e 7e cf 3c dc 3d c5 3b
       0.016669957 -0.008255566 0.025328811 0.006019337
000170 e1 4b 3f 3e 18 c8 9c 3d 52 6b 9f bc a5 76 7e bd
       0.1868129 0.07655352 -0.019460354 -0.062124867
000180 9a d8 28 bb b0 9b bc 3c 2a a7 12 bd e6 23 12 bd
       -0.002576387 0.023023456 -0.03580395 -0.035678767
000190 b0 61 9b bb 3f 55 32 bd 8d ed 40 bd 15 00 6d 3c
       -0.00474187 -0.04353833 -0.047101546 0.014465352
0001a0 7e 1d 5c bb 0a c4 2f bd 9c a3 25 bc 99 44 73 3d
       -0.0033586915 -0.042911567 -0.010109808 0.05939159
0001b0 79 d6 06 bc 42 49 10 b7 55 4b e1 3d 28 20 7b 3d
       -0.008229845 -8.6001255e-06 0.110006966 0.061309963
0001c0 64 98 06 bd 80 1e 2c bd 2c 34 47 bc 8f 63 37 ba
       -0.032860175 -0.042021275 -0.012158435 -0.00069957314
0001d0 38 63 2c 3c 48 45 d5 bc 8f b6 d8 bb 62 d1 e6 3c
       0.0105217025 -0.026034012 -0.0066135596 0.028176013
0001e0 15 90 c9 3c 6e 8b 1f bd f9 ba 4b bc 93 f1 28 3c
       0.024604836 -0.03895133 -0.0124347145 0.010311502
0001f0 86 f8 c2 bc 6a 4d 65 bd 84 66 b6 bc 5f 82 11 bd
       -0.023800146 -0.05598203 -0.02226568 -0.035524722
000200 b0 e8 39 bd e6 00 83 bc d6 de 8a bc 35 d0 20 bd
       -0.045387924 -0.01599164 -0.01695196 -0.03926106
000210 4b 91 bb bc 31 70 32 bc eb 37 1d bc 9b 49 94 bc
       -0.02289643 -0.010891006 -0.009595851 -0.018101504
000220 69 1f 80 3c 54 e5 76 3d ce 7c 83 3c b9 d6 16 3e
       0.015639978 0.060277298 0.016050722 0.14730348
000230 32 af 7c 3d 28 f4 17 bd b0 fa dd 3c 3a 03 b9 3d
       0.061690517 -0.03709808 0.027097076 0.090338185
000240 c1 7a 60 39 24 ad d3 bc 17 1b 3b 3b a4 85 1e bc
       0.00021408034 -0.025839396 0.0028550082 -0.009675417
000250 b8 28 14 bd c4 bb 07 3d 9c ea d7 3c 8c f9 75 bd
       -0.036171645 0.03313805 0.026356988 -0.06005244
000260 6d b2 a7 bd 5e 4a 24 bc df 53 74 3a d7 bc c1 bc
       -0.08188329 -0.010027496 0.0009320359 -0.023649616
000270 db bb a1 3c ff 5c 5a bc f8 0e e2 bd f1 e4 47 be
       0.019742897 -0.013327836 -0.11038011 -0.19520928
000280 bc 55 49 bd 82 b6 e8 bd 38 1c 78 bd cb 1e 69 bd
       -0.04915403 -0.113629356 -0.060573786 -0.056914132
000290 49 91 9e 3b 41 4c cf bc fd f6 04 3c 80 9c 40 3b
       0.0048390967 -0.025304915 0.008115527 0.0029390156
0002a0 de 35 88 bc a6 0f 09 bd a9 5f f6 3c 4b eb 67 3c
       -0.016627248 -0.03346219 0.030074911 0.014155219
0002b0 e7 70 87 bb e1 6f 5d 3b 94 61 4d 3c 56 84 01 3d
       -0.004133332 0.003378861 0.0125354715 0.031620346
0002c0 2b 7e 4a 3c 78 72 89 3c 90 9f 86 bc a4 9f 46 bd
       0.012359182 0.016778216 -0.016433507 -0.04849209
0002d0 72 dc 95 bc b9 26 88 3d e8 5c ca 3d 1f 87 1c bd
       -0.018293593 0.06648011 0.09881002 -0.0382148
0002e0 50 b3 4d bd e8 e6 cb bb e3 58 09 3e b5 d5 ce 3d
       -0.050219834 -0.0062225945 0.13412814 0.10099355
0002f0 44 c2 82 bd d8 4a 05 bd 5a 04 82 3d 9b e1 09 3d
       -0.063847095 -0.03254208 0.06348486 0.03366242
000300 be 85 82 bc 0e 93 8c 3c 30 91 a3 3c 8e f0 0d bd
       -0.015932914 0.017159965 0.019966692 -0.03465324
000310 bb 6d 73 3c f2 92 02 3d 7c 01 cd bc 25 dd 43 bd
       0.014857705 0.03187842 -0.025025122 -0.04781832
000320 56 4b 83 3c 44 cc bf bc da 17 14 bd d7 91 13 3d
       0.016027134 -0.023412831 -0.03615556 0.036027756
000330 47 94 9e 3d bb 3c 4f 3b e6 3f 16 be cc ba 27 3e
       0.077431254 0.0031621892 -0.14672813 0.16379851
000340 86 39 eb 3a b1 ca cd bd 86 f2 d8 bd d6 8a 09 bc
       0.001794622 -0.10048426 -0.10593133 -0.0083949175
000350 1c 5e bb 3b aa 08 5b bd 45 b7 36 bd b3 43 09 bc
       0.005718006 -0.05347506 -0.044608373 -0.008377957
000360 b6 7f 74 bd 16 b3 0d bd 8a 0e de 3b a4 d0 fa bc
       -0.059692107 -0.034594618 0.0067766355 -0.030617066
000370 23 a8 4f bd 6a a4 40 3c 45 eb d0 3c 10 6a 23 bc
       -0.050697457 0.011757949 0.02550281 -0.009974018
000380 13 fb be 3c 13 82 8a 3d 0e 3b 13 3b 90 1a 9e bd
       0.02331308 0.06763091 0.002246562 -0.0771991
000390 9d c7 c7 bb 87 59 0b 3e e0 0f 50 3d 51 42 16 be
       -0.006096794 0.1360837 0.05079639 -0.14673735
0003a0 88 12 a8 bd 80 5c 42 3c 35 aa 07 3e ea f7 0a 3d
       -0.082066596 0.011862874 0.13248523 0.033927836
0003b0 f2 6a c0 bb e9 0e a1 3d c1 f5 89 3d e9 5c 99 bb
       -0.005872124 0.07864172 0.06736327 -0.004680265
0003c0 40 ff 96 3c fa 10 a4 3d 0d 46 f6 bc b6 79 33 bd
       0.01843226 0.080110505 -0.0300627 -0.043817244
0003d0 73 5d 45 3c 1e 51 9d bd 4e 01 55 bd dc 62 a5 3d
       0.012046206 -0.076814875 -0.052003197 0.080754966
0003e0 86 ec 6b 3c f2 6d 7e bd 0b b8 ab bd 05 0f d3 3d
       0.014399653 -0.06211657 -0.08384713 0.10305599
0003f0 72 f0 5e 3c 56 ff df 3c 7b 30 c3 3c 8b 9b 5e 3d
       0.013607131 0.027343433 0.023826828 0.054347556

fc1.bias f4 [20]
000000 84 35 f1 3d 89 2d 24 3e 8b 95 89 3c 8d f8 1b be
       0.117777854 0.16032995 0.01679494 -0.15231533
000010 6e d0 fa bb 23 91 79 bc 7a 85 e9 bd 49 00 68 3d
       -0.0076542413 -0.015232357 -0.11402412 0.056640897
000020 9a 35 33 3d ac 20 b9 bd 87 dc 1b bc dd af 92 bd
       0.04375229 -0.09039435 -0.009513027 -0.071624495
000030 5c 43 b8 3d ba c0 27 3b d7 58 3e 3d 86 ee 19 3e
       0.08997223 0.0025597052 0.046471443 0.15032396
000040 47 2d 1c 3d f4 40 c3 bc 70 5e c0 bd 05 59 e0 bd
       0.038129117 -0.023834683 -0.093930125 -0.10954479

fc2.weight f4 [20, 736]
000000 b5 4f a0 bb dd 40 24 bc 5e a4 0e bc be 5d df bb
       -0.0048923143 -0.01002523 -0.00870618 -0.006816595
000010 17 16 08 bc ea bb 2d bc 1c 24 38 bc d3 3f 2a bc
       -0.008306048 -0.010603884 -0.011239078 -0.010391193
000020 5b b3 4b bc 98 9b 1f bc 3b 1f 1e bc d8 51 ed bb
       -0.012432898 -0.009741686 -0.009651001 -0.0072424226
000030 c0 9c dc bb a5 bc 0a bc 9f 28 4c bc 0b e2 48 bc
       -0.0067325532 -0.008467828 -0.012460857 -0.012260924
000040 7a d9 53 bc 81 c5 46 bc c0 b2 30 bc 69 43 3b bc
       -0.012930268 -0.01213205 -0.010784805 -0.011429646
000050 d6 6a 85 bc 6a be 96 bc 8b 2d 0f be fa 7b a2 bc
       -0.016286295 -0.018401343 -0.13982217 -0.019834507
000060 68 ce b3 bc cd 36 bb bc 1d a8 b7 bc b7 2a ad bc
       -0.021949008 -0.02285328 -0.02241903 -0.021138532
000070 3d c2 95 bc 0b 69 a8 bc 81 82 ba bc 32 75 b6 bc
       -0.018281097 -0.0205579 -0.022767307 -0.02227268
000080 15 ef ad bc 5d ef 96 bc db 08 8c bc ba 28 67 bc
       -0.021232167 -0.018424684 -0.017094066 -0.014108831
000090 c9 b1 6a bc 0b 79 86 bc ce 6b b7 bc ea e8 a9 bc
       -0.014324614 -0.01641514 -0.022390272 -0.020740945
0000a0 4a b9 b0 bc 54 51 c4 bc 62 86 c0 bc 37 02 d7 bc
       -0.021572728 -0.023964562 -0.023501579 -0.026246173
0000b0 04 57 02 bd 4b 19 01 be 87 f3 a8 bd 31 dc 1f bc
       -0.031821266 -0.12607305 -0.08249574 -0.009757088
0000c0 34 e8 31 bc e9 9d 35 bc 96 c9 0f bc 80 c9 24 bc
       -0.010858584 -0.011085012 -0.008776089 -0.010057807
0000d0 7a 88 3b bc f6 dc 66 bc 3a b1 42 bc 65 c3 1c bc
       -0.011446113 -0.014090767 -0.011883074 -0.00956807
0000e0 ee 45 e9 bb e5 14 d5 bb 40 db 19 bc bc e0 2c bc
       -0.007118932 -0.006502735 -0.009390652 -0.010551628
0000f0 44 2f 2a bc cb b5 b8 bb b6 3e b3 bb 57 2d c0 bb
       -0.010387246 -0.005636906 -0.005470122 -0.00586478
000100 57 83 cc bb e8 1b 10 bc 2b 7c 13 bc 91 9e d8 bb
       -0.006241243 -0.008795716 -0.009001772 -0.0066106995
000110 70 9e e0 bd 3e 8c 7a bb aa 72 37 bb c6 11 ae bb
       -0.109677196 -0.0038230564 -0.002799193 -0.0053121774
000120 83 6a 21 bc 5f 60 2e bc c8 35 d7 bb ce ac ec bb
       -0.0098520545 -0.010643094 -0.0065676905 -0.0072227484
000130 7b f0 15 bc 83 7a 13 bc bb 1a 2f bc 00 e1 f2 bb
       -0.009151573 -0.009001377 -0.010687525 -0.007412076
000140 a5 c6 e5 bb 55 75 7f bb 16 d6 9f bb f9 c0 0c bc
       -0.0070122057 -0.0038979847 -0.004877816 -0.00859093
000150 d1 34 4d bc 82 52 1d bc e9 2f c4 bb 53 bc a6 bb
       -0.012524799 -0.009602191 -0.0059871566 -0.005088368
000160 3c 72 cf bb 73 d7 02 bc f0 af 04 bc 13 3f 1e be
       -0.0063307565 -0.007985937 -0.008098587 -0.15453748
000170 af d9 b7 bc 7c 7c 81 bc c7 4e 8c bc 3b c8 71 bc
       -0.022442667 -0.01580643 -0.017127408 -0.014757211
000180 f0 cd 59 bc 65 03 8e bc 1e 18 9e bc 5b 50 b7 bc
       -0.013293728 -0.017335603 -0.01929861 -0.022377184
000190 bc cd b9 bc 9f 09 b5 bc e5 f4 b1 bc 51 2f 8d bc
       -0.02268111 -0.022099314 -0.02172322 -0.017234476
0001a0 67 af 93 bc 84 c6 ac bc c1 ee a4 bc 4c d2 bb bc
       -0.018027974 -0.021090753 -0.020133378 -0.022927426
0001b0 20 9d ba bc fb fe 9b bc e4 7e a3 bc f7 c7 9d bc
       -0.022780001 -0.019042483 -0.019957967 -0.01926039
0001c0 38 d8 a9 bc f3 79 b2 bc 89 19 da bc 51 c1 0d bc
       -0.020732984 -0.021786666 -0.026623504 -0.008652047
0001d0 7b b2 25 bc b7 d7 27 bc d8 36 4c bc 3f 59 4e bc
       -0.010113354 -0.0102443015 -0.012464248 -0.01259452
0001e0 4d 4a 76 bc f1 5e 61 bc 06 b1 88 bc fe 71 81 bc
       -0.015032363 -0.013755546 -0.016685974 -0.015801426
0001f0 91 33 6a bc cd 9f 44 bc 84 f9 45 bc 4a a6 4f bc
       -0.014294521 -0.01200099 -0.012083415 -0.012673924
000200 2a bb 26 bc ea ea 84 bc 1f ce 7a bc 26 42 33 bc
       -0.010176459 -0.016225297 -0.015307932 -0.010941064
000210 99 08 08 bc d6 9d 29 bc ec e9 34 bc 0f 4f 60 bc
       -0.008302831 -0.010352572 -0.011042099 -0.013690724
000220 3c 64 99 bc 72 a3 6f bc 01 ef 1e bd 54 88 a3 bc
       -0.018724553 -0.014626371 -0.03880215 -0.019962467
000230 8d 8a 9c bc a7 9b 8e bc 3f 6d 5b bc ca 91 60 bc
       -0.019109035 -0.017408205 -0.0133927455 -0.013706634
000240 3a 97 83 bc dc 70 73 bc f2 a8 75 bc a6 f5 8b bc
       -0.016063321 -0.014858451 -0.014993893 -0.017084908
000250 a5 9e 93 bc 3d 0a 80 bc 03 3e 47 bc 5d af 4c bc
       -0.018019984 -0.015629882 -0.012160781 -0.012492982
000260 b6 3e 6a bc 05 29 80 bc 5e 76 96 bc e8 9e 88 bc
       -0.014297178 -0.01564456 -0.018366989 -0.016677335
000270 61 7a 91 bc 21 bc b9 bc c3 0c b1 bc 3a 72 a8 bc
       -0.01775855 -0.022672715 -0.02161253 -0.02056228
000280 2c 43 2b bd b0 53 d6 ba 0e 18 21 bc 53 dd 23 bc
       -0.041812107 -0.0016351845 -0.009832395 -0.010001498
000290 7d f4 39 bc c7 8e 3b bc 3e f7 4a bc 1d 4d 44 bc
       -0.011349794 -0.011447615 -0.012388049 -0.011981276
0002a0 8b 4b 45 bc 6d be 3a bc 76 bf 49 bc 74 e7 4e bc
       -0.012041937 -0.01139794 -0.012313714 -0.012628425
0002b0 8f 3f 5d bc fd 45 81 bc e3 de 5d bc 46 48 40 bc
       -0.013503923 -0.015780443 -0.01354191 -0.011735981
0002c0 ad cc 2e bc 80 81 29 bc 95 59 3f bc 06 e5 50 bc
       -0.010668916 -0.010345817 -0.011679073 -0.012749916
0002d0 42 1c 4f bc 6f f6 32 bc b0 bb 22 bc a0 87 22 bb
       -0.0126410145 -0.010923012 -0.0099324435 -0.0024800077
0002e0 15 ee 0a be 02 93 d9 bc 99 43 cd bc 0d ff cf bc
       -0.13567384 -0.026559357 -0.025056647 -0.025390172
0002f0 4e 50 da bc 42 48 d3 bc b6 c7 ac bc d4 ee b6 bc
       -0.02664962 -0.025791291 -0.021091323 -0.022330679
000300 5f 70 c7 bc de 39 d0 bc fe c5 ba bc a1 1e a1 bc
       -0.024345575 -0.025418218 -0.022799488 -0.019667925
000310 d4 b7 b7 bc 14 11 b9 bc 94 dc b1 bc d7 b4 bb bc
       -0.022426523 -0.022591151 -0.021711625 -0.02291338
000320 08 81 c2 bc f9 39 c1 bc 8c 0e ae bc a8 94 b9 bc
       -0.023743168 -0.023587214 -0.02124717 -0.022653893
000330 5c bc dd bc a8 08 c6 bc bc 28 a1 bc f3 6f c1 bc
       -0.027067356 -0.02417405 -0.019672744 -0.023612952
000340 47 a2 af bc 7e b4 b2 bc 24 34 b1 bc b2 4b ad bc
       -0.021439685 -0.021814581 -0.021631308 -0.021154258
000350 94 4f aa bc df 70 9e bc d8 2b 97 bc 99 1f 90 bc
       -0.020789899 -0.01934093 -0.018453524 -0.017593192
000360 bc 84 ae bc 74 91 af bc 92 63 aa bc e3 07 8f bc
       -0.021303527 -0.021431662 -0.020799432 -0.017459815
000370 10 99 8f bc 29 70 8f bc b8 2b a4 bc 86 8b b2 bc
       -0.01752904 -0.017509537 -0.020040378 -0.021795046
000380 9e 73 bd bc 19 46 b4 bc a5 44 bb bc b0 e5 b9 bc
       -0.02312642 -0.022006081 -0.02285988 -0.022692531
000390 0f 81 d8 bc 0e c4 0b be ac 71 e8 bd bc 60 86 bb
       -0.026428727 -0.13649008 -0.11349806 -0.004100887
0003a0 af 23 18 bb 1e e4 70 bb 4e c2 ff ba 05 91 bd ba
       -0.0023214628 -0.0036757062 -0.0019512863 -0.0014462775
0003b0 40 98 7b b9 fa 21 00 bb 3b b6 f4 ba 2f 3a 03 bb
       -0.00023993943 -0.0019551502 -0.0018670032 -0.0020023694
0003c0 98 ed 99 ba 75 76 66 ba 2b 55 cd 3a 3f 62 8d 3a
       -0.0011743782 -0.0008791455 0.0015665641 0.0010786726
0003d0 37 0c c9 3a ea 05 08 39 c7 9d 99 ba 4d ad 6d bb
       0.0015338723 0.00012972174 -0.0011719995 -0.0036266625
0003e0 27 f3 bc bb e9 72 cb bb 9f 5e bd bb 4c 13 b2 bb
       -0.0057662907 -0.0062087667 -0.005779102 -0.0054344293
0003f0 d9 d2 02 be 15 90 33 be 6c a2 72 bc 3e b0 8c bc
       -0.12775744 -0.17535432 -0.014809232 -0.017173883

fc2.bias f4 [20]
000000 3e 19 2b bd 00 39 23 bd f3 66 0f bd c4 b1 25 bd
       -0.04177212 -0.03984928 -0.03501029 -0.040452734
000010 9d 54 19 bd c7 3a 1c bd 9f 8a 31 bd e6 9a 28 bd
       -0.03743421 -0.038141992 -0.04334509 -0.041163348
000020 c9 81 1e bd 60 31 1c bd bd fc 1c bd 6d bb 1e bd
       -0.03869799 -0.038133025 -0.038326968 -0.038752962
000030 64 69 1b bd 20 b7 0d bd a5 40 23 bd f6 89 2c bd
       -0.037942305 -0.03459847 -0.03985657 -0.042123757
000040 5e f4 23 bd 4b 44 1f bd c5 2d 27 bd dc d4 25 bd
       -0.04002797 -0.03888349 -0.040815134 -0.0404862
