model/encoder_16d.pt (torch, 456553 bytes, 18 tensors)

conv1.weight f4 [8, 1, 3, 3]
000000 31 75 97 bd 7d b8 63 be 2c e6 50 3e d8 84 98 bd
       -0.07395399 -0.22238345 0.20400304 -0.07447213
000010 6f ad ea bd 3a 5e 49 3e 52 43 14 be 56 be 2d be
       -0.11458861 0.19664851 -0.14478806 -0.16967139
000020 e2 b0 99 3c 0e 4a 50 3d ef 52 47 be f2 16 2c be
       0.018761102 0.050851874 -0.1946523 -0.16805628
000030 3e a7 81 be 80 79 06 be b1 9c 37 3c 70 ae cc 3c
       -0.25322908 -0.13132286 0.011206792 0.024985522
000040 03 bd fc 3d 3f bc d7 3c 68 44 ef bd cd 38 77 3d
       0.123407386 0.02633488 -0.11682969 0.060356904
000050 08 0d b7 3c 87 54 81 3d 66 e8 8d be c5 37 be 3e
       0.022345081 0.063149504 -0.27716368 0.37151924
000060 c3 c2 68 be 76 ef 7b be f6 f3 bb 3e 3f 1e 8e 3e
       -0.22730546 -0.24603066 0.36709565 0.2775745
000070 2a bd 00 3e 29 2e d0 3d f3 bb dc be 6b 8d aa bc
       0.1257216 0.10165054 -0.43112144 -0.020819386
000080 ec aa 51 be 8e f3 1d 3e de ea 98 3d b0 58 0b 3e
       -0.20475358 0.1542494 0.07466672 0.1360805
000090 b9 b6 49 be c1 8e c4 3e e5 a1 57 bb f4 f8 97 be
       -0.1969861 0.38390163 -0.0032902893 -0.29682124
0000a0 83 32 ae bd 75 e3 86 3d fa 01 22 3e 76 c9 85 be
       -0.08505728 0.06586353 0.15821066 -0.26130265
0000b0 22 1f 11 3e 6d 43 a7 3e 23 b7 69 3e 28 f3 a6 be
       0.14172032 0.3266863 0.22823767 -0.32607388
0000c0 3e f6 c7 3d 1a 06 84 3d 7f bc 8b bd bd 48 30 be
       0.09763764 0.06446476 -0.06823062 -0.17215247
0000d0 86 90 d9 bd 31 21 a6 be f2 4f 67 be 5a 5c 2f bd
       -0.10623269 -0.32447198 -0.2258909 -0.042812683
0000e0 9c d3 4c be 1f f6 1b 3e 83 bc cd 3d 30 58 0b be
       -0.20002598 0.15230606 0.100457214 -0.1360786
0000f0 33 27 ba be e8 5b aa 3b e1 65 12 be 70 48 df 3e
       -0.36358032 0.0051989444 -0.14296676 0.43609953
000100 5c 5d 92 3d 03 3b dd 3c 0c a0 01 bd 7d e7 4a be
       0.07146713 0.027005678 -0.031646773 -0.19814868
000110 b4 a0 4c be e3 16 07 be 64 a3 8b be b1 82 30 3e
       -0.19983178 -0.13192324 -0.27273095 0.17237355

conv1.bias f4 [8]
000000 ab 59 4f 3d b3 12 4e bd b0 0e 95 3d 1b 32 fa 3e
       0.050622623 -0.0503108 0.07278192 0.48866352
000010 7b 6d 72 bd db 3e 27 3f e4 9d 99 bc fe 10 ab 3e
       -0.05918644 0.65330285 -0.018752046 0.33411402

conv2.weight f4 [16, 8, 5, 5]
000000 b8 6b f9 bd c9 bb b6 bd a8 00 d2 bd 57 e7 fb 3c
       -0.12178749 -0.08922536 -0.102540314 0.03074996
000010 94 1e 0b be c6 99 4c bd d4 76 af 3d ed ec 00 3d
       -0.13585883 -0.049951337 0.085675865 0.03147595
000020 7e b0 67 3d 4d 7e 58 3d 90 97 03 3d 2e 7c 85 bd
       0.0565648 0.052854825 0.032126963 -0.06517826
000030 36 b2 1c bc 33 bd e3 3d eb 72 de bd 7f dc e0 bc
       -0.009563973 0.11120071 -0.108617626 -0.02744889
000040 9f a9 3d bd 22 c5 be 3c 1c a0 b3 3d 14 59 d5 bd
       -0.04630434 0.02328736 0.08770773 -0.10417381
000050 41 bc 0c bd b7 39 36 bc 6c 62 ab bd 9e 75 4b bc
       -0.03435922 -0.011122159 -0.08368382 -0.012418179
000060 1f 3f 9e bd 1e 86 e0 bc b0 ed 81 bd ee 46 92 3c
       -0.07726883 -0.027407702 -0.063441634 0.017856088
000070 23 f5 9f bd 82 18 65 be 94 b2 15 bd b9 7e 8f bd
       -0.07810428 -0.2237263 -0.03654726 -0.07006592
000080 13 01 23 bd d4 f2 c8 bd 87 22 9e be 76 b5 22 bd
       -0.039795946 -0.09811941 -0.30885717 -0.039723836
000090 88 64 1e 3c 05 ed a3 bd 3e 01 d4 bd 0a 60 60 be
       0.009667523 -0.08004192 -0.103517994 -0.21911636
0000a0 e6 20 3f 3d fc 60 ed 3c b9 66 04 bc 2e 08 20 bc
       0.046662234 0.02897691 -0.008081132 -0.009767575
0000b0 14 a9 4e bd ff c0 b3 3c 8b 32 f1 bb 9a dd 4b 3d
       -0.050454214 0.021942614 -0.0073607615 0.049771883
0000c0 f3 98 66 bd ef eb 88 bd 44 28 5e 3d 00 28 0f 3e
       -0.056298207 -0.06685626 0.05423762 0.13980103
0000d0 8b 53 89 3e d8 48 dc 3d 9b 93 cd 3d 1b 22 0d 3d
       0.2682155 0.10756081 0.10037919 0.034456354
0000e0 80 e4 59 bd 3f 54 a8 bd 25 e0 90 3d 6c f2 03 3e
       -0.05319643 -0.08219194 0.07074002 0.12885445
0000f0 eb f6 c2 3a d4 47 e5 bc 10 4b c7 bd 36 14 89 3d
       0.0014874613 -0.027988352 -0.09731114 0.06693308
000100 0d 55 99 bd 3b 38 a0 bd 9d 0f b4 3d 52 a7 76 3d
       -0.07486925 -0.07823225 0.087920405 0.060218163
000110 20 f9 d4 3d ab 08 89 bc 16 b6 71 3d a4 da f8 3d
       0.10399079 -0.016727766 0.05901154 0.121510774
000120 3e da 23 3e 3c 77 a9 3d 54 2e a8 3d e3 78 21 3d
       0.16001222 0.08274695 0.082119614 0.039421927
000130 f2 43 31 bc 71 19 cb 3c c0 71 cb bc 56 51 a4 bd
       -0.010819422 0.024792405 -0.024834514 -0.08023326
000140 a4 bf 9d be ea 11 4a be 52 25 26 bf e0 ca 10 be
       -0.30810273 -0.19733396 -0.64900696 -0.1413989
000150 63 96 8d be 63 2f 94 3d 2b a7 11 be cf fd 08 be
       -0.27653798 0.07235601 -0.14223926 -0.1337807
000160 c9 1a cf bd 8c 43 0c be 18 25 ba 3c 11 fe 91 3d
       -0.10112531 -0.13697642 0.022722766 0.071285374
000170 b8 51 e2 3d b9 fd e2 3d 78 58 12 be 5e 71 d1 3d
       0.11050743 0.1108355 -0.1429156 0.10226701
000180 02 a0 5a 3e 3d db a5 3d 97 ce 62 3e bb f2 82 bd
       0.213501 0.08098457 0.2214912 -0.063939534
000190 c4 79 40 bd ad f6 23 bc 4c 10 91 3c 73 56 c0 3c
       -0.046991125 -0.010007543 0.017707966 0.023478722
0001a0 79 11 9e bd 83 c6 67 3d 55 66 42 3d 5c 40 d8 3d
       -0.077181764 0.0565858 0.047460873 0.105591506
0001b0 53 51 0f 3d 7c cf 69 3e 61 85 4f bd fc 99 10 3b
       0.034989666 0.22833055 -0.05066431 0.0022064438
0001c0 9d 43 24 bc aa a0 6d 3d 75 05 f3 bd ce 02 b2 3b
       -0.010025886 0.05801455 -0.11866275 0.0054324633
0001d0 9a b8 d1 bd 8f bf ae bc aa e3 97 3d 87 0b b6 bd
       -0.10240288 -0.021331577 0.0741647 -0.088889174
0001e0 78 99 39 bd 8b 28 37 bd f4 b6 b1 3d c1 36 a6 3b
       -0.045312375 -0.0447164 0.08677474 0.005072445
0001f0 03 18 e8 3d c5 60 2c 3d d0 41 2c 3d 61 48 82 3c
       0.11332705 0.042084474 0.04205495 0.015903654
000200 0e bc e2 3d 3c 70 93 bd 60 0d b5 3c 5b e5 97 3d
       0.11071025 -0.071991414 0.022101104 0.07416793
000210 21 5b ac 3d 2a 1b 71 3d 8f ce 9c bd af 4d 67 3d
       0.08415819 0.058863796 -0.076565854 0.05647057
000220 57 11 a4 3d b8 35 b9 3d d8 28 0d 3d 2f 41 02 3b
       0.0801112 0.09043449 0.03446278 0.0019875278
000230 b8 7a f9 bc bb 7a b7 3c ee 51 95 bc 83 3d 5e bc
       -0.030454025 0.02239739 -0.018227544 -0.01356447
000240 7f a3 13 bc 86 6b 9b bc 99 9d 8f bc 33 ea 87 bd
       -0.0090111485 -0.01897217 -0.017531203 -0.06636467
000250 09 f6 23 bd dd b1 3f be 44 c7 8c bd ff 20 3b 3b
       -0.04002956 -0.18720193 -0.068739444 0.0028553603
000260 10 2a 97 3b 41 15 f1 bd 83 a3 94 be 30 94 b9 bc
       0.0046131685 -0.11771632 -0.29031 -0.02265367
000270 52 74 aa bc 36 44 51 3d da e6 cc 3c d7 5e ee bd
       -0.020807419 0.05109044 0.025012422 -0.11639183
000280 98 e7 83 3d 18 e6 93 3d d1 37 08 bb 8e 34 d4 3c
       0.064406574 0.07221621 -0.0020785222 0.025903966
000290 48 8a 15 be d9 4c b9 bc ff 98 80 3d 0a 73 14 3a
       -0.14603531 -0.022619652 0.06279182 0.0005662894
0002a0 22 ed c9 bd 98 a6 0d be 5a 21 cb bd 3f 5e ee bd
       -0.098596826 -0.13833082 -0.09918471 -0.1163907
0002b0 be ad 62 bd 91 e9 0a be a5 d7 09 be f1 3f 0d 3d
       -0.055341475 -0.13565661 -0.13461168 0.034484807
0002c0 ce 2d 0f bd 4d d4 34 3d 82 a9 a7 3d 78 a9 0c 3d
       -0.034955792 0.04414778 0.08186628 0.034341305
0002d0 4f 12 99 3b 59 db 3f 3d 52 26 4f 3b f7 67 3f bd
       0.004671372 0.046840046 0.0031608534 -0.046730008
0002e0 13 b8 b9 bd a5 b3 c0 3d 5e 3e 98 bc 14 f0 f7 3b
       -0.090683125 0.094092645 -0.018584426 0.0075664613
0002f0 f4 64 21 3d 20 2a 36 be c6 31 d1 bc 12 69 03 3d
       0.039402917 -0.17789507 -0.02553643 0.032082625
000300 ff cc a6 3d 4b ea 93 3d 67 c8 68 3d 73 3d 8a bc
       0.08144569 0.07222422 0.056831744 -0.016875004
000310 23 ea 3d bb e7 38 19 bd de b2 0e bd 30 eb 45 bd
       -0.0028978668 -0.037407782 -0.03483855 -0.048319995
000320 2b 9e 8a bd 62 37 7e bb 4d 4e 97 3d 7e c9 00 3e
       -0.067684494 -0.0038790335 0.073879816 0.12576863
000330 7d da 31 bd a6 c7 41 bd ba 1c 21 3d 37 da a1 3d
       -0.043421257 -0.04730954 0.039334036 0.07902949
000340 2c e3 8f 3b 17 89 b6 3d f3 66 8d bc 23 09 78 bd
       0.0043910947 0.089128666 -0.017261004 -0.06055559
000350 32 80 21 3d a9 a7 82 3c ec bd 88 bc 00 d3 92 bc
       0.039428897 0.015949087 -0.016692124 -0.017922878
000360 9d 6f e1 3a 5e 67 8a 3c 95 ec 24 3d e3 72 2e 3c
       0.0017199401 0.016894992 0.040264685 0.010647508
000370 89 59 26 3d f7 f6 3f 3d 87 43 81 3b e0 d7 9b 3d
       0.04061273 0.046866383 0.0039448175 0.07609534
000380 8e 5a f2 bb 5c ad 28 bd 0d 61 64 3e 32 01 f5 3d
       -0.007396049 -0.041180953 0.22302647 0.119631186
000390 27 6a 39 3e 58 8e a1 3e 57 74 f6 bd fb 0f 32 bc
       0.181069 0.31553912 -0.12033909 -0.010868068
0003a0 f0 05 91 3c 3d 85 79 3d 75 bf 8a 3d be 7a 1c bd
       0.017703027 0.06091808 0.06774799 -0.038202994
0003b0 46 59 26 bd 9a e5 ec bc 4b 6f ab bd c0 02 8d bd
       -0.04061248 -0.028918076 -0.08370837 -0.0688529
0003c0 33 85 4d 3b 33 18 04 bb 78 b6 d0 3c 0b fa 14 3d
       0.003135991 -0.0020156025 0.025477633 0.036371272
0003d0 29 14 88 bc 54 3b ec bd 3f 8f 75 bd ba 2e 02 bc
       -0.016611176 -0.115347534 -0.059951063 -0.007945711
0003e0 89 f1 44 3d c4 58 01 bd 06 c5 80 bd 7d 04 1a be
       0.04808191 -0.031578794 -0.06287579 -0.15040775
0003f0 7a f6 22 3e 2b 6f c3 3c c5 95 a2 3b 9e 4c e2 bd
       0.15914336 0.02385672 0.0049617016 -0.1104977

conv2.bias f4 [16]
000000 30 49 a7 37 8c c0 4f b7 2a ee b9 36 9d 3e 33 b8
       1.9942032e-05 -1.2382992e-05 5.5411556e-06 -4.273524e-05
000010 9b e0 58 38 0a 9b 46 b6 d2 37 21 38 67 bf 5c 37
       5.1707593e-05 -2.9594544e-06 3.8437378e-05 1.3157586e-05
000020 aa 4d 85 b6 2b 0b 14 b7 c4 dd 01 b7 e3 ed 0e b8
       -3.97275e-06 -8.824088e-06 -7.740633e-06 -3.4076988e-05
000030 f4 6e 07 38 9a 7d 56 b7 f8 d8 c1 37 55 e1 e3 36
       3.228984e-05 -1.2784638e-05 2.3108427e-05 6.7913593e-06

bn1.weight f4 [16]
000000 f9 5c 8a 3f a7 63 71 3f 30 99 78 3f 61 4d 92 3f
       1.0809623 0.9429268 0.97108746 1.1429864
000010 9f 43 8e 3f 02 c8 7b 3f 6d fb 86 3f b6 50 37 3f
       1.1114386 0.9835206 1.0545479 0.7160753
000020 9f 24 62 3f db 4f 82 3f 1d 32 85 3f 3a c7 65 3f
       0.8833713 1.018062 1.0405918 0.8975712
000030 a3 6d 76 3f be 8b 76 3f aa b9 5e 3f 62 5b 8a 3f
       0.9626104 0.9630698 0.8700205 1.0809138

bn1.bias f4 [16]
000000 37 e1 42 bd 17 75 24 3d 18 dd c3 bd 9e 60 3f 3d
       -0.047578063 0.040150728 -0.09563655 0.046723
000010 4e 86 7d 3d ce 1f 3c be f3 7b 96 3d de 9e cd bd
       0.06189566 -0.18371508 0.0734786 -0.10040067
000020 0d f4 44 be 61 cb a6 bd 2b ca 3f 3e e4 d1 ec bb
       -0.19233723 -0.0814426 0.18729465 -0.0072271693
000030 56 26 47 3e c4 99 e1 3d dd b1 b5 bd a9 ec c6 3d
       0.19448218 0.110156566 -0.08871815 0.09713108

bn1.running_mean f4 [16]
000000 a1 c8 2b c2 7e 2a af 41 7b 5f 21 41 29 d1 4d c2
       -42.945927 21.895748 10.085811 -51.454258
000010 80 a6 5d c2 d1 ac 56 c0 7b d3 0d c2 8c 46 e6 41
       -55.412598 -3.3542979 -35.456524 28.784447
000020 be 85 24 42 d6 01 6f 41 87 24 18 42 11 3c aa 42
       41.130608 14.937948 38.03567 85.11732
000030 58 bb 3d 41 d6 2c fe 41 c8 67 90 42 e3 95 83 c0
       11.858238 31.771893 72.2027 -4.1120467

bn1.running_var f4 [16]
000000 89 91 b2 43 a7 5d f8 43 18 f4 f4 43 8d c8 38 44
       357.137 496.73166 489.90698 739.1336
000010 ea 23 2b 44 97 c0 eb 42 c5 87 b0 43 92 d2 93 43
       684.56116 117.87615 353.0607 295.64508
000020 85 db 81 43 0b 02 30 43 0c 7a 3c 44 db 63 8e 44
       259.715 176.00798 753.907 1139.1205
000030 79 61 92 43 5a f3 d5 43 c4 4c 41 44 f7 6f 5f 43
       292.7615 427.90118 773.19946 223.43736

conv3.weight f4 [32, 16, 5, 5]
000000 23 7b 78 bd 6d 27 99 bc e7 a5 94 3d 60 d4 93 bc
       -0.060664307 -0.018695557 0.07258206 -0.018045604
000010 04 95 e8 bb 95 f2 48 3d 35 c2 90 bb eb 9c 0e bd
       -0.007097842 0.04905947 -0.0044176825 -0.034817617
000020 93 ed 70 bc 73 6a 65 bd 8f ee 01 3d a8 65 5f 3d
       -0.01470508 -0.05600972 0.031721648 0.054540306
000030 7a 47 53 bb 25 82 04 3d a7 52 77 3d 8c c0 42 bd
       -0.0032238648 0.032350678 0.060381558 -0.04754691
000040 78 4a 8a 3c c1 17 12 be 44 09 3b 3e 31 11 40 3d
       0.016881213 -0.14266874 0.18265253 0.046891395
000050 69 c1 13 be 98 d5 10 bd 03 12 0e bd dd 64 71 3e
       -0.14429249 -0.03535995 -0.034685146 0.23573633
000060 17 57 16 bd dc 3a bc bd 66 1f 7d 3d ff 6a cb 3d
       -0.03670415 -0.09190914 0.061797522 0.09932517
000070 95 3d ec 3c a9 3e 0b 3e d7 17 06 3e 98 1b b9 3c
       0.028837958 0.13598122 0.13095032 0.022596166
000080 4f a8 8a bd 42 86 ab 3c d3 e5 18 3e 22 c7 48 bb
       -0.067703836 0.020938043 0.14931421 -0.003063627
000090 89 be f8 bb de d5 39 bd 99 55 7b bd e7 90 b6 3d
       -0.007591073 -0.045369975 -0.06136093 0.08914357
0000a0 a0 3c b3 3c 8c 12 5f 3d c4 7b 03 bd d5 b5 3e bd
       0.021879494 0.054461047 -0.032100454 -0.046560127
0000b0 2d de 7d 3d 18 75 69 3d 1a dc b0 3c e6 17 4e bc
       0.06197946 0.056996435 0.021589328 -0.01257894
0000c0 35 bf d2 bc d0 b0 c6 3b b9 85 30 3d f3 4f 5f 3c
       -0.02572594 0.006063558 0.043096278 0.013629901
0000d0 5a 39 ab bd f1 5a 65 bd 27 b5 a8 bd 7e 35 89 3d
       -0.08360548 -0.05599493 -0.08237677 0.06699656
0000e0 07 03 40 3e 0f 52 98 3c 60 fb 8e bd f2 70 00 ba
       0.18751155 0.018593816 -0.0698154 -0.00048996427
0000f0 79 77 95 3d 76 87 65 3c 8e 78 4e bd b1 1f 4a bd
       0.07298178 0.014009347 -0.05040794 -0.04934663
000100 1c 07 2a 3d 4f 30 a5 bd f9 21 43 3d 03 3f 63 bd
       0.041510686 -0.08065855 0.04763982 -0.055480015
000110 25 c9 da bd 62 c6 db bd d0 d5 03 be 91 5c 0d 3d
       -0.106828965 -0.10731198 -0.12874532 0.034512106
000120 31 57 2e be fc 8b 2e be b9 1d 25 be 89 b1 e5 bd
       -0.17025448 -0.17045587 -0.1612462 -0.11215503
000130 c9 60 c7 3b 80 07 3a bd 2e b8 dc bb d5 f1 1a bb
       0.0060845357 -0.04541731 -0.006735823 -0.0023642678
000140 28 ab 62 bc 27 fd 98 bd 37 e7 6a bd 39 34 c0 3c
       -0.013834752 -0.0747016 -0.05734941 0.023462402
000150 ef d8 1f 3d b0 d2 ab 3c 2f 70 88 ba c4 83 72 bd
       0.039025243 0.020974487 -0.001040941 -0.059207693
000160 2a 99 23 bd e0 22 de 3d bc 87 21 be 86 e9 01 be
       -0.03994099 0.10846496 -0.15774435 -0.12686738
000170 82 21 cf bd 28 ff 32 be bd fb 3a 3e 33 6b d9 bd
       -0.10113813 -0.17480147 0.18260093 -0.1061615
000180 7b b7 87 bd 14 b8 b7 3d 51 18 59 3e 63 1e 17 3e
       -0.06626793 0.08970657 0.21200682 0.14757685
000190 e8 86 94 3d 39 a7 4b bd 30 e0 49 bd e9 53 46 3d
       0.07252294 -0.049720023 -0.049286067 0.048419867
0001a0 a6 36 70 bb 35 34 a5 3a 2a 48 18 bd 65 b2 a8 bd
       -0.0036653667 0.001260406 -0.037178196 -0.08237151
0001b0 f3 2e b4 bd ed 9d 9c bc df 27 cb bc cb f0 25 3d
       -0.08798017 -0.019118274 -0.024799285 0.04051284
0001c0 f3 d2 04 3c 12 34 b2 3c 08 68 af 3c 99 27 33 bd
       0.008106935 0.021753345 0.02141191 -0.043738935
0001d0 06 a6 af 3d e4 cb 09 3d 80 65 db 3c b1 5a 9d 3c
       0.08576588 0.03364171 0.026781797 0.019208284
0001e0 bf 76 84 bd 76 fa a5 bc 1d 2c c0 3d 46 80 9c 3e
       -0.064679615 -0.02026103 0.09383414 0.30566615
0001f0 d0 cc ad bc e5 18 1d 3e 3e ca e3 bd 61 38 c1 3c
       -0.021215826 0.15341528 -0.11122559 0.023586454
000200 4b 33 b6 3c 70 ef 8a 3c 56 06 f8 3d 38 d8 d3 ba
       0.022241255 0.016959876 0.121105835 -0.0016162461
000210 f7 e6 86 bd a6 f2 3c bc ce 02 79 bd 6b a9 79 3c
       -0.06587022 -0.011532461 -0.06079369 0.015238146
000220 e6 6c a6 bb 5e 56 08 bd 5a 92 e5 3d c7 0c c2 3c
       -0.0050788997 -0.03328549 0.11209555 0.023687733
000230 2c b5 1c bd fe 68 89 bc c0 a5 38 be 1a 1a 1f 3c
       -0.038258716 -0.016773697 -0.18031979 0.009710813
000240 d8 93 01 3d f3 20 49 3d 1a 4a cd bd 02 64 84 be
       0.031635135 0.04910369 -0.100238994 -0.2585755
000250 8a fd 3f be 54 14 35 bd 15 ff d1 3d df 7a 11 bd
       -0.18749061 -0.04420884 0.10253731 -0.03551757
000260 07 5b 17 3d b8 df 21 bc 6e d3 56 bd ab d8 ad 3d
       0.036952045 -0.009879999 -0.05244773 0.08488592
000270 e2 f1 ac bb 87 69 31 bc 8a f2 ce bd aa d8 da 3c
       -0.005277858 -0.010828382 -0.101048544 0.026714642
000280 32 86 20 3d 3f 3c be bd 28 09 5b 3d dc 8f 69 3d
       0.03919048 -0.09288835 0.05347553 0.05702196
000290 b1 bf 44 bb 8c 7b 21 3c 20 de 32 3d 68 d8 18 3d
       -0.0030021484 0.009856116 0.043668866 0.037315756
0002a0 50 47 e5 bb bc 39 85 bd 19 c6 e3 3d c4 a7 8d bc
       -0.0069970265 -0.065051526 0.111217685 -0.017291911
0002b0 ac dd 03 bd b2 05 8a bd 21 96 ae bd 54 71 54 3d
       -0.032193825 -0.067393675 -0.085247286 0.05186589
0002c0 8b d3 cd bc a7 1b dd bd cb 53 c4 3c e1 ce cd 3d
       -0.025125286 -0.1079629 0.023965737 0.10049225
0002d0 d1 1e 07 bc 5c dd c3 ba c9 85 cb 3c 57 0d 48 bd
       -0.008247093 -0.001494329 0.024844067 -0.048840847
0002e0 6c a1 87 bc 4e 22 0c 3d e4 ae 55 3c 43 3b 0b 3d
       -0.016556464 0.034212403 0.013042185 0.033992063
0002f0 73 5b 59 bd fb 2c 93 3c be 1e fd 3c 04 c1 57 bc
       -0.05306573 0.017965784 0.030898448 -0.013168577
000300 91 67 79 bd e6 7a 07 be 97 27 2d bd a1 13 99 3c
       -0.060889784 -0.13230476 -0.042274084 0.018686118
000310 bb 10 f7 3c 5b 7b 7e bd 85 b7 8b 3d a4 8d 77 3d
       0.030159345 -0.06212936 0.06822113 0.060437813
000320 66 9b 5d 3e 57 fc 0c be 7b d3 03 3b ac 74 10 be
       0.21641311 -0.13768135 0.0020115066 -0.14107007
000330 20 2d 13 3d d4 35 37 3d d8 c6 6d bd fd 4e 9b bc
       0.035931706 0.04472907 -0.05805096 -0.018958563
000340 ea fa 46 bd 57 cc 79 3e 8b 1e 4a bd 73 be de bd
       -0.048579134 0.24394356 -0.049345534 -0.10876169
000350 a4 c1 ac bc 25 b6 00 be a0 c4 3c 3d 89 a0 b6 3b
       -0.021088429 -0.12569483 0.046085954 0.0055733365
000360 5f 1c 2e bc dc b4 ec bb 18 5c 8a bd ff ff 36 bd
       -0.010626881 -0.0072237086 -0.06755847 -0.04467773
000370 3f b4 8b 3c 53 b0 f5 3c b0 d7 db 3c 4c 5f a6 bb
       0.017053721 0.029991305 0.026836246 -0.0050772782
000380 ac e2 81 bd 87 5d 4a 3e 47 04 b2 3d 80 29 23 3e
       -0.06342062 0.1976224 0.08692222 0.159338
000390 d6 11 4d 3c e2 87 3e 3b 9a f6 3a 3d d0 16 43 3e
       0.012516459 0.0029072692 0.045645334 0.19051671
0003a0 64 dd f9 ba 4f ac 47 3c 85 10 26 bc fd de c2 3c
       -0.0019063172 0.012187078 -0.0101357745 0.02378797
0003b0 22 6c 9f bc 2a 4c a2 3d ac b5 bd 3d e4 63 4a 3d
       -0.019460741 0.079246834 0.09263167 0.04941167
0003c0 41 65 71 3d 91 ca 97 3d bd eb 12 3d 4c 4b 1d 3d
       0.058934454 0.07411683 0.03586935 0.038401887
0003d0 b0 d1 8b bc 38 32 8f 3d 78 2a 4b 3d ef d4 60 3d
       -0.01706776 0.06992 0.04960105 0.05489057
0003e0 3d 35 56 bd e9 c2 5d bd 6b a9 a5 ba 60 73 f3 b9
       -0.052296866 -0.05414096 -0.0012638991 -0.00046434533
0003f0 a8 df b7 bd 2d 56 5b bc 4a 06 32 3e b9 92 02 bc
       -0.08978206 -0.013387245 0.17385212 -0.007969552

conv3.bias f4 [32]
000000 38 c0 42 b8 fc af f0 38 89 f1 5d b9 29 1e 47 b8
       -4.6432222e-05 0.000114768714 -0.00021166181 -4.7473386e-05
000010 dc d8 da 38 c8 23 27 b9 17 54 97 39 55 37 09 b7
       0.00010435443 -0.0001593969 0.00028863616 -8.178719e-06
000020 80 f5 dc b8 e9 06 94 b9 ae 75 d4 38 51 32 96 b8
       -0.000105361454 -0.00028233908 0.00010130867 -7.1619295e-05
000030 8d 22 87 38 9e 42 72 39 6f 78 c1 b9 f6 dc 56 b9
       6.443737e-05 0.00023103735 -0.0003690156 -0.00020490945
000040 2a 5b 29 38 4d 7b e7 37 68 72 87 39 43 91 0b b9
       4.0377643e-05 2.7594762e-05 0.00025834446 -0.00013310187
000050 3f 6f b4 b8 cc 4e af 38 19 3d c3 b8 91 cb 70 36
       -8.60379e-05 8.359327e-05 -9.309705e-05 3.5881278e-06
000060 d8 b4 76 37 5c 74 4e 38 f3 41 19 b9 c2 68 ed 37
       1.4704849e-05 4.9222595e-05 -0.00014615785 2.8301383e-05
000070 30 2b db b6 49 c0 9f b7 42 18 d7 38 16 c3 fd b8
       -6.5317363e-06 -1.9043817e-05 0.00010256517 -0.00012100318

bn2.weight f4 [32]
000000 89 0d 81 3f b2 48 66 3f a2 47 93 3f 75 3c 64 3f
       1.0082256 0.89954674 1.1506236 0.8915475
000010 99 6f 52 3f b5 18 96 3f d3 9a 6e 3f 63 d7 5d 3f
       0.82201535 1.172629 0.93204993 0.8665678
000020 42 13 69 3f 71 b1 7c 3f f3 1f 9c 3f 87 c4 88 3f
       0.9104501 0.98708254 1.219725 1.0684975
000030 aa f7 80 3f 0e 89 83 3f 82 d6 73 3f 04 94 66 3f
       1.0075581 1.0276201 0.9524919 0.90069604
000040 3c 44 66 3f 20 36 82 3f b0 0e 76 3f 04 1e 48 3f
       0.8994787 1.0172768 0.9611616 0.781708
000050 a4 7a 6a 3f 8d 83 85 3f 14 01 54 3f 03 da 59 3f
       0.91593385 1.0430771 0.82814145 0.85098284
000060 5d eb 84 3f d7 40 78 3f 21 fc 7f 3f ad f6 7e 3f
       1.0384327 0.9697394 0.99994093 0.9959515
000070 6f 7a 48 3f 52 75 7d 3f 51 ba 61 3f c6 24 8e 3f
       0.7831182 0.9900714 0.8817492 1.1104972

bn2.bias f4 [32]
000000 0c 50 d7 3d ba 11 ab 3d e3 89 70 3d d9 b2 30 3e
       0.105133146 0.083529904 0.05872525 0.17255725
000010 50 d3 4c bd 63 89 42 bd 31 48 ad 3d d3 d0 20 3d
       -0.05000621 -0.047494303 0.08461035 0.03926165
000020 de 65 56 bb 64 43 d0 3d 46 96 ca 3c 3c f8 0c 3e
       -0.0032714526 0.10169104 0.02472986 0.13766569
000030 e9 ca a8 bb 8e eb 07 bc 73 de d9 bd 7c 15 14 bd
       -0.005151142 -0.008295907 -0.10638132 -0.0361533
000040 b7 a3 46 3e 8a 60 2e 3c a7 31 97 3d 96 63 12 3e
       0.1939839 0.010643134 0.07382517 0.14295802
000050 96 11 3f 3e 23 6f 0e 3e dc 48 94 3c 65 9c ce 3d
       0.18659052 0.13909583 0.018101148 0.10088424
000060 09 2f 39 3d 86 f9 a4 3d cd cd 88 3d da e4 e3 3d
       0.04521087 0.08055405 0.066798784 0.11127634
000070 86 33 78 3e 2b d4 63 3e a4 24 d3 3d 9b eb d8 3d
       0.24238405 0.22248904 0.10309723 0.10591813

bn2.running_mean f4 [32]
000000 c0 6f ee be c8 b0 8c bf fa 5b 1c 40 03 b2 7e 40
       -0.46569633 -1.0991449 2.4431138 3.979615
000010 5b 2b 8d 3f e8 4b a8 bf 53 f2 10 3f 50 7f a7 bf
       1.1028856 -1.3148165 0.5661976 -1.3085728
000020 f0 90 d6 3d 74 ac de 3f c1 e5 1d c0 63 5e 9e 3b
       0.104768634 1.7396379 -2.467148 0.004833029
000030 29 69 01 40 4f 3b 3e 40 23 df 58 3f 39 c5 bf 3f
       2.0220435 2.97237 0.8471548 1.4982063
000040 30 e4 92 3f d2 d2 9f 3f 0d 18 44 bf f6 d1 0c 3f
       1.1475887 1.2486212 -0.765992 0.55007875
000050 fe 7e 05 bf c1 e4 1a bd c0 bf 29 40 0a 3d 8c 3f
       -0.521469 -0.037815813 2.6523285 1.0956128
000060 51 5a e0 3f 09 a9 57 3f 20 d2 d4 bf 5e db b6 bf
       1.7527562 0.842423 -1.6626625 -1.4285696
000070 49 f4 22 40 40 ab c5 3f 8f d2 98 3e 3f ab 9b bf
       2.54616 1.5442886 0.29848143 -1.2161635

bn2.running_var f4 [32]
000000 39 df 2e 3f 51 a2 d6 3f 32 b4 7a 3f 71 e1 d1 3f
       0.6830936 1.6768285 0.97931206 1.6396924
000010 03 47 ca 3e 2f 69 50 40 63 b5 92 3f d6 0a c1 3e
       0.39507303 3.25642 1.1461605 0.3770358
000020 01 d2 a2 3e 8c f9 77 3f c2 a8 ce 3f 43 3d 54 3f
       0.31800845 0.96865153 1.6145251 0.8290598
000030 7d 13 49 3f d1 64 63 3f 6b ff 64 3e d3 17 bd 3e
       0.7854536 0.8882571 0.22363059 0.3693224
000040 b2 e0 5a 40 eb 77 25 3f 5c 66 41 3f 38 f3 cc 3e
       3.4199643 0.64636105 0.75546813 0.4002931
000050 43 02 1a 40 ae 87 c3 3f 77 5b e8 3e 29 13 5b 3f
       2.406388 1.5275781 0.45382282 0.8557611
000060 ab ec 1f 3f ab 44 9f 3f d9 2d ad 3f 95 95 5c 3f
       0.624705 1.2442831 1.3529617 0.86165744
000070 a4 64 d5 3f 9a 95 d3 3f c7 4f c7 3f 18 8b bc 3f
       1.6671338 1.653003 1.5571221 1.4729948

fc1.weight f4 [128, 736]
000000 c0 3d b0 3d 51 1e 66 3e cf 5b a2 3d 97 60 0c 3d
       0.08605528 0.22472502 0.07927667 0.034271803
000010 ab 98 b0 bd 2d 5e e5 bc cd ed 8b 3c fb 48 83 bc
       -0.08622869 -0.027999008 0.017081166 -0.01602601
000020 74 5b 43 3d 0f 01 bc 3d 87 3b 9c 3d 0a 4b 9f 3d
       0.04769464 0.091798894 0.076285414 0.077779844
000030 5c cf 95 3d 51 14 bf 3d 19 b0 c0 3d f0 f3 9f 3c
       0.07314941 0.09330047 0.09408588 0.019525498
000040 e0 8a 41 3c d1 eb 3a 3d e6 14 71 3c 5e b7 ed 3b
       0.011812896 0.04563505 0.014714455 0.007254525
000050 fe 82 ab 3c 9d c7 44 bd a1 d8 d0 bc b9 c6 80 bc
       0.020936485 -0.04804193 -0.025493922 -0.015719758
000060 b3 d6 07 3e d7 88 a5 3c 6e d1 de 3c de ab bf 3d
       0.13265495 0.020206852 0.027199473 0.09358953
000070 15 ae c4 3d 9d da 9d 3d b0 46 43 3c 35 fc 94 bd
       0.09603516 0.07707713 0.011918709 -0.07274667
000080 d1 c7 08 3c 41 cb 74 bd 45 68 09 be 73 78 ce bd
       0.008348421 -0.05976415 -0.13418682 -0.100815676
000090 a1 fc 38 bc ff fe 6d bd 60 79 3e bd 05 3b cf 3c
       -0.0112907 -0.05810451 -0.04650247 0.025296697
0000a0 ae f9 d2 3b 22 cb af bd b5 d9 04 3d a4 da cb bc
       0.0064384555 -0.085836664 0.032434184 -0.02488453
0000b0 c0 5b 4a 3d 31 d1 d4 3d bf f2 13 3e 1d d5 56 3d
       0.049403906 0.103914626 0.14448069 0.052449334
0000c0 50 e8 34 bc f8 22 60 3d 3d a8 96 bc 3d 2b a6 bd
       -0.011041716 0.05472085 -0.01839077 -0.08113716
0000d0 1c 2d a6 bd 36 e1 21 bc ff db d0 3d b4 71 72 3e
       -0.08114073 -0.009880355 0.10198211 0.23676187
0000e0 fa 5b 18 3e 56 31 05 3c 2c 1b 60 3d 29 4b 21 3e
       0.14878836 0.008129438 0.054713413 0.15751328
0000f0 79 8e 41 bd a9 73 b5 bc c2 ee 93 bb 9b ff 96 3c
       -0.047255013 -0.022149878 -0.004514546 0.018432429
000100 c8 85 9e bd 81 ff 67 3d 31 b8 c5 3d fa db db 3d
       -0.077403605 0.056640152 0.09654272 0.107353166
000110 fb 60 70 bc 7c 9b 23 be 4c 2f 9d 3d 90 ae 1d 3e
       -0.014671559 -0.15977281 0.07675037 0.15398622
000120 8d f8 d5 3d 7a d4 45 bd e8 9d 83 bd bd 38 93 3d
       0.10447798 -0.048298337 -0.064266026 0.07188556
000130 b1 65 27 bd c6 00 c4 ba 66 e2 60 bc 7d 6f 9f bc
       -0.040868465 -0.0014953844 -0.013725853 -0.019462341
000140 38 26 83 bd 10 dd 38 bd ca 95 d3 bd b6 6c f6 bc
       -0.06403774 -0.045132697 -0.10331304 -0.030081134
000150 c8 ff 0c bc 96 6a 02 3c 64 2c 07 3d b0 8a ae 3c
       -0.008605905 0.007959982 0.03300132 0.021306366
000160 eb 76 4c bd da 65 21 3d a3 bb 29 3d 84 d9 3c be
       -0.049918097 0.039403774 0.04143871 -0.1844235
000170 d6 da 05 bd 3b 62 32 3c 0b aa 38 bd b7 a8 e3 bc
       -0.0326794 0.010887678 -0.04508404 -0.02779041
000180 cb 2d 2e 3d d5 c8 e3 3d bd 19 e7 3d f4 01 f5 3d
       0.04252414 0.1112229 0.11284206 0.11963263
000190 67 a3 20 3e ce 98 db 3d c5 95 c8 3d 93 e7 81 3d
       0.15687333 0.107225046 0.09794191 0.063429974
0001a0 de 03 61 3c c5 fd 39 3d 0f 82 24 3d 8d b3 29 3d
       0.013733832 0.04540803 0.040163096 0.041431
0001b0 d9 62 fc 3c cd 88 59 3d 88 33 89 3d 7e 52 20 3d
       0.030808853 0.05310898 0.06699282 0.03914117
0001c0 9c 97 c3 bb cc 51 90 3d 9e 78 78 bd a2 0e 4e bd
       -0.005969001 0.070468515 -0.060661905 -0.050306924
0001d0 95 eb 09 bd 85 0f ba 3c 0c 77 6b 3c bc 2e 6b bc
       -0.033671934 0.022712478 0.014371645 -0.014354404
0001e0 7d e7 07 bc 85 67 ca 3c 96 b0 b4 bc bc ce 20 3d
       -0.008294937 0.024707565 -0.022056859 0.039259657
0001f0 a1 15 a9 3b 6d 4c 4f 3d 58 c5 84 3d 28 d9 d4 3c
       0.005160049 0.050609995 0.06482953 0.025982454
000200 31 e7 1b 3c 00 9b 63 3d 14 64 55 bc 5c 7b 60 3c
       0.00951557 0.05556774 -0.013024349 0.013701286
000210 ff 6f 83 3c 19 ab 25 3d d1 1d b5 3c cd 25 80 bd
       0.016044615 0.040446375 0.022108944 -0.0625721
000220 5d 9f e2 bd a7 48 5e be db 24 85 3c 48 82 d5 3d
       -0.110655524 -0.21707402 0.016252926 0.1042524
000230 cb 83 0d 3d 3d 02 6d bd c1 fa 18 3d ab a1 17 bd
       0.034549516 -0.057863463 0.037348513 -0.037019413
000240 d0 94 37 3d 32 55 6d 3d 14 0f bd 3c f3 34 8d bd
       0.044819653 0.057942577 0.023078479 -0.06894865
000250 cf a4 1c bd 38 c1 15 bd f5 99 cd bd 93 e3 ab bd
       -0.03824311 -0.03656122 -0.100391306 -0.08393016
000260 61 ce 1e be 07 fb 85 bd 5f dd 60 bc 48 15 91 bd
       -0.15508415 -0.0654202 -0.013724654 -0.07084137
000270 f1 89 9e bd 1b 43 5b bd e9 d1 f4 bc fa 0c 85 bc
       -0.07741154 -0.053530794 -0.02988525 -0.01624154
000280 07 5b ff 3c 0e cb c8 bd 16 d0 c3 3d da b1 a2 3c
       0.031171335 -0.098043546 0.095611736 0.019860197
000290 c5 61 5d 3d 19 e5 16 3d 27 e5 b7 3d f8 b6 ec 3d
       0.05404832 0.03683958 0.08979254 0.11558336
0002a0 9a 18 ec 3c d2 05 ac bd 26 e2 4b bd aa 3f 8a 3b
       0.028820325 -0.08399548 -0.04977622 0.004219015
0002b0 6a 34 1a be 25 9a f8 3c 15 73 c1 3d 1f a7 1e 3d
       -0.15059057 0.03034694 0.09445778 0.038733598
0002c0 97 be c9 3c 38 73 0e be 51 ed 5f bd 7d 7d d9 bb
       0.024627013 -0.1391114 -0.054669682 -0.006637274
0002d0 c6 eb 9c 3d 8b bd f4 3d a2 0f e1 3d 3b 81 99 3d
       0.07662158 0.11950215 0.1098931 0.07495352
0002e0 60 7a 36 3e 6d c7 d7 3c f7 aa 2a bd 18 66 8f 3d
       0.1782012 0.02634021 -0.04166695 0.07001895
0002f0 39 4f 05 3e c2 04 9d 3d e8 fa e3 3c 5d 78 44 3b
       0.13018502 0.07666923 0.027829602 0.0029978969
000300 9c be 41 3d 8e 1b 8e 3d a0 59 20 bc 60 b0 3d 3d
       0.04730092 0.069388494 -0.009786993 0.046310782
000310 ef 89 17 be 74 0f 2a 3c c5 82 71 3d 39 96 c8 be
       -0.14798711 0.010379661 0.058962602 -0.3917711
000320 0e 83 f7 bd 8a 07 2b 3e 13 5b 74 bc 43 59 b2 bd
       -0.120855436 0.16702095 -0.014914292 -0.087084316
000330 86 6a f5 bc 4f 25 8d 3d 7d e4 ce bb 71 f9 37 be
       -0.02995802 0.06891882 -0.006313859 -0.17966248
000340 08 74 30 3d 14 bd 7a bd 20 6c c0 bd f0 95 0d be
       0.043079406 -0.061215475 -0.09395623 -0.13826728
000350 c1 13 37 be 2d 5a 11 be ac ed 3f be 36 67 d2 bd
       -0.1787863 -0.14194556 -0.18743008 -0.10273592
000360 20 a1 01 be 92 e0 08 be 96 fc 34 be c6 f9 e0 bd
       -0.1265912 -0.13366917 -0.17674479 -0.109851405
000370 28 bf 0c bb 72 b8 b1 bc 23 65 1d bd ca 7b de bc
       -0.0021476243 -0.021694396 -0.03842653 -0.027158637
000380 fd bd 0f 3e 0b 63 29 3e 3e 8c 4c 3e 43 9a 79 3e
       0.14037319 0.16541688 0.19975373 0.24375252
000390 de 0b e3 3d 2e 42 4a 3e 00 81 d1 3c 5a fa ad 3b
       0.11086248 0.19751808 0.025574207 0.0053093852
0003a0 7c 77 50 3c 86 7d 44 bd 0f c3 7e 39 4e 54 47 3d
       0.0127238 -0.04797127 0.00024295993 0.048664384
0003b0 40 58 0a 3d ec 69 af 3b 87 b0 a6 3c ab a1 b5 3c
       0.033775568 0.005353203 0.020347847 0.022171816
0003c0 bd 01 77 3d 5e 6a f7 3c 31 91 90 3d 5b a1 4b 3d
       0.060304392 0.030202087 0.07058943 0.049714427
0003d0 c5 ef 0e 3d 3a 9c a0 3c 6a 32 58 3d 9b e0 95 bb
       0.03489663 0.019605745 0.052782454 -0.004573894
0003e0 fd c4 06 3c 95 99 5f bd 45 2b 2d be 24 a4 ba bd
       0.008225677 -0.054589827 -0.16911037 -0.091133386
0003f0 e4 7d 0e be c5 14 02 3e e9 20 05 3e 91 d5 e4 3d
       -0.13915211 0.12703235 0.13000835 0.11173547

fc1.bias f4 [128]
000000 eb a0 81 bd 5e 28 e0 bb da d9 9b bb 4b c0 85 3d
       -0.06329521 -0.0068407496 -0.0047561945 0.065308176
000010 6c 6a 20 bc 58 b6 01 00 42 91 72 3d a8 b9 00 80
       -0.009790998 1.57248e-40 0.05922056 -6.6601e-41
000020 60 72 05 bb 34 17 8b b5 88 9d 1b 3d 8e 4b d6 86
       -0.0020362362 -1.036306e-06 0.03799203 -8.060887e-35
000030 b2 f7 bf 3c 03 5c 8a 3d c3 8e 67 ba 80 fa 0c 3d
       0.02343354 0.06755831 -0.0008833224 0.034418583
000040 30 94 66 3d 35 44 03 3d fa 89 d6 ad 98 3a 81 bc
       0.056293666 0.03204747 -2.4390257e-11 -0.01577501
000050 8e 3b bd b5 9a 49 3c 3d d3 2b c9 bc 2d 95 b1 3d
       -1.409893e-06 0.04596863 -0.02455703 0.08671031
000060 ea 60 3a b8 8b 56 71 3c a4 13 4f af 09 09 2e 3e
       -4.4436114e-05 0.014730106 -1.8833518e-10 0.16995634
000070 41 41 3d b8 dd 20 8b 3d 45 67 d9 b5 f6 98 de 3d
       -4.5121884e-05 0.067933775 -1.6197815e-06 0.10869019
000080 35 ba c5 3c 9f 59 91 3c 19 a5 ab 3c ff 86 99 bb
       0.024136642 0.01774293 0.020952748 -0.0046852822
000090 80 d6 e7 bc f4 66 96 3b 60 0c 2a b1 dd eb 0e 3e
       -0.028300524 0.0045899097 -2.474529e-09 0.13957162
0000a0 03 ac 6b 3d 08 26 33 bd 8f 6c bc bb 4a 9c 0d 3e
       0.05753709 -0.04373744 -0.005750246 0.13829151
0000b0 35 19 93 b9 56 a1 af 3d e3 33 19 3c 29 0d 22 bd
       -0.00028056806 0.08575694 0.00935075 -0.03956333
0000c0 ad 92 90 3c 7c 28 89 bc 78 7f c5 3d 8c 28 90 3d
       0.017648065 -0.016742937 0.09643453 0.07038984
0000d0 51 a9 c9 3b a9 60 e7 ba f6 8f 0e bc 57 87 10 bb
       0.0061542173 -0.0017652708 -0.008701315 -0.0022053325
0000e0 01 95 b4 bb 48 1b 56 b7 aa 36 03 00 44 86 29 bc
       -0.0055109267 -1.2761746e-05 2.95116e-40 -0.010346953
0000f0 6a 9f be bc 1d 6e 17 bc f3 ea dc b4 13 5b f6 3d
       -0.023269374 -0.009242562 -4.114914e-07 0.1202909
000100 05 6c e7 bb 7d ad 67 3d cc c5 41 b3 62 98 a6 3d
       -0.0070624375 0.056561936 -4.511621e-08 0.081345335
000110 be e6 e1 b5 5d b2 7d 3c f4 83 17 3d 71 92 4e aa
       -1.6830961e-06 0.01548442 0.036991075 -1.8347283e-13
000120 fc 35 2b 3d 4d a2 a2 3d d1 f7 05 80 51 fe b6 3c
       0.04179953 0.07941113 -5.48077e-40 0.022338064
000130 4f 03 60 bb 0c 29 9f 3d a5 e4 28 8d 1a e0 9e 3d
       -0.003418166 0.07771501 -5.204422e-31 0.07757588
000140 02 13 2f 3d 08 82 68 3d 6d 64 be bb 0a dc af bb
       0.042742737 0.056764632 -0.0058103115 -0.005366807
000150 a0 bb 5f 3d 01 67 97 3b 9c f5 04 80 28 37 03 bc
       0.054622293 0.0046204333 -4.5545e-40 -0.008008756
000160 87 e2 03 80 52 c0 16 3c 4e 30 8a 3d ed 13 88 3d
       -3.56769e-40 0.009201126 0.06747495 0.066444255
000170 9f ce 80 3c 22 26 e7 3c 16 20 f4 3d 41 75 e6 bc
       0.015723525 0.028216425 0.119201824 -0.028132083
000180 b6 c5 1c 3d 1c f9 61 3d 43 d1 42 b8 60 c9 06 80
       0.03827449 0.05516921 -4.6448095e-05 -6.23253e-40
000190 9c ec b1 b6 73 36 03 00 03 56 6f ba d0 37 00 bd
       -5.302556e-06 2.95039e-40 -0.0009129943 -0.031303227
0001a0 ae 5c 47 bc e2 01 2a bc 69 ee 50 3d 8e b3 25 8d
       -0.012168093 -0.010376425 0.051008616 -5.106068e-31
0001b0 e8 e4 8b bc 61 0f 0e 3d bc 8b e9 bc 7b 5b 9a 3c
       -0.017076924 0.034682635 -0.028509013 0.01884245
0001c0 aa 77 a0 b4 31 b6 a4 3d 66 10 07 80 83 c1 64 3d
       -2.988939e-07 0.08042563 -6.48731e-40 0.05584861
0001d0 3f 45 8e b6 2e 01 3c 3d 4f 94 d0 3c 0d 0c 03 b3
       -4.239991e-06 0.045899563 0.025461344 -3.0511774e-08
0001e0 bd 6c 81 b3 d5 6b 67 a4 1e 88 c6 3d 68 e8 cb 3d
       -6.02681e-08 -5.0181478e-17 0.09693931 0.09956437
0001f0 e5 03 a8 bb 07 e8 a3 3d f9 7e c7 3d db 02 21 bc
       -0.0051274174 0.0800324 0.09741015 -0.009827341

fc2.weight f4 [16, 128]
000000 20 b8 3e bd 72 8f 98 3b 70 c0 f1 3b 6a 79 cd 3c
       -0.046562314 0.004655772 0.0073776767 0.025082309
000010 e6 49 38 bc 6b 08 fb 37 e3 92 14 bd fb 02 a6 33
       -0.0112480875 2.9925452e-05 -0.036272895 7.7305195e-08
000020 59 ec 48 3c 87 32 a8 3b c8 14 c4 bd b0 06 01 80
       0.012263381 0.0051329765 -0.09574276 -9.4235e-41
000030 77 d3 3c 3b 90 74 20 3e 35 a1 7c 3c a8 b1 90 3c
       0.0028812566 0.15669465 0.015419294 0.017662838
000040 86 5e 33 3d f0 28 e7 3d bd 6a 50 b5 ea 5b 46 bd
       0.043791316 0.11287105 -7.7641363e-07 -0.0484275
000050 51 cf 38 3c fe 81 f2 3c 0c b7 db bc 96 3d 8b 3c
       0.011279897 0.029603 -0.026820682 0.01699714
000060 40 f7 a8 3b 7d cc 09 bd bd 34 7c bb 57 ab 82 3d
       0.0051564276 -0.03364228 -0.0038483583 0.06380337
000070 45 53 3c 3a 67 f0 d3 3d 6d 23 57 ba e5 dd 05 3e
       0.0007184039 0.103485875 -0.0008206878 0.13072927
000080 90 30 21 bc e9 2e c7 3c 30 61 e8 3c fe 65 f7 3b
       -0.009838238 0.02431436 0.028366655 0.00755
000090 39 78 0a bd 5e 5c 88 bd db f9 c8 3b a9 1a ec 3d
       -0.03380606 -0.06658243 0.0061333007 0.115285225
0000a0 ad aa ff 3d 05 af 9c 3d 2d a8 3c bd 60 80 42 3c
       0.12483726 0.0765057 -0.046058822 0.011871427
0000b0 4a a7 a4 bb 77 c5 9f bc d5 f9 02 3d b2 80 5f bd
       -0.005024825 -0.019503338 0.03197654 -0.054566093
0000c0 bb 67 22 3c 9b 56 0b bd 1d 93 bb 3d 1e be 5c bc
       0.009912427 -0.03401814 0.09158919 -0.013473062
0000d0 05 27 18 3d 98 c3 1f 38 9a 45 3c 3c f6 ad b5 bd
       0.037146587 3.8090715e-05 0.011491204 -0.08871071
0000e0 94 a2 fc b8 95 16 23 39 4e 3b 81 b1 a5 d1 cc 3a
       -0.00012046579 0.00015553304 -3.7611363e-09 0.0015626444
0000f0 d4 3d 8a bd 68 06 a9 bb 89 5d 63 3a dc f7 85 3d
       -0.06750074 -0.0051582344 0.00086733006 0.06541416
000100 36 13 c4 ba 98 b3 d7 3d a6 fb e8 bb bf ee 76 3d
       -0.0014959339 0.10532302 -0.007110077 0.06028628
000110 57 86 1f bb f2 7d 88 bd 21 2b de 3d 23 65 a6 38
       -0.0024341547 -0.06664647 0.1084807 7.934335e-05
000120 ba 7c 08 3b 6d 66 0c bd bc 65 a2 b4 d3 ca ad 3d
       0.0020826296 -0.03427737 -3.0248873e-07 0.08485951
000130 c4 86 11 bc cf 36 97 3d 5f 86 29 3a c9 26 01 3d
       -0.008882228 0.07383501 0.0006466861 0.03153113
000140 b5 ea a4 bc a9 b7 8f 3d dd 44 34 3b 60 69 3b 3b
       -0.020131448 0.07017452 0.0027506866 0.0028596744
000150 08 a9 ff bb 40 d6 29 3e e2 38 0c 39 db 66 38 bd
       -0.0078021325 0.16585636 0.00013372631 -0.045019966
000160 8e 65 af 32 88 c9 d3 bd fa 3e 8f 3d bd f0 49 bd
       2.0418863e-08 -0.103411734 0.06994434 -0.04930185
000170 4e 80 ad 3c 20 14 95 bd 3f 22 83 3c bc c3 50 bc
       0.021179345 -0.07279229 0.01600754 -0.012741979
000180 74 92 7e bd 78 eb 0e 3d 3d 8d b5 3a 07 ef 06 31
       -0.062151387 0.03489253 0.0013851296 1.9635438e-09
000190 b9 7a ec ba 51 9b 86 21 6a 1e 99 3b b1 70 10 3d
       -0.0018041945 9.121305e-19 0.004672815 0.03526372
0001a0 f7 b7 b3 bd 93 d4 fd 3b 91 fa cf bd 2d 2c d0 ba
       -0.08775323 0.007746288 -0.101552136 -0.0015882306
0001b0 ac 06 44 bc c5 4d 86 3d 0c b8 06 bd 59 0f a7 bc
       -0.011964481 0.06557802 -0.032890365 -0.02039306
0001c0 0e fc a0 39 46 8c ae 3c 52 25 60 36 a0 ed eb bb
       0.00030705374 0.021307122 3.3400324e-06 -0.007199958
0001d0 bc c3 0b 3c 5b c7 c5 bc d4 1a 4c bd 68 1d a1 bb
       0.008530553 -0.024142912 -0.049830273 -0.0049168356
0001e0 aa da 87 bb bd 72 a3 b9 40 71 a4 3d 98 89 a8 bd
       -0.00414594 -0.0003117527 0.08029413 -0.08229369
0001f0 23 f4 e5 3c 69 af 05 bd 81 4a 12 3e eb c5 0d bc
       0.028070515 -0.032637987 0.14286233 -0.008653144
000200 ef 54 5e 3c 9e 00 83 b9 85 ac 75 bb 77 e8 9d 3b
       0.013570054 -0.00024986727 -0.0037486863 0.0048189717
000210 f0 c0 a5 3c df 12 75 37 f8 d7 97 3d cb 6a 88 2d
       0.020233601 1.4607532e-05 0.0741424 1.5508836e-11
000220 67 93 04 bb f6 b1 f8 3b 58 dc ee bd 87 a9 4c a1
       -0.002022946 0.007589574 -0.11663121 -6.9342256e-19
000230 4b e5 56 bd 2b 8c 87 3c 7e b7 a3 bb 2e ec 66 bc
       -0.052464765 0.01654633 -0.004996239 -0.014094396
000240 95 bf 9d bd 06 f1 98 bd 6a ad e9 b6 11 ea 4d be
       -0.07702557 -0.074678466 -6.964129e-06 -0.2010882
000250 df 09 6b bb 58 3e af 3d 96 1b 0a be 72 02 09 3d
       -0.0035864038 0.08556813 -0.13487086 0.033449598
000260 29 8b 98 3b 5c 8a 2f 3d f8 a5 24 3b 8f 82 02 bd
       0.004655261 0.04285656 0.002512334 -0.03186279
000270 f7 19 39 bb 6f fa cc bc 98 ed fb 3b 19 87 8e bd
       -0.0028244236 -0.02502176 0.0076882355 -0.069593616
000280 1b d7 e7 bd 39 0b 97 bd 3a 8f 47 3c 0b 6b 96 3a
       -0.11320325 -0.073751874 0.012180144 0.0011475993
000290 73 98 85 bc ff c6 67 bd e5 b1 d8 ba 3e 19 ca 3c
       -0.016308045 -0.05658626 -0.0016532509 0.02467024
0002a0 9b 69 4c 3d 9f 9b b7 3c 14 c8 a3 3d 8e 51 1e 3c
       0.0499054 0.022413073 0.07997146 0.009662999
0002b0 9b f3 d2 ba a0 35 90 3d 16 e6 0a be 36 50 7d 3d
       -0.0016094329 0.07041478 -0.13564333 0.061844073
0002c0 5f d2 98 3d 94 d7 1a 3d 0d b3 12 bd d9 f9 93 3d
       0.07462 0.037803248 -0.035815287 0.07225389
0002d0 11 9e 86 bd 4c 31 ad b8 6a 9d ca bb ff 14 75 3c
       -0.065731175 -8.258465e-05 -0.006183316 0.014958619
0002e0 88 14 0b 3b c0 e7 7b 3b df 2b 05 ae 64 f7 f1 ba
       0.0021221954 0.0038437694 -3.0279664e-11 -0.0018460569
0002f0 e9 f9 d4 3d 06 0a 20 3c 41 30 ad bb 4e 50 3d bd
       0.10399229 0.009768015 -0.0052852933 -0.046219163
000300 ec 26 91 3a f6 77 0e 3c 22 bd bd bb 29 7e 1c 3e
       0.0011074222 0.008695593 -0.0057903687 0.15282501
000310 92 93 16 bb cf 83 ed 3c 2b 62 86 3d bf 2a ba bb
       -0.0022976142 0.028993515 0.06561693 -0.0056813653
000320 da e9 31 bd e7 32 32 3d 6d c3 bd b1 d8 83 91 3c
       -0.04343591 0.043505576 -5.5228413e-09 0.017763063
000330 a7 6a 9b 3b b1 87 10 3e 07 a4 03 bb 56 d0 14 3d
       0.0047429386 0.14114262 -0.0020086782 0.036331497
000340 2e 19 72 bd 76 97 1e bd 3b 74 82 3b 23 f2 a4 bb
       -0.059106044 -0.038718663 0.003981141 -0.0050337478
000350 e0 2c 8d 3d 2f 7c fa 3d 67 a0 1a ba f8 f9 ad 3d
       0.06893325 0.122307174 -0.00058985356 0.084949434
000360 4f cf b9 b2 aa 41 4d be 7d 93 04 3d 96 06 5b bd
       -2.1631108e-08 -0.2004458 0.03236722 -0.053473078
000370 09 d2 35 3c c4 03 0f 3e 56 38 cb bb 9f b5 97 bd
       0.01109744 0.1396628 -0.006201784 -0.07407688
000380 e1 04 11 3d 48 f7 0e 3d b8 70 ed bb ac d7 71 35
       0.035405044 0.034903795 -0.007246103 9.009334e-07
000390 63 d6 b1 b9 c3 6c 1b a7 d3 2f a9 bb 17 39 8a bc
       -0.000339198 -2.156953e-15 -0.005163172 -0.016872926
0003a0 9e 4a 2b bd 1f ee 80 bc 56 74 02 3e 24 02 14 3a
       -0.041819207 -0.015738545 0.12739691 0.0005646071
0003b0 19 c6 a8 bd fe e2 a4 3d 93 0b 9f bd 88 fc cc 3c
       -0.08240909 0.08051108 -0.077658795 0.02502276
0003c0 53 90 12 bb 85 3a 91 bd 2c 60 3d b6 a1 73 11 bd
       -0.0022363856 -0.0709124 -2.8219174e-06 -0.035510663
0003d0 8b 98 18 bb 5d 1d 99 3d e4 8c 0c 3e 68 5a da 3b
       -0.0023284282 0.07476304 0.1372562 0.0066636093
0003e0 e7 bc c2 3b 64 63 e3 39 c3 3d e1 bd d0 89 77 bd
       0.005942929 0.00043370866 -0.10998108 -0.060434163
0003f0 6b 86 e3 3d 50 f4 07 bd bf 6b 99 3b f3 8a 10 3c
       0.111096226 -0.03319198 0.004682034 0.008822191

fc2.bias f4 [16]
000000 99 5b 8e 3d aa 95 81 bd d2 1b 01 be f2 b9 a8 3c
       0.069510646 -0.06327374 -0.12608269 0.020596478
000010 3f 9b b1 3d c3 51 b8 3d 5e 5c 81 3d 6f e5 ce bd
       0.08672189 0.0899997 0.06316446 -0.10102355
000020 96 5b 0a bd 5a 05 f8 3c 64 9b 22 bd 36 ac 05 bc
       -0.03377875 0.03027599 -0.039698973 -0.008158734
000030 9a 07 58 bd 29 c3 45 3e 82 d8 0a bd 74 56 86 bd
       -0.052741624 0.19312729 -0.033897884 -0.065594584
