model/AAE/decoder_16d.pt (torch, 120319 bytes, 15 tensors)

fc1.weight f4 [736, 16]
000000 41 9d f6 3d 51 d6 a7 bd f2 81 23 be 1d 9a 68 be
       0.120417126 -0.081951745 -0.15967539 -0.2271504
000010 48 f4 d2 be bf af 26 3f c3 13 29 3e 93 c5 a7 3d
       -0.41201997 0.6511192 0.16511445 0.08191981
000020 06 ff 04 bf be b7 47 be d1 e7 0d be 42 35 32 bd
       -0.51951635 -0.19503686 -0.13857962 -0.04350782
000030 6f 8d 2c bd c1 3a 56 be 6d 32 ce be 98 6a 2c 3d
       -0.04212707 -0.2092085 -0.40272847 0.042093843
000040 d1 9b 95 3e 0e 49 8a bd 3a c8 4c bc c0 21 b2 bd
       0.2922044 -0.06752215 -0.01249891 -0.086978436
000050 97 b6 74 3e b9 03 77 3c 3d 09 b1 3e 24 ae 88 3e
       0.23897777 0.015076571 0.3457736 0.2669536
000060 37 5a 47 be 29 6c 3a bb 18 11 61 be 5d 7b d1 bd
       -0.19468008 -0.0028445816 -0.21979177 -0.10228608
000070 52 bf d5 bd 21 18 97 bd 76 3f 9f be 9f 84 87 be
       -0.10436882 -0.07377649 -0.31103104 -0.2646837
000080 21 4d 3b be e7 8c d5 3d 59 f1 a8 be e4 f2 bf bc
       -0.18291141 0.104272656 -0.32996634 -0.023431249
000090 19 b8 a5 be dd 94 84 3e 40 6b 35 be 16 c5 86 3c
       -0.32367018 0.25894824 -0.17716694 0.0164514
0000a0 22 3a 88 be 8e 16 8c be 24 38 0b be 96 fd 40 3c
       -0.26606852 -0.27360958 -0.13595635 0.01177921
0000b0 6b 1e 81 3d 40 7f 27 3e ae 45 0d 3c 74 37 9a 3e
       0.0630463 0.16357136 0.00862257 0.30120432
0000c0 0e d5 0f 3e 5b c0 96 3c 2e b8 56 be 81 05 74 be
       0.14046118 0.01840227 -0.20968696 -0.23830225
0000d0 45 10 3c bd 57 3e 78 3e b4 37 91 3e 77 42 9f 3d
       -0.045913953 0.24242531 0.2836281 0.07776349
0000e0 00 3e a6 be 48 54 14 be e6 9f 14 be b5 d7 9b bc
       -0.32469177 -0.14485276 -0.14514121 -0.019023756
0000f0 11 68 7c 3d 73 4b f6 3d c4 ac 70 be 25 a5 d7 bd
       0.061622683 0.120261095 -0.23503405 -0.10529546
000100 ac e9 36 3e dc ff c8 bb 8c 15 f3 3d a7 23 26 be
       0.17862576 -0.0061340164 0.11869344 -0.16224538
000110 26 a8 0d 3e 7a 9c 28 be 45 cf 8d 3e 3d 45 1d 3e
       0.13833675 -0.16465941 0.27697197 0.15358444
000120 94 58 ca bd b6 ef 9c 3e 91 19 0c 3e 80 42 b5 3c
       -0.09880176 0.30651635 0.13681628 0.022126436
000130 37 c6 b2 3d 0c 4a b0 bd 20 41 81 be 21 62 9a 3d
       0.08729213 -0.08607873 -0.25245 0.07538248
000140 f0 47 e7 3d 5e 3c c7 3d 3f 06 34 bd c8 12 a0 be
       0.11293018 0.09728311 -0.04395127 -0.3126433
000150 bd d9 1b be bb 2f 8a bd 54 02 2e 3e 49 48 15 3e
       -0.1521978 -0.06747385 0.16993076 0.14578356
000160 5b 3b f6 bd 33 58 ec 3d a1 51 c6 bb 53 34 0c be
       -0.1202304 0.1154026 -0.0060522114 -0.13691835
000170 ec e4 91 3d 23 ae 87 be 58 ae eb bd b1 4c 89 be
       0.071237415 -0.26500043 -0.11507863 -0.26816323
000180 7d 1e 75 3a 77 1d 53 be 77 3b 0a be 8f dd 07 3a
       0.00093505514 -0.20616709 -0.13499247 0.0005182856
000190 7b ee 47 be ae dc 8e 3e 41 d9 05 3e 54 76 e1 3c
       -0.19524567 0.2790274 0.13071157 0.027522244
0001a0 d9 27 63 be d0 b1 74 be c1 1f a4 be 58 e2 c3 bc
       -0.2218317 -0.23895955 -0.32055476 -0.02391164
0001b0 e6 1c e9 3c 13 3c 98 bc e8 d4 3b be 84 89 16 be
       0.028456163 -0.018583333 -0.18342936 -0.14700896
0001c0 09 21 57 3e 03 9c 4c 3d 60 b4 c7 bc 71 67 18 be
       0.21008696 0.049953472 -0.024378002 -0.1488321
0001d0 8e d7 2b be 9e 48 35 3c 12 5a 12 3e 9d 88 52 3e
       -0.16781446 0.011064677 0.14292172 0.20559926
0001e0 d4 5a 1b be 5c 02 fe 3d 64 4f ba 3b 14 ec 92 bc
       -0.15171367 0.12402794 0.0056857336 -0.017934836
0001f0 49 6c cc bc 44 a4 a8 bd 7f 61 a8 3c 9c 00 de bd
       -0.024953978 -0.08234456 0.020554302 -0.1083996
000200 ab e9 89 bc 12 35 53 be 0e 01 46 be 66 30 cd bd
       -0.016835054 -0.20625713 -0.1933634 -0.10018997
000210 60 9d 2c 3d 7b db 13 3e 4e d7 54 3e 67 6d ea 3b
       0.042142272 0.14439194 0.20785257 0.007154155
000220 d0 98 70 be f2 36 a4 bd c7 bb 38 be 51 3e f1 3c
       -0.23495793 -0.080182925 -0.18040381 0.02944866
000230 4a 41 71 3e e9 f2 95 bd 94 3f f5 bd bf dd af bd
       0.23560062 -0.07321722 -0.11975017 -0.085872166
000240 22 8e 58 3e 07 ac b1 3b 11 9e 1b be e3 5e ee bd
       0.2114797 0.0054221186 -0.15197016 -0.11639192
000250 28 f9 05 be a1 79 ab bd a3 4b 90 3e a9 5a 14 3e
       -0.13083327 -0.08372808 0.28182706 0.14487709
000260 47 ff 6f be ad 1e f1 3d cc b8 50 bb 8f ea c2 bd
       -0.23437224 0.11773429 -0.0031848429 -0.09517395
000270 4b 55 21 3d 0e e7 2c be 6b a7 d1 bd 2b 84 08 be
       0.039387982 -0.16885015 -0.102370106 -0.13331668
000280 f0 4b 65 3d 1b dc 8f 3d ed bd a2 bb b1 26 a6 bd
       0.055980623 0.07024404 -0.0049664886 -0.081128486
000290 0d 61 68 bd 05 53 62 bd 75 37 3c 3e 1c 3a 33 3e
       -0.05673318 -0.055254955 0.1838053 0.17502636
0002a0 89 20 de bc 28 c0 ab 3d eb 57 62 bd 75 c7 f8 bc
       -0.027115123 0.0838626 -0.055259626 -0.030368546
0002b0 d0 8d 0d 3e 12 36 e0 bd fc cc e2 bd e3 1f 18 be
       0.13823628 -0.10947813 -0.11074254 -0.14855914
0002c0 79 e0 f3 3d 45 81 8c 3c bb a2 81 bd 61 0b 5c be
       0.11908049 0.017151484 -0.063298665 -0.21488716
0002d0 e1 09 57 3b c8 5b 6a 3c 84 43 9f 3e dd cf 89 3e
       0.0032812285 0.014304109 0.31106198 0.269164
0002e0 32 a7 46 be 2c 87 bd 3d 3b 39 a2 bd cd d4 91 bd
       -0.19399717 0.092542976 -0.07921072 -0.07120667
0002f0 62 17 92 3d 59 24 da bd 37 ff 9c bd 49 37 4e bd
       0.07133366 -0.10651464 -0.07665866 -0.050345693
000300 4a 93 64 3d 60 24 5a 3e 41 67 27 3d bd 50 fd 3d
       0.05580453 0.21302938 0.040869955 0.12368915
000310 c0 6b 4d be b1 73 4b 3e 87 3e 3d be 3d e5 33 3e
       -0.20060635 0.19868352 -0.18480884 0.17567916
000320 e7 78 48 be 25 db d6 bb 7d f0 02 3e ab 78 f1 3d
       -0.1957737 -0.006556886 0.12787051 0.11790594
000330 43 34 c6 bc 81 ec 2e 3e 4a f4 90 be 31 81 51 be
       -0.024194842 0.17082407 -0.28311378 -0.20459439
000340 fc 38 11 3d 42 77 62 3e 3b 2c 0a bd d2 ca 50 be
       0.035454735 0.22115806 -0.033733588 -0.2038987
000350 60 77 b3 bd 35 42 db 3a a9 a0 91 3e 44 c0 b3 3e
       -0.08763003 0.0016728105 0.28442886 0.35107625
000360 fa 2c 8e bd 7b 3a 1f 3e 71 a8 80 3d fb 40 56 bd
       -0.06942172 0.15549652 0.06282128 -0.052308064
000370 32 21 26 3e 67 d2 f1 bd a7 60 28 be 87 6e 48 bd
       0.162236 -0.11807709 -0.1644312 -0.048933532
000380 fc 56 79 3c bd 94 66 3e dd 15 2d bd a3 33 b2 3d
       0.015218493 0.22517677 -0.04225718 0.08701255
000390 01 d4 28 be 13 1d 67 bd 7f 23 9d bc 46 d3 50 bd
       -0.16487123 -0.05642421 -0.019181965 -0.050982736
0003a0 4b 1f b1 be 58 01 c4 3d 93 a5 93 3d 39 60 ce 3c
       -0.34594187 0.09570569 0.07209315 0.025192367
0003b0 fd 76 d8 3c 63 b2 0b 3e 20 30 22 be 0e 51 69 be
       0.026423926 0.13642268 -0.1583867 -0.22784826
0003c0 21 90 ab bd be 8b 9d 3e c9 91 6b bc c4 d7 46 be
       -0.083771 0.30770677 -0.01437802 -0.19418246
0003d0 d5 45 31 be 50 e4 74 3e d3 e7 2c 3e 5f ec 86 3e
       -0.17311795 0.2391522 0.16885309 0.26352212
0003e0 ae 97 9b 3d 43 40 2b 3e ac 75 ad 3e c8 3b 19 be
       0.0759729 0.16723733 0.3387884 -0.14964211
0003f0 d2 fb 12 bd 54 3e 5e be 82 58 62 bd 3b 14 a9 be
       -0.035884686 -0.21703464 -0.05526019 -0.33023247

fc1.bias f4 [736]
000000 41 8d 7b 3f 3b 97 8f bf 99 6b 13 3e 5c e3 0a be
       0.9826241 -1.1218027 0.14396514 -0.13563293
000010 22 c4 f2 be 79 c6 17 be 4c 9b 5d 3d 03 d1 af 3d
       -0.47415262 -0.14821805 0.05410318 0.08584788
000020 98 d2 c4 3c ce 14 77 bc f7 c5 fd 3d de 9c 5f bd
       0.0240262 -0.015080644 0.123912744 -0.05459296
000030 b0 99 f7 3d 1f 92 d9 3c 80 90 84 3d cd 16 7c bb
       0.120898604 0.026558934 0.06472874 -0.0038465739
000040 59 69 fe 3d b1 f1 80 3d cb b7 a0 bd da ae a9 3e
       0.12422437 0.06296099 -0.07847556 0.33141214
000050 84 ad b4 3e 98 5e ce 3e 34 ad df be 4a 3e a6 3f
       0.35288632 0.40306544 -0.4368683 1.2987759
000060 21 7d a6 bd ef f8 a0 3e a7 c6 81 be be a9 08 be
       -0.08129335 0.3143992 -0.25346872 -0.13346002
000070 0c 40 b8 bd 89 1f 5a 3e 26 09 02 bf cd 97 09 be
       -0.08996591 0.21301092 -0.5079521 -0.13436814
000080 d7 f3 a0 bc 67 92 ce be 20 6c 9a 3d 64 d0 ee be
       -0.019647522 -0.4034607 0.075401545 -0.46643364
000090 4a ca 60 bd d2 da 76 be b0 d9 96 be 98 06 10 be
       -0.054880418 -0.24106911 -0.29462957 -0.14065015
0000a0 2d d2 04 bf 45 6e 38 3e f7 23 94 bd 47 5d f8 bd
       -0.518832 0.18010814 -0.07233422 -0.12127166
0000b0 15 ea b4 be a3 c2 68 bf dc b7 79 bf 76 98 19 3e
       -0.3533484 -0.9092199 -0.9754617 0.14999565
0000c0 af cf 43 3e f1 18 25 3e f9 28 bd 3d 6f e5 b8 3e
       0.19122194 0.16122796 0.092363305 0.36112544
0000d0 a6 aa 8f 3d 46 0c 46 3e fe a5 91 3e 59 32 a3 3e
       0.070149705 0.1934062 0.28446954 0.3187435
0000e0 88 cd b1 3e 01 35 fe 3d 41 11 7a 3e e7 42 22 3e
       0.3472712 0.124124534 0.24420644 0.15845834
0000f0 5e e4 70 3e 1f 7d 27 3e 8a 4a 03 3e 57 9c ff 3e
       0.23524615 0.16356324 0.12821403 0.49923965
000100 64 15 24 3e 6f 66 79 3e 35 27 d7 3e 6b ab 99 3d
       0.16023785 0.24355482 0.420221 0.075033985
000110 51 1e d5 3e 01 72 77 3f af 81 8d 3e dd a9 fe be
       0.41624692 0.9665833 0.27638003 -0.4973897
000120 74 87 8b be 3b 3f e4 bd d4 9c 1b bd b8 3d 00 be
       -0.2725178 -0.11144873 -0.03799136 -0.12523544
000130 d4 08 fa be 2f a8 a2 3c ec 2b 44 bf ad 1a 2a be
       -0.4883486 0.019855587 -0.7662952 -0.16611739
000140 0e 00 de bd 0b 0c 11 bf 7a 3c 99 3d 62 ba 84 bf
       -0.10839854 -0.56659 0.07482238 -1.036938
000150 58 36 1c 3e e8 7a 3a be 04 81 20 3e dd 6b bf be
       0.15255105 -0.18210948 0.15674216 -0.3738698
000160 f8 72 ee be ec 63 3c be fe de b5 be a4 6d 59 3f
       -0.4657209 -0.18397492 -0.35521692 0.84932923
000170 4d bd 62 3f b9 c9 b0 be c7 95 fd bc 1e 49 88 be
       0.885701 -0.34528902 -0.030955208 -0.26618284
000180 08 d6 83 3d 05 c2 8c 3e d8 6a 97 3d 22 21 af be
       0.064373076 0.27491775 0.07393426 -0.34204966
000190 cf e9 12 3e af 24 15 be 66 22 0a be 04 33 63 bf
       0.14347003 -0.14564775 -0.13489684 -0.8874972
0001a0 72 c0 9c bc 45 a3 6a 3e 68 26 a9 be 08 2c b0 3d
       -0.019134734 0.22913845 -0.33037114 0.08602148
0001b0 de 98 1c bd c5 00 2f be d5 ad 22 bf 57 f7 96 3e
       -0.038231723 -0.17090137 -0.63546497 0.2948558
0001c0 aa 5c 87 bd 39 75 30 bf c6 69 a2 3f 1b 01 62 3d
       -0.06609471 -0.6892887 1.268853 0.055176836
0001d0 7f 55 fd be f9 c4 15 bd ab 79 47 3d ea 0c e9 bd
       -0.4947929 -0.0365648 0.048700016 -0.11379416
0001e0 8b d5 0d 3c 34 0d 15 bf 0e 3b 82 be ef 8a e2 bd
       0.00865687 -0.5822327 -0.2543568 -0.11061656
0001f0 1e bf 8e be c8 9e 0f be c6 07 a6 be ba 0e 96 bd
       -0.27880186 -0.14025414 -0.32427806 -0.073270276
000200 3a 99 c9 be b9 03 87 bd c4 52 b3 be 69 f1 a3 be
       -0.39374715 -0.06592507 -0.35024083 -0.3202012
000210 f6 ff 9b bd 90 c8 7a be 25 d9 9c 3d eb 58 1a be
       -0.0761718 -0.24490571 0.076586045 -0.15072982
000220 59 05 7c bd b2 62 1e bf e5 24 1b bd ac 22 78 bf
       -0.061528537 -0.6186935 -0.037876982 -0.96927905
000230 c5 cc bb 3d 77 ac 1a bf 54 67 21 3d 65 e9 1e be
       0.09169916 -0.6041941 0.039405182 -0.1551872
000240 61 d0 6b 3c 98 ef 0e 3e 8c 9e c6 bd c0 ad 07 3e
       0.014392943 0.13958585 -0.09698209 0.13249874
000250 c7 59 ed bd 70 16 a1 3e f1 d1 d8 bb 4c 08 9b 3d
       -0.11589389 0.3146243 -0.006616824 0.07569942
000260 55 bb 94 3b 48 78 8b 3e 04 4d 12 bf 2d 4a 1f 3e
       0.0045389333 0.27240205 -0.57148767 0.1555564
000270 b5 dc c6 3d c0 ca f6 3d 3f bd 10 bd 2d 03 e9 bd
       0.09710065 0.1205039 -0.03533673 -0.11377559
000280 54 6a f8 bc 0e 89 79 bd 71 e2 23 3e 29 d9 a6 3e
       -0.030324139 -0.06092172 0.1600435 0.32587555
000290 79 a7 6a bd 99 64 89 3e bc aa 91 3e 9d 22 1f 3e
       -0.05728862 0.26834562 0.28450572 0.15540548
0002a0 2d d8 9c 3d e3 5d 39 3e 4b 7b 42 3d b4 a8 87 3c
       0.0765842 0.18102221 0.047480863 0.016559936
0002b0 11 b0 26 3e 86 c9 86 3d 0c e6 18 3e 90 46 08 3e
       0.16278102 0.06581406 0.14931506 0.13308167
0002c0 2f 00 72 3e 60 01 64 3d 1b 01 d9 3c 9b 76 a5 3e
       0.23632883 0.055665374 0.026489785 0.3231705
0002d0 fe 54 ab 3c 9e f3 a0 3e 7e 90 c4 3d e4 58 cf 3d
       0.02091455 0.31435865 0.09597872 0.101243764
0002e0 c2 13 52 bd 5f 4c 97 bd 5a 06 04 3d 2d 8c 4b bd
       -0.051288374 -0.073876135 0.03223262 -0.04969423
0002f0 ef 84 01 3e ee 78 33 3d cf 4b 0b 3e 82 7c d2 3c
       0.12648366 0.0438165 0.13603137 0.025694136
000300 b4 13 ba 3d fc 4b 1a 3d 7c 57 e3 3d 1b a9 63 3d
       0.09085789 0.03767012 0.11100671 0.055581193
000310 9a 67 40 be d2 36 cd 3d 68 ca f2 3d 75 23 c2 bd
       -0.18789521 0.10020222 0.11855012 -0.09479419
000320 3d a4 8b be da 37 86 3d 28 40 a4 bc ed ab 7d 3d
       -0.2727374 0.065536216 -0.020050123 0.06193154
000330 ee 39 f4 bc bf a8 34 3c 05 57 67 3e 52 04 08 3f
       -0.02981278 0.01102656 0.22591789 0.5313159
000340 95 6e bf bd 1d bc 98 3e 78 f8 d1 3e 83 54 47 3e
       -0.09347264 0.2983102 0.4100988 0.19465832
000350 67 f3 0f 3f a1 07 43 bd 53 b6 13 3f de 19 06 3e
       0.5623078 -0.047614697 0.5770008 0.13095805
000360 bf c8 a4 3e 15 78 d6 3e 1f 8d f3 be 1e c2 05 3f
       0.32184407 0.4188849 -0.47568604 0.52249324
000370 7b dc 34 be 06 97 02 3f db 9e f4 be a7 c2 cb be
       -0.17662232 0.51011693 -0.47777447 -0.39796945
000380 62 db 03 3f c5 1a 3d bf 51 50 22 3f 71 27 74 bd
       0.51506627 -0.7386897 0.63403803 -0.059607927
000390 4e dd d5 be 4e 23 88 3f c2 4c 1f be 2f c8 29 bf
       -0.41770405 1.0635774 -0.15556625 -0.6632108
0003a0 06 23 91 be 7d b2 94 be 4e 0d e8 be f6 b5 1e bf
       -0.28347033 -0.29042426 -0.4532265 -0.619964
0003b0 ee 25 6f be 84 28 6c bc 1e 96 1a be f4 16 86 be
       -0.23354313 -0.014413957 -0.15096328 -0.26189387
0003c0 c7 94 43 be 73 f0 6a be d2 ae e4 bd 29 2f 43 be
       -0.19099723 -0.22943287 -0.11166157 -0.19060959
0003d0 c6 10 8b be eb 50 58 be 71 e1 2e be 38 0c b4 bd
       -0.27161235 -0.21124618 -0.17078187 -0.08791393
0003e0 38 ed c1 be 24 69 eb be 7f 3b e0 bd 86 02 58 be
       -0.37876296 -0.45978653 -0.10948848 -0.21094713
0003f0 55 5b 9f bd 72 fe 64 bd 8b 73 4a be 3a 87 77 bd
       -0.07781092 -0.05590672 -0.19770639 -0.060431696

deconv1.weight f4 [32, 16, 5, 5]
000000 ad ff fe bb a5 25 11 3d 98 19 93 be bf 95 8d bd
       -0.007781944 0.03543629 -0.28730464 -0.069133274
000010 bd 32 48 be ba 3c 64 3d 91 97 81 bd c0 c1 31 3d
       -0.19550605 0.055721976 -0.06327737 0.043397665
000020 58 5a 82 bd 40 80 82 bd 30 6d 11 be c6 93 5a bd
       -0.06364888 -0.06372118 -0.14201808 -0.053363584
000030 ca a3 d0 3c c2 c6 71 bd 40 88 07 3e 55 a1 90 3d
       0.025468726 -0.05902744 0.13235569 0.07062022
000040 22 1a 75 3c 9c f3 a7 bb c6 8a c4 3d bd 95 40 bc
       0.014959844 -0.005125476 0.095967814 -0.01175445
000050 f6 89 e6 3d 8d e9 43 3c 7f 88 51 be fd ba da 3c
       0.11256783 0.011957538 -0.20462225 0.026700491
000060 a1 95 57 bd c3 33 5a 3e ac 56 e7 3d dd a1 11 3e
       -0.05263293 0.21308808 0.11295828 0.14221902
000070 c8 24 b3 3d 89 c3 fc 3d 57 9d 04 bd ee 2e ec bb
       0.0874725 0.12341983 -0.032376613 -0.007207743
000080 a0 14 46 3d ee dd 28 3d 66 eb 23 bb 14 6f 31 3e
       0.048359513 0.041227274 -0.0025012135 0.17327529
000090 ee e1 1c 3e 54 37 6b 3e b7 d0 ac 3d 81 7d ab 3d
       0.1532056 0.22970325 0.08438247 0.08373547
0000a0 d9 6a 12 be 62 1d 96 be 8b 0c 4a be 91 1c 14 be
       -0.14298572 -0.29319292 -0.19731347 -0.14464022
0000b0 91 93 b1 bd 7f ca 5b 3d 91 5d 5b be 15 3c 26 3d
       -0.08670724 0.053659912 -0.21422412 0.040584642
0000c0 9a 43 02 be 9e d6 25 3c af 02 a8 bc bd a7 28 bd
       -0.127211 0.0101219695 -0.020509092 -0.041175593
0000d0 df 4a 33 b9 59 fd ac 3c 97 88 98 3a 49 32 c3 3d
       -0.00017098662 0.0211169 0.0011637387 0.095310755
0000e0 91 f3 86 3d 42 4b 0a 3e 2c 4c 8b 3d 9c 3a 7f 3d
       0.06589425 0.13505271 0.06801638 0.062311754
0000f0 1c 3e d3 bc 02 b2 e0 be 25 2e 69 bb b0 40 46 be
       -0.025786452 -0.4388581 -0.0035580483 -0.19360614
000100 55 03 3e 3d 8e b8 03 bc e6 ff 2b be 33 20 57 3d
       0.046389896 -0.008039607 -0.16796836 0.052520942
000110 c9 7b f5 3b 67 ab 56 3d 04 f5 93 3c 23 a3 28 bd
       0.007491563 0.052409556 0.018061168 -0.041171204
000120 95 74 7d 3d d7 54 93 bc 25 45 a1 3d 3b c0 61 bd
       0.06187876 -0.01798479 0.078745164 -0.055114966
000130 b2 42 39 be c1 ac 75 be 68 fb d1 bd b9 da 9a bd
       -0.18091848 -0.23991682 -0.1025303 -0.07561249
000140 18 8f b9 bd 90 4f cc 3d f1 09 f6 bd 19 2d dd 3d
       -0.09060496 0.09976113 -0.12013615 0.10799617
000150 64 d5 b8 bd 7a 55 cb bd bb 61 54 be 22 79 8e 3d
       -0.09025076 -0.09928413 -0.20740406 0.06956698
000160 ff bf 0a be a3 9a cd 3d 58 60 02 be e1 81 34 bf
       -0.13549803 0.1003926 -0.12732065 -0.7051068
000170 01 87 16 be 07 6e c4 be c0 76 90 be 27 e6 65 be
       -0.14699937 -0.38365194 -0.282156 -0.22451077
000180 0c ac c6 be fa e6 80 be d9 ee 57 bf 52 14 f7 bd
       -0.38803136 -0.2517622 -0.8434883 -0.12064423
000190 71 15 00 3c fa 60 77 3e da 3d 7d bd 79 c0 49 3e
       0.007817612 0.24158087 -0.061826564 0.19702329
0001a0 ff 5f 02 bb 6c 0b 26 3e df f9 0b be 1f 20 0e 3e
       -0.0019893644 0.16215295 -0.13669537 0.1387944
0001b0 62 82 b0 3d ba fc 44 3e bc 0d ec 3c f1 94 00 3e
       0.086186185 0.19237033 0.028815143 0.12556817
0001c0 09 ab ff bc c4 64 07 3e 70 8e 4a bd 49 16 7b bd
       -0.031209486 0.13222033 -0.049452245 -0.06130055
0001d0 11 b0 f6 3c 1c 52 9a 3d 25 9c 05 3c aa cb f8 bc
       0.030113252 0.07535192 0.008154904 -0.030370552
0001e0 06 ff b7 3d 4a 75 03 be 49 b6 7e be 90 44 dc bc
       0.08984189 -0.12837711 -0.24874224 -0.026888162
0001f0 3a b3 fd bd 71 92 4e be e1 27 d7 bd 33 23 d3 be
       -0.123877004 -0.2017305 -0.10505653 -0.41237792
000200 18 76 d9 b9 5c 64 9f be b5 c2 0d 3e 52 f6 56 3e
       -0.00041477452 -0.31131256 0.13843806 0.20992401
000210 b0 a5 84 3d 25 91 04 3e e9 b2 4c 3c b6 0c 3b be
       0.06476915 0.12945993 0.012493827 -0.18266568
000220 52 ad 85 3d 85 d3 90 3c 8a 2c b6 3d 49 45 68 bd
       0.06527199 0.017678985 0.08895214 -0.0567067
000230 ab 2b f6 3c 5a d2 14 bd 20 42 8a bd 25 bc 83 bd
       0.03005012 -0.03633342 -0.067508936 -0.0643237
000240 97 d5 55 3c 0b 75 66 3d a4 62 43 3d 8c 66 e1 bc
       0.013051412 0.056263965 0.047701493 -0.027514718
000250 7e 61 7e 3d 48 df ff bc 91 3f de be ba 02 f6 3d
       0.062104695 -0.031234398 -0.43407872 0.12012239
000260 66 62 1f bf e3 55 5e 3e 3e 70 aa be 27 b0 12 3b
       -0.6225952 0.2171245 -0.3328876 0.0022382827
000270 2d f6 91 bc 12 f9 09 3e 2f 93 e6 3c 96 2d a5 3d
       -0.017817581 0.13473919 0.028146354 0.080653355
000280 04 8b 41 be d2 6a 2a be 92 3a fe bd ce 67 a6 3b
       -0.18900687 -0.16642311 -0.12413515 0.0050782925
000290 b5 a2 e9 bc 6f 30 d4 bc 98 25 0e bc 99 ca e2 3d
       -0.028519968 -0.025902001 -0.008675955 0.11073799
0002a0 b7 5c e2 bd 18 2c bb 3d 52 64 90 bd fc e9 1b bd
       -0.1105284 0.091392696 -0.070503846 -0.03806494
0002b0 bc c5 0f be e6 3f 95 bd 46 4f d9 bd bd 40 45 be
       -0.14040273 -0.07287578 -0.10610823 -0.19262977
0002c0 1f 3f 0b 39 99 2c b2 be b8 55 4d bd 75 db a0 be
       0.00013279587 -0.3479965 -0.050130576 -0.31417432
0002d0 e2 d1 29 3c 75 77 ca bd 21 e9 58 3d 2f 53 03 be
       0.010364981 -0.09886066 0.052956704 -0.12824701
0002e0 51 29 5f 3d f8 64 d7 bd c2 b5 08 be ca 7d f4 be
       0.05448276 -0.10517305 -0.13350585 -0.4775222
0002f0 8c 5e 50 be 35 c5 09 bf 3f ac df bd 31 7d e6 bd
       -0.20348567 -0.5381654 -0.10921525 -0.11254347
000300 da 27 32 bd 19 bb c2 3b c8 82 dc bc 63 81 10 3d
       -0.043495037 0.005942714 -0.02691783 0.035279643
000310 9a 18 ce bd 8e 7a 71 3d 64 d8 0e bd aa 96 22 3d
       -0.10063286 0.058954768 -0.034874335 0.039694466
000320 dc 16 a1 bb 65 30 8d be 2c 26 c7 3c 0f f6 02 be
       -0.004916055 -0.27575985 0.024310194 -0.12789176
000330 4d 4d bf bb 6f bd 16 be 31 e3 a1 bc 84 24 3b be
       -0.0058380724 -0.147207 -0.019761654 -0.18275648
000340 63 33 bf bd 69 5c f4 bd 45 d3 8f bd 60 fb 03 bd
       -0.09335973 -0.11931688 -0.07022718 -0.03222215
000350 8e 59 77 3c 00 c4 01 bd 1a 1c d4 3c dd 42 3d 3e
       0.015097035 -0.03168106 0.025892306 0.18482538
000360 59 34 b0 3d 7c a4 38 3d 4d 67 cb 3c 26 5a 94 3d
       0.086037345 0.04507874 0.024829531 0.07243757
000370 4f ce 55 3e df e6 e6 bc ff 0f 89 3c 38 86 12 bc
       0.20879482 -0.02818626 0.01673126 -0.008943133
000380 0f 3a 30 3d 90 a1 10 be a7 0f 6f be 3b 3a 1a be
       0.04302412 -0.14124131 -0.23345815 -0.15061276
000390 de 8e 57 be 36 bf 07 be 1f 8d 53 3d 1d e0 3f 3d
       -0.21050593 -0.13256535 0.051648255 0.04684459
0003a0 70 41 6a 3e 13 b8 8d 3d d6 1d 22 3e f6 41 fd bd
       0.22876525 0.06919875 0.15831694 -0.12366097
0003b0 22 3e cd 3d b1 3e 71 be 28 7b f5 3d 31 b9 de bd
       0.100216165 -0.23559071 0.11986381 -0.10875166
0003c0 b9 5a 79 bd 29 a3 24 3e 97 79 9b bc 10 d9 3c 3e
       -0.060877535 0.16077866 -0.018978877 0.18442178
0003d0 5e de d0 3b b7 a9 33 3e ab d0 22 3e c0 5b 82 3e
       0.0063741645 0.1754521 0.15899913 0.25460625
0003e0 71 b2 37 3e 6b 86 48 3e c1 0d 07 3d 08 f2 08 3d
       0.17939164 0.19582526 0.0329721 0.033433944
0003f0 1a d2 0c 3e 60 4c 0e 3e ee 7f 89 3c f8 8b ff 3d
       0.13752022 0.13896322 0.016784634 0.12477869

deconv1.bias f4 [16]
000000 d2 71 98 3e 84 4e a3 3d a1 73 60 3e 48 21 72 3e
       0.29774338 0.0797396 0.21919109 0.23645508
000010 13 a6 5d 3a 2d 72 99 bc d8 3e 25 3d 89 5b 3f 3e
       0.0008455228 -0.018731201 0.040343136 0.18687262
000020 9a 7e a6 3d f9 f7 e2 bd e2 76 b1 3d 8d 11 bc 3e
       0.08129616 -0.11082453 0.08665253 0.3673214
000030 32 3e 07 be c0 04 b5 bc 8e d8 8e 3e 1d bc 91 3b
       -0.1320732 -0.022096992 0.27899593 0.0044474737

bn1.weight f4 [16]
000000 73 0b 93 3f 42 28 7b 3f eb 23 83 3f e0 fc 7b 3f
       1.1487869 0.98108304 1.0245336 0.9843273
000010 ae d5 7a 3f b0 ba 77 3f d1 9c 8f 3f b4 14 7f 3f
       0.979823 0.9676924 1.1219732 0.99640965
000020 8f cc 5e 3f 97 f4 75 3f 91 e2 6e 3f f9 c0 84 3f
       0.8703088 0.9607634 0.9331446 1.037139
000030 c4 73 8e 3f 0e d7 7a 3f b3 f2 83 3f 09 32 79 3f
       1.1129079 0.979844 1.0308441 0.9734197

bn1.bias f4 [16]
000000 05 77 93 be 15 6a 38 3e 78 44 38 be ec 53 82 bd
       -0.28801742 0.18009217 -0.17994869 -0.06363663
000010 b2 07 8c be 0a a9 ef bd 5e fe 39 be 5f 3f b8 bc
       -0.2734962 -0.117021635 -0.1816344 -0.022491155
000020 b1 68 1b be 13 e2 9a be c0 8b 49 be c3 d8 9a be
       -0.15176655 -0.30250606 -0.19682217 -0.302435
000030 71 02 07 bd 4d fa 59 bd c2 a6 6f be 37 2d f0 bd
       -0.032961313 -0.05321722 -0.23403457 -0.11727374

bn1.running_mean f4 [16]
000000 9e 19 94 bf a1 a2 7b bf 49 e8 91 bf 26 07 5f bf
       -1.1570318 -0.98295027 -1.1399013 -0.8712028
000010 51 61 7b bf 7a 4b 85 bf b7 5c 94 bf 82 88 99 bf
       -0.9819537 -1.0413659 -1.1590794 -1.1994784
000020 39 a8 1b bf 55 7e 38 bf 94 8a a1 be ff 16 0b bf
       -0.6080356 -0.7206777 -0.3155104 -0.54331964
000030 7c 18 be bf 4f d1 70 bf 98 10 10 be 00 e3 8c bf
       -1.4851222 -0.9406938 -0.1406883 -1.1006775

bn1.running_var f4 [16]
000000 db 1c 24 40 b6 98 56 40 c9 2b dd 3f 11 86 18 40
       2.5642612 3.3530707 1.7278987 2.3831828
000010 73 c2 85 3f a8 7d 0d 40 0e 65 26 40 7e ee df 3f
       1.0449966 2.2107944 2.599918 1.7494657
000020 d1 99 91 3f 20 d2 b5 3f 50 bc f4 3f 11 b1 13 40
       1.1375066 1.420475 1.9119968 2.3076823
000030 a2 14 52 40 c6 fc 03 40 ee fe 59 3f 84 fb f9 3f
       3.2825093 2.062303 0.85154617 1.9529881

deconv2.weight f4 [16, 8, 5, 5]
000000 32 3f 53 3e be fb 1d 3e c5 9e 7f 3c d9 3c 83 bd
       0.20629576 0.15428063 0.015601818 -0.0640809
000010 14 be 88 bd 7a 8e 9c 3d bc 07 70 3d 5e 1c 6d 3e
       -0.066768795 0.07644363 0.058601126 0.23155352
000020 21 a2 e0 3d 79 25 70 3d aa e1 49 3e 2d 25 a0 bc
       0.10968424 0.058629487 0.1971499 -0.019548977
000030 ca 04 20 3e 50 43 bf 3d 16 73 d1 bc 71 b5 1d ba
       0.15626827 0.09339011 -0.025567573 -0.00060161116
000040 c3 28 db 3d 0d 97 3c bd d2 fd a5 be 09 82 a5 3c
       0.10701134 -0.04604249 -0.32420212 0.020203607
000050 83 04 97 bd d3 a1 25 bd e4 c4 89 3d 97 40 5c 3e
       -0.073739074 -0.04043753 0.06727007 0.21509014
000060 05 56 1e be c6 23 09 3e 8b 12 82 bd f6 07 d7 bc
       -0.15462501 0.13392553 -0.06351193 -0.026248913
000070 a6 9c 55 3c 64 e4 5a bc e2 e7 60 3e bc 69 63 bd
       0.013037836 -0.013360117 0.21963456 -0.055520758
000080 84 48 c3 3d ce 80 3a 3d 2f 79 69 3d ef dc 81 3d
       0.09535316 0.045532994 0.057000335 0.06340968
000090 30 98 e6 3c 5e 27 12 bd 68 38 20 3d 1a 11 ed bc
       0.02814874 -0.035682075 0.039116293 -0.028938819
0000a0 f9 0a b9 bd 60 81 10 bd d0 4a 86 3c 65 40 9d 3d
       -0.09035296 -0.03527963 0.016393095 0.07678298
0000b0 bc 0f 05 be 83 e9 c8 3d 84 ee ca bd 65 9c 73 3d
       -0.12994283 0.09810164 -0.099087745 0.05947532
0000c0 93 9f 64 be af 8a 95 3d 45 0a 34 bc da d5 33 bd
       -0.22326498 0.073018424 -0.010988777 -0.043905117
0000d0 d6 f2 38 be 3c a9 99 bd 97 43 81 be 85 47 15 3e
       -0.18061385 -0.07502982 -0.2524688 0.14578064
0000e0 74 e0 8e bd 8d ea 94 3d d6 22 40 bc 7e 5f fa 3d
       -0.06976405 0.072712995 -0.011727056 0.12225245
0000f0 84 fd 6f bb 05 0d fa 3b 4f 8b e8 3d a3 15 93 3c
       -0.0036619613 0.0076309466 0.11354696 0.017954653
000100 85 40 c2 3b 69 a9 13 3e 04 f9 97 bd e5 57 4b bc
       0.0059281015 0.14420094 -0.07420543 -0.012411092
000110 4f 4b 96 3d 4a 89 c5 bd 73 0f 96 3e be 28 7b be
       0.07338583 -0.096453264 0.29308662 -0.2452726
000120 2f b9 b1 bd 22 85 0f be 91 39 69 bc 26 ad 0e 3d
       -0.08677899 -0.1401563 -0.014234916 0.034833096
000130 08 db 0d 3e ef 30 d9 bc e8 c6 10 3e 5d f8 b0 3b
       0.13853085 -0.026512591 0.14138377 0.005400701
000140 11 78 5e 3c 69 ea 45 bd 97 48 b6 bc 8a e6 9d bd
       0.013578431 -0.048319254 -0.02225141 -0.077099875
000150 cf 1c c6 bd 33 ff cc 3d aa de 1c be 7f c4 25 3e
       -0.096734636 0.10009613 -0.15319315 0.16188239
000160 54 97 b6 bc 88 82 57 bd 04 2b b5 3c bf 72 a7 bc
       -0.022288956 -0.05261472 0.022115238 -0.020440457
000170 bf 79 58 bc a9 47 88 3c 4e 2f 3d 3d 88 b4 20 3e
       -0.01321262 0.016635733 0.04618769 0.15693867
000180 74 b5 dd be c2 c8 92 3e 8e 6b b6 be 35 bc 84 bd
       -0.433025 0.2866879 -0.35628933 -0.0648121
000190 df d2 3f bd 53 b1 f7 3b 0c 88 f8 bd 27 51 0f be
       -0.04683196 0.0075589805 -0.12135324 -0.13995801
0001a0 4e 6e af bd 9b 7b f7 3c 58 90 96 3c 20 00 4a 3d
       -0.08565961 0.030210307 0.018379375 0.049316525
0001b0 03 45 ba 3c a4 3a 7e bd 3e 9c 18 bd 9d 3d c0 bc
       0.022737985 -0.062067643 -0.03725838 -0.02346688
0001c0 fa b3 86 bc c8 e2 59 3b 6c 5d 96 3d 71 06 e1 bd
       -0.016443241 0.0033246744 0.073420376 -0.10987557
0001d0 5e 1c 95 bd 86 00 a3 3d 6f 54 26 be c1 31 2b 3d
       -0.07280801 0.07959084 -0.16243146 0.041795496
0001e0 ac b9 52 3e 8c c1 ae be 9f 46 be 3e ab 2f f4 3d
       0.2057864 -0.3413204 0.37163255 0.119231544
0001f0 1c b3 ea be a6 e4 b7 3c da c1 ab bd 9f de e3 3d
       -0.45839775 0.022447895 -0.083865836 0.11126446
000200 71 e9 24 bc fd 97 f9 bd df c9 69 3e 40 be 0b 3e
       -0.010065422 -0.121871926 0.22830914 0.13646793
000210 eb df 4c 3e 2f 84 99 3e a4 cc 15 3d 87 92 f4 3b
       0.20007293 0.2998366 0.036572114 0.0074637565
000220 19 9b 7c 3e a7 4a b3 3d bb 50 66 3e dd 21 b5 3b
       0.2466854 0.08754473 0.22491734 0.0055277185
000230 f2 65 20 be 6b b1 71 be 50 f8 e1 bd 82 5f b9 3d
       -0.15663889 -0.23602836 -0.1103369 0.0905142
000240 62 78 85 be c4 23 55 be e4 99 c9 3c 87 93 42 bd
       -0.26068407 -0.20814425 0.024609514 -0.047503974
000250 ac 33 54 3e 59 79 45 be 98 f1 72 3d 74 bd 07 3c
       0.20722836 -0.19284572 0.059312433 0.008284915
000260 b3 ab 07 3c 61 9e 1f 3b 62 2d 22 3c c1 6e 82 3b
       0.008280682 0.0024355876 0.009898515 0.003980488
000270 47 57 23 be 52 82 34 be 43 21 a3 bd 75 7e d5 bd
       -0.15951262 -0.17627838 -0.079653285 -0.104245104
000280 a9 5a c1 3b 7b 73 c8 bd a4 2c 9e bc 26 0d b9 3d
       0.0059007 -0.09787651 -0.019308396 0.09035711
000290 ef 28 72 3d 61 59 36 bd 8b 09 e4 bd 1e 1a 9a bc
       0.05912107 -0.044518832 -0.11134633 -0.018811282
0002a0 f1 2f 3e 3d b5 2d f6 bd 92 94 bf bd f6 5f 1d bf
       0.04643244 -0.12020437 -0.093545094 -0.6147455
0002b0 04 37 7e be 50 f7 41 be 1f fa 8f be af 71 3e be
       -0.24825674 -0.18941998 -0.28120515 -0.18598054
0002c0 24 69 1c be b2 34 81 be 53 8b 06 be 21 fa 80 be
       -0.15274483 -0.25235516 -0.13139085 -0.25190833
0002d0 9c da b9 bd d6 bf ad 3d da 6e c7 bd e7 b9 2a bd
       -0.090748996 0.084838554 -0.0973794 -0.041681197
0002e0 c6 d9 58 bd 4b f0 4c 3e 44 30 cb bc da 1d 15 bd
       -0.05294206 0.2001354 -0.024803288 -0.03640542
0002f0 c8 19 27 3d 09 69 2b be c9 e7 8e 3d 44 e1 dc 3d
       0.04079607 -0.16739286 0.06977803 0.107851535
000300 4a d9 79 3c e2 01 f0 3d 65 6f 44 3d 3c 39 20 be
       0.01524956 0.11719109 0.047957797 -0.15646833
000310 43 f4 20 be 6b 85 32 be dd 95 8b be a6 6e 87 be
       -0.15718178 -0.17433707 -0.27262774 -0.26451606
000320 3d 7a 0d bd d2 9c e6 3d ef a3 cc bc 54 7b 14 3e
       -0.034540404 0.1126038 -0.024980513 0.14500171
000330 6c bd 0f bd 18 36 97 bc 15 26 56 b8 e4 e4 27 bc
       -0.035092756 -0.018458411 -5.1057043e-05 -0.010247443
000340 23 7d c1 3c 91 30 19 3d 3c 8d 50 bd fe 7e 40 bd
       0.02361924 0.037399832 -0.05091594 -0.04699611
000350 d5 6d 0b 3c 4d 8f 8b 3d 83 63 00 be 34 2c 97 bc
       0.008510073 0.06814442 -0.1253796 -0.018453695
000360 08 d5 03 bd f6 ed e3 3c 67 15 da bc 08 0a 13 3d
       -0.032185584 0.02782343 -0.026621534 0.03589824
000370 52 79 55 3c a2 32 5b be 8a f3 aa bd 41 15 5e bd
       0.013029413 -0.21406034 -0.08347233 -0.054219488
000380 f6 f9 0f be a8 3f ec bc c0 a1 6b bc 19 d9 41 be
       -0.14060196 -0.028838947 -0.014381826 -0.18930472
000390 74 52 99 3d d5 c6 0b be 5a e8 aa bd e8 80 22 be
       0.0748643 -0.13650067 -0.08345099 -0.15869486
0003a0 40 03 cf bd dd 8e 30 be 7c cb b2 bc 24 0c 79 bd
       -0.10108042 -0.17241998 -0.021825545 -0.060802594
0003b0 84 b2 5d bd bd 80 3d be 5b f7 69 bd e8 ec 16 be
       -0.054125324 -0.18506141 -0.057120662 -0.1473881
0003c0 10 08 7e be c9 fe e1 bb e2 ae 90 be 3f f3 50 3b
       -0.24807763 -0.006896828 -0.28258425 0.0031883267
0003d0 c9 e2 89 be f2 1b 2c 3d fa dc d0 bd 92 a4 12 3c
       -0.26930836 0.04201884 -0.10198398 0.008950369
0003e0 c2 d3 93 be 3f f4 a5 bd 1f 8e 0d 3d 20 db 6e be
       -0.28872496 -0.08103227 0.034559365 -0.23325777
0003f0 d4 ac 72 bd be 9d f9 bd 1b 71 ca bd 40 b9 3c be
       -0.059246853 -0.1218829 -0.098848544 -0.18430042

deconv2.bias f4 [8]
000000 66 71 17 be 5b 5e ba bd cd 78 b5 be 39 7a ff be
       -0.14789352 -0.09100028 -0.35443726 -0.49897936
000010 32 44 ae 3e 24 84 f9 3d 2b 7f 1d 3e 2a 6e b7 be
       0.34036404 0.12183407 0.15380542 -0.35826236

bn2.weight f4 [8]
000000 f0 04 d4 3f 0e 9c de 3f 3f 70 f6 3f a7 6a e0 3f
       1.6564007 1.7391374 1.9253005 1.7532548
000010 da 2f db 3f bf 0f d7 3f a1 52 ef 3f a6 27 e8 3f
       1.7123978 1.680168 1.8697091 1.81371

bn2.bias f4 [8]
000000 98 53 0a 3f 87 89 08 3f d5 f0 1d 3f 32 eb 0f 3f
       0.54033804 0.5333485 0.61695606 0.56218255
000010 55 7b 00 3f e5 be 39 3f 9c 62 16 3f 92 63 08 3f
       0.5018819 0.72556907 0.58744216 0.5327693

bn2.running_mean f4 [8]
000000 0f 6c 45 3e 53 ad 30 bf f0 99 d2 be 51 e1 79 bf
       0.19279502 -0.6901447 -0.4113307 -0.9760943
000010 0b c6 dc 3e 40 46 a6 3e 6e 31 b1 bc 0e f0 07 bf
       0.43119845 0.32475471 -0.021630015 -0.5310067

bn2.running_var f4 [8]
000000 ad a3 d3 3e 7c 35 ed 3e ab ac b8 3e 1a 43 c5 3e
       0.41335812 0.46329868 0.36069235 0.38527757
000010 31 b3 0f 3f 98 21 a6 3e 54 21 b8 3e 07 7a 9e 3e
       0.561328 0.32447505 0.35962927 0.30952474

deconv3.weight f4 [8, 1, 3, 3]
000000 d4 c4 d2 be 76 f8 12 bf cb 79 4e bf 01 cf 1d bf
       -0.41165793 -0.5741037 -0.8065459 -0.6164399
000010 67 e8 41 bf 5d 06 65 bf 88 b0 f8 be f2 3f de be
       -0.7574524 -0.89462835 -0.48572183 -0.4340816
000020 7a a3 98 be b8 41 15 bf 53 71 1f bf 74 da d3 be
       -0.29812223 -0.58303404 -0.62282294 -0.41377604
000030 b1 1a 48 bf 0c a9 83 bf 83 fa 20 bf 97 ee 85 be
       -0.7816573 -1.0285964 -0.6288225 -0.26158592
000040 6f 4a 12 bf 8b 98 eb be db 46 79 be a2 d3 40 bf
       -0.57144827 -0.4601482 -0.24343435 -0.75322926
000050 c1 0b 50 bf 86 d5 c6 3b 34 d9 2d bf b1 35 49 bf
       -0.81267935 0.0060679344 -0.6790955 -0.7859755
000060 df 82 c6 bc 8f a8 0c bf f2 62 68 bf 07 5b f1 be
       -0.024232326 -0.549447 -0.9077598 -0.4713976
000070 49 38 14 bf 13 ca 20 bf 21 f8 0a bf 8e 3e 8c bf
       -0.57898384 -0.6280834 -0.54284865 -1.095659
000080 0b 88 50 bf 85 36 bb be c4 b6 50 bf 23 92 c0 be
       -0.81457585 -0.36565033 -0.8152888 -0.37611493
000090 1b b0 11 bf 79 a9 dc be dd 62 35 be 5b 60 89 be
       -0.5690934 -0.43098047 -0.17713495 -0.26831326
0000a0 a1 b5 83 bd 64 0e 91 be 5c f0 74 bf 32 36 67 bf
       -0.06431127 -0.28331292 -0.9567926 -0.9031707
0000b0 bd b2 70 bf f0 ff 7b bf 8b e0 e1 be 8c dc 2e bf
       -0.9402273 -0.98437405 -0.44116625 -0.6830528
0000c0 8f 26 02 bf db a3 0d bd 88 5b 8b be 44 c9 23 bf
       -0.50840086 -0.034580093 -0.2721827 -0.6397898
0000d0 83 05 66 be 99 5c bd be 8b ff 8e 3d 48 89 91 be
       -0.2246304 -0.3698471 0.06982335 -0.2842505
0000e0 b1 1d fa be e8 3f e5 be fc 4b 24 bf 06 3e eb be
       -0.48850778 -0.4477532 -0.6417844 -0.45945758
0000f0 fb a6 12 bf b2 91 89 bf f4 fa 6d bf 26 00 fa be
       -0.5728604 -1.0747588 -0.9296105 -0.48828238
000100 a4 74 25 bf 82 d1 f4 be d5 38 21 bf 1a d2 a8 bf
       -0.64631104 -0.47816092 -0.62977344 -1.3189118
000110 e1 aa 71 bf ef c4 59 be b5 3b 08 bf 1a 49 af be
       -0.94401366 -0.2126653 -0.53216106 -0.3423546
