model/AAE/discriminator_16d.pt (torch, 2907 bytes, 3 tensors)

fc1.weight f4 [16, 16]
0.4182094 0.4725404 0.24720587 -0.44324535 -0.34584713 -0.008341314 0.14311741 0.43697625
0.2497278 0.497179 0.659219 -0.32722452 -0.20475411 0.15829594 -0.14826424 -0.574668
0.939432 0.36375275 -0.17796421 -0.37486005 -0.09425359 0.37491852 -0.14880535 0.46792036
-0.932731 0.45333496 -0.4933693 -0.15813906 0.13978222 -0.21218278 -0.7457844 -0.36128822
0.10894909 0.17910637 -0.17634676 0.58968765 -0.3606681 -0.33381996 -1.0899966 -0.36292732
-0.2917114 -0.32093337 -0.1258084 -0.0026175384 -0.18473478 0.40987933 0.1373944 0.27754384
-0.03416591 -0.20112795 0.23548087 0.29367355 0.0085625285 -0.5129772 0.45824942 -0.19415514
0.13550703 0.5199277 -0.5791407 -0.33254072 -0.48773852 -0.42924267 -0.08645349 -0.6468404
-0.26586902 0.47195527 -0.21834126 -0.19354811 1.0804628 0.29135394 -0.52757585 0.26370132
0.021709694 -0.6938987 0.1357886 0.6860867 0.35550508 0.3957772 -0.18255524 0.272978
0.094669126 -0.5501951 -0.009536019 0.08262799 -0.5913855 -0.7180846 0.10576361 -0.053059924
-0.0014109948 0.2635249 0.0875027 -0.46960187 -0.081720576 -0.56368625 0.5655763 -0.22908479
-0.10774556 -0.15025367 -0.22707017 -0.47412118 -0.24218144 -0.09799514 -0.21521784 0.0766764
-0.09917101 0.5571907 -0.28606343 0.7770493 0.09354633 0.6480343 0.7340338 -0.00022347787
-0.01811273 -0.5526255 -0.06418575 0.27096292 0.46446016 0.07329588 -0.44136143 -0.63579124
1.3032113 -0.62121236 0.091761686 0.7971302 -0.8789289 -0.019858941 0.515142 -0.092113286
0.2332525 -0.351459 0.26601177 -0.16158064 -0.0049238782 -0.2981143 -0.21854548 0.22596759
0.19208449 -0.1738101 -0.16908242 0.36487058 0.12587045 0.0883051 0.07122777 0.12834574
-0.29844642 -0.29615083 0.80916655 0.19451381 0.40144742 -0.053507395 0.6245734 -0.3084332
-0.5121343 0.34524485 0.14200066 0.8925143 -0.14464112 -0.7827209 0.13095003 0.6518812
-1.0392649 0.9419478 -0.5657802 0.04082733 -0.5960373 0.26922745 0.3141964 0.35195866
0.15789555 0.41199967 -0.065491885 -0.32600033 -0.15049435 -0.5390984 0.12559679 0.051851556
0.058069874 0.20667179 -0.3918234 0.060303576 0.021102507 0.13498224 0.0021860262 -0.13113746
-0.13697058 -0.20781672 0.03173333 0.09455515 0.11939635 -0.17347397 -0.056185793 0.015391434
0.16352297 -0.2870422 0.42535588 0.6059581 0.76298624 -1.0650386 -0.46599737 -0.038302388
0.9180526 0.38824737 0.05432962 -0.026254676 0.7008251 -0.2414636 0.933072 0.431828
-0.123128064 0.42488307 -0.18254311 0.2426009 0.5276967 0.26354665 -0.04447427 0.035755575
0.30885485 -0.71803755 0.10920609 0.22684172 0.117791355 0.28775346 -0.46202624 0.5074386
-0.4493163 -0.44174385 0.4349639 -0.40660557 -0.19001749 0.6452132 -0.08878279 -0.40997675
-0.12741256 0.48130465 0.42712286 -0.2699463 0.010636562 -0.14302064 -0.657155 0.71673787
-0.07637462 -0.37121496 0.3390754 0.09345168 -0.15589406 -0.33244288 -0.45048654 0.5944338
0.22131379 0.21599922 -0.3245163 0.3607818 -0.083677724 0.10557871 0.42992088 -0.06237229
00000000: 8b1f d63e d1f0 f13e 8923 7d3e 0ef1 e2be
00000010: e012 b1be 02aa 08bc 5f8d 123e 5abb df3e
00000020: a5b8 7f3e 3f8e fe3e 94c2 283f f989 a7be
00000030: 10ab 51be 5518 223e 95d2 17be 711d 13bf
00000040: 9e7e 703f cd3d ba3e 403c 36be a8ed bfbe
00000050: 0708 c1bd 52f5 bf3e 6e60 18be 4293 ef3e
00000060: 75c7 6ebf 851b e83e e79a fcbe 35ef 21be
00000070: 1223 0f3e 7146 59be baeb 3ebf c5fa b8be
00000080: b320 df3d a967 373e 3f94 34be c5f5 163f
00000090: 7da9 b8be 73ea aabe 0285 8bbf 9cd1 b9be
000000a0: 325b 95be 6151 a4be ebd3 00be 028b 2bbb
000000b0: 1d2b 3dbe b4db d13e 1eb1 0c3e 3a1a 8e3e
000000c0: 8ef1 0bbd 7cf4 4dbe e621 713e 615c 963e
000000d0: d949 0c3c 7952 03bf ab9f ea3e 9bd0 46be
000000e0: 5bc2 0a3e fb19 053f 9142 14bf c742 aabe
000000f0: ddb8 f9be b2c5 dbbe 870e b1bd 5597 25bf
00000100: fc1f 88be 1fa4 f13e da94 5fbe 7a31 46be
00000110: 9b4c 8a3f 582c 953e 360f 07bf dc03 873e
00000120: 87d8 b13c 58a3 31bf 2b0c 0b3e 61a3 2f3f
00000130: c304 b63e 4fa3 ca3e c3ef 3abe c6c3 8b3e
00000140: e3e1 c13d 96d9 0cbf f63c 1cbc dd38 a93d
00000150: 0a65 17bf 64d4 37bf 979a d83d 5d55 59bd
00000160: 21f1 b8ba bcec 863e 9e34 b33d a86f f0be
00000170: 1e5d a7bd be4d 10bf 9cc9 103f 3495 6abe
00000180: b4a9 dcbd 19dc 19be 1585 68be 03c0 f2be
00000190: 69fe 77be adb1 c8bd 1162 5cbe 8408 9d3d
000001a0: 2c1a cbbd 0da4 0e3f e876 92be b4ec 463f
000001b0: 3895 bf3d 93e5 253f a4e9 3b3f 6255 6ab9
000001c0: 2661 94bc dd78 0dbf d273 83bd a7bb 8a3e
000001d0: b9cd ed3e 261c 963d 20fa e1be 37c3 22bf
000001e0: a1cf a63f c607 1fbf 8ded bb3d ba10 4c3f
000001f0: 7c01 61bf 38af a2bc 59e0 033f e4a5 bcbd
00000200: bed9 6e3e 6ff2 b3be b232 883e 6575 25be
00000210: 7c58 a1bb 70a2 98be 63ca 5fbe 0c64 673e
00000220: ccb1 443e 46fb 31be f123 2dbe 51d0 ba3e
00000230: 2fe4 003e 4ed9 b43d dddf 913d 116d 033e
00000240: f8cd 98be 15a1 97be 8a25 4f3f a12e 473e
00000250: 848a cd3e 922a 5bbd 0be4 1f3f f5ea 9dbe
00000260: 3c1b 03bf efc3 b03e 9f68 113e d17b 643f
00000270: cd1c 14be 6660 48bf c417 063e b0e1 263f
00000280: a206 85bf 7e23 713f f9d6 10bf 8f3a 273d
00000290: e795 18bf 2ed8 893e 5ade a03e ed33 b43e
000002a0: 5faf 213e 9ff1 d23e 9c20 86bd 84e9 a6be
000002b0: 311b 1abe 5a02 0abf 729c 003e 4c62 543d
000002c0: adda 6d3d c5a1 533e 149d c8be e200 773d
000002d0: 2adf ac3c c938 0a3e 6f43 0f3b e648 06be
000002e0: 0442 0cbe e8cd 54be cffa 013d 21a6 c13d
000002f0: 1386 f43d 29a3 31be 1323 66bd 5a2c 7c3c
00000300: 9172 273e 32f7 92be 3fc8 d93e 1220 1b3f
00000310: 1153 433f 2f53 88bf 3597 eebe f7e2 1cbd
00000320: 7f05 6b3f 5cc8 c63e bc88 5e3d 0c14 d7bc
00000330: 4669 333f 3c42 77be cedd 6e3f 8f18 dd3e
00000340: 912a fcbd 468a d93e 95ec 3abe 5f6c 783e
00000350: 2217 073f 96ef 863e a72a 36bd 7074 123d
00000360: 3922 9e3e 4fd1 37bf 71a7 df3d 3249 683e
00000370: 983c f13d 6c54 933e b48e ecbe 7fe7 013f
00000380: c90c e6be 402c e2be 97b3 de3e 9b2e d0be
00000390: f293 42be b12c 253f c0d3 b5bd 79e8 d1be
000003a0: 7078 02be 906d f63e d9af da3e 6736 8abe
000003b0: f944 2e3c 0174 12be 4f3b 28bf 227c 373f
000003c0: 4c6a 9cbd e30f bebe 4a9b ad3e 9863 bf3d
000003d0: b1a2 1fbe f435 aabe 2ca6 e6be d02c 183f
000003e0: 15a0 623e e62e 5d3e 0027 a6be 64b8 b83e
000003f0: 3a5f abbd a739 d83d 971e dc3e 167a 7fbd

fc1.bias f4 [16]
1.0036749 -0.4886306 0.6655333 0.68274975 1.6482625 1.2253381 0.77466697 -0.003262433
1.54215 -0.77968526 -0.7372593 2.2592318 -0.0495092 0.85863656 -0.5672073 1.2234097
00000000: 6b78 803f ca2d fabe 6460 2a3f b0c8 2e3f
00000010: 44fa d23f e1d7 9c3f 9350 463f 8bce 55bb
00000020: 2c65 c53f 7499 47bf 07bd 3cbf 4197 1040
00000030: 29ca 4abd 9bcf 5b3f 7f34 11bf b098 9c3f

fc2.weight f4 [1, 16]
0.69665354 -0.9273765 0.42045084 1.1836258 0.9092927 1.0323174 0.5804765 -1.2456411
0.7029204 -1.2828196 -1.1066003 1.9947442 -1.4145737 1.037649 -1.2609375 0.5983368
00000000: e357 323f 8c68 6dbf 5545 d73e 0d81 973f
00000010: 68c7 683f fa22 843f 1c9a 143f 2b71 9fbf
00000020: 97f2 333f 6f33 a4bf 14a5 8dbf c753 ff3f
00000030: c010 b5bf afd1 843f 6666 a1bf 9a2c 193f
