model/GAN/discriminator_16d.pt (torch, 73975 bytes, 15 tensors)

conv1.weight f4 [8, 1, 3, 3]
-0.07074027 0.12278151 0.16264059 -0.49573758 -0.049280014 -0.40871796 -0.5484514 0.08470071
-0.33130935 -0.10377764 -0.1604922 0.01790076 0.1846545 0.04012699 0.6992286 -0.33555216
-0.38675296 -0.40105623 0.35893962 0.033984747 0.031210395 -0.2443428 0.52708346 -0.037006047
0.10263362 -0.7481199 -0.34567446 0.15213324 0.14571805 -0.18858509 0.20455323 0.42632502
0.43925732 -0.38063914 -0.05728052 -0.20290248 0.14303307 0.30246872 0.27323043 0.12228879
0.39618176 -0.14481187 -0.38184172 -0.117934674 -0.6824781 0.041557964 0.1155899 -0.07606037
-0.094560675 0.479693 0.011827374 -0.4903247 0.21589717 -0.22561832 0.15101635 -0.21350017
-0.053846613 0.14271657 -0.37414894 -0.32357517 0.4100779 0.14896384 0.013975514 -0.43535897
0.026828349 -0.31426185 0.39390394 -0.116689876 -0.2037765 -0.46532965 0.021550026 -0.6326059
00000000: 46e0 90bd df74 fb3d 418b 263e 51d1 fdbe
00000010: d7d9 49bd 7b43 d1be 5067 0cbf 9177 ad3d
00000020: 61a1 a9be 5f89 d4bd 1158 24be 9da4 923c
00000030: 1216 3d3e 335c 243d a500 333f 7ecd abbe
00000040: 7c04 c6be 3e57 cdbe efc6 b73e 9733 0b3d
00000050: f1ac ff3c 0035 7abe f1ee 063f a793 17bd
00000060: 9331 d23d c984 3fbf 3efc b0be d1c8 1b3e
00000070: 1d37 153e 731c 41be 6776 513e 4647 da3e
00000080: 56e6 e03e 22e3 c2be fb9e 6abd abc5 4fbe
00000090: 4377 123e 2edd 9a3e dce4 8b3e 8c72 fa3d
000000a0: 56d8 ca3e 9049 14be c280 c3be bc87 f1bd
000000b0: e2b6 2ebf af38 2a3d 66ba ec3d 8ac5 9bbd
000000c0: 07a9 c1bd 529a f53e 9ac7 413c d70b fbbe
000000d0: 2614 5d3e 7d08 67be 08a4 1a3e ca9f 5abe
000000e0: 448e 5cbd 4b24 123e 7390 bfbe a5ab a5be
000000f0: bbf5 d13e fa89 183e 8ef9 643c 5fe7 debe
00000100: 20c7 db3c eee6 a0be c7ad c93e 1afb eebd
00000110: c9aa 50be b03f eebe ae89 b03c 76f2 21bf

conv1.bias f4 [8]
0.5166138 1.4497094 2.7380068 3.9369807 3.1826432 2.0234394 2.167603 4.9454007
00000000: cd40 043f 1490 b93f 813b 2f40 7ef7 7b40
00000010: 6db0 4b40 0880 0140 02ba 0a40 b940 9e40

conv2.weight f4 [16, 8, 5, 5]
0.9970079 -0.26847613 0.32371855 0.316819 0.14827983 0.09593536 -0.3344984 0.001744536
-0.35687166 0.11879367 0.16307048 0.26759663 0.13633355 0.34351286 -0.32604563 0.573837
0.25004983 0.28540036 0.23349915 0.27160853 0.3888987 0.076298736 0.15547681 0.20986053
0.06767365 -0.2430014 0.03481528 -0.6074623 0.16635899 -0.10094405 0.059221495 0.12369304
-0.70327276 -0.18425798 -0.23820013 0.41843787 0.6443757 -0.714992 0.3075926 0.03685342
-0.10618013 -0.3130227 -0.23062284 0.27402398 -0.43000007 -0.2246447 -0.12008762 -0.19065627
0.046257906 -0.053423993 -0.07398836 -0.021941505 0.2210462 -0.12533331 0.7183189 -0.35058892
-0.16619994 -0.24543379 0.28003526 -0.26305532 0.19659369 -0.2062653 1.2878006 -0.2542376
1.1877651 -0.32963678 -0.16568145 -0.11023707 -0.018345233 -0.45710924 0.16990629 -0.2953018
0.36571923 -0.20686129 0.10620282 0.764151 0.1925256 -0.030663604 0.09921455 0.4069289
0.5157014 -0.079197794 0.062442068 0.009595821 0.16436762 0.26813626 0.6092259 0.5217814
-0.016281215 -0.06977171 -0.39944333 -0.3883986 0.21010055 -0.17937393 -0.41069558 -0.15842693
0.10514505 -0.26897156 -0.23429134 -0.12625983 0.10501784 0.9114056 0.6181 0.29194912
0.91451055 0.3340469 0.5508142 0.041047413 0.5492315 0.67465127 0.083911814 -0.47169423
-0.16553718 0.44488257 -0.0837025 -0.62319493 -1.0853456 -0.7434983 -0.320121 -0.5404791
-0.8197846 -0.101107165 -0.37504047 -0.06834418 -0.14189819 0.33807874 0.4575669 -0.026977377
0.28433084 0.541593 -0.11017728 0.4257672 -0.15313675 -0.17629035 -0.46324074 0.046423495
0.32846475 0.35061994 0.10418324 0.30660978 -0.7767841 -0.42021212 -0.94008905 -0.69972986
-0.6013202 0.6646287 0.48439717 0.85895383 0.19641756 0.25296468 0.7178818 -1.1895828
-0.041752186 -0.21817924 -0.16520257 0.98024344 0.3448818 0.071709804 0.75658476 0.25472078
-0.5023633 -0.44165587 -0.36065406 -0.116722964 0.015069634 -0.26172078 -0.51092565 0.15654767
-0.6821876 -0.29495132 0.14766748 -0.0862967 0.65600425 -0.03264926 -0.008624942 0.03177052
0.20627184 -0.045462467 0.21475907 0.21039367 0.46084926 -0.045736246 0.1487438 0.32452822
0.25311217 0.2183304 0.5126319 -0.041838966 0.6279751 -0.108560674 0.42770904 0.19935335
-0.042362146 -0.4805474 0.09377452 0.1850347 0.24357985 -0.45840946 0.004433504 -0.044243306
0.32609606 0.26931307 0.18036124 0.43737483 0.13307306 0.72343624 0.67227125 0.22407521
0.076696895 0.27769324 -0.2633969 0.21465681 0.013878597 -0.07756265 0.08469889 -0.4470268
-0.26010263 -0.22779143 -0.12666143 0.053467758 0.4393154 0.110343434 0.27484116 0.68408185
0.5326908 0.4081573 0.42948806 0.9150957 -0.14714159 0.43264058 0.08594579 -0.09167148
0.03582036 0.13457297 0.00852644 -0.87947375 0.0033459049 -0.33448192 0.15510142 0.64069384
-0.069247246 0.4891081 0.5087274 0.44685766 0.57430226 -0.16958293 -0.1147175 0.38818556
-0.0059990613 0.38328767 -0.31943455 -0.8561987 -0.4668601 -0.2912702 -0.33836627 0.8012237
00000000: e93b 7f3f b475 89be 70be a53e 1a36 a23e
00000010: abd6 173e c279 c43d 6043 abbe eaa8 e43a
00000020: e2b7 b6be 184a f33d f3fb 263e 6d02 893e
00000030: 069b 0b3e ebe0 af3e 74ef a6be fbe6 123f
00000040: 8806 803e ff1f 923e 671a 6f3e 4610 8b3e
00000050: bb1d c73e 8342 9c3d 5035 1f3e aee5 563e
00000060: 7c98 8a3d 5cd5 78be 789a 0e3d a682 1bbf
00000070: 035a 2a3e c1bb cebd 3d92 723d c752 fd3d
00000080: af09 34bf 20ae 3cbe bcea 73be 7d3d d63e
00000090: cef5 243f b709 37bf c77c 9d3e 9df3 163d
000000a0: f874 d9bd 8344 a0be 6528 6cbe df4c 8c3e
000000b0: f828 dcbe 4309 66be 80f0 f5bd 663b 43be
000000c0: ee78 3d3d 1ed3 5abd 3687 97bd acbe b3bc
000000d0: ef59 623e 6057 00be bfe3 373f 6480 b3be
000000e0: 5130 2abe ff52 7bbe c860 8f3e 30af 86be
000000f0: db4f 493e 3637 53be a6d6 a43f 6e2b 82be
00000100: b008 983f 27c6 a8be 66a8 29be f9c3 e1bd
00000110: be48 96bc 390a eabe eafb 2d3e cc31 97be
00000120: 8d3f bb3e 72d3 53be dd80 d93d 669f 433f
00000130: 6e25 453e 3d32 fbbc ff30 cb3d fc58 d03e
00000140: 0205 043f 7432 a2bd 41c3 7f3d ca37 1d3c
00000150: fc4f 283e 2849 893e 3bf6 1b3f 7793 053f
00000160: 2f60 85bc 78e4 8ebd d683 ccbe 2edc c6be
00000170: 9924 573e cdad 37be b146 d2be ab3a 22be
00000180: 4a56 d73d a4b6 89be 12ea 6fbe 424a 01be
00000190: 9813 d73d e151 693f cd3b 1e3f 5b7a 953e
000001a0: 5d1d 6a3f 3208 ab3e 2902 0d3f 5521 283d
000001b0: 709a 0c3f f2b5 2c3f f5d9 ab3d e881 f1be
000001c0: 9482 29be a6c7 e33e 376c abbd b489 1fbf
000001d0: 9bec 8abf e855 3ebf e6e6 a3be d75c 0abf
000001e0: 67dd 51bf 4611 cfbd 4e05 c0be 09f8 8bbd
000001f0: c24d 11be a818 ad3e 3546 ea3e a9ff dcbc
00000200: d093 913e d7a5 0a3f a0a4 e1bd 29fe d93e
00000210: e1cf 1cbe 7585 34be e42d edbe 9026 3e3d
00000220: 882c a83e 7584 b33e 065e d53d f5fb 9c3e
00000230: 53db 46bf 0b26 d7be ada9 70bf 7f21 33bf
00000240: 1ff0 19bf 1b25 2a3f e802 f83e 66e4 5b3f
00000250: af21 493e 9684 813e 1ac7 373f 4044 98bf
00000260: 5704 2bbd 616a 5fbe dd2a 29be 3cf1 7a3f
00000270: 5994 b03e 97dc 923d 8aaf 413f c36a 823e
00000280: e29a 00bf b820 e2be a6a7 b8be 730c efbd
00000290: a0e6 763c 4400 86be 06cc 02bf 084e 203e
000002a0: d9a3 2ebf dc03 97be 2536 173e 53bc b0bd
000002b0: e5ef 273f 3bbb 05bd a14f 0dbc ce21 023d
000002c0: ed38 533e da36 3abd cde9 5b3e 7071 573e
000002d0: 6ff4 eb3e ee55 3bbd 4b50 183e 9028 a63e
000002e0: eb97 813e 0192 5f3e d83b 033f 565f 2bbd
000002f0: fac2 203f 0f55 debd aefc da3e 4923 4c3e
00000300: ee83 2dbd 4f0a f6be db0c c03d bd79 3d3e
00000310: ff6c 793e a5b4 eabe ed46 913b 7838 35bd
00000320: 10f6 a63e 67e3 893e 9eb0 383e 98ef df3e
00000330: 4e44 083e 1e33 393f f819 2c3f f973 653e
00000340: 4313 9d3d cf2d 8e3e f5db 86be ffce 5b3e
00000350: 0e63 633c 2bd9 9ebd 9d76 ad3d b2e0 e4be
00000360: 2c2c 85be 2842 69be 89b3 01be 0201 5b3d
00000370: f3ed e03e bdfb e13d fbb7 8c3e fd1f 2f3f
00000380: 6d5e 083f fef9 d03e dce5 db3e b643 6a3f
00000390: 49ac 16be 1183 dd3e 5904 b03d 42be bbbd
000003a0: 5fb8 123d 7fcd 093e 7bb2 0b3c 3125 61bf
000003b0: f846 5b3b 3741 abbe e8d2 1e3e 8304 243f
000003c0: 80d1 8dbd 606c fa3e f53b 023f 87ca e43e
000003d0: 7905 133f 26a7 2dbe 02f1 eabd 42c0 c63e
000003e0: c693 c4bb 483e c43e ed8c a3be d72f 5bbf
000003f0: 4908 efbe 5e21 95be 583e adbe ff1c 4d3f

conv2.bias f4 [16]
-0.049950786 -0.12782249 0.01837027 -0.026492361 -0.001720587 0.03745653 0.023963666 0.015337395
0.07066832 -0.07133101 0.0010393796 0.011849537 -0.040500216 0.052591857 0.069154166 -0.010632773
00000000: 3299 4cbd e6e3 02be 407d 963c 8206 d9bc
00000010: 5285 e1ba 056c 193d 734f c43c b249 7b3c
00000020: 8dba 903d fe15 92bd cb3b 883a 8f24 423c
00000030: 8ee3 25bd 8f6a 573d b3a0 8d3d 1535 2ebc

bn1.weight f4 [16]
0.9208296 1.3036178 0.72714305 0.73821294 0.84445775 1.0918576 1.9690545 0.74841905
0.7156731 1.2586025 1.1814114 1.1193895 0.9877098 0.8492796 0.99308604 1.0244153
00000000: 7dbb 6b3f f3dc a63f 0c26 3a3f 86fb 3c3f
00000010: 622e 583f fdc1 8b3f fa09 fc3f 6498 3f3f
00000020: 5a36 373f e319 a13f 7d38 973f 2848 8f3f
00000030: 8dda 7c3f 636a 593f e33a 7e3f 0a20 833f

bn1.bias f4 [16]
0.46765926 0.672999 1.7773508 1.7019165 0.6220138 0.41533342 0.24743746 0.8371168
0.3448137 -0.24481015 0.5062301 1.1253927 0.6284256 0.5636209 0.9220155 0.5711282
00000000: 0971 ef3e aa49 2c3f 3b80 e33f 66d8 d93f
00000010: 4c3c 1f3f 95a6 d43e 3f60 7d3e 494d 563f
00000020: 6c8b b03e 83af 7abe 4c98 013f de0c 903f
00000030: 80e0 203f 7649 103f 3509 6c3f 7535 123f

bn1.running_mean f4 [16]
406.71768 411.66513 -278.1542 -327.30725 297.9151 -256.94473 -22.093363 105.151855
449.53113 352.3586 -392.5687 -176.59508 338.85684 128.79547 -110.950096 -393.95462
00000000: dd5b cb43 23d5 cd43 bd13 8bc3 54a7 a3c3
00000010: 22f5 9443 ed78 80c3 35bf b0c1 c04d d242
00000020: fcc3 e043 e72d b043 cb48 c4c3 5798 30c3
00000030: ad6d a943 a4cb 0043 73e6 ddc2 31fa c4c3

bn1.running_var f4 [16]
29856.29 25293.02 15378.585 27922.45 24892.082 24496.398 17313.346 15432.171
25569.35 20684.773 36121.08 34258.746 21145.377 10253.219 10158.941 38346.094
00000000: 9440 e946 0a9a c546 574a 7046 e624 da46
00000010: 2a78 c246 cc60 bf46 b142 8746 af20 7146
00000020: b3c2 c746 8c99 a146 1419 0d47 bfd2 0547
00000030: c132 a546 e034 2046 c4bb 1e46 18ca 1547

conv3.weight f4 [32, 16, 5, 5]
0.374386 -0.37912506 0.017823178 -0.38943222 0.002354246 0.37665138 -0.3018388 -0.51279557
0.099899225 -0.704879 -0.014249547 0.070742264 0.06331138 -0.0017263152 -0.14441004 -0.4146466
-0.42289272 -0.9746099 -0.39187396 -0.6197439 0.37257946 0.5106821 0.5478085 0.27395326
0.59933585 0.13821791 -0.11713521 0.3307289 0.23185751 0.44295502 0.5363405 0.255451
0.6721095 0.15313272 0.061217066 0.22684015 -0.08732427 0.13693744 -0.012221625 0.07065751
0.47856736 0.9182599 0.19443841 0.33581716 0.5310304 0.24849513 -0.09190606 -0.30342877
-0.41942877 0.044888318 0.13945332 -0.16414647 0.113716744 0.023732727 0.1539767 0.22146758
-0.16633675 0.26982102 -0.2577437 -0.4464861 0.22580256 0.3534817 0.08099286 -0.0040143235
0.07721862 0.46186405 0.37876356 0.11233002 -0.13019525 0.39773306 -0.43444782 -0.34307054
-0.29893675 -0.34044194 -0.48598665 -0.4720315 -0.1893707 0.05684331 -0.08023123 -0.24850497
-0.2815557 -0.41670343 -0.5379227 -0.19632678 -0.1379184 -0.28511712 0.22423802 -0.1416399
-0.46190828 0.04788412 0.36539188 -0.031972703 0.12916937 0.10945457 0.27214798 0.5325051
0.4954501 0.30439425 0.7832255 0.32357943 -0.115759 0.010549383 0.01846834 -0.19356851
0.05639887 -0.29969057 -0.21449617 -0.085412964 -0.120318115 -0.14266112 0.04014013 0.09627609
0.12770107 0.029145379 0.46553466 0.60718554 0.091308445 0.49915257 -0.120470814 0.23801032
-0.24204943 -0.38986593 -0.6518836 -0.45192754 -0.21374156 0.044608947 0.7200731 0.19420604
0.18026082 -0.3075144 0.47334725 0.20364928 0.347348 -0.35850096 -0.48121163 0.56865764
0.7812513 0.46489567 0.20161231 0.14032623 0.2644561 0.05898799 1.0305452 0.2504069
0.24043632 0.30484104 0.07380524 1.1662185 0.3587809 0.44137648 0.20736255 -0.32726425
-0.7818601 -0.4856326 -0.007969966 0.48711762 -0.010283287 0.038278773 0.15349633 0.13719329
0.38477927 0.71278316 0.3721871 0.48928103 0.15044425 0.6070109 -0.13148156 0.12300239
0.2043332 0.42426822 0.46384346 -0.076250315 0.182995 -0.1324245 0.12359222 0.20176816
0.14435375 -0.080565274 0.3079213 -0.078307815 -0.24923861 0.18257932 0.16256909 0.036709476
-0.5075749 -0.25653225 -0.027471783 0.014592122 -0.17374846 -0.21464579 0.11882264 0.24843056
0.5575928 0.08924071 0.83828336 0.05481182 0.20488295 0.19752565 0.13551347 0.07125855
0.22088656 -0.3434174 0.3689212 0.17605853 0.4478262 0.042789526 -0.012937448 -0.007312021
0.37223306 0.40824568 0.27686134 0.52061325 0.1245789 0.13075055 0.18228044 -0.44517916
-0.20902433 -0.16591811 -0.49432847 -0.4951022 -0.74500936 -0.5103238 -0.24337138 -0.5562167
-0.24734785 -0.6855467 -0.37320927 -0.42401513 -0.56916463 -0.36410272 -0.044971015 0.18359925
-0.21316448 -0.12621692 -0.16439198 -0.09122823 -0.12821928 -0.18096974 0.1498222 -0.327848
0.15300201 -0.043039076 0.19219135 -0.111651115 0.5001637 -0.013351886 0.12551859 0.13982974
-0.32664606 -0.08264763 0.121544525 0.23021054 0.79876256 0.3098432 0.24977984 -0.13224941
00000000: 86af bf3e ae1c c2be ea01 923c a963 c7be
00000010: b249 1a3b 73d8 c03e 9d8a 9abe 9246 03bf
00000020: f797 cc3d f372 34bf ef76 69bc 52e1 903d
00000030: 66a9 813d 8745 e2ba 3ae0 13be 8f4c d4be
00000040: 6585 d8be 0980 79bf b4a3 c8be 89a7 1ebf
00000050: bcc2 be3e 10bc 023f 2e3d 0c3f 9a43 8c3e
00000060: 136e 193f ff88 0d3e 96e4 efbd 4c55 a93e
00000070: 0e6c 6d3e 00cb e23e 9c4d 093f 79ca 823e
00000080: 5e0f 2c3f d3ce 1c3e bfbe 7a3d c948 683e
00000090: 11d7 b2bd 5439 0c3e 363d 48bc e2b4 903d
000000a0: c806 f53e 1513 6b3f dd1a 473e 3af0 ab3e
000000b0: 9cf1 073f 8275 7e3e 3f39 bcbd 045b 9bbe
000000c0: 5ebf d6be d0dc 373d dacc 0e3e 0316 28be
000000d0: 53e4 e83d 236b c23c 11ac 1d3e 66c8 623e
000000e0: 2e54 2abe fb25 8a3e fbf6 83be d399 e4be
000000f0: c938 673e 8efb b43e 96df a53d 968a 83bb
00000100: cc24 9e3d 7279 ec3e 4ced c13e 480d e63d
00000110: e751 05be aba3 cb3e f26f debe f1a6 afbe
00000120: 3d0e 99be 684e aebe 3ed3 f8be 1dae f1be
00000130: 65ea 41be 88d4 683d 4550 a4bd 1678 7ebe
00000140: 1228 90be 275a d5be 4db5 09bf e309 49be
00000150: 7b3a 0dbe dffa 91be a79e 653e 0d0a 11be
00000160: 3e7f ecbe 2422 443d a514 bb3e cff5 02bd
00000170: fa44 043e b829 e03d fb56 8b3e 4152 083f
00000180: a3ab fd3e 90d9 9b3e 7781 483f 34ac a53e
00000190: 0e13 edbd 52d7 2c3c eb4a 973c d336 46be
000001a0: 8002 673d 0b71 99be e2a4 5bbe feec aebd
000001b0: 5869 f6bd c215 12be fa69 243d 662c c53d
000001c0: 12c4 023e 4ac2 ee3c 8f5a ee3e 8370 1b3f
000001d0: ecff ba3d ed90 ff3e 67b9 f6bd fab8 733e
000001e0: cedb 77be 829c c7be d8e1 26bf 0c63 e7be
000001f0: 11df 5abe dfb7 363d b656 383f f3dd 463e
00000200: 4b96 383e 8772 9dbe 925a f23e 7089 503e
00000210: 99d7 b13e 708d b7be 5f61 f6be 8c93 113f
00000220: 1600 483f ce06 ee3e 7573 4e3e aeb1 0f3e
00000230: ca66 873e 649d 713d e8e8 833f 5535 803e
00000240: f034 763e 2014 9c3e 3427 973d a646 953f
00000250: 21b2 b73e 19fc e13e d956 543e 2e8f a7be
00000260: fc27 48bf d6a4 f8be 7694 02bc 7b67 f93e
00000270: 3b7b 28bc 34ca 1c3d 242e 1d3e 667c 0c3e
00000280: ca01 c53e f578 363f 4f8f be3e 0b83 fa3e
00000290: 0f0e 1a3e 1165 1b3f 1aa3 06be ade8 fb3d
000002a0: b93c 513e af39 d93e e47c ed3e 2029 9cbd
000002b0: 0b63 3b3e 4a9a 07be eb1d fd3d 509c 4e3e
000002c0: 78d1 133e 68ff a4bd dca7 9d3e d95f a0bd
000002d0: 6838 7fbe 13f6 3a3e 8378 263e ad5c 163d
000002e0: 6ef0 01bf 3258 83be 810c e1bc cc13 6f3c
000002f0: 1eeb 31be 1bcc 5bbe 4959 f33d 9564 7e3e
00000300: 67be 0e3f d5c3 b63d bd99 563f 5c82 603d
00000310: d6cc 513e 2a44 4a3e 0bc4 0a3e 01f0 913d
00000320: 1630 623e 68d4 afbe 3de3 bc3e b048 343e
00000330: 7a49 e53e 1244 2f3d 97f7 53bc ae99 efbb
00000340: 5595 be3e 9405 d13e c5c0 8d3e e946 053f
00000350: 3923 ff3d 79e3 053e b9a7 3a3e 86ee e3be
00000360: 790a 56be 70e6 29be 9f18 fdbe 097e fdbe
00000370: efb8 3ebf 95a4 02bf 5936 79be 3864 0ebf
00000380: c148 7dbe fd7f 2fbf 4915 bfbe 8318 d9be
00000390: c6b4 11bf ac6b babe 8733 38bd 7101 3c3e
000003a0: ca47 5abe 023f 01be 5f56 28be ded5 babd
000003b0: ea4b 03be 2250 39be fe6a 193e b1db a7be
000003c0: 8fac 1c3e be49 30bd cfcd 443e 57a9 e4bd
000003d0: ba0a 003f dec1 5abc f287 003e 872f 0f3e
000003e0: 273e a7be 2943 a9bd 56ec f83d 50bc 6b3e
000003f0: b47b 4c3f c5a3 9e3e 49c6 7f3e 646c 07be

conv3.bias f4 [32]
0.17730537 0.13974789 0.2574174 0.24595581 0.22497244 0.40894583 0.41186842 0.45460585
0.16186595 0.112575546 0.26516825 0.21940723 0.31405246 0.042375468 0.41735613 -0.10051386
0.3165072 0.12835541 0.105586715 -0.031432927 0.101056114 0.14999343 -0.15592113 0.27543995
0.04602679 0.07642187 0.059486844 -0.10490302 0.12418695 0.17870772 0.24624571 0.2615537
00000000: 8a8f 353e 121a 0f3e 37cc 833e d7db 7b3e
00000010: 2d5f 663e 5961 d13e 6be0 d23e 19c2 e83e
00000020: 30c0 253e 028e e63d 22c4 873e 4aac 603e
00000030: 7ccb a03e e691 2d3d b4af d53e 36da cdbd
00000040: 3b0d a23e 9a6f 033e d93d d83d d0bf 00bd
00000050: 82f6 ce3d e197 193e caa9 1fbe 7706 8d3e
00000060: 9686 3c3d 1283 9c3d 7aa8 733d 65d7 d6bd
00000070: ba55 fe3d 28ff 363e d627 7c3e 5eea 853e

bn2.weight f4 [32]
1.6037474 1.0658789 1.4479258 1.3280421 1.1619245 1.1843942 1.3127371 1.3850195
1.2503895 1.4335948 1.2343572 1.5987785 1.3336226 1.485047 1.4965421 1.2387319
1.4742599 1.1750416 1.0990744 1.7573768 1.1671987 1.3058546 1.3105139 1.3955196
1.3991655 1.2293751 1.3189014 1.4942434 1.5635134 1.3377051 1.3726333 1.3575505
00000000: 9847 cd3f b86e 883f a255 b93f 49fd a93f
00000010: f1b9 943f 3b9a 973f c507 a83f 5248 b13f
00000020: c30c a03f 0980 b73f 6bff 9d3f c6a4 cc3f
00000030: 25b4 aa3f 0516 be3f b18e bf3f c48e 9e3f
00000040: 8cb4 bc3f c367 963f 78ae 8c3f b9f1 e03f
00000050: c466 953f 3e26 a73f ebbe a73f 63a0 b23f
00000060: db17 b33f 2a5c 9d3f c3d1 a83f 5e43 bf3f
00000070: 3521 c83f ec39 ab3f 73b2 af3f 37c4 ad3f

bn2.bias f4 [32]
-0.2392595 -0.18226977 -0.113665074 0.877215 0.4551409 0.2727455 0.23232923 0.37538362
0.47359863 0.6123016 0.9049541 0.0017652807 0.16009085 -0.094729744 -0.4172806 0.25002974
0.16027409 -0.39978132 0.01907204 0.66829985 0.67571956 0.1521456 0.21608867 0.672577
0.6093507 0.44138885 -0.1697982 -0.2732182 0.1262384 0.32856682 -0.12384119 -0.13918912
00000000: 7100 75be eda4 3abe 3cc9 e8bd 2a91 603f
00000010: 3a08 e93e 4ca5 8b3e b7e7 6d3e 4832 c03e
00000020: 857b f23e ccbf 1c3f 12ab 673f fe60 e73a
00000030: dbee 233e ab01 c2bd cea5 d5be e603 803e
00000040: e41e 243e 23b0 ccbe f83c 9c3c b315 2b3f
00000050: f5fb 2c3f 0ecc 1b3e 5946 5d3e 022e 2c3f
00000060: 68fe 1b3f b8fd e13e 94df 2dbe 42e3 8bbe
00000070: a444 013e e939 a83e 73a0 fdbd 9887 0ebe

bn2.running_mean f4 [32]
6.195798 11.103138 16.847786 9.965495 8.501284 -2.133024 -12.377576 29.633408
4.622591 -1.0002135 22.571846 0.16923833 36.495224 14.371494 24.39305 1.9755055
23.973803 -8.618312 12.150082 28.961397 2.5603247 -17.872555 7.3965783 22.393253
34.1441 28.278822 13.690346 20.50596 17.88694 18.97797 6.1135902 28.542297
00000000: fa43 c640 74a6 3141 44c8 8641 ab72 1f41
00000010: 4205 0841 7783 08c0 8d0a 46c1 3811 ed41
00000020: 44ec 9340 ff06 80bf 2493 b441 d04c 2d3e
00000030: 1cfb 1142 a4f1 6541 f724 c341 5ddd fc3f
00000040: 59ca bf41 9be4 09c1 bc66 4241 f1b0 e741
00000050: 5cdc 2340 fefa 8ec1 c5b0 ec40 6225 b341
00000060: 8f93 0842 073b e241 a80b 5b41 350c a441
00000070: 7418 8f41 e2d2 9741 88a2 c340 a056 e441

bn2.running_var f4 [32]
5.126088 75.800476 30.653564 34.200054 112.35071 142.08281 96.1143 26.58199
19.07434 38.760147 9.107038 105.94945 61.517193 29.788115 5.4136114 44.735123
177.80595 117.942505 72.800896 78.78819 71.273994 41.942497 50.630257 6.9899044
54.56662 34.774582 33.790066 126.64505 57.266945 56.836056 46.708572 30.34648
00000000: ea08 a440 d899 9742 803a f541 dbcc 0842
00000010: 90b3 e042 3315 0e43 863a c042 eaa7 d441
00000020: 4098 9841 640a 1b42 6db6 1141 1ee6 d342
00000030: 9b11 7642 0f4e ee41 4e3c ad40 c4f0 3242
00000040: 53ce 3143 90e2 eb42 0f9a 9142 8e93 9d42
00000050: 498c 8e42 1ec5 2742 6285 4a42 4cad df40
00000060: 3844 5a42 2c19 0b42 0729 0742 444a fd42
00000070: 5a11 6542 1f58 6342 94d5 3a42 97c5 f241

fc1.weight f4 [1, 736]
0.4817722 -0.06890572 -0.04452591 0.04426641 -0.041990187 -0.11183591 0.02164207 -0.03786669
-0.018272711 -0.05816922 -0.056023028 0.018872216 -0.0347702 -0.02251433 -0.020787856 0.004308539
-0.07641635 -0.024801685 8.855692e-05 -0.018725948 -0.1462316 -0.040386166 0.0972409 0.3343778
-0.13813104 -0.08439643 0.07577253 -0.050869524 -0.08999484 0.035036154 0.0096344305 0.062104408
-0.10129071 -0.04090778 0.044364057 -0.06227583 -0.01800863 0.046515793 -0.115354404 -0.022369308
-0.024019022 -0.036165588 0.024222923 -0.09930723 0.344487 -0.4559507 -0.4418762 0.092093796
-0.1002565 0.0062084957 0.057272986 0.0001242169 -0.07409613 0.07477231 0.00821694 0.0015332982
0.030395899 -0.0012024776 -0.025542049 -0.014515188 0.07308318 0.016072905 -0.08147832 0.00051488815
0.012441529 0.031045118 0.11821223 -0.0083149085 -0.3837293 -0.61712205 0.15060823 -0.04564397
0.054282892 -0.02143631 0.07242625 0.039143257 -0.0085323285 0.006620367 0.015028127 0.08466436
0.023686884 0.07901669 0.027387131 -0.0056827534 0.047258344 0.060988072 0.037195653 0.10377502
-0.012218546 0.037231546 0.07524193 -0.14776605 -0.47602475 0.13243642 0.09878129 0.10487458
-0.07495566 0.0485669 -0.08290732 0.05328076 0.039883275 -0.015266695 -0.017830491 0.09379373
0.050973203 0.019303415 0.065382965 -0.0013905695 0.020046823 0.09174988 -0.012740507 0.075993344
0.07783503 -0.012461905 -0.2968775 -0.52527684 0.16498242 -0.098501675 0.024339182 0.12339715
-0.02651481 -0.0011207476 0.030395342 0.043788448 0.057369754 -0.07188378 -0.0026660273 0.034740943
0.024913449 -0.043721 0.042039108 0.050988574 -0.03057764 -0.028546568 -0.044121612 -0.043191593
-0.026263941 0.17081226 0.5576666 -0.1014095 -0.04156829 0.10548507 -0.03483889 -0.030215716
0.01983032 0.025788225 -0.034564886 -0.013051064 -0.022664908 -0.07072073 0.042518433 0.016000673
0.00855943 -0.028252468 0.06495113 0.00039359473 0.075930685 -0.016489413 0.041657977 -0.004924278
-0.21384509 -0.4902867 0.21721448 -0.037210613 0.050280966 -0.12558861 0.124362126 0.016958699
-0.07401113 0.025832633 -0.0471636 0.062459063 -0.0036526562 0.05725689 -0.052428104 0.003912235
0.051375777 0.052481726 -0.10064931 0.09373376 0.004363063 0.053980496 -0.029463599 0.24078423
-0.63416034 0.13571674 0.057504494 -0.063436985 0.06115303 0.10116747 0.0059781643 0.010524521
-0.022735229 0.042306162 0.02510996 -0.04403417 0.016514823 -0.03613487 -0.010294451 0.00040459546
0.06434763 0.02059964 -0.003451407 0.040122893 0.008613049 0.11867605 0.06944147 -0.45870984
0.12079812 0.09957437 -0.042064067 -0.0406599 0.009412703 0.066498846 -0.008830153 0.05756652
0.014497489 0.08238155 -0.015646623 0.046743486 -0.008439702 0.025540773 -0.0069637853 -0.03655921
0.016440647 0.042544365 0.03764213 -0.014078921 -0.06910352 0.032156665 0.58481365 -0.10937088
-0.09865636 0.06842704 0.0060020494 0.00013869963 -0.050352078 0.02875447 -0.046455055 -0.013318103
-0.026692832 -0.09085562 -0.012263072 0.01902146 -0.0725271 -0.023169689 0.012962889 -0.006553285
-0.06985057 -0.004063958 -0.12381119 -0.06727148 0.14447507 -0.44520852 0.096946046 -0.089866966
00000000: d9aa f63e 711e 8dbd cd60 36bd b250 353d
00000010: e7fd 2bbd 3a0a e5bd b64a b13c 1a1a 1bbd
00000020: a7b0 95bc d942 6ebd 6778 65bd e899 9a3c
00000030: 326b 0ebd f96f b8bc 4b4b aabc a52e 8d3b
00000040: 2d80 9cbd e72c cbbc a2b7 b938 2967 99bc
00000050: bdbd 15be f76b 25bd 3d26 c73d 9133 ab3e
00000060: 3972 0dbe 09d8 acbd a12e 9b3d 905c 50bd
00000070: 374f b8bd 1282 0f3d bbd9 1d3c 3161 7e3d
00000080: 8171 cfbd eb8e 27bd 16b7 353d f114 7fbd
00000090: d686 93bc 5887 3e3d ee3e ecbd d73f b7bc
000000a0: 8ac3 c4bc 5e22 14bd 276f c63c 9761 cbbd
000000b0: 9a60 b03e 5f72 e9be 993d e2be ac9b bc3d
000000c0: 4853 cdbd a370 cb3b 1497 6a3d 3840 0239
000000d0: b6bf 97bd 3a22 993d 58a0 063c f3f8 c83a
000000e0: d200 f93c 749c 9dba 8f3d d1bc 1cd1 6dbc
000000f0: a2ac 953d 53ab 833c 1bde a6bd 8ff9 063a
00000100: 8ed7 4b3c 5552 fe3c 4119 f23d 413b 08bc
00000110: 2b78 c4be b6fb 1dbf 0b39 1a3e 2cf5 3abd
00000120: bd57 5e3d 339b afbc 3754 943d ae54 203d
00000130: 2ecb 0bbc aaef d83b 8838 763c 8264 ad3d
00000140: ff0a c23c 81d3 a13d fa5a e03c 6436 babb
00000150: f791 413d a1ce 793d 785a 183d ff87 d43d
00000160: 4c30 48bc 1b80 183d 7118 9a3d fc4f 17be
00000170: 84b9 f3be 6a9d 073e d84d ca3d 7cc8 d63d
00000180: 5a82 99bd 16ee 463d 50cb a9bd ed3c 5a3d
00000190: a55c 233d 2921 7abc 4011 92bc ed16 c03d
000001a0: 47c9 503d 3222 9e3c 81e7 853d c543 b6ba
000001b0: 3c39 a43c 5ce7 bb3d 8fbd 50bc 66a2 9b3d
000001c0: f967 9f3d 052d 4cbc 5400 98be 8b78 06bf
000001d0: 27f1 283e 3fbb c9bd f762 c73c a5b7 fc3d
000001e0: 9635 d9bc 0de6 92ba a7ff f83c 845b 333d
000001f0: 8cfc 6a3d ce37 93bd 84b8 2ebb 854c 0e3d
00000200: 4a17 cc3c cb14 33bd 3331 2c3d 65d9 503d
00000210: f57d fabc 7eda e9bc ddb8 34bd abe9 30bd
00000220: 7a27 d7bc 69e9 2e3e 3dc3 0e3f c9af cfbd
00000230: 8343 2abd 8e08 d83d 39b3 0ebd f386 f7bc
00000240: 3273 a23c d441 d33c e993 0dbd 21d4 55bc
00000250: c2ab b9bc 08d6 90bd cf27 2e3d d813 833c
00000260: da3c 0c3c b871 e7bc 1905 853d 645b ce39
00000270: 8c81 9b3d ce14 87bc 8ea1 2a3d d65b a1bb
00000280: 35fa 5abe dc06 fbbe 796d 5e3e 286a 18bd
00000290: 6af3 4d3d 4d9a 00be 92b1 fe3d f8ec 8a3c
000002a0: 2693 97bd f59e d33c 9e2e 41bd 13d5 7f3d
000002b0: 6761 6fbb 3386 6a3d dabe 56bd 3532 803b
000002c0: 686f 523d 14f7 563d 3a21 cebd 7cf7 bf3d
000002d0: 06f8 8e3b a71a 5d3d a55d f1bc 2490 763e
000002e0: 5558 22bf 54f9 0a3e d589 6b3d 40eb 81bd
000002f0: 997b 7a3d e430 cf3d 7ae4 c33b 0a6f 2c3c
00000300: 3b3f babc 3a49 2d3d 67b3 cd3c 2d5d 34bd
00000310: 184a 873c 2802 14bd 0faa 28bc e21f d439
00000320: b1c8 833d 94c0 a83c 0031 62bb e757 243d
00000330: bf1d 0d3c 6e0c f33d 5437 8e3d 04dc eabe
00000340: 0165 f73d a6ed cb3d 5f4b 2cbd ff8a 26bd
00000350: bd37 1a3c 8c30 883d 59ac 10bc dfca 6b3d
00000360: e086 6d3c a8b7 a83d 592d 80bc 1976 3f3d
00000370: ad46 0abc e23a d13c 7730 e4bb 1cbf 15bd
00000380: 89ae 863c 0043 2e3d a22e 1a3d 46ab 66bc
00000390: 2586 8dbd b5b6 033d 59b6 153f d7fd dfbd
000003a0: 580c cabd 7a23 8c3d d7ac c43b e66f 1139
000003b0: fb3d 4ebd 7f8e eb3c a847 3ebd 2c34 5abc
000003c0: edaa dabc 8312 babd 0deb 48bc e5d2 9b3c
000003d0: 1789 94bd 5cce bdbc 4c62 543c f0bc d6bb
000003e0: d10d 8fbd f32a 85bb b990 fdbd a1c5 89bd
000003f0: 46f1 133e 5ff2 e3be a68b c63d 2c0c b8bd
