model/GAN/discriminator_512d.pt (torch, 73995 bytes, 15 tensors)

conv1.weight f4 [8, 1, 3, 3]
000000 f3 cc dc be 4d 04 c8 3d 03 96 e6 3e 0c 45 ce 3e
       -0.43125114 0.09766445 0.45036325 0.40287054
000010 4f f2 aa be ab 25 4d be b6 fb 89 be 22 35 18 3e
       -0.33387992 -0.200339 -0.26949853 0.14864019
000020 50 a1 8d 3e 07 08 db be d0 0c 5f bd aa e2 51 3b
       0.27662134 -0.42779562 -0.05445558 0.0032025971
000030 02 9f ba bd ac ee aa 3e e9 0b ff 3e 75 ec c0 bd
       -0.091123596 0.33385217 0.49813774 -0.094201006
000040 33 b8 5a bb da 94 d9 bd c8 38 de bd 59 95 ed bd
       -0.0033373951 -0.10624094 -0.10850674 -0.116007514
000050 e6 ca cf be 42 2b d1 bd cd 19 d6 bd 04 d2 49 3f
       -0.40584487 -0.10213329 -0.1045414 0.78836083
000060 15 18 da 3e dc e7 33 3c fd bc c3 be da a6 81 bd
       0.42596498 0.010980573 -0.38230124 -0.063306525
000070 b2 fb 65 3c 2f 8b 67 3f 13 6b 27 be 6e 59 48 bd
       0.01403706 0.9044675 -0.1634944 -0.04891341
000080 ca f8 b2 be 5b b1 1b 3e 1d c1 1d bd 46 26 7d be
       -0.34955436 0.15204374 -0.038514245 -0.24721631
000090 58 e3 07 3e 3b 20 a9 be 7f 0c c8 3e d3 25 bb bc
       0.13270319 -0.33032402 0.39072034 -0.022845184
0000a0 55 c5 5e be cb e0 b3 3b 93 d3 38 be 88 4c e8 3e
       -0.21754964 0.005489444 -0.18049459 0.4537089
0000b0 0d eb 63 be 1b 34 3c 3d 27 b8 81 be f7 11 b6 bd
       -0.22257634 0.04594813 -0.2533581 -0.08890145
0000c0 9c 50 11 3f 8f a0 c3 be 72 a6 ec 3d 66 2f 82 bc
       0.56763625 -0.38208434 0.115551844 -0.015891742
0000d0 0c 34 41 be 40 23 d6 3e da 3b 6f 3d 72 03 a9 3e
       -0.1886751 0.4182377 0.05840669 0.3301044
0000e0 d0 22 13 be c8 f4 6c 3e 2c f5 ad be 67 3b ba bd
       -0.14368749 0.23140252 -0.33976114 -0.09093361
0000f0 d9 5f 35 be 42 ea f8 3e 3f bf 93 be 1a 9f ae 3e
       -0.17712344 0.48616225 -0.28856847 0.3410576
000100 1c 64 28 bb 32 0d e5 bd ba bf ba 3d 85 fe 05 be
       -0.0025694435 -0.111841574 0.091186 -0.13085373
000110 e4 66 36 be b3 cc 2f 3f d7 7e 51 bc c5 0e b6 be
       -0.17812687 0.6867172 -0.012786589 -0.35558143

conv1.bias f4 [8]
000000 90 aa 58 3f f8 7c 76 be 6b 13 d2 3e f2 4a 83 be
       0.8463526 -0.2407111 0.4103044 -0.25643116
000010 4a 92 00 c0 20 ca 6a 3e 66 07 e0 bf 65 89 0b 3e
       -2.0089288 0.22928667 -1.7502258 0.1362663

conv2.weight f4 [16, 8, 5, 5]
000000 39 8d bc bd 48 71 24 3e 77 b6 ba 3e ce 3c 9c be
       -0.092066236 0.16058838 0.36467335 -0.3051514
000010 2a 5c 47 be 5f 8c af be 1a 13 0f 3f 64 bc 6a 3e
       -0.19468752 -0.34286782 0.5588852 0.22923428
000020 44 53 30 3f 57 1d ef bd a8 1f a6 3c 66 ef 46 be
       0.68877053 -0.11675518 0.020278767 -0.19427261
000030 41 2b 24 be b4 2d 09 bf fe 7b 82 3e ed 45 8d 3e
       -0.16032125 -0.5358536 0.25485224 0.27592412
000040 bb ae e3 3e 08 97 95 3e fc 76 8d 3d 6c f8 04 be
       0.44469246 0.2921679 0.0690746 -0.1298539
000050 8a 39 08 be a4 48 ca 3e c9 0b 51 3e dc fa 14 3f
       -0.133032 0.39508545 0.20414652 0.5819528
000060 84 28 fa 3e 13 2b 9b 3d eb b8 96 3e e8 08 a7 3e
       0.48859036 0.07576575 0.29437956 0.32623982
000070 cb 52 fa 3e 6b 4d d4 3e f6 aa 17 3e 57 0c b4 3e
       0.4889129 0.41465315 0.1481131 0.35165665
000080 58 10 9d 3e a4 72 6d 3e dc 90 0e 3e 33 85 90 bd
       0.30676532 0.23188263 0.13922447 -0.07056656
000090 84 c3 bf 3e 2e 7f ba 3e 10 09 0e 3f d6 1d 02 3f
       0.37453854 0.36425155 0.5548258 0.50826776
0000a0 6f 7b 20 3e a3 9d 8a 3c 5b 71 58 3e c3 60 8d 3e
       0.15672086 0.01692087 0.21136992 0.27612886
0000b0 2d e6 28 be e2 c5 ad be 21 cb 1b be fc 6f e7 be
       -0.16494055 -0.33940035 -0.15214206 -0.45202625
0000c0 9f 29 88 be 85 e8 8c be c5 b1 02 be 6f 32 88 be
       -0.26594254 -0.27521148 -0.12763126 -0.26600978
0000d0 42 42 9a bc fb 4f 8c 3d 9a c9 fc 3e ab e7 23 3e
       -0.018830422 0.068511926 0.4937256 0.16006343
0000e0 d5 d9 d0 bd 84 20 c6 be 69 b1 ae be 34 88 a2 3a
       -0.10197798 -0.38696682 -0.34119728 0.0012400211
0000f0 6e 24 38 3d b8 e8 d1 3d ed 56 0f 3f a4 32 b7 3d
       0.044956617 0.10249466 0.55992013 0.08945206
000100 2e c0 31 3e eb 1d a8 be fb 41 cb be 66 89 b3 3c
       0.17358467 -0.32835326 -0.39698777 0.021916103
000110 b6 f0 4c 3e a0 40 01 be 56 6e 72 be 49 3e d3 3d
       0.20013699 -0.12622309 -0.23674902 0.10314614
000120 5d cf eb 3c 1d 56 fd be 95 ab 09 be ed 6a dd be
       0.028785402 -0.49479762 -0.1344436 -0.4324564
000130 f7 27 1f 3e aa ed 30 be 38 e4 80 bc 33 07 9e be
       0.15542589 -0.17278162 -0.015733823 -0.30864868
000140 cf 21 4c bd 35 77 35 3d 80 2f 54 3e 9a dd ad 3e
       -0.04983693 0.044303138 0.20721245 0.3395813
000150 47 df 38 3e e8 7a 03 3e 7a 39 a6 3e 89 93 37 3e
       0.18053924 0.12839854 0.32465726 0.17927374
000160 1f 69 0e 3e d8 d0 15 3f 04 84 c4 be 5d 5b 59 3e
       0.13907288 0.58521795 -0.3838197 0.21226259
000170 8e 1a b4 3d 28 45 8c 3e 26 64 f4 3e e4 f8 ef 3d
       0.087941274 0.27396512 0.47732657 0.11717394
000180 29 18 6b be a6 5b b7 3e ac 0d 91 be da a6 f7 be
       -0.22958435 0.3581211 -0.28330743 -0.48369485
000190 2f a3 38 3e fd d1 98 3e 19 11 8d bd 1a f1 f6 3c
       0.18031 0.29847708 -0.06888027 0.030144263
0001a0 1d 88 be be 04 03 40 3e 29 23 9b 3e 7e cd 91 3e
       -0.3721322 0.1875115 0.30300263 0.2847709
0001b0 cd 77 b0 3e b4 39 1d 3e a2 3f 1b be 13 f0 de 3d
       0.344664 0.15354043 -0.15160993 0.10885634
0001c0 ea fc b5 bd db 80 a5 3d 5e f7 ce bc 6d b2 ed 3e
       -0.0888613 0.08081218 -0.025264438 0.4642519
0001d0 96 b1 fe 3d 59 48 20 3e 3c 40 3a be cd 6e 3a be
       0.124362156 0.15652598 -0.18188566 -0.1820633
0001e0 63 fb 96 be 5b 9a b2 3e cb 34 80 3e cc 42 32 be
       -0.29488668 0.3488339 0.25040278 -0.17408293
0001f0 9b 12 35 3e 8c 93 cf ba 81 5a 39 3d 23 dd 31 be
       0.17682879 -0.0015836819 0.045252327 -0.17369513
000200 02 34 d9 be dd dd 92 be 56 09 58 be 05 26 bf be
       -0.4242249 -0.28684893 -0.21097311 -0.37333694
000210 d0 f2 d8 be 5b 55 e5 be 2f 19 ae be 8d 33 9f be
       -0.4237275 -0.44791684 -0.3400359 -0.31094018
000220 52 2b b3 be a4 46 b3 be 36 f6 ab be 69 a4 b3 be
       -0.34993988 -0.35014832 -0.33586282 -0.35086372
000230 00 c5 00 3e 5c 95 9e bd 17 e5 a4 be 23 9d a0 be
       0.1257515 -0.07743332 -0.32206032 -0.31369886
000240 d0 7d b9 be dc 4a ae be a0 ea 34 3e c8 38 db bc
       -0.362288 -0.34041488 0.17667627 -0.026760474
000250 92 91 77 3e ba 59 ac bc 45 b5 91 3e eb 27 66 be
       0.24176624 -0.021038879 0.2845861 -0.22476165
000260 08 29 e9 be 05 92 0f bf 1a 85 8b be 21 56 ba 3d
       -0.45539117 -0.56082183 -0.27249986 0.09098459
000270 9b 32 1a be 6a 26 cc bd 47 a9 5a bd 80 a6 b5 be
       -0.15058367 -0.099682644 -0.05338409 -0.35478592
000280 85 e0 03 3e 31 24 ab bd 62 d7 c6 be a1 93 97 be
       0.12878616 -0.08356512 -0.388362 -0.2960482
000290 a5 73 e5 be 32 48 54 3e 1e a7 51 be 64 33 6c bd
       -0.44814792 0.20730665 -0.20473906 -0.057666197
0002a0 bf a5 80 bd 8e 03 ea be 55 b8 e1 be 79 f5 27 3f
       -0.062816136 -0.45705837 -0.44085947 0.65608937
0002b0 1f 2b dc be 42 90 85 be f6 d2 05 bf 34 2c b7 be
       -0.4300165 -0.26086622 -0.52275026 -0.35775912
0002c0 74 f3 b9 bd 5d ab a0 be 34 37 19 be fa c9 f4 bd
       -0.09079638 -0.3138074 -0.14962465 -0.119525865
0002d0 d0 62 14 3e 35 ef 85 be 5f ae 6d be 6a 24 76 be
       0.14490819 -0.26159063 -0.23211049 -0.24037328
0002e0 cd 58 9a be 1d 66 59 bd e7 d4 02 be fc eb 34 be
       -0.30145875 -0.0530759 -0.12776528 -0.17668146
0002f0 9e cd 8d be f9 65 bd be 54 61 dd be e4 f0 ba be
       -0.27695936 -0.3699186 -0.43238318 -0.3651191
000300 30 93 f9 bd 0f 38 56 be 2e bb 9f be ce af 04 3e
       -0.12186277 -0.20919822 -0.31197494 0.12957689
000310 7f 13 7b 3d 82 37 02 3f 6c bd 35 3d e4 a5 29 be
       0.06129789 0.5086595 0.0443701 -0.16567189
000320 59 e7 03 3c 28 22 a3 b9 ee 82 90 be c3 ba 59 bd
       0.008050763 -0.0003111523 -0.2822489 -0.053156625
000330 c1 fa 6e be 7c 3d d5 3d f2 65 c7 3e df e2 0b be
       -0.23337843 0.10412118 0.38944966 -0.13660763
000340 a3 e0 dd be e3 e7 78 3d 23 db 83 3d 7d 5f cc 3d
       -0.43335447 0.06076802 0.064382814 0.099791504
000350 7d 67 99 3e 0f 06 82 3d e5 c3 cc bc e6 11 e5 3e
       0.29961768 0.06348812 -0.024995754 0.44740218
000360 68 d0 d6 be 66 c1 0a be db 99 76 be 84 db a5 be
       -0.41955876 -0.13550338 -0.24082129 -0.3239404
000370 75 d9 85 be 19 9c 0d 3e 93 05 02 3e 22 19 d0 3e
       -0.2614247 0.13829078 0.12697439 0.40644175
000380 3f 4e 53 be 94 dd 57 3d 4d 9b b4 3d 9a c0 83 bd
       -0.20635317 0.052701548 0.08818684 -0.0643322
000390 6e 8d cc bd 5c 3d 91 bd 82 99 2c be af 50 23 3e
       -0.09987913 -0.070917815 -0.16855434 0.15948747
0003a0 a3 b6 22 be 76 9c 19 bf 79 9b 03 be 42 7b 91 be
       -0.15889983 -0.60004365 -0.12852277 -0.2841435
0003b0 17 3c 96 3d 1e f4 ce bd df 63 ef be a9 db 4f be
       0.0733568 -0.101051554 -0.46755883 -0.20298637
0003c0 bb 5d 2e be cb e8 40 be 85 d1 0c bf f6 8d 05 bf
       -0.17027943 -0.18838803 -0.550072 -0.5216974
0003d0 8f 41 7b be 9c d6 45 3e ef 6b fd 3e 6a e6 9b be
       -0.24536727 0.19320148 0.4949641 -0.3044923
0003e0 e7 8e a2 3e 39 ad 0d be ea 87 61 3e 2e d3 2d bd
       0.3174965 -0.1383561 0.22024503 -0.042437725
0003f0 06 5a 65 3a 5f 3b 27 3d c2 d2 7c 3e 8f 60 57 be
       0.0008749071 0.040828105 0.24689773 -0.21032928

conv2.bias f4 [16]
000000 a7 c1 8a bd 20 5b 7d bd f4 b2 2f 3d 09 f3 7b bd
       -0.067752175 -0.06185448 0.042895272 -0.061511073
000010 08 f3 cc bc ec 0d 6e bc 65 5f ef 3c 7f 08 40 bd
       -0.02501823 -0.014529686 0.029220292 -0.046883103
000020 f0 3c 46 3d ce 8e 83 bc 44 0e 80 3d 88 5f 36 3d
       0.04839796 -0.016059306 0.06252721 0.0445247
000030 b3 9a 8f bc ee 31 90 3d 1d 78 b1 3d 57 56 b2 bd
       -0.017529821 0.07040773 0.08665488 -0.08707874

bn1.weight f4 [16]
000000 c6 42 5d 3f 2f a5 5f 3f 46 df 91 3f 1e 12 64 3f
       0.86430013 0.87361425 1.1396263 0.89090145
000010 7d d7 a3 3f 65 3e 5b 3f 3f 99 6b 3f 76 4d 8c 3f
       1.2800137 0.8564208 0.9203071 1.0961139
000020 ec 81 8f 3f 60 1c 88 3f 69 20 78 3f 71 de 78 3f
       1.1211524 1.0633659 0.96924454 0.9721442
000030 41 0b 80 3f a7 d5 95 3f 9d f1 44 3f 94 55 83 3f
       1.0003434 1.1705827 0.7693117 1.0260491

bn1.bias f4 [16]
000000 ac 16 b9 be 44 07 ec be 6f 9c a9 be e0 99 0d bf
       -0.3615011 -0.46099293 -0.33127162 -0.5531292
000010 5a e8 dd be ab cf c9 be 46 05 e3 be 9e 59 26 be
       -0.43341333 -0.3941625 -0.4433996 -0.16245124
000020 94 97 5d bf b1 b3 ab be 97 4f fb be 99 e2 0c bf
       -0.86559415 -0.3353553 -0.4908416 -0.5503326
000030 9d c3 f9 be 2d f9 16 bf 04 ec ea be ce 70 ef be
       -0.48782054 -0.5897396 -0.4588319 -0.4676575

bn1.running_mean f4 [16]
000000 89 80 ed 41 59 31 48 bf 91 25 1d 41 e6 f9 7c 41
       29.687761 -0.782003 9.8216715 15.81101
000010 11 a2 af c0 e2 16 71 41 b9 3e b0 40 5c 2a 58 41
       -5.4885335 15.068087 5.5076566 13.510342
000020 24 00 a2 41 16 55 ad 41 c7 8f 52 41 3c 9c 40 41
       20.250069 21.666546 13.160102 12.038143
000030 4b a5 96 41 81 02 2f 41 05 0d 9f 41 9e 0f 56 40
       18.83071 10.938111 19.881357 3.3447032

bn1.running_var f4 [16]
000000 c9 3e 97 43 c3 50 79 43 65 e6 69 43 af d5 7e 43
       302.4905 249.31548 233.89998 254.8347
000010 fe 51 0d 44 af 94 a7 43 4e d1 93 43 eb 1c c8 43
       565.2811 335.1616 295.6352 400.22592
000020 51 e1 53 43 b2 60 c0 43 12 76 5c 43 7e 5f 3b 43
       211.88014 384.75543 220.46121 187.37302
000030 1e 48 96 43 17 a5 61 43 80 91 59 43 e9 62 43 43
       300.56342 225.64488 217.56836 195.38637

conv3.weight f4 [32, 16, 5, 5]
000000 8b 12 36 bf 73 9c 87 be eb 05 1f bf 7b 39 d5 bd
       -0.71122044 -0.2648655 -0.62118405 -0.10411354
000010 73 ac b0 3e cb e8 1d bf df fe d7 3d e2 88 99 3d
       0.34506568 -0.6168334 0.1054666 0.074968114
000020 66 30 37 bd d7 34 d3 3e f7 90 0c 3f c9 0d 8f 3e
       -0.04472389 0.4125125 0.549087 0.27940205
000030 be b9 ce 3d 67 2b cb 3e a6 a8 d4 bd 88 d3 db 3e
       0.10094021 0.3968155 -0.1038373 0.42934823
000040 95 26 b5 3e 2a b8 f0 3e 7a c1 f9 bd fa 13 3f 3d
       0.35380998 0.47015506 -0.12195106 0.04664991
000050 21 87 c8 be 80 04 5f 3e 56 fd 12 3f 80 66 6d 3f
       -0.39165595 0.2177906 0.5741781 0.9273453
000060 75 76 0b be db 9b 29 3c 1e 3f 32 bc b2 44 9b bd
       -0.13619407 0.0103521 -0.010879306 -0.07581462
000070 ee 75 47 bc f6 37 47 be 43 1d dd bc eb 5c 8b 3e
       -0.012174113 -0.19454941 -0.026991492 0.27219328
000080 91 24 22 3e 00 96 1a be 36 69 8b 3e f6 2d c9 bd
       0.15834261 -0.15096283 0.27228707 -0.098232195
000090 7e 59 32 bd 97 6d e6 bd 92 42 c7 be 3a 7d db be
       -0.043542378 -0.11251371 -0.38917977 -0.42868978
0000a0 71 4d 39 bd 90 d0 02 be b1 e6 28 bf de 77 bf be
       -0.04523987 -0.12774873 -0.6597701 -0.3739614
0000b0 c4 94 87 3b 2f c1 84 3e fc d2 6c be b5 07 e7 3d
       0.0041376073 0.25928637 -0.23127359 0.11280767
0000c0 68 da cd be 9e ad 35 3f 28 69 d4 3e 45 36 ea 3e
       -0.40205693 0.70968044 0.41486478 0.4574453
0000d0 e3 fb b4 3e eb 60 03 bd d9 32 47 be 57 96 a4 3e
       0.35348424 -0.03207485 -0.1945299 0.3214595
0000e0 15 ac 18 bd b6 33 7d 3d ce ea e3 3d 3f 16 99 3d
       -0.037273485 0.061816894 0.1112877 0.07474946
0000f0 8d 3c 69 3e 0e c5 75 be b9 0c 2d bc f5 e4 f6 3e
       0.22777005 -0.24000952 -0.010562115 0.48221555
000100 c7 9d 87 3d 5b 4e 1f 3e 2f 28 47 3e bd cf fb bd
       0.066218905 0.15557234 0.19448923 -0.12295482
000110 d2 27 bf 3d ac d0 8e 3e 83 10 8c 3d ca 2f c2 be
       0.09333767 0.2789358 0.06839087 -0.37927085
000120 74 07 0b bf 4e e0 23 be 5f ec 5a bf 9c 0f 55 be
       -0.5430825 -0.16003534 -0.85516924 -0.20806736
000130 aa 9e 01 3d 6f 28 c8 be 1b 87 e9 bd 7e 76 c0 bd
       0.031645454 -0.39093348 -0.114027224 -0.093976006
000140 f4 7b 22 3d 98 f5 17 bf 71 61 62 bd ce 49 80 bd
       0.039668992 -0.5935912 -0.05526871 -0.06264077
000150 fb e7 0a 3e d3 85 a2 be dc f8 bc bd 48 c8 ac be
       0.13565056 -0.31742725 -0.09227154 -0.33746552
000160 52 45 8f 3e 75 97 91 be 62 f3 0a be 1f d1 93 be
       0.27982575 -0.28435865 -0.13569406 -0.28870484
000170 a1 c3 2a 3e d4 12 8d 3d 01 f5 cc bc 3f 43 67 bf
       0.16676189 0.06888357 -0.02501917 -0.90336984
000180 d9 02 63 3e 74 f6 ff be bb 7a 3d 3f ac d1 17 bd
       0.22169055 -0.49992716 0.74015397 -0.037065193
000190 c6 cc b5 bd a8 bb dc bd b6 8d fb 3d 05 d4 8c 3c
       -0.08876948 -0.1077798 0.122828886 0.017190943
0001a0 ee d8 12 be f2 88 21 bf 0b 0c 0f be 48 ab 8a be
       -0.14340565 -0.63099587 -0.13969438 -0.27083802
0001b0 b7 a0 10 3e 92 44 cd be 84 94 fa be 5c eb 92 3d
       0.14123808 -0.40091377 -0.48941433 0.071737975
0001c0 fb 74 0c bf f2 3e fc be 1b 36 bd be 28 7f 7c 3c
       -0.54866 -0.49266773 -0.36955342 0.015411176
0001d0 ff 61 02 3f f4 1e 8d 3d cd 8d ab 3e 41 b3 0f 3f
       0.5093078 0.068906695 0.33506623 0.56132895
0001e0 0e cb 8d be ef 8c f9 3d 5d b9 18 bd d7 f9 01 3f
       -0.2769398 0.12185084 -0.03728615 0.5077185
0001f0 3a 38 49 3e b3 2f 3b 3d 7e 5e c6 3d aa c3 9d 3e
       0.19650355 0.045699786 0.09685992 0.30813342
000200 9c 24 0e 3f de 35 95 3e 56 9e f7 bc d3 37 fc 3e
       0.5552461 0.2914266 -0.030226868 0.4926134
000210 92 d2 20 3f de 7b 51 3e 11 c0 c8 3e df 6d 1b 3d
       0.62821305 0.20457408 0.39209035 0.037946578
000220 ec bc d2 3d 3e 3b 81 be 09 d0 87 3e c4 79 4a be
       0.1028994 -0.2524051 0.26525906 -0.19773012
000230 03 6d cf 3e 43 56 02 3e 2b 59 06 3e be 1a 5f be
       0.40512857 0.12728219 0.13119952 -0.21787545
000240 31 2f 3a 3e d2 e4 b2 3e c9 ba 37 be 71 25 5b be
       0.18182065 0.349402 -0.17942347 -0.21401002
000250 8d d4 3f bf 5c 99 98 bc 33 05 40 3e e0 a3 26 3d
       -0.749337 -0.018627815 0.18751983 0.040683627
000260 fa 57 78 be f1 9b 9a 3d bb 81 10 bf 71 64 e6 be
       -0.2425231 0.07549275 -0.56447953 -0.44998506
000270 f5 b3 80 bc f8 ad 81 bd b7 3d ab 3e 66 04 1a 3d
       -0.01571081 -0.0633201 0.33445522 0.03760185
000280 89 f8 ea 3d e6 f4 5d 3e 1b a3 63 3e e9 55 9e be
       0.114731856 0.21675453 0.22230189 -0.3092492
000290 fe 37 75 3b f8 e3 0b 3f 40 87 93 3e e5 30 1c 3e
       0.0037417407 0.5464473 0.28814125 0.15253027
0002a0 57 00 d9 3e 55 14 3a 3e 90 86 4c 3e e1 0e 22 3f
       0.42383072 0.18171819 0.19973207 0.63303953
0002b0 93 76 8b 3e 1d 94 4c be 57 48 d8 3e a7 68 64 be
       0.27238902 -0.19978376 0.4224269 -0.22305547
0002c0 e0 ce f7 be f7 6c f5 bc ba 0a 8e be b7 eb 32 3c
       -0.4840002 -0.029959185 -0.2774256 0.010920457
0002d0 82 5b d3 3d 85 1d 3f be 1a f6 97 be 74 4a d0 3e
       0.10320188 -0.18663605 -0.29679948 0.40681803
0002e0 86 16 32 3f fd d0 45 3e 2b f1 1e 3e ab a5 c0 3e
       0.6956562 0.19318004 0.15521686 0.37626395
0002f0 8e 0e 9b be bf 58 b7 3e 16 fd 7c 3e 5c 57 0d be
       -0.30284542 0.35809895 0.2470592 -0.13802856
000300 b9 c0 95 be 7a 83 7f 3d 3a 6d 84 be 66 18 79 3e
       -0.29248598 0.062381245 -0.25864583 0.24325714
000310 8a a7 11 bf 86 b9 0e bc 73 ac 35 be 5d 8d 23 3f
       -0.5689627 -0.008711224 -0.17741565 0.6388758
000320 34 ba ba be 28 10 ed 3c c5 68 0a 3d 09 bf 77 bd
       -0.36470187 0.028938368 0.033791322 -0.06048492
000330 92 49 ba 3c fc 86 10 be a8 32 27 3d 5c 9e 9c bd
       0.02274016 -0.14113992 0.040819794 -0.07647392
000340 85 82 c0 3e 9c 1d 99 3c b2 ea 56 3e 61 c8 83 3e
       0.37599578 0.018690877 0.20987967 0.25738814
000350 ac da 07 3e ce 2c 3c be e7 6b e1 3d 61 ab a8 bd
       0.1326701 -0.18376467 0.11006909 -0.08235813
000360 a0 e5 1d bd 9a 1d 02 bf a4 e9 20 be 60 59 c1 3c
       -0.038549066 -0.5082642 -0.15714127 0.023602188
000370 b2 b6 44 be 20 78 af be 50 af ad be 50 d7 85 bd
       -0.19210318 -0.34271336 -0.33922815 -0.06535208
000380 83 5e 9b 3e 0b b2 97 3e 6d 72 0c bc 16 f8 23 be
       0.30345544 0.29628024 -0.008572203 -0.16012606
000390 b2 78 c8 be 98 06 02 be 1c 95 1a bf 01 2f 35 bf
       -0.39154583 -0.12697828 -0.6038377 -0.7077485
0003a0 aa ff 79 bf 87 bd 5a bf 45 fb 76 bf b9 46 70 3e
       -0.9765574 -0.85445446 -0.96477157 0.23464479
0003b0 5e cb 47 3e 78 ca fe 3d 8f f0 bc bc 3a 1d d1 bd
       0.19511172 0.124409616 -0.023063926 -0.10210653
0003c0 03 f4 0d 3d 71 83 c0 3e ee a3 84 3c c5 aa 81 3d
       0.034656536 0.37600282 0.016191449 0.063314
0003d0 78 5a f8 3e 35 15 c5 3e 45 7e da 3d 93 ba be be
       0.48506522 0.38492742 0.10668615 -0.3725172
0003e0 aa dc de 3c 58 65 ab 3d dd 75 25 3e 8d 98 d8 bc
       0.02720483 0.08368939 0.16158243 -0.02643993
0003f0 15 22 e5 bc 13 bc a7 bd 82 78 61 bd 31 f4 3c 3c
       -0.027970353 -0.08190169 -0.055046566 0.011532829

conv3.bias f4 [32]
000000 a3 31 19 3e 00 7d 83 3c 65 0a c7 3d a9 94 04 bd
       0.14960341 0.016050816 0.097187795 -0.032368336
000010 f7 c4 e5 bc d9 5a 8c 3d 4c bf 59 bd 93 bf 4f 3d
       -0.028048022 0.06853265 -0.05316095 0.05071981
000020 57 ed 60 3d bc c0 f7 3d fa 1b d2 3a 03 cb 02 3e
       0.054913845 0.12097308 0.0016030066 0.12772755
000030 3d 7a 00 3e a8 28 63 bd 18 f3 b3 bc 3d 34 ca 3d
       0.1254663 -0.055458695 -0.021966502 0.09873245
000040 91 b5 78 3d 47 10 19 3e 3e 31 00 bc 2f 54 3e 3c
       0.06072003 0.14947616 -0.00782424 0.011616751
000050 21 c3 a2 3d a3 46 06 3d 42 17 6c 3d 04 75 ba bc
       0.07947374 0.03278221 0.057639368 -0.022760876
000060 3c 4e c4 3d c4 46 c5 bd 4d cb 65 3c 2b 11 19 bd
       0.095852345 -0.09632638 0.014025521 -0.03736989
000070 e2 fb 09 be a8 c3 5a bc 6d c4 da 3c fa 10 cc bd
       -0.13474992 -0.013352312 0.026704991 -0.099641755

bn2.weight f4 [32]
000000 ae 2d 8e 3f f8 c1 82 3f 04 a0 a9 3f f3 ad 08 3f
       1.110769 1.0215445 1.3251958 0.53390425
000010 60 bc 4a 3f 62 ad 82 3f a4 82 76 3f e0 55 a2 3f
       0.7919369 1.0209162 0.9629309 1.2682457
000020 97 86 fd 3e 0a 82 87 3f 4a 7a a4 3f c2 8b a0 3f
       0.49516746 1.058656 1.284982 1.2542651
000030 a4 9b 89 3f a6 13 89 3f 76 6f 96 3f 48 22 86 3f
       1.0750623 1.0709121 1.1752765 1.0479212
000040 c6 1f 96 3f 50 16 69 3f 75 6c 7c 3f 41 46 47 3f
       1.1728446 0.9104967 0.9860299 0.77841574
000050 00 f3 75 3f c2 19 83 3f 1a 29 b3 3f 97 d1 87 3f
       0.96073914 1.0242236 1.3996918 1.0610837
000060 ec d4 93 3f 44 fe ad 3f 56 03 3b 3f 37 f6 43 3f
       1.1549354 1.3593221 0.73051965 0.7654757
000070 d4 40 ac 3f b3 26 85 3f c0 13 92 3f cf ea a5 3f
       1.3457284 1.0402435 1.1412277 1.2962283

bn2.bias f4 [32]
000000 f0 28 2d be a6 b4 f4 be e3 f5 df bd 62 19 47 be
       -0.16910148 -0.47794074 -0.10935571 -0.19443277
000010 e0 a1 6d be 68 fb 72 bd 36 38 0d bf 5c 74 85 bd
       -0.23206282 -0.05932179 -0.55163896 -0.065163344
000020 50 6c eb be 99 23 5a be e8 97 c6 bd 5a ce cf bd
       -0.45981073 -0.21302642 -0.096969426 -0.1014678
000030 02 bb 9a be d0 db 05 bf 7d 5d 35 be ac 2f ee be
       -0.302208 -0.5228853 -0.17711444 -0.46520746
000040 74 de 4a be 29 cd 01 bf b3 1c f0 bd 01 4d fe be
       -0.19811422 -0.50703675 -0.11724224 -0.49668124
000050 d2 f0 15 be 79 b8 4f be ec 85 c3 bd 6b d8 08 be
       -0.14642647 -0.20285214 -0.09547028 -0.13363807
000060 08 8a b4 bd be 02 10 be ef 2e 6e be dc 67 f9 be
       -0.0881539 -0.14063546 -0.23260091 -0.4871205
000070 c7 25 b1 bd 1e 13 08 be d4 3b 52 be da 03 da bd
       -0.086497836 -0.13288543 -0.20530635 -0.10645266

bn2.running_mean f4 [32]
000000 59 0d 9f 40 f5 ed 1b 40 e2 5d 82 40 ea 3c a1 40
       4.9703794 2.4363987 4.0739603 5.038686
000010 a9 41 a0 40 6b d0 6a 40 86 29 fa 3f 70 e2 1c 40
       5.008015 3.6689708 1.9543922 2.4513206
000020 f9 0b 25 40 4b a8 8f 40 9b 01 88 40 ac 03 86 40
       2.5788558 4.4892936 4.250196 4.187948
000030 d9 21 8c 40 df c0 31 40 fb c9 0c 40 57 95 64 40
       4.379132 2.777397 2.199828 3.571615
000040 f0 34 83 40 a7 5b 3f 40 2f 3a 59 40 ce f8 fd 3f
       4.100212 2.989969 3.3941762 1.9841554
000050 f1 7f 16 40 1b 56 83 40 ec ce 92 40 b7 2e 61 40
       2.351559 4.104261 4.587759 3.5184762
000060 a1 df 97 40 ea e0 19 40 8a e3 30 40 83 a5 58 3f
       4.7460485 2.4043527 2.763888 0.8462755
000070 50 b1 86 40 bb d9 55 40 a7 4e 55 40 a5 7b 27 40
       4.2091446 3.3414142 3.3329256 2.6169217

bn2.running_var f4 [32]
000000 b8 3c d9 41 2e 67 7c 42 8d aa 0f 42 c4 69 54 41
       27.154648 63.10076 35.916553 13.275822
000010 60 48 cb 41 e9 f3 d7 41 84 d4 b4 41 4c 63 ee 41
       25.41034 26.994097 22.603767 29.798485
000020 e0 12 14 41 6b a6 14 42 b7 fd d0 41 df 7e 0b 42
       9.254608 37.162518 26.123884 34.873898
000030 3c 00 e9 41 a7 89 85 42 d0 c4 16 42 62 d4 02 42
       29.125114 66.76885 37.6922 32.707405
000040 97 22 2d 42 0e 83 18 41 4a 4c 77 41 54 75 fd 41
       43.28378 9.531996 15.456125 31.68229
000050 49 00 bd 41 b9 a2 c6 41 e9 0a 2e 42 50 66 f7 41
       23.62514 24.829454 43.510654 30.924957
000060 6c d3 fc 41 bc de 7e 42 a4 f5 16 42 75 74 68 41
       31.603233 63.717514 37.739883 14.528432
000070 7f d0 80 42 f6 35 90 41 84 83 19 42 99 db 2a 42
       64.40722 18.026348 38.378433 42.71445

fc1.weight f4 [1, 736]
000000 b5 fa 3a bc b7 ba 5a 3e b9 c1 4c 3e 62 9a 78 3e
       -0.011412312 0.21360289 0.19995774 0.24277642
000010 61 db 96 3e 56 b9 84 3e ac 1d 83 3e d2 dd 82 3e
       0.29464248 0.2592265 0.25608575 0.2555986
000020 12 fd 90 3e a3 83 88 3e 55 00 87 3e 6d de 83 3e
       0.28318077 0.2666293 0.2636744 0.25755635
000030 5a cb 8e 3e a2 a9 76 3e ae a6 87 3e 3c 2d 88 3e
       0.2788952 0.24088147 0.26494354 0.2659701
000040 18 ba 83 3e 3d 39 81 3e 40 fc 84 3e 17 ff 97 3e
       0.25727916 0.25238982 0.259737 0.29686806
000050 56 bf 82 3e 82 3d 2c 3e 3f af a9 38 10 d3 dc 3b
       0.25536603 0.16820338 8.09119e-05 0.006739028
000060 15 b2 8a 3e 8c 79 83 3e 23 56 90 3e 05 66 82 3e
       0.2708899 0.2567867 0.28190717 0.2546846
000070 93 ca 99 3e f0 e3 75 3e 5b 00 8f 3e dd dc 8b 3e
       0.30037364 0.24012733 0.2792996 0.27316943
000080 a2 95 ae 3e 37 10 8b 3e f5 05 91 3e 7c ed b2 3e
       0.34098536 0.27160808 0.28324857 0.3494681
000090 74 ce 9b 3e e7 ba 95 3e 26 b2 a6 3e 60 5e 8b 3e
       0.3043095 0.29244158 0.3255779 0.2722044
0000a0 3a bb 88 3e 47 9d 93 3e 2b 67 95 3e 8b d4 87 3e
       0.26705343 0.2883093 0.29180273 0.26529345
0000b0 75 97 8e 3e 17 73 0e bd db 1c 1d bc d9 6e 44 3e
       0.27849928 -0.034777727 -0.009589399 0.1918291
0000c0 d1 31 86 3e 6e 7e 80 3e 7c 07 6e 3e c1 90 9c 3e
       0.26209882 0.25096458 0.23245043 0.30579188
0000d0 8c 62 92 3e 3e 2b 8a 3e d8 27 78 3e 36 48 92 3e
       0.2859081 0.26986116 0.24233949 0.28570718
0000e0 83 c8 a0 3e 3e 74 9c 3e d5 90 90 3e 5c a5 89 3e
       0.31402978 0.30557436 0.28235498 0.26883972
0000f0 85 2f 81 3e eb 90 87 3e 5e 25 90 3e 00 e4 97 3e
       0.25231567 0.2647775 0.2815351 0.29666138
000100 98 d2 8d 3e 83 d8 9a 3e d4 8c 78 3e 24 88 5f 3e
       0.27699733 0.3024331 0.24272472 0.21829277
000110 51 a7 01 3e 62 06 a3 3c 5b 97 b4 bd b0 e8 f7 bc
       0.12661482 0.019900504 -0.08817931 -0.030262321
000120 f4 7d ca bd ca 31 97 bd 44 c3 a6 bd df bd 7f bd
       -0.09887305 -0.073825434 -0.08142713 -0.062436935
000130 6d e8 9f bd 44 1f 87 bd eb 0a b3 bd 6c 33 8a bd
       -0.078080036 -0.0659776 -0.08742317 -0.06748089
000140 63 8e f0 bd 9c b3 a7 bd b7 42 c7 bd e4 a0 9c bd
       -0.11745908 -0.08188555 -0.09729522 -0.07647875
000150 26 39 8b bd b0 f2 b4 bd 2c 4c 9a bd e2 82 d8 bd
       -0.067980096 -0.088353515 -0.0753406 -0.10571839
000160 a1 74 ce bd 67 f0 12 bd dd 95 f8 bd f3 f5 26 3e
       -0.10080839 -0.035873797 -0.12137959 0.1630476
000170 61 3f 2d 3b ee da 6f be ef 99 7d be bb 9c 43 be
       0.0026435482 -0.23423359 -0.24765752 -0.19102757
000180 58 02 60 be 92 f8 78 be bb 77 40 be 1b eb 63 be
       -0.21875894 -0.24313572 -0.18795674 -0.22257654
000190 27 58 53 be c4 ee 79 be c7 ff 3a be ff 50 73 be
       -0.20639096 -0.24407488 -0.18261634 -0.23761366
0001a0 29 76 50 be 23 0f 79 be 3f d8 4a be 18 89 82 be
       -0.20357575 -0.2432218 -0.19809054 -0.2549522
0001b0 1f a1 7f be 9a ce 6c be a2 9b 4d be 67 40 4d be
       -0.24963807 -0.23125687 -0.200789 -0.20044099
0001c0 66 6b 16 be 17 0b 67 be 94 ba 1e bd 42 3f 21 3a
       -0.14689407 -0.22562824 -0.038752154 0.0006151089
0001d0 ec 56 82 be 4b a5 20 be 98 0c 94 be 2f ce 47 be
       -0.2545694 -0.15688054 -0.28915858 -0.19512247
0001e0 85 8d 76 be 46 30 7c be aa 97 58 be a4 4c 77 be
       -0.24077423 -0.2462779 -0.21151605 -0.2415033
0001f0 84 79 90 be 3f 74 84 be 61 94 83 be 2a 20 6f be
       -0.2821771 -0.2586994 -0.25699142 -0.23352113
000200 b2 48 78 be 81 31 92 be a5 1c 90 be d9 5c 87 be
       -0.24246481 -0.28553393 -0.28146854 -0.26438025
000210 d9 90 8e be 6a d3 85 be d1 b9 8e be 99 fb 30 be
       -0.27844885 -0.2613786 -0.27876142 -0.17283477
000220 d1 5e 5d be ab 24 14 bb 7b 7d e6 3c a7 7b 2d 3e
       -0.21618201 -0.0022604864 0.028136006 0.16941701
000230 05 83 23 3e fa 62 60 3e 3b e6 60 3e f0 29 4d 3e
       0.15967949 0.21912757 0.21962826 0.20035529
000240 76 45 4e 3e 1c 65 77 3e 5e 2f 83 3e 1a 52 81 3e
       0.20143685 0.24159664 0.25622076 0.2525795
000250 56 c4 68 3e 32 df 59 3e 5d da 6e 3e 7a b5 76 3e
       0.22731146 0.21276549 0.23325486 0.24092665
000260 66 08 82 3e dc 1c 5a 3e b7 dc 7e 3e 63 6f 50 3e
       0.25397032 0.21300071 0.24888884 0.2035499
000270 64 0a 89 3e f3 00 55 3e 55 c7 5d 3e bd ea 07 3e
       0.2676574 0.20801143 0.2165807 0.1327314
000280 63 fc d3 3c cf d9 0c bc 14 ca 94 3e 92 6b 83 3e
       0.025877183 -0.0085968515 0.29060423 0.25668007
000290 fe 90 a5 3e af 50 9d 3e f5 7f 93 3e ba d1 a5 3e
       0.32337183 0.3072562 0.2880856 0.3238657
0002a0 78 fb a7 3e ad 4b 91 3e f4 6a a8 3e ac fd 94 3e
       0.32809043 0.2837805 0.328941 0.29099786
0002b0 fb 34 8a 3e e0 40 89 3e 1a 36 a4 3e c8 01 88 3e
       0.26993546 0.26807308 0.32072526 0.2656386
0002c0 7f 0e 88 3e 9f ee a4 3e 1e 67 71 3e cd 68 a9 3e
       0.2657356 0.32213303 0.23574492 0.3308777
0002d0 32 fa 59 3e c1 6f 91 3e ff ce 52 3e f0 c9 a7 bc
       0.21286848 0.28405574 0.20586775 -0.020482033
0002e0 9a 16 68 bd bd 57 b9 bd c4 82 ec bc f6 a2 3c bd
       -0.05666218 -0.09049938 -0.028870948 -0.04605385
0002f0 ef 26 34 bc 76 58 57 bd 84 a0 9f 3c 58 a1 11 bd
       -0.010995611 -0.052574597 0.01948572 -0.03555426
000300 c2 cb 82 bc 18 3e a0 3c e8 47 52 bd 46 00 09 bd
       -0.0159663 0.019560859 -0.051338106 -0.033447526
000310 9f 7e f8 3a 06 9d ea bc b9 3a 23 bd 54 90 01 bd
       0.0018958634 -0.028639328 -0.039850924 -0.031631783
000320 9e 33 3f bd 2d f6 73 bd 26 cd 31 bd 50 d0 22 bd
       -0.046680085 -0.059560943 -0.043408535 -0.039749444
000330 dc cb b8 3d 2a cd 21 bd 1f eb ad 3e a7 d2 29 bc
       0.09023258 -0.0395023 0.33968446 -0.010365165
000340 ea 8f 15 3e 2f 8a 92 3e ef 55 68 3e 49 a1 97 3e
       0.1460568 0.2862105 0.22689031 0.29615238
000350 66 5a 97 3e bf 1e 9f 3e 0b 18 b7 3e 49 8b 93 3e
       0.29561156 0.31078145 0.3576053 0.28817204
000360 48 ba 92 3e 25 20 7b 3e 58 9c 90 3e bd 57 a0 3e
       0.28657746 0.24523981 0.2824428 0.3131694
000370 c3 5e b2 3e 14 9c 9d 3e ac 7a 84 3e a7 e8 90 3e
       0.34837922 0.3078314 0.2587484 0.283025
000380 99 05 93 3e f2 c3 91 3e a5 37 85 3e 9f d6 55 3e
       0.28715208 0.28469807 0.26019016 0.20882653
000390 77 79 5e 3e 7f e4 03 3e 7d a9 63 bb 07 7d f7 3d
       0.21726023 0.12880133 -0.0034738474 0.12084394
0003a0 df e7 87 3e fa 4b 46 3e fc f5 87 3e ca 3f 6a 3e
       0.2654409 0.1936492 0.2655486 0.22875896
0003b0 d2 de 6b 3e 8e 93 6b 3e 19 99 84 3e 8c 6e 70 3e
       0.23034218 0.23005506 0.25898054 0.2347967
0003c0 61 63 67 3e 8e 8e 70 3e 92 bb 3e 3e 74 a2 55 3e
       0.22596504 0.2349188 0.1862624 0.20862752
0003d0 c6 65 66 3e 56 69 67 3e a8 1b 73 3e 9d 52 3b 3e
       0.22499761 0.22598776 0.23741019 0.18293233
0003e0 08 9b 65 3e a9 82 71 3e 3c 54 72 3e 26 1b 60 3e
       0.22422421 0.23584999 0.23664945 0.21885356
0003f0 de 48 ac 3d 31 5b ea bb aa b3 78 3e da 71 5a 3e
       0.08412336 -0.007151984 0.24287286 0.21332493
