model/GAN/generator_8d.pt (torch, 96787 bytes, 15 tensors)

fc1.weight f4 [736, 8]
0	0x3e6d3b0f	0.2316706
1	0xbf06e67f	-0.5269546
2	0xbeccabb6	-0.39974755
3	0x3eb8bb28	0.3608029
4	0x3f0b4f4d	0.5441788
5	0x3f123228	0.5710778
6	0xbd0a6195	-0.033784468
7	0x3ec59225	0.38588062
8	0x3d2c99c4	0.04213883
9	0xbecabe46	-0.39598292
10	0x3f196e7c	0.5993421
11	0x3d4bc938	0.049752444
12	0xbef30017	-0.47461006
13	0x3de38123	0.11108615
14	0xbbc11989	-0.0058929366
15	0xbe9155e4	-0.28385842
16	0xbe5774d0	-0.21040654
17	0x3b59b1d4	0.0033217566
18	0xbe537478	-0.20649898
19	0xbe4965a2	-0.19667676
20	0xbe4a7718	-0.19771993
21	0xbe07ed57	-0.13274132
22	0xbec9dcad	-0.39426175
23	0x3e0f918a	0.14020362
24	0x3d901f29	0.07037193
25	0x3d1f164c	0.038839623
26	0xbf27fac0	-0.6561699
27	0xbec939aa	-0.39301807
28	0xbeca9ed2	-0.39574295
29	0x3dfdcf47	0.12393051
30	0xbe176791	-0.14785601
31	0xbf1a1093	-0.6018154
32	0x3eff3263	0.4984313
33	0x3ea0642c	0.31326425
34	0x3d7627ce	0.060096554
35	0x3f141a60	0.57852745
36	0x3de28a03	0.1106148
37	0xbe5cc4d6	-0.21559462
38	0x3d22a0ee	0.039704256
39	0xbdad3a99	-0.08458442
40	0xbd7e599a	-0.06209717
41	0x3b942f1e	0.0045222184
42	0x3d21fcb8	0.039547652
43	0x3da6805b	0.081299506
44	0x3c9f137c	0.01941847
45	0xbdf96d85	-0.12179092
46	0xbd92e5b1	-0.071727164
47	0x3ce3ac31	0.027792068
48	0xbe4197b9	-0.18905534
49	0x3e75dd74	0.24010259
50	0xbf48d62b	-0.78451794
51	0x3f3625ac	0.7115123
52	0xbf60a701	-0.8775483
53	0xbf68b07d	-0.908943
54	0x3ee513d2	0.44741684
55	0x3f5e4789	0.86827904
56	0x3e11f7b7	0.14254652
57	0x3e98546b	0.29751906
58	0x3e5bfca7	0.21483098
59	0xbe53106e	-0.20611736
60	0xbe85be41	-0.26121715
61	0xbd8042cc	-0.062627405
62	0x3ed265b8	0.4109323
63	0x3ec38ef9	0.38195017
64	0x3f10fb5c	0.56633544
65	0xbe39c9bc	-0.18143362
66	0xbee47337	-0.44619152
67	0x3f3abedb	0.7294747
68	0xbf13fe34	-0.5780976
69	0xbd1fd11a	-0.039017774
70	0xbdf9420c	-0.121708006
71	0x3e0d79dc	0.13816017
72	0x3e8fd6d0	0.28093576
73	0x3f297116	0.6618818
74	0xbe691b8f	-0.22764419
75	0xbeb9bc09	-0.36276272
76	0x3e8c9640	0.27458382
77	0x3e0ea29b	0.13929217
78	0xbdc60e14	-0.09670654
79	0x3f3d7fb4	0.74022985
80	0x3e0ab99e	0.1354737
81	0x3ef97a8e	0.48726314
82	0xbe95173c	-0.2911929
83	0x3e2e5c2e	0.17027351
84	0x3f0454a8	0.51691675
85	0xbe9ca5ce	-0.3059525
86	0x3e147567	0.1449791
87	0xbe56674c	-0.20937842
88	0x3caf9892	0.021435056
89	0xbe0146b4	-0.12624627
90	0xbf035c00	-0.51312256
91	0xbd5b3c9e	-0.053524606
92	0x3ead6ae5	0.33870617
93	0xbdbe416d	-0.09289823
94	0x3d94ff54	0.072752625
95	0x3dcd40f7	0.10022157
96	0xbe2b23e7	-0.16712914
97	0x3e5cfc99	0.21580733
98	0xbee3e3bc	-0.44509685
99	0xbf934f8b	-1.150865
100	0x3f211eda	0.629377
101	0xbe4a82a4	-0.19776398
102	0x3d0b252b	0.033970993
103	0xbee13646	-0.4398672
104	0x3e37ddab	0.17955653
105	0xbcd35ae4	-0.025800176
106	0x3dc1f08b	0.09469708
107	0x3e466daa	0.19377771
108	0x3cf16135	0.029465297
109	0xbf196b5b	-0.59929436
110	0xbeaea940	-0.34113503
111	0x3d03af97	0.032149877
112	0xbf152d78	-0.58272505
113	0x3d033f06	0.032042526
114	0x3f36c0f7	0.7138819
115	0xbe02def1	-0.12780358
116	0xbf1a8f02	-0.6037446
117	0xbf33ec02	-0.70281994
118	0x3e4e7875	0.20163138
119	0x3db6a1d0	0.08917582
120	0xbf05fad7	-0.52335876
121	0x3eaeb1cd	0.34120026
122	0xbe82482f	-0.25445697
123	0x3f4d9766	0.8030914
124	0x3f0305c4	0.5118067
125	0x3e9823d2	0.2971483
126	0xbf20febf	-0.6288871
127	0x3e203f18	0.15649068
128	0xbdda19f5	-0.10649482
129	0x3f005cf9	0.50141865
130	0xbdc9f18f	-0.09860527
131	0xbf240482	-0.6406938
132	0xbe0dbae2	-0.13840821
133	0xbf4445e1	-0.76669127
134	0xbe0ff52f	-0.14058374
135	0x3f1a82ec	0.6035602
136	0xbee8847f	-0.45413586
137	0xbe6969b9	-0.22794236
138	0x3e94b50e	0.29044384
139	0xbe615c97	-0.22007976
140	0x3eab86c5	0.33501258
141	0x3e8f254d	0.27958146
142	0xbda22192	-0.07916559
143	0x3f3957af	0.7239942
144	0xbe5e65fa	-0.21718588
145	0x3f02c98e	0.510888
146	0xbd92426d	-0.07141576
147	0xbed65fcb	-0.4186996
148	0x3eb26ec8	0.34850144
149	0xbe245cc9	-0.1605102
150	0x3dc1d0ae	0.094636306
151	0xbf3d4068	-0.739264
152	0xbe366af2	-0.17814234
153	0x3ed94942	0.42438704
154	0x3fb2ffde	1.3984334
155	0xbf4cfe2e	-0.8007535
156	0x3db9564d	0.09049664
157	0xbe77871b	-0.24172632
158	0x3eafe2be	0.34352678
159	0xbefe125e	-0.49623388
160	0xbf200680	-0.6250992
161	0x3f005979	0.50136524
162	0xbdba6435	-0.09101144
163	0x3e90c86c	0.2827791
164	0x3f7efb1d	0.9960192
165	0x3d9c4005	0.07629398
166	0xbefd1f43	-0.49437913
167	0xbdab0cbe	-0.0835204
168	0xbec7d28e	-0.39027828
169	0x3e099b94	0.13438255
170	0xbdc1b03a	-0.09457441
171	0x3ee03720	0.43792057
172	0xbce1d2e7	-0.027566386
173	0xbe3e6222	-0.18592122
174	0xbd8a83a9	-0.067633934
175	0xbd1c5be3	-0.038173568
176	0x3ee242d2	0.44191605
177	0xbf1ed2bf	-0.62040323
178	0x3e7b03a4	0.24513108
179	0xbe683d41	-0.22679617
180	0xbf802bdf	-1.0013388
181	0x3ee93f17	0.45555946
182	0x3ea3b465	0.31973568
183	0x3ec161f9	0.3777006
184	0x3e94dd67	0.29075167
185	0xbed23b87	-0.4106104
186	0x3f608e7b	0.8771741
187	0xbf0f1db4	-0.559047
188	0xbe4ed83f	-0.20199679
189	0xbf2f8575	-0.68563014
190	0x3f3cc9f5	0.7374566
191	0xbf52ffd8	-0.82421637
192	0x3a787502	0.0009477885
193	0xbbfce748	-0.0077180006
194	0x3ca62140	0.020279527
195	0xbc1c75d9	-0.009549581
196	0xbd8bda2c	-0.06828722
197	0x3c82e0c5	0.01597632
198	0xbc9be203	-0.01902867
199	0xbb8c3719	-0.004279029
200	0x3e005d30	0.12535548
201	0x3ea52c9c	0.32260597
202	0x3f3f3a5f	0.7469844
203	0xbeb535fd	-0.35392752
204	0xbe8fa040	-0.2805195
205	0xbef74a75	-0.48298994
206	0x3e9a34c5	0.30118385
207	0xbe3dce35	-0.18535693
208	0x3edb0b26	0.42781943
209	0xbed2c6f0	-0.41167402
210	0x3ebdc899	0.37067106
211	0xbf06a3aa	-0.5259348
212	0xbe9bc3cc	-0.3042282
213	0xbecd3ebc	-0.40086925
214	0x3e8975d8	0.2684772
215	0xbe3e01bd	-0.1855535
216	0x3e250a4a	0.16117206
217	0xbeb041f3	-0.34425315
218	0xbe059a25	-0.13047083
219	0x3d68013f	0.056641813
220	0x3e9dcecc	0.30821836
221	0xbeb764f7	-0.35819218
222	0x3d3224e9	0.04349223
223	0xbf1965fc	-0.5992124
224	0x3f12fe5e	0.57419384
225	0xb992bcd8	-0.0002798799
226	0x3f776c6d	0.9664982
227	0xbd8c1663	-0.068402074
228	0x3e2c1d12	0.16807964
229	0xbf489509	-0.7835241
230	0x3df76f9b	0.12081834
231	0xbef57740	-0.47942543
232	0xbeb3ad38	-0.35093093
233	0xbf115e36	-0.5678438
234	0x3dcea366	0.100897595
235	0x3ee49247	0.4464285
236	0xbe6cf646	-0.23140821
237	0x3f393551	0.7234698
238	0xbe357e02	-0.1772385
239	0xbebd064e	-0.36918873
240	0xbf37f58e	-0.7185906
241	0x3cd54b85	0.026036987
242	0x3f25a4e6	0.6470474
243	0x3ef328ed	0.4749216
244	0x3da48eb3	0.0803503
245	0x3e033e63	0.12816767
246	0x3e179c3b	0.14805691
247	0xbf20f675	-0.62876064
248	0x3e12028d	0.14258786
249	0x3d89b6a6	0.067242905
250	0x3ee6ffd3	0.45117053
251	0x3f502c21	0.81317335
252	0xbd1abf3d	-0.037780035
253	0xbea60615	-0.32426515
254	0x3d2ee9ee	0.04270356
255	0xbf11e71d	-0.56993276

fc1.bias f4 [736]
0	0xbe242d53	-0.16032915
1	0x3e822432	0.2541824
2	0xbe8c8258	-0.27443194
3	0x3e559080	0.20855904
4	0xbec26130	-0.37964773
5	0xbf3ed771	-0.7454749
6	0x3abac9f1	0.0014250857
7	0xbedf32ff	-0.43593594
8	0xbeaa0d57	-0.33213302
9	0x3ec974bd	0.39346877
10	0x3e38d136	0.18048558
11	0xbf06ef0b	-0.527085
12	0x3eac21f4	0.33619654
13	0xbe9c4beb	-0.3052667
14	0x3e21229a	0.15735856
15	0xbe6c5355	-0.23078664
16	0xbe070f01	-0.13189317
17	0xbe828bd5	-0.25497308
18	0x3e4267f1	0.18984963
19	0x3eaef8ab	0.34174094
20	0x3e6a29af	0.22867464
21	0xbe8fae38	-0.28062606
22	0x3e3f1bf7	0.18663011
23	0x3ddc10c1	0.10745383
24	0xbeb61340	-0.35561562
25	0xbe0eea90	-0.13956666
26	0x3da66635	0.08124963
27	0xbd5bb345	-0.05363776
28	0x3ee3bfe7	0.44482347
29	0x3e3c757c	0.18404192
30	0xbddd8e89	-0.10818202
31	0x3df5e5cf	0.12006723
32	0x3e553cc2	0.20823959
33	0x3e7a6801	0.24453737
34	0xbda1b408	-0.07895666
35	0xbe52f4ba	-0.20601168
36	0xbd9a527c	-0.07535264
37	0x3c201b12	0.009772079
38	0xbe3132b1	-0.17304493
39	0xbd61ba7d	-0.05510949
40	0x3e3eede5	0.18645437
41	0x3b9e43f3	0.0048298775
42	0xbd98eb57	-0.074667625
43	0x3ee11138	0.4395845
44	0xbc631032	-0.013858842
45	0x3ea0b41d	0.31387416
46	0x3f3ce077	0.73780006
47	0xbcca2a92	-0.024678502
48	0xbe92d7dc	-0.28680313
49	0xbdaf9757	-0.08573788
50	0xbe5bac4e	-0.21452448
51	0xbd269c85	-0.040676612
52	0x3e58bdd2	0.2116616
53	0x3c990a83	0.01868177
54	0x3cfba31d	0.030717427
55	0xbe6393fa	-0.22224417
56	0xbdae27fa	-0.08503719
57	0x3e704b53	0.23466234
58	0x3f1c0261	0.6094113
59	0xbd1791d4	-0.037004307
60	0xbdf2e9fb	-0.118610345
61	0xbe5b5084	-0.21417433
62	0xbd584706	-0.05280211
63	0x3ee16f14	0.44030058
64	0x3e1381a8	0.14404929
65	0xbd48f48c	-0.049061343
66	0xbdb24f1d	-0.08706496
67	0x3f5bf8a4	0.8592627
68	0x3dd7eaa2	0.105427995
69	0x3e9e0f24	0.30870926
70	0xbdb8f8ab	-0.09031805
71	0xbe79f662	-0.24410394
72	0x3da4f44a	0.08054407
73	0xbd15f3ab	-0.036609333
74	0x3e3d7d64	0.18504864
75	0x3e8e9ca0	0.2785387
76	0xbee111c4	-0.43958867
77	0x3cfb0bb8	0.030645236
78	0xbe937de1	-0.28806975
79	0x3e1616bf	0.14657114
80	0x3ead6eaf	0.33873507
81	0x3d88deca	0.06683119
82	0x3d33eaf2	0.043925233
83	0x3ede0980	0.43366623
84	0xbe4cc1ef	-0.19995855
85	0x3e4cf510	0.20015359
86	0x3ea3c61d	0.31987086
87	0xbe25cd46	-0.16191587
88	0x3e69aad4	0.22819072
89	0x3f068670	0.52548885
90	0xbe580831	-0.21096875
91	0x3e4b3c8c	0.19847316
92	0xbe8d40bc	-0.2758845
93	0xbec3ce96	-0.3824355
94	0x3e81816e	0.2529406
95	0x3f033670	0.5125494
96	0xbd912d97	-0.07088774
97	0xbd53ee30	-0.051740825
98	0x3eb3e82d	0.35138074
99	0x3b407006	0.0029363646
100	0x3d1ece95	0.03877123
101	0x3eeb203d	0.45923033
102	0x3f07a4e5	0.52985984
103	0xbe17ec90	-0.14836335
104	0xbe0ca215	-0.13733704
105	0x3e68898e	0.22708723
106	0x3ef41825	0.4767467
107	0x3e9a4a6a	0.30134898
108	0xbd247e27	-0.04015937
109	0x3e964bc6	0.29354686
110	0xbed18242	-0.4091969
111	0x3b840fc0	0.004030198
112	0x3ecb0908	0.39655328
113	0xbf06ba64	-0.5262816
114	0x3d14a571	0.03629059
115	0xbd229af9	-0.039698575
116	0x3e3b7ec3	0.18310075
117	0xbe03b374	-0.12861425
118	0x3eaeea2c	0.34163034
119	0x3d99b99e	0.07506107
120	0x3e66ca0a	0.2253801
121	0x3e3d5607	0.18489848
122	0x3f1bc1b1	0.60842425
123	0x3e7c8475	0.24659903
124	0xbe0ae0ad	-0.1356227
125	0xbe3b8049	-0.18310656
126	0xbed6e2d0	-0.4196992
127	0xbc6c38b2	-0.014417814
128	0xbeee1228	-0.46498227
129	0xbf14b73a	-0.5809208
130	0x3e98403a	0.297365
131	0x3e25f4cc	0.16206664
132	0x3e68837f	0.22706412
133	0xbefa716b	-0.48914656
134	0xbb15da78	-0.0022865813
135	0x3cd4110d	0.025887037
136	0x3e8e9828	0.2785046
137	0xbda50cd5	-0.08059088
138	0xbecaabb0	-0.39584112
139	0x3f342737	0.7037234
140	0xbe459e4f	-0.19298671
141	0xbe9ee45f	-0.31033608
142	0x3eaa3c04	0.33248913
143	0xbdc0e34c	-0.094183534
144	0xbe043105	-0.12909324
145	0xbe7c4297	-0.24634777
146	0xbe96d315	-0.29457918
147	0x3e2ece4b	0.17070882
148	0xbce4a7df	-0.027912078
149	0xbd56b6a8	-0.05242029
150	0xbefaf593	-0.49015483
151	0x3d5735ff	0.05254173
152	0xbdc094ba	-0.09403367
153	0x3db6264f	0.088940255
154	0xbd4f082c	-0.050544903
155	0xbccc2333	-0.024919128
156	0x3bd3ed8a	0.006467526
157	0xbe3acb5e	-0.18241641
158	0x3e8a9a3a	0.2707079
159	0xbdd5d4b9	-0.10440964
160	0x3e9644d9	0.29349402
161	0xbd2691dc	-0.040666446
162	0x3ebe1b1b	0.37130055
163	0xbd54b1b9	-0.051927302
164	0x3eb69881	0.35663226
165	0xbe1cfc89	-0.1533071
166	0x3cdf3940	0.027248979
167	0xbe354c74	-0.17704946
168	0x3df07b2b	0.117422424
169	0x3e65cc15	0.22441132
170	0x3f124772	0.57140267
171	0x3dce95e9	0.10087187
172	0x3eb6140c	0.3556217
173	0x3eb79aa8	0.3586018
174	0xbd6ff3cc	-0.058582112
175	0x3ec4918c	0.38392293
176	0x3c9fe9dd	0.019520694
177	0xbe4e148e	-0.20125028
178	0x3e16e228	0.1473471
179	0x3efefb6f	0.49801204
180	0x3efb1ea6	0.4904682
181	0x3e9169c3	0.28401002
182	0xbef1ec57	-0.47250625
183	0xbf00bec2	-0.50291073
184	0x3f01e9af	0.507472
185	0x3f15f793	0.58580893
186	0xbda1aa8f	-0.078938596
187	0xbef34bed	-0.47518864
188	0xbea270cb	-0.3172668
189	0xbe7d6905	-0.24747093
190	0xbe747faa	-0.23876825
191	0xbe9b4622	-0.30326945
192	0xbe22b6a6	-0.15889987
193	0xbe7cf830	-0.24704051
194	0xbe5bd1e7	-0.2146679
195	0xbe0b98e8	-0.13632548
196	0xbe6eb651	-0.23311736
197	0x3e8f4591	0.27982762
198	0xbdf6ca3a	-0.120502904
199	0xbe0b5429	-0.13606323
200	0xbd7e8c62	-0.0621456
201	0x3a2e2b92	0.0006644066
202	0x3e5e4e79	0.21709622
203	0x3e541ce6	0.20714149
204	0xbed4b1c4	-0.41541874
205	0x3e12fa6c	0.14353341
206	0xbe0636b5	-0.13106807
207	0x3eaa93ed	0.33315983
208	0x3f25088b	0.6446616
209	0xbdb01733	-0.08598175
210	0x3da791a7	0.08182078
211	0xbd01b838	-0.031669825
212	0xbeda16c4	-0.42595494
213	0x3e70a570	0.2350061
214	0x3e59db4b	0.2127506
215	0xbd782f38	-0.060591906
216	0x3ea80fd6	0.32824582
217	0x3d9827b8	0.07429451
218	0x3cd0f622	0.02550799
219	0xbd2d53b5	-0.042316157
220	0x3e965c28	0.29367185
221	0x3e4268f0	0.18985343
222	0xbea7b8c1	-0.32758144
223	0xbe3b4db6	-0.18291363
224	0xbb786de9	-0.0037907308
225	0xbca8c966	-0.020603847
226	0xbdfc4e89	-0.12319667
227	0xbdb4ad16	-0.08822076
228	0x3f1293d7	0.57256836
229	0x3f3608b7	0.7110705
230	0x3c2b39c2	0.010450782
231	0xbd0ea030	-0.034820735
232	0x3e17b5e6	0.14815482
233	0xbe9d8393	-0.30764446
234	0xbe65550f	-0.22395729
235	0xbe8639b4	-0.262159
236	0x3e4eebec	0.20207185
237	0x3e60125f	0.21882008
238	0xbef6c1c7	-0.48194715
239	0xbeab23cf	-0.33425757
240	0xbee5e0cf	-0.44898078
241	0x3e24bfda	0.1608881
242	0xbea8c55f	-0.32963082
243	0xbdfa1ce8	-0.12212545
244	0x3e77786d	0.24167033
245	0xbebb45f9	-0.36576822
246	0xbdc39e3c	-0.09551665
247	0x3e0feb52	0.14054611
248	0xbf14a90f	-0.5807046
249	0xbdec347f	-0.1153345
250	0x3d060546	0.032719873
251	0x3d5c6d2b	0.05381505
252	0x3dba3eb6	0.090939924
253	0x3ec7955e	0.38981146
254	0x3ebfbf08	0.37450433
255	0xbab14847	-0.0013525569

deconv1.weight f4 [32, 16, 5, 5]
0	0xbcf20547	-0.029543532
1	0xbd8ea12e	-0.06964336
2	0x3da75f6e	0.08172499
3	0x3e1edacf	0.15513156
4	0x3f16cad7	0.5890326
5	0xbdb3355d	-0.087504126
6	0xbdb298ad	-0.08720527
7	0xbd88197e	-0.06645487
8	0x3f418c01	0.75604254
9	0x3f20317e	0.6257552
10	0xbee203a6	-0.4414341
11	0xbdac843a	-0.08423658
12	0xbf03a56d	-0.51424295
13	0x3f15bcb6	0.58491075
14	0x3eecf784	0.4628259
15	0xbedb1d54	-0.42795813
16	0x3cc3fc83	0.023924118
17	0xbd1f3491	-0.03886849
18	0x3f64b13c	0.8933294
19	0x3f0a22eb	0.5395953
20	0xbe9cf778	-0.30657554
21	0xbcebb55a	-0.028772999
22	0xbcae1a31	-0.021252723
23	0x3f1e0f0f	0.6174173
24	0x3f06ece2	0.52705204
25	0x3ebb7305	0.3661119
26	0xbebbc5d8	-0.3667438
27	0xbd0f2a81	-0.034952644
28	0xbdd59a33	-0.10429802
29	0x3eb49e0c	0.3527683
30	0xbe6284bc	-0.22120947
31	0xbf03489e	-0.5128268
32	0xbdaac3b5	-0.083381094
33	0xbf1e413e	-0.618183
34	0x3e3e1ff4	0.18566877
35	0x3dd4575d	0.10368226
36	0x3e7943de	0.24342296
37	0x3d51ff85	0.051269073
38	0xbe2c77fe	-0.16842648
39	0xbed7829b	-0.42091832
40	0xbe8b71c3	-0.2723523
41	0xbd62c9c1	-0.05536819
42	0xbed3a7f6	-0.41339082
43	0xbf16e872	-0.58948433
44	0xbef6dd5e	-0.48215765
45	0x3eef4a1d	0.4673623
46	0xbf01727c	-0.50565314
47	0xbe575e27	-0.2103201
48	0xbf68ff04	-0.9101412
49	0xbf4d3562	-0.8015958
50	0xbea21acb	-0.31661066
51	0xbe6dc3fa	-0.2321929
52	0xbf2be150	-0.67140675
53	0xbe662b07	-0.22477351
54	0xbc825aad	-0.015912378
55	0xbea4cfb6	-0.3218972
56	0xbdc50c20	-0.09621453
57	0x3e810267	0.25197145
58	0x3e9d2ddb	0.30699047
59	0xbe59a87a	-0.21255675
60	0xbf57a199	-0.84230953
61	0x3ebd2692	0.3694349
62	0xbf38d29c	-0.72196364
63	0xbe57253e	-0.210103
64	0x3e81b4c2	0.2533322
65	0xbef20b8c	-0.47274435
66	0x3ecd6038	0.40112472
67	0xbe3ff91d	-0.18747373
68	0xbea25c59	-0.3171108
69	0x3e320c02	0.17387393
70	0xbddc897e	-0.10768412
71	0xbf2ee7f7	-0.683227
72	0xbeb0f9f1	-0.3456569
73	0x3e5fa91d	0.21841855
74	0x3e82f835	0.25579992
75	0x3e08481e	0.1330876
76	0x3f173c7e	0.5907668
77	0x3ec71633	0.38884124
78	0x3f01237f	0.5044479
79	0x3efd232f	0.49440905
80	0x3e39e230	0.1815269
81	0x3d2e09b8	0.042489737
82	0x3e0fd9d2	0.14047936
83	0xbf047e4a	-0.517552
84	0x3de7e25f	0.11322474
85	0x3d43a166	0.047761343
86	0x3e8f7824	0.28021348
87	0x3f3ac296	0.72953165
88	0xbf06a34c	-0.5259292
89	0x3ebc55d8	0.36784244
90	0x3ea0fd76	0.31443375
91	0x3e8de23c	0.27711666
92	0x3edff834	0.4374405
93	0xbe8d60c6	-0.27612895
94	0x3ee76412	0.45193535
95	0x3ea18b3a	0.31551534
96	0x3e83e946	0.2576391
97	0x3f6ae43d	0.91754514
98	0xbe5ea5f4	-0.21742994
99	0x3ee14dbb	0.44004616
100	0x3f622fd6	0.8835424
101	0xbd52fb11	-0.051508967
102	0x3d816945	0.06318907
103	0x3e000258	0.12500894
104	0x3eadd40f	0.3395085
105	0xbf08392d	-0.53212243
106	0x3e845a27	0.2585003
107	0xbed2398c	-0.4105953
108	0xbf56a1d7	-0.838407
109	0x3ee91731	0.45525506
110	0xbf08cea9	-0.5344034
111	0xbe80b31c	-0.2513665
112	0xbeb487ff	-0.35260007
113	0x3f48ae0c	0.78390574
114	0xbeb125d2	-0.34599167
115	0x3db5c657	0.08875721
116	0xbe1270f2	-0.14300898
117	0xbe991139	-0.29895952
118	0xbd65dfc0	-0.056121588
119	0x3d5524ac	0.052036926
120	0xbee43baf	-0.44576785
121	0xbece648f	-0.40311095
122	0x3f59cc52	0.85077393
123	0x3e124f4c	0.14288062
124	0xbec93892	-0.39300972
125	0xbf2ac637	-0.667087
126	0xbe9ada06	-0.30244464
127	0xbead7ea1	-0.33885673
128	0xbf33fd31	-0.70308214
129	0x3e54a0c7	0.20764457
130	0x3f1de792	0.61681473
131	0xbeddd605	-0.43327346
132	0xbeddf091	-0.433476
133	0x3e4af37f	0.19819449
134	0x3ec39051	0.38196042
135	0xbe9213c9	-0.2853072
136	0x3ebdf472	0.3710056
137	0xbe85a110	-0.26099443
138	0x3e582bbd	0.21110435
139	0xbdece69a	-0.11567421
140	0x3ed0b7cb	0.40765223
141	0x3ec2c2d0	0.38039255
142	0xbc69062b	-0.014222662
143	0xbdedb809	-0.116073675
144	0x3e198ce9	0.14995159
145	0xbdf90fd4	-0.12161222
146	0xbd1424e1	-0.036167983
147	0x3ee8e857	0.4548976
148	0x3f1261ed	0.5718067
149	0x3f773b26	0.9657463
150	0x3d006d0e	0.031354003
151	0xbef97f4f	-0.4872994
152	0x3da53355	0.080664314
153	0x3e29f2bb	0.165965
154	0x3f2c4bbc	0.6730306
155	0xbd94092f	-0.07228314
156	0xbe1b14af	-0.15144609
157	0xbf29d041	-0.66333395
158	0xbf338b99	-0.70134884
159	0x3e51de77	0.2049502
160	0x3e81b8e1	0.25336364
161	0x3f22b3f0	0.6355581
162	0x3de9984e	0.11406003
163	0xbebad1e5	-0.36488262
164	0x3ee64bcf	0.44979712
165	0xbe76c5c2	-0.24098876
166	0xbef95d5a	-0.48704034
167	0x3dd4e3b0	0.103949904
168	0xbe60fd03	-0.21971516
169	0xbf3011c8	-0.6877713
170	0xbeb14d85	-0.34629455
171	0xbf1057c4	-0.5638392
172	0xbf42578d	-0.7591484
173	0xbe67d4c5	-0.22639759
174	0x3cdab34c	0.026696824
175	0x3db97615	0.090557255
176	0x3e4f5f6a	0.20251241
177	0x3c0673e0	0.008206338
178	0x3f04b133	0.51832885
179	0x3e5960e0	0.21228361
180	0x3f007fc9	0.50194985
181	0xbed50e02	-0.4161225
182	0x3dff8d1e	0.12478088
183	0xbefa7c6d	-0.48923054
184	0x3df046a3	0.11732223
185	0xbe9fd8e5	-0.31220165
186	0xbfb92b4b	-1.4466337
187	0xbe9afdce	-0.30271763
188	0xbda7d405	-0.081947364
189	0xbde5bcb4	-0.11217633
190	0x3ed48673	0.41508827
191	0x3ec56069	0.38550118
192	0x3e808b90	0.25106478
193	0x3e9044a9	0.28177384
194	0xbe4a25be	-0.1974096
195	0xbf39b8d5	-0.72547656
196	0xbd8549c1	-0.06508208
197	0x3eaf6d7d	0.3426322
198	0xbf0cbaab	-0.5497233
199	0xbf4256c7	-0.7591366
200	0x3e98cb5e	0.29842657
201	0x3dffb4b7	0.124856405
202	0xbe9b109a	-0.30286103
203	0xbf0c1663	-0.5472166
204	0xbea1ef6c	-0.31627977
205	0xbbd1b16c	-0.006399324
206	0x3d90e3ca	0.07074697
207	0x3e1cbdf5	0.15306838
208	0x3bea9bb3	0.007159674
209	0x3efb7903	0.49115762
210	0xbe000302	-0.12501147
211	0xbe28ab77	-0.16471659
212	0xbefd8d46	-0.49521846
213	0xbede4d18	-0.43418193
214	0xbe815883	-0.25262842
215	0xbe94b366	-0.2904312
216	0xbf2c6fae	-0.6735791
217	0xbf370ba1	-0.7150212
218	0x3eb2fc12	0.3495794
219	0x3ef14b54	0.47127783
220	0x3e2bfe74	0.16796285
221	0xbe85e697	-0.2615249
222	0xbf0c4234	-0.5478852
223	0xbf2a3033	-0.66479796
224	0x3ea7019a	0.3261841
225	0xbee3ee71	-0.44517854
226	0x3ef7ff48	0.48436952
227	0xbd1cae6c	-0.03825228
228	0x3e4885af	0.19582246
229	0x3e560378	0.2089976
230	0xbeac8f5d	-0.33703128
231	0xbf7a17c5	-0.9769252
232	0xbea77b8d	-0.3271145
233	0xbec48293	-0.3838087
234	0x3f3ea38a	0.7446829
235	0x3f4f1635	0.8089326
236	0xbcc2b867	-0.02376957
237	0x3e918cce	0.28427738
238	0x3e83ad8a	0.25718337
239	0xbc61b677	-0.013776413
240	0xbe8ad435	-0.27115026
241	0xbf2ba793	-0.6705257
242	0xbf088e00	-0.53341675
243	0xbf08a996	-0.5338377
244	0xbe7d0a30	-0.24710917
245	0xbf55f397	-0.83574814
246	0xbe5d8073	-0.2163103
247	0xbe41991e	-0.18906066
248	0xbf3d0515	-0.7383588
249	0x3d77ad28	0.06046787
250	0xbe08ef7a	-0.13372603
251	0xbe845329	-0.25844696
252	0xbcc49b1e	-0.023999747
253	0x3f0237ea	0.5086657
254	0xbf5a56ff	-0.85288996
255	0xbe1584fc	-0.14601511

deconv1.bias f4 [16]
0	0x3bb2f519	0.005461347
1	0xbdf3aae1	-0.11897827
2	0xbd8be955	-0.06831614
3	0xbd92b8c8	-0.071641505
4	0xbdab22ec	-0.0835627
5	0xbd3fd1a3	-0.046830785
6	0xbdb696e4	-0.08915499
7	0xbdd8a459	-0.10578222
8	0xbdca2c5f	-0.09871744
9	0xbcddd1a4	-0.027077504
10	0xbbf134e3	-0.007361041
11	0x3bc3d8cd	0.0059767724
12	0x3da34eba	0.07974
13	0xbbe67440	-0.007032901
14	0x3cb110ae	0.021614399
15	0x3d54438d	0.051822234

bn1.weight f4 [16]
0	0x3fa5a370	1.2940502
1	0x3fa05790	1.2526722
2	0x3fba8d29	1.4574329
3	0x3fe87570	1.8160839
4	0x3fa24059	1.2675887
5	0x3f9593b3	1.1685699
6	0x3fb37d37	1.4022588
7	0x3f697c82	0.9120561
8	0x3fa428c6	1.2824943
9	0x3f818bfd	1.0120846
10	0x3fbcfa25	1.4763838
11	0x3faaf5d8	1.3356276
12	0x3f87b241	1.0601274
13	0x3fdb461f	1.7130774
14	0x3f9d7580	1.2301483
15	0x3fa68daa	1.3011982

bn1.bias f4 [16]
0	0xbbe3cb5b	-0.006951732
1	0x3e803b8c	0.2504543
2	0x3dbac1dd	0.09119008
3	0xbf59528f	-0.848916
4	0xbdaacc05	-0.08339695
5	0x3e09074c	0.1338169
6	0x3e7128be	0.23550698
7	0x3e791e82	0.24328044
8	0x3e042cd1	0.12907721
9	0x3e9df4e0	0.30850887
10	0xbc97d519	-0.01853423
11	0xbddbc698	-0.10731238
12	0x3dc27776	0.094954416
13	0xbea769e0	-0.32697964
14	0x3d93bff1	0.07214344
15	0xbdfb8b32	-0.12282409

bn1.running_mean f4 [16]
0	0x400ec5a3	2.2308128
1	0xc046a321	-3.1037066
2	0x3f841483	1.031876
3	0x40113098	2.268591
4	0x3fca2a7d	1.5794216
5	0xbf4ebb38	-0.80754423
6	0xc0328e9b	-2.789954
7	0xc060ba27	-3.5113618
8	0x3f1ab271	0.6042853
9	0x3e93caae	0.2886557
10	0x3fdcf63a	1.7262642
11	0x3f9cd362	1.2252009
12	0x3f768c5b	0.96307915
13	0x40a15541	5.041657
14	0x3ff87f8e	1.9413927
15	0x40060d59	2.0945647

bn1.running_var f4 [16]
0	0x4148855a	12.532557
1	0x41887070	17.054901
2	0x412fbb33	10.983203
3	0x41871415	16.884806
4	0x4147137a	12.442255
5	0x4116caa7	9.424476
6	0x418c511f	17.53961
7	0x418d4b0d	17.661646
8	0x411598f5	9.349843
9	0x41b2db21	22.356997
10	0x413641a8	11.391029
11	0x41252558	10.321617
12	0x4149d275	12.613881
13	0x417712bb	15.442073
14	0x412def55	10.870931
15	0x416004e1	14.001191

deconv2.weight f4 [16, 8, 5, 5]
0	0x3e2824cf	0.16420291
1	0xbf17c8a8	-0.5929055
2	0x3f210b3f	0.62907785
3	0x3d3388fb	0.043831807
4	0xbf090298	-0.5351958
5	0x3e5e254b	0.21693914
6	0xbe72abc7	-0.2369834
7	0xbec16be6	-0.37777632
8	0xbcc30423	-0.023805683
9	0xbe294246	-0.16529188
10	0xbef281b3	-0.47364578
11	0xbf2c41b7	-0.6728777
12	0x3c0a0124	0.0084231235
13	0xbe4c8299	-0.19971694
14	0xbdbbf01e	-0.09176658
15	0x3f47df5c	0.78075194
16	0xbd5d6600	-0.054052353
17	0xbe8a35d9	-0.26994208
18	0x3f714b7e	0.94255817
19	0xbe987194	-0.29774153
20	0x3d4131e0	0.047166705
21	0xbf4deaf8	-0.8043666
22	0xbe3b73b7	-0.1830586
23	0xbe0926b5	-0.13393672
24	0xbe91f56e	-0.2850756
25	0xbf1b96c8	-0.6077695
26	0xbf4de413	-0.8042614
27	0xbe9c8c72	-0.305759
28	0xbf8abb52	-1.0838416
29	0x3ebaec6f	0.3650851
30	0x3e3031b0	0.17206454
31	0xbeb1aa62	-0.34700304
32	0xbda0cad4	-0.078511864
33	0xbf591a82	-0.8480607
34	0xbf0e6bc9	-0.5563322
35	0xbed247d9	-0.4107044
36	0xbea958dd	-0.3307561
37	0xbf29e33e	-0.6636237
38	0xbf52ad3f	-0.822956
39	0xbe109036	-0.14117512
40	0x3f528f2f	0.8224973
41	0xbf321a23	-0.6957113
42	0x3f61ef26	0.88255537
43	0x3e167bc0	0.14695644
44	0xbd0bdb81	-0.034144882
45	0x3ea1397a	0.31489164
46	0xbed0ab90	-0.40755892
47	0x3f2a8b54	0.6661885
48	0xbe91aad7	-0.28450653
49	0xbfaf4e02	-1.3695681
50	0xbe7d5751	-0.2474034
51	0xbf311f8c	-0.6918876
52	0x3ea5c3cf	0.32375953
53	0x3dd5efeb	0.10446151
54	0xbb8251de	-0.0039770445
55	0xbf74ae02	-0.95578015
56	0x3e3f8790	0.18704057
57	0xbf053a6d	-0.52042276
58	0xbf569831	-0.83825976
59	0xbf426a56	-0.75943506
60	0xbd2d717d	-0.04234456
61	0x3be899b9	0.0070984033
62	0x3d7e9b6f	0.06215995
63	0x3ed76243	0.42067155
64	0xbf0b3c27	-0.5438866
65	0x3dae0378	0.08496755
66	0xbf82fd99	-1.0233642
67	0xbe9e6489	-0.30936077
68	0xbfa5c610	-1.2951069
69	0xbe371a55	-0.17881139
70	0x3e861cda	0.26193887
71	0x3eb9e2a2	0.3630572
72	0xbebc5233	-0.36781463
73	0xbe838c7d	-0.25693122
74	0x3e45786c	0.19284219
75	0xbe8b7a79	-0.27241877
76	0x3f0482f9	0.5176235
77	0x3eb4fd1c	0.35349357
78	0xbf762dae	-0.9616345
79	0x3e8374ca	0.2567504
80	0xbdfc9702	-0.1233349
81	0x3f00a203	0.5024721
82	0x3e458195	0.19287713
83	0xbf502de3	-0.8132002
84	0x3f4a8596	0.79110086
85	0xbe153140	-0.14569569
86	0xbe783b97	-0.24241482
87	0x3f0c5271	0.54813296
88	0xbe33592f	-0.1751449
89	0xbe257d8b	-0.16161172
90	0xbf3b638c	-0.7319877
91	0x3e6e2664	0.23256832
92	0x3f14465e	0.5791987
93	0xbe705c8d	-0.23472805
94	0x3f0aff07	0.5429539
95	0xbe8a1be6	-0.2697441
96	0x3eaab84a	0.33343726
97	0x3cec9e28	0.028884009
98	0xbeb76367	-0.35818025
99	0x3f182387	0.5942921
100	0x3f05abf4	0.52215505
101	0xbe92b6f0	-0.28655195
102	0xbe9bd86a	-0.30438548
103	0xbe84386f	-0.25824305
104	0xbf19de30	-0.60104656
105	0x3dfc5efa	0.12322803
106	0xbe621bc1	-0.220809
107	0x3d708301	0.058718685
108	0x3e1f42c6	0.15552816
109	0x3d9beb87	0.07613283
110	0xbf6999bb	-0.912502
111	0x3deed72a	0.11662133
112	0x3ecbc3bf	0.3979778
113	0x3e8bfeeb	0.27342924
114	0x3b603d6d	0.00342163
115	0xbe9c7926	-0.3056118
116	0x3f14d0b3	0.5813095
117	0xbe81de67	-0.25364992
118	0x3d9c5ea1	0.076352365
119	0x3f3e742f	0.7439603
120	0xbe9363f2	-0.2878719
121	0xbf7a1da9	-0.9770151
122	0xbe989fdb	-0.2980946
123	0x3ed399ca	0.4132827
124	0xbed0cbb1	-0.40780404
125	0xbeea3397	-0.45742485
126	0xbe80b60f	-0.251389
127	0xbc63f3a8	-0.013913073
128	0xbf0eac62	-0.55731785
129	0xbf6563b3	-0.89605254
130	0xbe64172a	-0.22274461
131	0xbe37bdec	-0.17943543
132	0x3dbf3d9e	0.093379244
133	0x3db15ed6	0.08660667
134	0xbd374f85	-0.04475357
135	0x3eaccdd3	0.3375078
136	0xbe553b01	-0.2082329
137	0xbeb7dd72	-0.35911137
138	0xbdc966a0	-0.09834027
139	0xbe2c336f	-0.16816495
140	0x3e3c1493	0.18367223
141	0x3d781ec6	0.060576223
142	0xbd848453	-0.06470551
143	0xbedb3287	-0.42811987
144	0x3e3f5ed0	0.18688512
145	0xbe5e70e9	-0.2172276
146	0xbf6939c3	-0.9110376
147	0xbe135837	-0.1438912
148	0xbeff6f27	-0.4988949
149	0xbe246208	-0.16053021
150	0x3e513fc3	0.2043448
151	0xbeb78a7c	-0.35847843
152	0xbecc38bc	-0.39887035
153	0x3f14ff0a	0.5820166
154	0xbe864b24	-0.26229203
155	0x3f131855	0.57459
156	0xbf15d9b2	-0.585353
157	0x3f2e1a56	0.68008935
158	0x3e8e0181	0.27735522
159	0xbf91411a	-1.1347992
160	0x3f25f6cb	0.648297
161	0xbe08eed2	-0.13372353
162	0xbea7eeaa	-0.32799274
163	0x3d9e0103	0.07715037
164	0x3e3e1313	0.18561964
165	0x3f056097	0.5210051
166	0xbeacc53e	-0.33744234
167	0xbd8c323d	-0.0684552
168	0x3e677ef3	0.22607021
169	0xbe1a5e7a	-0.15075102
170	0x3f3495e4	0.70541215
171	0xbef90111	-0.48633626
172	0xbeb467c4	-0.35235417
173	0x3f0f7b55	0.56047565
174	0xbece0f65	-0.4024612
175	0x3ce1a75e	0.027545627
176	0xbf80f472	-1.0074599
177	0xbe9455c9	-0.289717
178	0x3e8f9209	0.28041103
179	0xbd63cd72	-0.05561585
180	0x3c9e6d86	0.019339334
181	0xbf0432ac	-0.5163982
182	0x3eab0bf7	0.33407566
183	0x3e8fd3e6	0.28091353
184	0xbe8f5232	-0.27992398
185	0x3e21a498	0.15785444
186	0xbe3ec7fa	-0.18630973
187	0xbeb85577	-0.36002705
188	0xbcdcd488	-0.026956812
189	0xbe559b3a	-0.20859995
190	0x3d489fc4	0.04898049
191	0x3ee7ace8	0.45249104
192	0xbeec2c7f	-0.46127698
193	0x3e170d01	0.14751054
194	0xbe595c50	-0.2122662
195	0x3efc1316	0.4923331
196	0xbfc9e959	-1.5774337
197	0xbf25a2de	-0.6470164
198	0x3f22ec76	0.6364206
199	0x3d483115	0.048874933
200	0xbe6ca3e2	-0.23109391
201	0xbe0032dd	-0.12519403
202	0xbed54346	-0.41652888
203	0xbf37963b	-0.7171361
204	0xbf05d1d8	-0.5227332
205	0x3c7c80fb	0.015411611
206	0x3f21fe6c	0.6327884
207	0x3e542921	0.20718814
208	0x3e0bcf2e	0.13653252
209	0x3f48058c	0.78133464
210	0x3eb1ba28	0.34712338
211	0x3ee534ad	0.4476675
212	0x3ef82f30	0.484735
213	0x3ef66976	0.48127335
214	0x3f270b87	0.65251964
215	0xbe071466	-0.13191375
216	0x3eaab7c3	0.33343324
217	0x3dcbb87b	0.09947296
218	0x3f27a6f8	0.6548915
219	0x3f9179b1	1.1365262
220	0x3ec78d54	0.38975012
221	0xbc9f41e4	-0.019440599
222	0x3f4e3dea	0.80563223
223	0x3ecf9474	0.40542948
224	0x3f61a122	0.88136494
225	0x3f1b0c6e	0.6056584
226	0x3e747c90	0.23875642
227	0x3f44b988	0.768456
228	0xbed7d2e8	-0.42153096
229	0x3ef2a05b	0.47387967
230	0x3e28c7f9	0.16482534
231	0x3ea3bd3b	0.3198031
232	0x3e7e3090	0.24823213
233	0x3f02954b	0.51009053
234	0xbe5b75c5	-0.21431644
235	0x3e3372cb	0.17524259
236	0x3e32fb4e	0.17478678
237	0x3f133a9a	0.57511294
238	0x3db384a5	0.08765534
239	0x3e703b77	0.23460184
240	0x3ee7892b	0.45221838
241	0x3f18c2e6	0.5967239
242	0x3f1e073b	0.6172978
243	0x3ed4d78c	0.415707
244	0x3ee492e1	0.4464331
245	0x3f981e25	1.1884199
246	0x3f1b1f51	0.6059466
247	0x3f32e51d	0.6988085
248	0x3fbbce27	1.4672288
249	0x3dd161da	0.10223742
250	0xbece1a20	-0.40254307
251	0xbe9c7b65	-0.30562893
252	0xbf3d2f52	-0.7390033
253	0xbf3bbbc9	-0.7333341
254	0xbe450d2f	-0.1924331
255	0xbe9ec58a	-0.31010085

deconv2.bias f4 [8]
0	0xbe68ce13	-0.22734861
1	0xbe9db93a	-0.3080538
2	0xbd623fdc	-0.055236682
3	0xbf043d33	-0.5165588
4	0xbeb92c85	-0.36166778
5	0xbe419f99	-0.18908538
6	0x3e008236	0.12549672
7	0xbea0da19	-0.31416395

bn2.weight f4 [8]
0	0x401a99db	2.4156406
1	0x40125cf7	2.2869241
2	0x4056d7a4	3.3569117
3	0x402c68f9	2.693907
4	0x405e195b	3.4702976
5	0x404dc041	3.2148592
6	0x3ffa7f05	1.9570013
7	0x40127be2	2.2888112

bn2.bias f4 [8]
0	0x3ec3b0ec	0.38220918
1	0x3fac372a	1.3454335
2	0xbfc62f4e	-1.5483186
3	0xbf47e750	-0.7808733
4	0xc0053cf9	-2.0818465
5	0x3f203e2d	0.6259487
6	0xbe515c3c	-0.20445341
7	0xbf05ec3c	-0.5231359

bn2.running_mean f4 [8]
0	0xc0baa6cf	-5.8328624
1	0xc03c7cc1	-2.9451144
2	0xc0568845	-3.3520672
3	0xc0ac68d1	-5.387795
4	0xc0b38507	-5.6099887
5	0xc0e53f27	-7.163959
6	0xbfef4921	-1.8694192
7	0xc0323490	-2.7844582

bn2.running_var f4 [8]
0	0x429a2bfe	77.08592
1	0x421c5634	39.084183
2	0x41c3ec63	24.490423
3	0x41d80ed3	27.007238
4	0x4198746b	19.056845
5	0x429fa59b	79.82345
6	0x41d0ed23	26.11579
7	0x4207fb32	33.995308

deconv3.weight f4 [8, 1, 3, 3]
0	0xbefa5120	-0.48890018
1	0xbe96ebd4	-0.29476798
2	0xbf8f1470	-1.1178112
3	0xbe88b810	-0.2670293
4	0xbf752801	-0.95764166
5	0xbfae2f38	-1.360816
6	0xbd6ede3d	-0.05831741
7	0xbf3d4ccf	-0.73945326
8	0xbf1f4f92	-0.6223079
9	0xbec620d2	-0.38696915
10	0xbedee811	-0.43536428
11	0xbef09491	-0.46988347
12	0xbf537d5f	-0.82613176
13	0xbf9c3bbc	-1.220573
14	0xbf1f0ee1	-0.6213208
15	0xbfc6cd44	-1.5531392
16	0xbf72dc1f	-0.9486713
17	0x3ec0a713	0.37627468
18	0x3e448a1d	0.19193311
19	0xbe599a08	-0.21250165
20	0x3dea2967	0.11433678
21	0xbe568401	-0.20948793
22	0xbf31e7fc	-0.69494605
23	0xbeb345ed	-0.35014287
24	0xbc4b81d4	-0.01242109
25	0xc0176e90	-2.3661232
26	0xc0528e10	-3.2899208
27	0xbdc1eb73	-0.094687365
28	0xbf7b3deb	-0.98141354
29	0x3e82abaa	0.25521594
30	0x3e20dd1f	0.15709351
31	0xc0131756	-2.2982993
32	0x3e367716	0.17818865
33	0x3e24e894	0.16104347
34	0xbf84d277	-1.0376729
35	0x3e1723ca	0.14759746
36	0xbe3f0cb5	-0.18657191
37	0xbcc2560e	-0.023722675
38	0xbed5f74a	-0.4179023
39	0xbe2f4f0d	-0.17119999
40	0x3de0b5e4	0.10972193
41	0xc09a03a5	-4.812945
42	0xbe1f4080	-0.15551949
43	0x3ddd8665	0.10816649
44	0xbeaf7d57	-0.34275314
45	0xbf80f26d	-1.0073982
46	0xbfaff1a6	-1.374562
47	0xbe8361cb	-0.25660548
48	0xbf84174c	-1.031961
49	0xbfc33da7	-1.525319
50	0xbec27a0f	-0.37983748
51	0x3e119fce	0.14221117
52	0x3d32dfde	0.043670528
53	0x3de4f0a1	0.11178709
54	0x3e5bacb9	0.21452607
55	0x3eab79d1	0.33491376
56	0x3f487d34	0.78316045
57	0xbf3df9c3	-0.7420923
58	0x3f4d66b9	0.8023487
59	0x3f6bc8e6	0.9210342
60	0xbfb67e15	-1.4257227
61	0x3f3d418f	0.7392816
62	0x3ec253f3	0.37954673
63	0x3ece3748	0.4027655
64	0xbe6567fc	-0.22402948
65	0xbf42b422	-0.7605611
66	0x3e551218	0.20807683
67	0xbf0d39a3	-0.5516607
68	0xbffc8612	-1.9728415
69	0xbe41c3bd	-0.18922324
70	0xbe3665cc	-0.1781227
71	0xbfb0517d	-1.3774868
