model/GAN/generator_128d.pt (torch, 450107 bytes, 15 tensors)

fc1.weight f4 [736, 128]
0	0x3dc8c49c	0.09803125
1	0x3bd3a357	0.0064586806
2	0x3e9079e1	0.28217986
3	0xbdd5b536	-0.10434954
4	0x3da5f6ca	0.08103712
5	0xbe2bd3e7	-0.16780053
6	0x3d82265b	0.06354972
7	0xbe0d1ce9	-0.1378056
8	0x3e1f03ab	0.15528743
9	0x3e1fd0be	0.15606973
10	0x3e741049	0.23834337
11	0x3e98b21d	0.2982339
12	0xbb53192b	-0.0032211046
13	0xbdc29b47	-0.09502273
14	0x3dec899f	0.11549687
15	0xbe801559	-0.25016287
16	0x3e633a0e	0.22190115
17	0xbe411871	-0.1885698
18	0xbc63dad2	-0.013907151
19	0xbe6d71e9	-0.23187985
20	0xbd52a0c8	-0.051422864
21	0x3e2fd908	0.17172635
22	0x3db091be	0.08621548
23	0xbdc9e6df	-0.09858488
24	0xbd502cd1	-0.05082399
25	0x3e8cc8ad	0.27496853
26	0xbe12618d	-0.14295025
27	0xbd927a09	-0.071521826
28	0xbd2b1b63	-0.041774165
29	0x3e0acd25	0.13554819
30	0x3eb18ff6	0.34680146
31	0x3ea63d47	0.32468626
32	0xbd50d71e	-0.0509864
33	0x3ebed3ea	0.37271053
34	0xbde48a38	-0.11159176
35	0x3d158444	0.03650309
36	0xbcde7f9a	-0.027160455
37	0x3e1888b1	0.14895894
38	0x3d619c41	0.055080656
39	0x3c35383d	0.0110607715
40	0xbe91e5b1	-0.28495553
41	0xbe9df8d9	-0.30853918
42	0x3c9f099d	0.019413764
43	0x3dd4c1e8	0.10388547
44	0xbcc1ee0c	-0.02367308
45	0xbdaf8c1c	-0.085716456
46	0x3dc3dd46	0.09563689
47	0x3dcaaa3f	0.09895753
48	0x3e9e5d28	0.30930448
49	0xbe002039	-0.12512292
50	0x3e6099b3	0.21933632
51	0x3e16c747	0.14724456
52	0x3d9b8075	0.075928606
53	0xbebfc60c	-0.37455785
54	0x3e017aa7	0.12644444
55	0xbb9bb9d9	-0.0047523794
56	0xbe0e29a3	-0.1388307
57	0xbe8ed6c1	-0.2789822
58	0x3f11ac18	0.5690322
59	0xbe717db0	-0.23583102
60	0xbe4a8edf	-0.19781063
61	0xbe7fad9d	-0.24968572
62	0xbe388fae	-0.1802356
63	0xbd30ed23	-0.0431949
64	0x3ebc5b15	0.3678824
65	0xbe08f6a0	-0.1337533
66	0xbe806ae4	-0.2508155
67	0xbea3c700	-0.31987762
68	0x3eedd674	0.46452677
69	0x3ea83654	0.3285395
70	0xbd91aa8a	-0.07112606
71	0xbe1fd553	-0.1560872
72	0x3e9a5567	0.30143282
73	0xbebe47f3	-0.37164268
74	0xbdad87c3	-0.0847316
75	0xbc6af9e3	-0.014341804
76	0x3df47b24	0.1193755
77	0x3d3e8588	0.046514064
78	0xbd641d58	-0.055692047
79	0x3e7032cd	0.23456879
80	0xbe65e6f2	-0.2245138
81	0x3de24407	0.110481314
82	0xbd875e3e	-0.06609772
83	0x3e46c0f2	0.1940954
84	0x3c8781f7	0.016541464
85	0xbd9402cb	-0.07227095
86	0x3e0bf6fb	0.13668434
87	0x3e83bb72	0.25728947
88	0xbdd72ddd	-0.105067946
89	0xbdb0f51f	-0.08640503
90	0x3e937327	0.28798792
91	0xbe9707f0	-0.29498243
92	0xbe105aa3	-0.14097075
93	0x3b19a8ad	0.0023446486
94	0x3da0645f	0.07831644
95	0x3d76739a	0.06016884
96	0xbe75bd80	-0.2399807
97	0x3e144db8	0.14482772
98	0x3d8547dd	0.065078475
99	0x3df86fef	0.12130725
100	0xbde89f5c	-0.113585204
101	0xbf03fc94	-0.5155728
102	0x3e1f6b71	0.1556833
103	0x3c7e2274	0.015511144
104	0xbe117513	-0.14204817
105	0x3ee77dda	0.45213205
106	0x3e8e54e3	0.27799138
107	0x3e5bac83	0.21452527
108	0xbe0c6366	-0.13709792
109	0x3d192add	0.037394393
110	0xbe432389	-0.19056524
111	0xbe17d495	-0.14827187
112	0x3e8785f4	0.26469386
113	0x3d62feb6	0.055418693
114	0x3b964609	0.0045859856
115	0xbe877fb1	-0.26464608
116	0xbeb2cb94	-0.34920943
117	0xbcea1633	-0.028575039
118	0xbe9a4db5	-0.3013741
119	0x3d30e560	0.0431875
120	0xbc9e0abd	-0.01929223
121	0x3e73cc93	0.23808508
122	0x3d51ed5c	0.051251754
123	0x3d99cc8d	0.07509718
124	0xbdc1c654	-0.09461656
125	0x3e003a33	0.12522201
126	0xbe521a8a	-0.20517936
127	0xbc9e1b16	-0.019300025
128	0x3df757ae	0.120772704
129	0x3e826e7f	0.25474927
130	0xbd3403f4	-0.043949082
131	0x3d9265e8	0.07148343
132	0x3e82d7d2	0.25555283
133	0x3e60de76	0.21959862
134	0xbbb0105b	-0.0053730435
135	0xbd9fe8f4	-0.07808104
136	0xbe741861	-0.23837425
137	0xbdf3c42e	-0.11902653
138	0xbe0f783f	-0.14010714
139	0x3cc08765	0.023502061
140	0xbd785d0d	-0.060635615
141	0xbe1b6a49	-0.15177263
142	0xbc799305	-0.015232806
143	0xbe8a3403	-0.26992807
144	0x3e20c5d7	0.1570047
145	0xbdb7246a	-0.08942492
146	0x3e14440d	0.14479084
147	0xbdbc8d26	-0.092066094
148	0xbe608c77	-0.21928583
149	0x3edfa6b6	0.43681878
150	0x3e233c5a	0.15940991
151	0x3df30d6b	0.11867794
152	0xbcdc9761	-0.026927652
153	0x3e334739	0.17507638
154	0xbe65e381	-0.22450067
155	0x3dd05b58	0.101736724
156	0x3e0ebeda	0.13939992
157	0xbd98a593	-0.07453456
158	0x3e386682	0.18007854
159	0x3eb21027	0.34777948
160	0x3dc7aa4b	0.09749278
161	0x3e83d5c0	0.25749016
162	0x3e48c842	0.19607642
163	0x3e928ad7	0.2862155
164	0xbd8fdd32	-0.070246115
165	0xbe5404a7	-0.207049
166	0x3ea7894b	0.32721934
167	0x3cbe6b09	0.023244398
168	0xbe3ca131	-0.18420865
169	0x3c6a3718	0.014295362
170	0x3e0487d9	0.12942447
171	0xbe150a73	-0.14554767
172	0x3e331a0c	0.17490405
173	0x3ea22263	0.3166686
174	0x3e9f0c21	0.3106394
175	0xbc2ff6e8	-0.010740019
176	0x3ea4360a	0.3207248
177	0xbe5cfc8a	-0.21580711
178	0x3e78f8f0	0.24313712
179	0xbe51f89a	-0.2050499
180	0x3ddd9e70	0.10821235
181	0x3de04b0a	0.109518126
182	0xbe51e9a9	-0.2049929
183	0xbda6887b	-0.081315
184	0xbc1a67da	-0.009424174
185	0x3b0dc158	0.0021630134
186	0x3e01498a	0.12625709
187	0x3cfbf682	0.030757193
188	0xbed37d10	-0.41306353
189	0xbd8ef8af	-0.069810264
190	0xbe0efe3c	-0.1396417
191	0xbdb98aee	-0.09059702
192	0x3e25f99f	0.16208504
193	0xbea5e190	-0.32398653
194	0x3cb10cd7	0.021612568
195	0xbe4080fe	-0.18799207
196	0x3ea2b83d	0.31781188
197	0x3ee05609	0.4381564
198	0xbd78e343	-0.06076361
199	0xbea72b4e	-0.32650226
200	0xbda995c3	-0.08280518
201	0x3b9613c7	0.0045799944
202	0x3de30b71	0.11086167
203	0x3db218db	0.08696147
204	0x3dd96399	0.106147
205	0x3e264899	0.16238631
206	0xbe6d5698	-0.23177564
207	0xbe85d9c7	-0.26142713
208	0xbc1742e8	-0.00923226
209	0x3db2e1bf	0.08734464
210	0x3e381977	0.17978464
211	0x3ea8bba4	0.32955658
212	0xbd937791	-0.0720054
213	0xbb6efdc0	-0.0036467165
214	0x3e4a7245	0.19770153
215	0x3d68b103	0.056809437
216	0x3c6a44e2	0.0142986495
217	0xbe68efb2	-0.22747687
218	0x3c6ef90d	0.0145857455
219	0xbd0ebb4b	-0.034846585
220	0x3e08ffe4	0.13378865
221	0xbe061a6e	-0.1309602
222	0x3eb0c835	0.34527746
223	0x3cd314af	0.025766699
224	0xbcff01aa	-0.031128723
225	0xbda47f77	-0.080321245
226	0xbe7159f7	-0.23569475
227	0x3e10b5d1	0.14131857
228	0x3d4f4c10	0.05060965
229	0xbe6367af	-0.22207521
230	0x3dc6680b	0.09687813
231	0x3cc190ad	0.023628557
232	0xbe91cf41	-0.28478435
233	0xbd7be4a7	-0.061497357
234	0xbe33fdb9	-0.17577256
235	0xbe1eef48	-0.15520966
236	0xbbf80d18	-0.0075699203
237	0xbc5efa5b	-0.013609494
238	0x3c09a636	0.008401444
239	0x3e8aef16	0.27135533
240	0xbe0711bd	-0.1319036
241	0x3cb49152	0.02204195
242	0x3e11d0e4	0.14239842
243	0x3e01d18b	0.1267759
244	0xbe4628fd	-0.19351573
245	0x3e375a8c	0.17905635
246	0xbdfabab8	-0.12242645
247	0xbe2c7c69	-0.16844334
248	0x3e051b40	0.12998676
249	0x3d0a7031	0.0337984
250	0x3d9e21a5	0.07721261
251	0xbe85f0b8	-0.26160216
252	0xbe93ece3	-0.28891668
253	0xbd383558	-0.044972748
254	0x3cf189d9	0.029484676
255	0x3dc91fc7	0.09820514

fc1.bias f4 [736]
0	0x3e6c4d1d	0.23076291
1	0x3f2ed5ca	0.68294966
2	0xbee95063	-0.45569143
3	0xbed54086	-0.4165079
4	0x3b84e0c2	0.0040551135
5	0xbe598cc1	-0.212451
6	0x3d988e3d	0.07449005
7	0xbd56f536	-0.052479945
8	0x3e303ade	0.17209956
9	0x3da6287a	0.08113189
10	0xbe1d8eaa	-0.15386453
11	0x3c066e20	0.008204967
12	0x3d931a5a	0.071827605
13	0x3e01e184	0.12683684
14	0x3d0e24f9	0.03470323
15	0x3d7336ca	0.059378423
16	0x3cea3a07	0.028592123
17	0x3d5705bd	0.052495707
18	0xbe2396ca	-0.1597549
19	0xbe94cd99	-0.2906311
20	0xbe7b8032	-0.24560621
21	0xbd34e2c3	-0.04416157
22	0xbe6c4e85	-0.23076828
23	0xbf3d1973	-0.7386696
24	0xbecafc2d	-0.3964552
25	0x3e4cfff4	0.20019513
26	0xbf0a95b4	-0.5413468
27	0xbe9d613c	-0.30738246
28	0xbe107fca	-0.14111248
29	0xbe26cd7b	-0.16289322
30	0x3cdd5b62	0.027021114
31	0xbe369ec0	-0.17833996
32	0xbe90cf00	-0.28282928
33	0xbf097b94	-0.5370419
34	0xbe681d47	-0.22667418
35	0xbe010b78	-0.12602031
36	0xbed41f9b	-0.41430363
37	0x3c3e1f97	0.011604211
38	0xbebfcede	-0.37462515
39	0xbe7944df	-0.24342678
40	0xbedf09b8	-0.43562102
41	0xbeaeb653	-0.34123477
42	0xbe7b2baf	-0.24528383
43	0xbf04f2f6	-0.5193323
44	0xbf23240c	-0.6372688
45	0x3ea20dd1	0.31651166
46	0xbe071346	-0.13190946
47	0xbe06edcc	-0.1317665
48	0xbec88391	-0.39162877
49	0xbe81ebeb	-0.25375304
50	0x3ced181f	0.028942166
51	0xbd86cfd8	-0.06582612
52	0xbe919f41	-0.28441814
53	0xbddef5db	-0.10886737
54	0xbdd238c5	-0.10264734
55	0xbea29eb9	-0.3176172
56	0xbe170247	-0.14746962
57	0xbe818079	-0.2529333
58	0xbe80b4f6	-0.25138062
59	0xbe047db6	-0.1293858
60	0xbe08d289	-0.13361563
61	0xbe8ea7a9	-0.2786229
62	0xbe13e340	-0.14442158
63	0xbe5632fc	-0.20917886
64	0xbe4cf349	-0.20014681
65	0xbebe93af	-0.3722205
66	0xbdf2c3de	-0.11853765
67	0xbeddce27	-0.43321344
68	0x3d8a74cd	0.06760559
69	0x3e3127dd	0.17300363
70	0xbecd3d31	-0.40085748
71	0xbe933283	-0.28749475
72	0xbeffb95c	-0.49946105
73	0xbed0f5ad	-0.40812436
74	0xbe9407e2	-0.28912264
75	0xbf2e5177	-0.68093055
76	0xbf0c03ef	-0.546935
77	0xbf07645b	-0.52887505
78	0xbf12e5c1	-0.57381827
79	0xbee7c027	-0.45263788
80	0xbf23d7d8	-0.64001226
81	0xbf11c34c	-0.56938624
82	0xbf131db5	-0.57467204
83	0xbf0b0c4d	-0.54315645
84	0xbf2c5254	-0.6731312
85	0xbf040a36	-0.5157808
86	0xbf4191a2	-0.75612843
87	0xbf05779d	-0.5213564
88	0xbef76939	-0.48322466
89	0xbe980248	-0.2968924
90	0xbf08bcbf	-0.53413004
91	0xbdbe1b2f	-0.092825286
92	0x3f19855a	0.59969103
93	0x3d23d590	0.03999859
94	0xbe7d11da	-0.24713841
95	0xbf2e06fc	-0.6797941
96	0xbef630ff	-0.48084256
97	0xbf028ca2	-0.5099584
98	0xbf0dcfc8	-0.55395174
99	0xbf157fb3	-0.5839798
100	0xbf306603	-0.6890566
101	0xbf3351be	-0.70046604
102	0xbec461fd	-0.3835601
103	0xbe52a4e5	-0.20570715
104	0xbecd8a41	-0.40144542
105	0xbf30a98d	-0.69008714
106	0xbec5ade6	-0.38609236
107	0xbf03a6e0	-0.51426506
108	0xbec9f340	-0.39443398
109	0xbece90be	-0.40344805
110	0xbec7d405	-0.39028946
111	0xbf372e74	-0.71555257
112	0xbe2e4294	-0.17017585
113	0xbf5a8d02	-0.8537141
114	0xbe4c8876	-0.1997393
115	0xbe5c39bd	-0.215064
116	0xbc96828b	-0.018372795
117	0xbe60bfba	-0.21948138
118	0x3c6e55cc	0.014546823
119	0xbceb63b0	-0.028734058
120	0x3d092158	0.033479065
121	0xbddfc496	-0.10926168
122	0xbe4794d2	-0.19490364
123	0xbecd5a1a	-0.40107805
124	0xbe3a7b7c	-0.18211168
125	0x3da98858	0.08277959
126	0xbdc48272	-0.09595193
127	0xbeb2d796	-0.34930104
128	0xbe41f21a	-0.1894001
129	0x3d93a865	0.07209853
130	0xbd363c95	-0.04449137
131	0xbd393964	-0.045220748
132	0x3d3a020f	0.04541212
133	0xbe363746	-0.17794523
134	0xbe8bcf70	-0.273067
135	0xba4a51df	-0.0007717888
136	0xbe503c66	-0.2033554
137	0xbeb454f9	-0.3522108
138	0xbd35141b	-0.044208627
139	0x3e89c8fd	0.26911154
140	0xbe636fa7	-0.2221056
141	0xbe95a033	-0.29223785
142	0xbe9db969	-0.3080552
143	0xbf0439d0	-0.51650715
144	0xbe38451a	-0.1799511
145	0xbf24a30c	-0.6431129
146	0xbee0a65c	-0.43876922
147	0xbf3232d2	-0.69608796
148	0xbe931551	-0.287272
149	0xbeef275f	-0.46709725
150	0xbf0717ef	-0.52770895
151	0xbf065299	-0.52469784
152	0xbee5311f	-0.4476404
153	0xbed515f0	-0.416183
154	0xbe9dd7c4	-0.3082868
155	0xbebbf3e9	-0.36709526
156	0x3c76d0e8	0.015064456
157	0xbf268a42	-0.65054715
158	0xbb5da51b	-0.0033820334
159	0x3e060cf0	0.13090873
160	0xbdf53ba2	-0.11974265
161	0xbe061827	-0.13095151
162	0x3e5b27db	0.21401922
163	0xbede915b	-0.43470272
164	0xbd5df4b3	-0.05418844
165	0xbea2f206	-0.31825274
166	0xbe7643ff	-0.24049376
167	0xbe595dc0	-0.21227169
168	0xbde957e1	-0.11393715
169	0xbe56d37e	-0.20979115
170	0xbe67a75f	-0.22622441
171	0xbecbce9e	-0.39806074
172	0xbe732a67	-0.23746644
173	0xbe06c5e8	-0.13161433
174	0xbdc82b2c	-0.097738594
175	0xbe807956	-0.25092572
176	0xbe04050a	-0.12892547
177	0xbe78f8e4	-0.24313694
178	0xbd80802b	-0.06274446
179	0xbe6ab1ac	-0.22919339
180	0xbe6ab8fa	-0.22922125
181	0x3e121aac	0.14267987
182	0x3e92bde5	0.28660503
183	0x3d0f93c1	0.03505302
184	0xbf0663fa	-0.524963
185	0xbe31d0f2	-0.17364863
186	0xbdc83e35	-0.0977749
187	0x3de690f0	0.112581134
188	0xbeaf0ccb	-0.34189448
189	0xbedbd80a	-0.42938262
190	0xbeb26b1d	-0.34847346
191	0xbef50013	-0.4785162
192	0xbeff2f8c	-0.49840963
193	0xbee09c1a	-0.43869096
194	0xbee16e2e	-0.44029373
195	0xbe98e33b	-0.29860863
196	0xbe392daf	-0.18083833
197	0xbea42322	-0.32058054
198	0xbebed6d2	-0.3727327
199	0xbe5a4f77	-0.21319376
200	0xbee5a7b8	-0.44854522
201	0xbea6da14	-0.32588255
202	0xbe545f31	-0.20739438
203	0xbec69d53	-0.38791904
204	0xbe6cec8d	-0.23137112
205	0xbe1d07dd	-0.15335031
206	0xbeba64d2	-0.36405045
207	0xbd8d9b8d	-0.069144346
208	0x3ec8232e	0.3908934
209	0x3cd9b434	0.026575185
210	0x3e010a91	0.12601687
211	0xbe79c976	-0.24393257
212	0xbdcbce9f	-0.09951519
213	0x3e2f0667	0.17092286
214	0xbe85d48e	-0.2613873
215	0xbe7e1d3a	-0.24815837
216	0xbe69855e	-0.22804782
217	0x3c2d692c	0.010584157
218	0xbe9b476e	-0.30327934
219	0xbdfe9414	-0.124305874
220	0xbdc4db3c	-0.09612128
221	0xbe7fb561	-0.24971534
222	0xbe507bea	-0.2035977
223	0xbe82b016	-0.25524968
224	0xbdf863fb	-0.12128445
225	0x3e768053	0.2407239
226	0x3d83f4e7	0.06443196
227	0xbe0ec10f	-0.13940834
228	0x3dac9f76	0.08428852
229	0xbeda0dac	-0.42588556
230	0x3ea7d216	0.3277747
231	0x3e629bff	0.2212982
232	0xbe879d69	-0.26487282
233	0xbf1c9016	-0.6115736
234	0xbef5f8b7	-0.48041317
235	0xbe8fa246	-0.28053492
236	0xbea8b5b2	-0.32951123
237	0xbf326022	-0.6967794
238	0xbf22e921	-0.63636976
239	0xbee735a5	-0.45158115
240	0xbf0f2d68	-0.5592866
241	0xbeb17d17	-0.34665748
242	0xbed48484	-0.4150735
243	0xbe8db170	-0.27674437
244	0xbf0776be	-0.5291556
245	0xbf063442	-0.5242349
246	0xbee3d24e	-0.44496387
247	0xbef28a0b	-0.47370943
248	0xbefebb44	-0.49752247
249	0xbefc534f	-0.4928231
250	0xbf02898b	-0.50991124
251	0xbdc37bf6	-0.09545128
252	0xbd91a301	-0.07111169
253	0x3f181dfb	0.59420747
254	0x3dd95a40	0.10612917
255	0x3e204129	0.15649857

deconv1.weight f4 [32, 16, 5, 5]
0	0x3f57bf11	0.8427592
1	0xbe9cc85f	-0.3062162
2	0xbf089deb	-0.53365964
3	0xbe9909ac	-0.29890192
4	0x3ec637cb	0.38714442
5	0x3e9c4caf	0.30527255
6	0x3e54cad5	0.207805
7	0x3dd9a562	0.106272474
8	0x3df2c414	0.11853805
9	0x3e916c72	0.2840305
10	0xbeb11dcc	-0.34593046
11	0x3ecf371b	0.4047173
12	0x3c0654aa	0.008198896
13	0xbcd0158c	-0.0254009
14	0x3d8be497	0.068307094
15	0xbe1ca496	-0.1529716
16	0xbe9c8b4f	-0.30575034
17	0xbe890e5f	-0.26768777
18	0xbe838285	-0.25685516
19	0x3d14a9c9	0.036294732
20	0xbe0938b4	-0.13400537
21	0xbd81de23	-0.06341197
22	0xbd9a00eb	-0.07519706
23	0xbe51a887	-0.20474444
24	0xbf31c73d	-0.6944464
25	0xbe404e24	-0.18779808
26	0x3d7985a8	0.06091848
27	0x3e8d4294	0.27589858
28	0x3d8274d4	0.063699394
29	0x3d0726b2	0.032995887
30	0x3e575c60	0.21031332
31	0x3dfec4ab	0.12439855
32	0xbd467ae1	-0.04845703
33	0x3ec670ee	0.38758034
34	0x3dff70f3	0.12472715
35	0xbdeaa139	-0.11456532
36	0x3d649488	0.055805713
37	0x3d308a09	0.04310039
38	0xbe93a7ee	-0.28839058
39	0x3e4a1720	0.19735384
40	0x3f1469b0	0.57973766
41	0x3da668c8	0.08125454
42	0xbe3ad881	-0.18246652
43	0xbe370335	-0.17872317
44	0x3eae6b53	0.34066257
45	0xbcd0a99b	-0.0254715
46	0xbe9967f2	-0.29962116
47	0xbebe6aa8	-0.37190747
48	0xbe79179c	-0.24325413
49	0x3e49e54f	0.1971638
50	0x3f1a1d0d	0.6020058
51	0x3e696f59	0.22796382
52	0xbe85814f	-0.26075217
53	0x3ecaa4ce	0.3957886
54	0x3e0ac04e	0.13549921
55	0xbe23ac9c	-0.15983814
56	0xbee1a7b1	-0.4407325
57	0x3eeeb58a	0.46622878
58	0x3ea502d6	0.32228726
59	0x3e2f71a8	0.171332
60	0x3df88cd6	0.12136237
61	0x3e75a914	0.2399028
62	0x3dc1dafe	0.094655976
63	0x3f0a6075	0.5405343
64	0xbed3a497	-0.4133651
65	0x3ec02acf	0.3753266
66	0x3e3f153b	0.18660443
67	0x3edcadd1	0.4310136
68	0x3e12839f	0.14308022
69	0xbe84c892	-0.25934273
70	0xbe1898c8	-0.14902031
71	0x3e5dbcff	0.21654128
72	0x3f08ff65	0.535147
73	0x3e8eea23	0.27913007
74	0x3e7901ae	0.24317047
75	0x3d3b3a5f	0.045709964
76	0xbf3c3606	-0.73519933
77	0xbe8fccaf	-0.2808585
78	0x3e9abf64	0.30224144
79	0xbc4896b2	-0.01224296
80	0xbef65e1f	-0.48118684
81	0x3e8dad50	0.2767129
82	0xbb82da11	-0.0039932807
83	0xbf0654ad	-0.52472955
84	0xbe254caf	-0.16142534
85	0xbf167187	-0.5876698
86	0x3dcae73f	0.09907388
87	0x3dc75c88	0.09734446
88	0xbd44a7bb	-0.048011523
89	0xbf0eeb2b	-0.5582759
90	0xbf0a9c91	-0.5414515
91	0xbead586e	-0.3385653
92	0x3dc7868a	0.09742458
93	0xbf36a76c	-0.71349216
94	0x3c5b1398	0.013371371
95	0x3ec17b92	0.3778959
96	0xbda98687	-0.08277612
97	0x3e190821	0.14944507
98	0x3f2fd191	0.6867915
99	0x3f46b2a3	0.7761633
100	0xbe1b9613	-0.15193968
101	0x3e324a65	0.17411192
102	0xbe063983	-0.13107876
103	0x3ed3f296	0.41396016
104	0x3e258e53	0.16167574
105	0x3e924e35	0.28575292
106	0x3f16b355	0.5886739
107	0x3ea27990	0.3173337
108	0x3cbc05a4	0.022951908
109	0x3e7a8b4a	0.24467197
110	0x3ed087ae	0.40728515
111	0x3ef30709	0.47466305
112	0x3e3298f1	0.17441155
113	0x3eb10d4e	0.34580463
114	0xbe5111fb	-0.20417015
115	0xbd706351	-0.058688466
116	0xbdd89b31	-0.105764754
117	0x3ed3bba8	0.41354108
118	0x3eadf24d	0.33973923
119	0xbf2ee42b	-0.68316907
120	0xbeb27240	-0.3485279
121	0x3df3ac29	0.11898071
122	0x3da8c245	0.08240179
123	0xbe3682f1	-0.17823388
124	0xbf386e82	-0.7204362
125	0x3f170210	0.5898752
126	0x3e095715	0.13412125
127	0xbdd7d882	-0.105393425
128	0xbd2415a3	-0.040059697
129	0x3e8986e1	0.26860717
130	0xbe85eb3b	-0.2615603
131	0xbf077e3e	-0.52927005
132	0xbf0cc99d	-0.5499514
133	0xbe95e825	-0.29278675
134	0xbf1ed783	-0.62047595
135	0x3e149ee7	0.14513741
136	0xbd83d132	-0.06436385
137	0x3d694992	0.056954928
138	0x3db5d01e	0.08877586
139	0xbe549290	-0.20759034
140	0x3dd1cd1f	0.10244202
141	0x3ece56b8	0.40300536
142	0x3ddefb52	0.10887779
143	0x3ed43c5d	0.41452304
144	0x3e82c61a	0.25541764
145	0x3c095443	0.008381906
146	0xbeeeadd7	-0.46617004
147	0xbed15356	-0.40883893
148	0x3eb818a9	0.35956314
149	0x3dc214c2	0.094766155
150	0x3e7b87c6	0.24563512
151	0x3f021535	0.5081361
152	0x3e1f78d8	0.15573442
153	0x3f1e6d69	0.61885697
154	0x3e0da8d8	0.1383394
155	0x3e058eb8	0.13042724
156	0xbe3fdbd1	-0.18736197
157	0x3ea49e40	0.32151985
158	0x3edac540	0.42728615
159	0xbee57a5c	-0.44819915
160	0xbe8e9816	-0.27850407
161	0xbe823c63	-0.25436696
162	0xbf2774fa	-0.6541287
163	0xbe77c7c1	-0.24197294
164	0x3c17fcf0	0.009276614
165	0xbecabb31	-0.3959594
166	0x3e99254b	0.29911265
167	0xbe8aaf43	-0.2708684
168	0x3e797d0a	0.24364105
169	0xbd45d888	-0.048302203
170	0xbeed146d	-0.46304646
171	0xbe367a0c	-0.17819995
172	0xbf237d27	-0.6386284
173	0xbec134c1	-0.3773556
174	0x3efc89c3	0.49323854
175	0x3d7ff4fe	0.062489502
176	0xbe1783ac	-0.14796323
177	0x3ce813d9	0.028329777
178	0x3d931809	0.07182319
179	0xbee62b51	-0.44954923
180	0xbed0b460	-0.40762615
181	0x3e457100	0.19281387
182	0xbe5957a8	-0.21224844
183	0xbc6edc5f	-0.014578908
184	0x3d896b95	0.06709973
185	0xbdd02662	-0.10163571
186	0xbebf1a09	-0.3732455
187	0x3e124720	0.14284945
188	0x3e16cc11	0.14726283
189	0xbedafbf4	-0.4277035
190	0xbd2a48ff	-0.04157352
191	0xbe2e3d4f	-0.17015575
192	0xbda9d6f7	-0.082929544
193	0x3dd152fc	0.10220906
194	0xbe0d5198	-0.13800657
195	0xbcfc3786	-0.030788194
196	0x3e0258c2	0.12729171
197	0x3e7418f3	0.23837642
198	0x3b4ba7fd	0.003107547
199	0x3e9b3c33	0.30319366
200	0x3e8e2ab4	0.27766955
201	0x3c9efa1b	0.019406369
202	0xbcd28da6	-0.025702309
203	0x3f0be19e	0.5464114
204	0xbeb099e5	-0.34492412
205	0x3ca0629b	0.019578269
206	0xbdb5b411	-0.088722356
207	0x3e3ab282	0.18232158
208	0x3eaba82d	0.33526745
209	0xbed11385	-0.40835205
210	0x3f040882	0.5157548
211	0xbef47723	-0.47747144
212	0xbe52a886	-0.20572099
213	0x3eab2f37	0.3343446
214	0xbd941601	-0.072307594
215	0x3eb51a8c	0.35371816
216	0xbca1a9eb	-0.019734344
217	0x3bd98fc7	0.006639454
218	0x3f0fa0fd	0.56105024
219	0xbeca9266	-0.39564818
220	0xbe1d5f53	-0.15368395
221	0x3e8d94ca	0.2765258
222	0x3f23154e	0.63704383
223	0xbc223474	-0.009900201
224	0xbe0d87f2	-0.1382139
225	0x3e377713	0.17916517
226	0xbf2d14fe	-0.67610157
227	0xbe8982d4	-0.26857626
228	0x3d751933	0.059838485
229	0xbebd2731	-0.36943963
230	0x3e288d82	0.16460231
231	0x3e19a5e0	0.15004683
232	0x3d7e42f7	0.06207558
233	0x3dbc3832	0.09190406
234	0x3e762186	0.24036226
235	0x3d80b8eb	0.0628527
236	0x3e43df88	0.19128239
237	0x3ddfe120	0.10931611
238	0x3ece7c09	0.40329006
239	0x3f0833a1	0.5320378
240	0x3e38714c	0.1801197
241	0xbde62a6e	-0.112385616
242	0xbebe6129	-0.37183502
243	0xbd014bec	-0.031566545
244	0xbebdc1ad	-0.37061825
245	0xbdd05636	-0.101726934
246	0xbe057b35	-0.13035281
247	0x3edd2a92	0.4319654
248	0xbed3b68f	-0.4135022
249	0xbe7f252b	-0.24916522
250	0x3f4dd908	0.8040929
251	0xbd011ed3	-0.031523537
252	0xbeff0b3f	-0.49813268
253	0x3e26f380	0.16303825
254	0x3e3c10ae	0.18365738
255	0xbe7229eb	-0.23648803

deconv1.bias f4 [16]
0	0xbc1b719d	-0.009487537
1	0xbdc41e01	-0.09576035
2	0x3ca74304	0.020417698
3	0x3d829259	0.0637557
4	0x3c90e483	0.017687088
5	0xbcda8cbb	-0.026678434
6	0xbd358894	-0.044319704
7	0x3e253f26	0.1613737
8	0xbb36f82f	-0.0027918925
9	0x3da3d5a9	0.07999737
10	0x3dc99359	0.098425575
11	0x3d3b7995	0.045770247
12	0x3e2b44d0	0.16725469
13	0xbd3cb9da	-0.04607568
14	0x3c40c2ad	0.011765164
15	0x3b1cc99f	0.0023923886

bn1.weight f4 [16]
0	0x3fb48c0e	1.4105241
1	0x3f905f48	1.1279078
2	0x3f9cb3fc	1.2242427
3	0x3f928e96	1.1449764
4	0x3fa95db5	1.3231722
5	0x3fac602d	1.346685
6	0x3fbb8bbd	1.465202
7	0x3fa0de47	1.2567834
8	0x3fa38ce9	1.2777377
9	0x3f59a885	0.85022765
10	0x3fb75062	1.4321406
11	0x3fa718fc	1.30545
12	0x3fb614b7	1.4225072
13	0x3faf1266	1.367749
14	0x3faeb6bb	1.3649515
15	0x3f8fe50d	1.1241776

bn1.bias f4 [16]
0	0xbd6c596a	-0.05770246
1	0x3e280ba2	0.16410688
2	0xbd82f04d	-0.0639349
3	0x3e4195bf	0.1890478
4	0xbdb27f91	-0.087157376
5	0xbd8dbdea	-0.06920989
6	0xbe9a50ea	-0.30139858
7	0x3e29e8da	0.16592732
8	0xbde60de6	-0.1123312
9	0x3e0077b3	0.12545662
10	0xbf08b8bb	-0.53406876
11	0xbe7f7dc6	-0.24950323
12	0xbe7421be	-0.23840997
13	0x3dacd2ba	0.084386304
14	0xbe8715f1	-0.26383927
15	0x3ec5421c	0.38527

bn1.running_mean f4 [16]
0	0xbdb48431	-0.08814276
1	0xbda0e9c0	-0.07857084
2	0xbf0a6946	-0.54066885
3	0xc08f0a61	-4.470017
4	0xbe1b8039	-0.15185632
5	0xbea83b4a	-0.32857734
6	0xc03ab99d	-2.917579
7	0x3f646a69	0.8922487
8	0x3ffa5dc1	1.9559861
9	0xbfe6f9c8	-1.8044977
10	0xbf6d1e38	-0.92624235
11	0xbec83197	-0.39100334
12	0x3fb104b4	1.382956
13	0xc01c2baa	-2.440165
14	0xbf2834e5	-0.6570571
15	0xbf8ca0af	-1.0986537

bn1.running_var f4 [16]
0	0x412ee5e9	10.93113
1	0x4131d8ab	11.115397
2	0x4134e7d8	11.3066025
3	0x41dde2b1	27.73569
4	0x4139057d	11.56384
5	0x417041f0	15.016098
6	0x41be5369	23.790728
7	0x413c8b6c	11.784039
8	0x4131b8fe	11.107664
9	0x4156fc54	13.436604
10	0x418473c1	16.55652
11	0x411d9a40	9.850159
12	0x4159ec14	13.620136
13	0x41a3d0fc	20.477043
14	0x416e621a	14.898951
15	0x41f60db1	30.756685

deconv2.weight f4 [16, 8, 5, 5]
0	0x3e5fed6e	0.21867916
1	0xbe72ff33	-0.23730163
2	0x3ee86ed2	0.4539705
3	0xbf4d6806	-0.8023685
4	0xbe354c86	-0.17704973
5	0xbf04b12c	-0.5183284
6	0xbd4ebbfb	-0.05047224
7	0x3db4da04	0.08830646
8	0xbef77949	-0.4833472
9	0x3dd80987	0.10548692
10	0xbe325553	-0.17415361
11	0xbea4c92b	-0.3218473
12	0xbf6603d8	-0.89849615
13	0xbf86dc1d	-1.0535923
14	0xbf47fad1	-0.7811709
15	0xbe053851	-0.13009764
16	0x3d06c71f	0.03290474
17	0xbebe76c1	-0.37199977
18	0xbe277c0d	-0.16355915
19	0xbe15daee	-0.14634296
20	0x3f038a8d	0.51383287
21	0xbecf114d	-0.40442887
22	0xbf1c394c	-0.6102493
23	0x3f2170ce	0.6306275
24	0xbf80eb9b	-1.0071901
25	0x3e0ad3b8	0.13557327
26	0xbda95ab1	-0.08269251
27	0x3cd0acae	0.025472965
28	0xbed9ffc0	-0.42577934
29	0xbedaf9af	-0.42768618
30	0xbda9017d	-0.08252237
31	0xbe88fa4e	-0.26753467
32	0x3e0b876d	0.1362588
33	0x3ec9d2c4	0.39418614
34	0xbc850d6c	-0.016241752
35	0x3df03187	0.117281966
36	0x3c77cc98	0.015124463
37	0xbdce06b4	-0.10059872
38	0xbea3f4e8	-0.32022786
39	0xbe705866	-0.23471221
40	0xbee1f4ac	-0.44131982
41	0x3ad623da	0.0016337589
42	0xbe1469cc	-0.14493483
43	0x3c2037f9	0.00977897
44	0xbe9a113f	-0.30091283
45	0xbf254ff2	-0.6457511
46	0x3e378247	0.1792079
47	0x3ecede34	0.40403903
48	0xbea0498e	-0.31306118
49	0x3fa69c39	1.3016425
50	0xbb81a602	-0.0039565573
51	0x3e9da7c8	0.3079207
52	0x3e4d106c	0.20025796
53	0x3e8e100e	0.27746624
54	0x3f08fa66	0.5350708
55	0xbdb8782a	-0.090072945
56	0xbcbbc720	-0.022922099
57	0xbec1528f	-0.377583
58	0x3cd7b04d	0.026329184
59	0x3d7d2820	0.061805844
60	0x3c7f62cc	0.01558752
61	0xbf4ed1a0	-0.8078861
62	0xbf0d266d	-0.5513676
63	0xbec0af64	-0.37633812
64	0xbde05ace	-0.109548196
65	0xbed228cd	-0.41046754
66	0x3d5b736a	0.053576864
67	0xbd7ca766	-0.06168308
68	0x3f2fc340	0.686573
69	0x3e217684	0.15767866
70	0xbdcd3236	-0.100193426
71	0xbec749ae	-0.389234
72	0xbed2649c	-0.41092384
73	0xbe97848f	-0.29593322
74	0xbf4049c4	-0.7511256
75	0x3ee343f2	0.44387776
76	0xbe26572d	-0.16244192
77	0xbdc857f8	-0.09782404
78	0xbe55c5d1	-0.20876242
79	0xbe63bb29	-0.22239365
80	0xbf03abef	-0.51434225
81	0xbd86ff80	-0.065917015
82	0xbe895d97	-0.26829216
83	0xbe8f1785	-0.2794763
84	0x3f14c2c2	0.58109677
85	0x39d2d9e9	0.00040216677
86	0x3d982920	0.07429719
87	0xbdf25227	-0.118320756
88	0xbec2e60c	-0.38066137
89	0x3f6dd03d	0.9289587
90	0x3dbeeca8	0.09322482
91	0x3ee98fd0	0.45617533
92	0xbe555c87	-0.20836078
93	0x3dc1c415	0.09461228
94	0x3eccb97d	0.39985266
95	0xbf3deef8	-0.7419276
96	0xbef85bc4	-0.48507512
97	0x3e8c3a77	0.27388355
98	0xbf7ced3f	-0.9879951
99	0xbec89d80	-0.39182663
100	0xbddf38c5	-0.108995
101	0xbdcc7de1	-0.09984947
102	0x3ee8a788	0.45440316
103	0x3ecbd94b	0.3981422
104	0xbf2d839b	-0.6777894
105	0x3e88bf4c	0.26708448
106	0xbec3868f	-0.38188598
107	0xbe9c57cb	-0.3053573
108	0x3ec47ed9	0.38378027
109	0xbe821219	-0.25404432
110	0x3e6801e4	0.22656971
111	0xbf656ef9	-0.89622456
112	0x3dfde934	0.123979956
113	0x3f043167	0.5163788
114	0x3df2c379	0.1185369
115	0x3e2e0003	0.16992192
116	0x3d0373b4	0.032092765
117	0x3e9e90af	0.3096976
118	0xbdaa5f6b	-0.08318981
119	0xbe76682b	-0.24063174
120	0xbf1ee644	-0.6207011
121	0xbe86b76a	-0.2631181
122	0x3d97be25	0.07409314
123	0xbf13b49e	-0.57697475
124	0xbf72dcf5	-0.94868404
125	0xbc5713e4	-0.013127301
126	0xbea7d9bb	-0.32783303
127	0xbe31982e	-0.17343208
128	0x3e2f8e0d	0.17144032
129	0xbed453b6	-0.41470116
130	0x3e820307	0.25392935
131	0x3e9dc305	0.3081285
132	0xbeb6d586	-0.3570978
133	0xbd73273d	-0.059363592
134	0xbb5ab74e	-0.0033373418
135	0xbf714cbd	-0.9425772
136	0xbeecfe00	-0.46287537
137	0xbe04d5bf	-0.12972163
138	0xbe396608	-0.18105328
139	0x3f7d6502	0.9898225
140	0x3e1e0843	0.15432839
141	0xbed52808	-0.41632104
142	0xbea191b2	-0.3155647
143	0xbed616cf	-0.41814277
144	0xbf269b49	-0.65080696
145	0xbe7b5672	-0.24544695
146	0x3e300441	0.17189123
147	0xbec6a8a7	-0.38800547
148	0xbf7fa385	-0.99858886
149	0x3cdfd941	0.027325274
150	0x3db4c123	0.088259004
151	0x3dbef9e5	0.09325007
152	0xbb72b27e	-0.003703266
153	0x3e94169a	0.28923494
154	0xbeebec4c	-0.46078718
155	0xbda4f216	-0.08053987
156	0x3e37ee73	0.17962055
157	0x3e1ce91f	0.15323304
158	0x3ce60f18	0.02808337
159	0xbea2b7a3	-0.3178073
160	0x3ce870d6	0.028374117
161	0xbec98186	-0.3935663
162	0x3abef826	0.0014569804
163	0xbf22ff72	-0.6367103
164	0xbf7a1beb	-0.9769885
165	0x3ebd9413	0.37027034
166	0x3eb168eb	0.3465036
167	0x3eeaf198	0.45887446
168	0xbe4a8464	-0.19777066
169	0xbc335cf4	-0.010947455
170	0x3e83bfe4	0.25732338
171	0xbe81aec9	-0.25328663
172	0x3d90e216	0.070743725
173	0xbed52266	-0.41627806
174	0x3e04555b	0.12923186
175	0x3ed239b7	0.41059658
176	0x3e8f7d13	0.28025112
177	0xbf331a6f	-0.6996221
178	0x3e69b0c3	0.22821335
179	0x3e48924d	0.1958706
180	0x3ef909d6	0.48640317
181	0x3ed29061	0.41125777
182	0xbda4c9d0	-0.08046305
183	0xbe1e1e5e	-0.15441272
184	0x3d1b0f6f	0.037856515
185	0xbd6b7a1d	-0.057489503
186	0x3e31fc22	0.17381337
187	0x3e820b1f	0.2539911
188	0xbef8a09b	-0.48560032
189	0xbe771bd3	-0.24131708
190	0x3eda2c41	0.42611888
191	0xbe04719c	-0.12933964
192	0x3e16ab3c	0.14713758
193	0xbf9241c1	-1.1426316
194	0xbce9ecc5	-0.028555283
195	0x3f50ebf1	0.8161002
196	0x3d07fd5c	0.033200607
197	0xbf31d51a	-0.6946579
198	0x3e9d34c8	0.3070433
199	0xbf3853ea	-0.7200304
200	0xbea410e6	-0.32044142
201	0x3d30c7b9	0.04315922
202	0xbef73d47	-0.48288938
203	0xbf26830e	-0.65043724
204	0x3efe2e69	0.49644783
205	0xbf4fb6c6	-0.81138265
206	0x3c2e2d25	0.0106308805
207	0x3d2b9ef4	0.041899636
208	0xbe36a111	-0.1783488
209	0x3e2b5de4	0.16735035
210	0x3c1ad2ad	0.009449643
211	0xbe8c1e49	-0.27366856
212	0xbe392b06	-0.18082818
213	0xbd6da1a9	-0.0580155
214	0xbf6823e7	-0.9067978
215	0xbf50d066	-0.8156799
216	0x3d2caa08	0.042154342
217	0xbdc4879c	-0.09596178
218	0x3e8a9ca1	0.27072623
219	0xbf0758e7	-0.5287003
220	0xbf2ab10f	-0.6667642
221	0xbeabb420	-0.33535862
222	0x3d7b0045	0.061279554
223	0xbdc2cf26	-0.09512167
224	0x3f36e91c	0.71449447
225	0x3e0ee95e	0.1395621
226	0x3f22fac7	0.63663906
227	0x3e33f4bf	0.17573832
228	0x3da4400e	0.0802003
229	0xbec3c2c2	-0.38234526
230	0x3dbfe95e	0.09370683
231	0xbe2d65e7	-0.16933404
232	0xbe3f1bfc	-0.18663019
233	0xbd00bd42	-0.03143049
234	0x3f0aae44	0.5417216
235	0xbf2b4d0d	-0.66914445
236	0x3f0db1fd	0.55349714
237	0x3f401819	0.7503677
238	0xbe4f7c2e	-0.20262215
239	0xbdcecbca	-0.100974634
240	0x3eec0e3b	0.46104607
241	0x3d74207e	0.0596013
242	0xbeb2a4bd	-0.3489131
243	0x3db6cde7	0.089259915
244	0xbfd2fae8	-1.648282
245	0xbe331f6e	-0.17492458
246	0xbe0578b1	-0.13034321
247	0x3f15d44b	0.5852706
248	0xbd104c76	-0.03522917
249	0x3ecfed17	0.40610573
250	0xbf0b8687	-0.5450215
251	0xbf925b29	-1.143407
252	0xbf267154	-0.65016675
253	0x3edaae0e	0.42710918
254	0x3d47ae61	0.048750285
255	0xbc064db3	-0.008197236

deconv2.bias f4 [8]
0	0xbda05784	-0.07829192
1	0xbec18aaf	-0.3780112
2	0xbea42224	-0.32057297
3	0xbf02ba74	-0.51065755
4	0xbeb97586	-0.36222476
5	0xbe15b57f	-0.14620017
6	0xbdceb2f3	-0.100927256
7	0xbdad2331	-0.08453978

bn2.weight f4 [8]
0	0x403bf8ee	2.9370685
1	0x4030418f	2.7540014
2	0x40204f49	2.5048392
3	0x400378e8	2.0542545
4	0x4023a17b	2.556731
5	0x404b9bb1	3.1813776
6	0x40208239	2.5079482
7	0x3ffadf01	1.9599305

bn2.bias f4 [8]
0	0xbf7c81e3	-0.9863569
1	0xbf877f46	-1.0585716
2	0x3eb76573	0.35819587
3	0x3fbac45a	1.4591172
4	0x3e2e903b	0.17047207
5	0xc005ccf9	-2.0906355
6	0x3e4e36a1	0.20138027
7	0x3e9b4d0d	0.30332223

bn2.running_mean f4 [8]
0	0xc08d72f6	-4.4202833
1	0xc0602dda	-3.5027986
2	0xc0842829	-4.1299024
3	0xc0766caf	-3.8503835
4	0xc0b976ca	-5.7957506
5	0xc05bdb58	-3.4352627
6	0xc049bbf8	-3.1520977
7	0xc016456c	-2.3479872

bn2.running_var f4 [8]
0	0x41a3d9c8	20.481339
1	0x40f91f71	7.785088
2	0x41d9544b	27.166159
3	0x41ee3a0a	29.77834
4	0x421547ce	37.32012
5	0x41105a97	9.022117
6	0x41c70f15	24.882364
7	0x4190918b	18.071066

deconv3.weight f4 [8, 1, 3, 3]
0	0xbea3f93b	-0.32026085
1	0xbed43a51	-0.41450742
2	0x3e858ab5	0.26082388
3	0xbf05e81d	-0.523073
4	0xbf6812f1	-0.906539
5	0xbeb36ecf	-0.35045478
6	0xbd92cb6e	-0.071677074
7	0xbf29bb8f	-0.66301817
8	0xc020706f	-2.5068624
9	0x3c8b7a52	0.0170261
10	0x3e5aad2f	0.21355127
11	0xbe7aa196	-0.24475703
12	0x3e0ef0aa	0.13958994
13	0xbc065743	-0.008199516
14	0xbe4a0cd6	-0.19731459
15	0xbd90f2a8	-0.07077533
16	0xc03089d4	-2.7584124
17	0xbda9782f	-0.08274876
18	0x3ea8ceb9	0.32970217
19	0xbe944362	-0.2895766
20	0xbee1d796	-0.44109792
21	0xbe5adf85	-0.21374328
22	0xbfaa39d1	-1.3298894
23	0xbfb66a66	-1.425122
24	0xbeb4d20b	-0.353165
25	0xbf85ab86	-1.044297
26	0xbf8b0d61	-1.0863458
27	0xbf4463a6	-0.7671455
28	0xbf64f7a5	-0.89440376
29	0xbf7bbe5a	-0.9833733
30	0xbf9334bb	-1.1500467
31	0xbfa95ee5	-1.3232085
32	0xbf91e4c7	-1.1397942
33	0xbef9995e	-0.48749822
34	0xbf31b4fb	-0.6941678
35	0xbeb30a46	-0.34968776
36	0xbf43cbc4	-0.76482797
37	0xbf63483f	-0.88782114
38	0xbd288c83	-0.041149627
39	0xbf5d8563	-0.86531657
40	0xc01026d3	-2.2523696
41	0xbe2adc61	-0.1668563
42	0x3e540620	0.20705462
43	0xbe67cbd3	-0.22636347
44	0x3ddc4002	0.10754396
45	0xbbdfd69a	-0.0068310024
46	0x3df54cbf	0.11977529
47	0xbce1b0c9	-0.027550118
48	0xbcab9266	-0.020943832
49	0x3e767db7	0.24071394
50	0xc0770468	-3.859644
51	0x3c9b1e6f	0.01893541
52	0x3d84e143	0.06488278
53	0xbac3a790	-0.0014927257
54	0xbf104a82	-0.5636369
55	0xbec8049e	-0.39066023
56	0x3edbe82a	0.42950565
57	0xbfa71aff	-1.3055114
58	0xbf069453	-0.52570075
59	0x3f0e6c7c	0.55634284
60	0xbfc9fd03	-1.5780338
61	0xbf072f2a	-0.5280634
62	0x3e8f0a5a	0.27937585
63	0x3e07c8c5	0.13260181
64	0x3d23cfaf	0.039992984
65	0xbe8d6ab2	-0.27620465
66	0x3ea36b73	0.31917915
67	0x3ebe9ebf	0.3723049
68	0xbfa40b9b	-1.2816042
69	0x3e031072	0.12799242
70	0x3eac5c1f	0.33664033
71	0xbfc53371	-1.5406324
