model/GAN/generator_16d.pt (torch, 120359 bytes, 15 tensors)

fc1.weight f4 [736, 16]
000000 36 7f 15 3e 52 e7 ae 3d d2 81 24 3f c2 eb 2a 3e
       0.14599308 0.085402146 0.6426059 0.16691497
000010 01 b8 46 3e 20 a2 fa 3d 30 be 28 be 06 81 fc 3d
       0.1940613 0.12237954 -0.16478801 0.12329297
000020 54 5b 1a bf 3c 54 fd be e1 4b f5 3e 2f 65 75 3e
       -0.60295606 -0.49478328 0.47909454 0.2396438
000030 52 af de be 25 71 89 bd 15 31 32 3e f8 67 f6 be
       -0.43493134 -0.06711034 0.17401536 -0.48126197
000040 05 e7 8b 3e 3d ec c6 bc 45 8e b0 3e f5 47 67 3e
       0.2732469 -0.024282569 0.34483543 0.22586043
000050 b6 90 88 bd d2 d6 64 bd 59 e1 73 bd d5 b2 a5 bd
       -0.066682264 -0.05586893 -0.05954108 -0.0809075
000060 2d 15 e8 be 28 d1 8f be 77 0d b3 3e af 96 da 3e
       -0.45328656 -0.2808926 0.3497121 0.42693087
000070 46 75 16 bd e6 90 ca be d0 ce 43 be 46 21 3b 3e
       -0.036732934 -0.39563674 -0.19121861 0.18274412
000080 a2 9e c1 3e 5d d3 29 bd 09 33 c8 bd 93 89 cf 3d
       0.3781634 -0.041461337 -0.09775359 0.10133662
000090 59 de a5 3e af 7e 9c be 3c b6 93 bd e4 08 f3 3e
       0.323962 -0.30565402 -0.07212493 0.4746772
0000a0 c3 00 2e 3f 29 05 1b 3d e8 fb 7c 3d 2a 1d 81 bd
       0.6796991 0.037846718 0.061763674 -0.06304391
0000b0 3c a6 9a be 00 fb 0c be df 05 79 3d 4b 2c b5 be
       -0.30204952 -0.13767624 0.060796615 -0.35385355
0000c0 38 7b 05 bf ed 49 f6 3d c8 dc 98 3d 11 37 95 3d
       -0.5214114 0.12025819 0.07463986 0.07285894
0000d0 28 9d d7 bd 59 9c 0f be 7f 44 31 ba db bc 3f 3e
       -0.10528022 -0.14024486 -0.0006762221 0.18724386
0000e0 8a 54 9c bc 9c 9e 86 be 29 1c 08 3e f2 02 a4 3e
       -0.01908328 -0.26292884 0.13291992 0.32033497
0000f0 54 90 a6 3e 73 4a 13 be 32 fe ac be df 3c 7d 3e
       0.3253199 -0.14383869 -0.33787686 0.24730252
000100 05 64 bb 3d c1 ad 26 3d 59 8d 24 be 3f 6b f3 3c
       0.091499366 0.04069305 -0.16069545 0.029714225
000110 f7 21 da be 5f 89 4a be 7e ef b2 3e 0f 94 e5 3e
       -0.42604038 -0.19778965 0.34948343 0.44839522
000120 f6 e0 0a bf 76 4d c9 3d 69 a3 f7 3d 56 72 59 be
       -0.54249513 0.098292276 0.12091715 -0.21235022
000130 79 ef 21 be f6 46 aa be 25 4e c6 bd df a9 ca be
       -0.15814008 -0.33257264 -0.09682874 -0.39582726
000140 72 31 b1 be 7c 25 3f 3d 6b f5 35 3d 22 2b 14 be
       -0.34608036 0.046666607 0.044423502 -0.14469579
000150 56 ef fc 3e a1 09 6c be ef dd fb be 70 a1 83 be
       0.4940135 -0.23050548 -0.4919276 -0.25709105
000160 bd 12 43 3e f6 45 4e be 57 81 f1 3e fa 7c ed be
       0.19050117 -0.20143875 0.4716899 -0.46384412
000170 81 2b 53 be 7b b7 e0 bb 7e 9c de 3d 44 d4 63 3e
       -0.20622064 -0.00685781 0.10869692 0.22248942
000180 60 88 62 be 0d ef 6d 3e 08 04 4f 3d db 5d 2e 3c
       -0.22122335 0.23235722 0.050540954 0.010642494
000190 75 5f 2c be ba 35 e3 be af d5 b3 bc 62 66 d7 be
       -0.16833289 -0.44376928 -0.021952478 -0.420703
0001a0 1e f0 2c be fd e5 40 3e 85 4d 5e 3e 7b a7 9c 3d
       -0.16888472 0.18837734 0.21709259 0.07649132
0001b0 03 49 9a 3d 60 8e a6 3d 9e 79 ae bc 9b 79 80 3d
       0.07533457 0.081326246 -0.021298226 0.062731944
0001c0 02 46 09 3f 31 1b a3 3e 75 23 d0 3d d9 a4 df 3e
       0.5362245 0.31856683 0.10163013 0.43680456
0001d0 f7 c1 b0 be 88 00 12 3e 45 bf 0f 3f 80 01 53 bd
       -0.34522983 0.14258015 0.5615123 -0.051515102
0001e0 69 d8 4c be e4 69 69 3e f3 2a ab 3d eb 69 a0 be
       -0.20004429 0.227943 0.08357801 -0.3133081
0001f0 3f b6 db 3e 96 56 83 3d 87 4d 15 bc ca 89 49 3d
       0.4291248 0.06412999 -0.009112722 0.04920367
000200 fa e9 af 3c 62 b0 b8 3e ea 07 c7 3d b7 13 85 3e
       0.021473873 0.3607207 0.09718306 0.25991604
000210 e1 ea ab bd f3 92 84 be 6f c5 94 3d 03 8d 51 3e
       -0.08394409 -0.25893363 0.0726422 0.20463948
000220 15 fc bf 3e b5 86 c7 3d b5 f7 6c be 02 8c 11 bf
       0.3749701 0.0974249 -0.23141368 -0.5685426
000230 3d 45 85 3e e5 2d 52 3e 01 61 ac 3e 76 99 18 3e
       0.26029387 0.2052532 0.33667758 0.1490229
000240 67 4b d9 3e 1b 87 53 3e 3b e0 0d 3f 3b 88 59 3e
       0.4244034 0.20657007 0.55420274 0.21243374
000250 73 cf 94 3d a5 d8 b4 bd 02 c6 c7 3e 0b 0c fc be
       0.0726613 -0.08830384 0.39018255 -0.49227938
000260 cf 8e eb 3d 4a ac 28 be 6e bb 12 bf 8f bb 03 bf
       0.11501848 -0.16471973 -0.57317245 -0.51458067
000270 da 21 a2 bb 71 90 72 bd 43 f9 d1 3e 5a f4 2d be
       -0.004947883 -0.05921978 0.41010484 -0.16987744
000280 f1 31 5e bd 2f 1a ac 3e 1a 30 1b be de 70 d8 3e
       -0.054246847 0.33613726 -0.15155068 0.4227361
000290 33 db 56 bb 17 dc 7b be b3 32 a9 3e 04 dd 01 3f
       -0.0032784462 -0.24595676 0.33046493 0.5072787
0002a0 38 af 29 be 74 a6 fd 3e 18 da 62 bd 78 62 07 bf
       -0.16570747 0.49541056 -0.05538377 -0.52884626
0002b0 53 1c 09 be 66 55 7e bd 5f ef c0 3e 52 a1 1b 3f
       -0.13389711 -0.06209316 0.37682626 0.6079303
0002c0 86 bb 14 3f 85 bc 4e be 93 20 4a 3d 5b 87 d7 be
       0.5809864 -0.20189102 0.04934747 -0.42095456
0002d0 48 23 8c be 05 ef a2 3d 65 70 c9 be 50 d3 17 3e
       -0.27370667 0.079557456 -0.39343563 0.14826703
0002e0 1b a8 8e 3e e6 73 1f 3e 27 91 1d bf 52 f5 e1 bd
       0.2786263 0.15571555 -0.6154961 -0.11033119
0002f0 67 23 37 3e 14 85 95 3d 7f 9f 27 be 17 ff f8 3d
       0.17884599 0.07300773 -0.16369437 0.121580295
000300 31 f5 3d be 58 f1 fb be 31 ec 30 be 18 3b 9c bd
       -0.18550564 -0.49207568 -0.172776 -0.07628459
000310 e5 cd 01 3f 2e 91 ab bd 3c 87 46 3e dd eb 14 3d
       0.50704795 -0.083773 0.19387525 0.03635775
000320 3d d9 84 bd ea 40 72 be ca bb 96 3e c7 2d 5f be
       -0.064867474 -0.23657575 0.29440147 -0.21794806
000330 4e fd 30 3d 53 a8 94 3d 59 e0 24 3d 09 7d 27 be
       0.04321032 0.07258668 0.040253017 -0.16356291
000340 4b 40 eb bd 4f be 4c be e1 8c 05 be 4a d5 0d 3f
       -0.11486872 -0.19994472 -0.13042022 0.5540358
000350 52 22 5c be e4 5f df 3d 17 50 87 be d7 33 ac be
       -0.21497467 0.109069616 -0.2642829 -0.336333
000360 6a a1 e5 3d 82 72 19 3f e9 a4 14 3e f5 70 93 3e
       0.11212428 0.5994035 0.14516033 0.28797117
000370 3d a7 15 be e0 2c 4b be 7d ca 01 3e 14 88 4f be
       -0.14614578 -0.19841337 0.126749 -0.20266753
000380 78 e9 77 3b ec 31 76 3d 39 4d ff 3e b1 57 8b be
       0.0037828367 0.060106203 0.49863604 -0.2721534
000390 a3 9b fb 3c 21 b3 db 3e 40 7a 77 3e 0d 69 16 3e
       0.030713862 0.42910102 0.24167728 0.14688511
0003a0 d6 84 53 3e 06 d6 f5 bc fd de fd be c2 09 16 bf
       0.20656142 -0.03000928 -0.4958419 -0.5860864
0003b0 e6 79 0e 3e 71 da 68 3d d3 e7 7d be 22 7f f7 3c
       0.13913688 0.056848947 -0.24795465 0.030211989
0003c0 63 e1 e3 be 3e 2c aa be b0 17 0e 3f 26 91 ad 3d
       -0.44507894 -0.3323688 0.55504894 0.084749505
0003d0 76 92 bd 3c 93 8e 2e 3f 87 e0 48 3e af 2b 82 be
       0.023141127 0.681863 0.196169 -0.25423953
0003e0 01 71 f7 3e 1f e8 e5 3e 10 f6 b4 bc d0 38 69 3e
       0.48328403 0.44903657 -0.022089988 0.22775578
0003f0 e1 83 11 3e 16 09 45 bd 98 69 29 bf 8d ab 20 bf
       0.14210464 -0.04810437 -0.6617675 -0.62761766

fc1.bias f4 [736]
000000 f3 d7 8a bc 2e 9b a1 be f7 e5 b1 3c b3 0f ee 3b
       -0.016948676 -0.31563705 0.021716101 0.007265055
000010 05 5f 89 bc 80 d4 6e 3e dc 4e 37 3d eb 64 c3 3d
       -0.016768942 0.2332325 0.04475294 0.09540733
000020 5d 94 87 be a9 91 39 3e c9 6b f3 bd 3a 8e e7 3d
       -0.2648038 0.18121971 -0.11885793 0.113064244
000030 b1 3f 3f be d6 35 ce 3d 93 07 25 be de b7 2a 3d
       -0.1867664 0.10068862 -0.1611617 0.041679256
000040 bc 76 29 3e 84 36 36 3e 2c 3f 0e bd f5 f4 cb 3b
       0.165492 0.17794234 -0.034728214 0.0062242695
000050 b0 ab 6b 3c d5 b5 e7 3e 07 c8 47 3e c4 da ed be
       0.014384195 0.45255914 0.19509898 -0.46455967
000060 a0 2a 00 bf 12 d1 ee bc 5d 7d 4e 3e 7b 85 35 be
       -0.5006504 -0.029152427 0.2016501 -0.177267
000070 c2 44 a3 bd 17 11 ac be a3 96 63 be 15 9c 17 be
       -0.07972099 -0.3360679 -0.22225432 -0.14805634
000080 1f 02 fd bc 8c b7 da bd 87 fc c8 3c 94 24 8c be
       -0.0308848 -0.1067954 0.024534477 -0.27371657
000090 92 a6 78 bd 3f 46 99 bd 65 b0 6d be a0 50 76 bd
       -0.06070573 -0.074841015 -0.2321182 -0.060135484
0000a0 4c af 6d be 82 d1 7c 3d af b7 99 3e 2a 75 87 be
       -0.23211402 0.06172324 0.30022952 -0.26456577
0000b0 f4 74 df bd 6d ab 27 bc ff 81 84 bd 1f fc 38 bd
       -0.10910979 -0.010233742 -0.06470107 -0.045162316
0000c0 24 b7 40 3d 49 10 13 bf ed 44 b2 be aa c8 f2 be
       0.047049657 -0.57446724 -0.3481821 -0.4741872
0000d0 bd ee 0b be 1a 75 42 bf 95 95 84 be 2c 1f 84 be
       -0.1366529 -0.7595993 -0.25895372 -0.25805032
0000e0 30 0a b7 be ea e4 02 bf b8 bb ae be 27 53 22 bf
       -0.3574996 -0.51130545 -0.34127593 -0.6340813
0000f0 82 83 f3 bd d0 a0 d4 be b2 3d b1 be f0 e5 c3 be
       -0.118903175 -0.4152894 -0.34617382 -0.38261366
000100 44 08 0c bf 74 9b 79 be 90 69 e4 be f5 a0 87 bc
       -0.5470011 -0.24375707 -0.44611788 -0.016556242
000110 e8 40 3a 3e 82 7d 5b be 89 09 7d be 96 64 8e 3e
       0.18188822 -0.21434596 -0.24710669 0.27811116
000120 f5 0b 98 3e ec 28 75 3d 13 01 95 3c ef 47 44 3d
       0.29696622 0.05985348 0.018188989 0.047920164
000130 b4 90 82 3e 0e 43 85 3d 83 3e 31 bd 0c 47 69 bd
       0.25501025 0.0650693 -0.043272506 -0.05695252
000140 b0 a9 e0 3d f5 0d 07 3e a4 fb 95 3e 63 1b 98 3e
       0.10969865 0.13188918 0.2929355 0.29708394
000150 24 48 61 3e 1e d5 85 3b 12 59 e7 3e 60 96 76 bd
       0.22000176 0.0040842434 0.45185143 -0.060202003
000160 7d dc a5 3b c7 58 81 3e 95 b3 bf 3e 16 7b 62 3e
       0.0050616846 0.25263044 0.37441698 0.22117266
000170 f9 2c f1 be 31 e1 f4 bd 96 b0 e0 bc d7 f0 3d be
       -0.47104624 -0.11957014 -0.027427953 -0.18548904
000180 a3 c4 d7 bd 3f ad b4 3d 12 d4 55 be 78 9b d0 3d
       -0.10535552 0.088221066 -0.2088168 0.10185903
000190 34 e7 37 be 9f 93 c6 bd 47 e7 53 bd 3d 8c a9 be
       -0.1795929 -0.09696125 -0.051734235 -0.33114806
0001a0 a2 5b 79 be 2d 79 45 3e 9c 58 94 be dd 2a dd 3d
       -0.24351361 0.19284506 -0.28973854 0.10799191
0001b0 ef d8 8c 3d 47 bc 93 be bf ee 91 bd ec f9 72 3b
       0.06877314 -0.28854582 -0.07125615 0.0037075235
0001c0 ba fd 55 be 5a 65 0c be 71 40 3c 3e 3f cb a7 3d
       -0.2089757 -0.13710538 0.18383957 0.08193063
0001d0 26 6a 23 be b7 ca 13 bf 3c 44 e7 bd db 4f 50 3e
       -0.15958461 -0.57731193 -0.112923115 0.20342962
0001e0 2f 73 31 3e 70 76 57 3d 83 55 ed be f5 aa e6 be
       0.17329095 0.052603185 -0.46354303 -0.45052305
0001f0 21 01 07 bf 93 8d 95 3d a7 29 b4 be 98 7a bc 3e
       -0.527361 0.07302394 -0.35188028 0.36812282
000200 35 7a c5 bd 3e e8 c8 3d b4 ef 3f be 6b 83 a9 be
       -0.0964245 0.09809922 -0.18743783 -0.33108076
000210 8a 13 4f be 25 47 71 be 72 df 28 bd 07 ec 10 3d
       -0.20222297 -0.23562296 -0.04122872 0.035381343
000220 02 ca e4 be ef 00 9d 3e 78 1b 6f 3e 91 d3 01 bd
       -0.4468537 0.30664775 0.23350322 -0.031695906
000230 cf 66 66 be 5d af 89 be 1f 8e 94 bd 89 c2 82 be
       -0.22500156 -0.26891604 -0.0725367 -0.25539044
000240 d8 6d 6a be af e0 02 be 29 d6 fa bd cd 22 10 bd
       -0.22893465 -0.12781022 -0.12247879 -0.03518944
000250 d1 4e 05 bf a2 59 7d 3d 60 4d e2 be 21 94 69 bd
       -0.5207339 0.06185306 -0.44199657 -0.057026032
000260 fc 0f 30 be b1 84 9b 3d 1a 3a 91 be 49 1f 81 be
       -0.17193598 0.07593668 -0.2836464 -0.2521918
000270 82 b4 1a be 9f 4a 5a 3e 05 df 86 be 37 3a 0b 3b
       -0.15107921 0.21317528 -0.26342025 0.0021244416
000280 e9 de 09 3e 22 53 07 3e 49 44 0f 3e 73 44 a3 3e
       0.1346394 0.13215306 0.13990892 0.3188816
000290 72 c3 d8 bd b5 67 3f be 93 fb 79 3e 7c 8f ae be
       -0.10584153 -0.18691905 0.24412374 -0.34093845
0002a0 2e 1b 01 be c6 50 72 be 97 ab c1 be 37 f1 a9 be
       -0.12608024 -0.23663625 -0.37826225 -0.33191845
0002b0 3e 9f 4b be 75 ee 05 bf 20 72 02 bd 6c f3 db be
       -0.19884965 -0.5231698 -0.03184712 -0.42959154
0002c0 ce db a4 bd d6 49 9c bb c0 4d 08 be b8 f1 cf be
       -0.08049737 -0.004769544 -0.1331091 -0.40614104
0002d0 60 34 b4 bd d7 4c 62 be 19 f2 10 be f4 b2 88 bc
       -0.08799052 -0.22099625 -0.14154853 -0.016686894
0002e0 e3 8d 09 3f e4 71 10 3e 3c 58 58 3e 48 d0 02 3e
       0.53732127 0.14105946 0.21127409 0.12774765
0002f0 7b ba 66 3d c4 cd 17 3e 57 c5 19 be 56 44 59 3e
       0.056330185 0.14824587 -0.15016685 0.21217474
000300 a7 bf 4c bd b5 3c 00 3e bd 0a f4 3c 76 9c c9 bc
       -0.04998746 0.12523158 0.029790277 -0.02461074
000310 6c 1b da bd aa 99 fe 3d 00 ec 17 be 0e b8 61 be
       -0.106497616 0.12431653 -0.1483612 -0.22042868
000320 11 b9 e6 be 19 4d ff bd 1b 27 ad be 4e f4 b5 3d
       -0.4506307 -0.12465877 -0.33818898 0.08884488
000330 ba fb 2f be 3d 45 07 3c b3 5a 81 be 80 ae 1d 3e
       -0.1718587 0.008256254 -0.2526451 0.15398598
000340 83 d7 6f 3e 63 ef 86 be a7 0d 25 bd c8 34 8f be
       0.23422055 -0.26354513 -0.040296223 -0.27969956
000350 77 45 66 be 48 76 d3 bd 4a b2 91 be 4f b1 21 be
       -0.22487436 -0.10325295 -0.28456336 -0.15790294
000360 17 d2 95 3d 64 b5 10 be e5 da d7 3d 45 6e 8c bd
       0.07315462 -0.14131695 0.10539798 -0.0685697
000370 0a 86 45 3e b0 3b ef 3d 92 c7 dd bd 62 26 38 be
       0.19289413 0.11681306 -0.10829081 -0.17983392
000380 fb 7a 2d bd cb 8e c1 3d be be 07 bd ed 9f 92 bc
       -0.04235361 0.09451064 -0.03314089 -0.017898524
000390 95 ca 42 3e 5c 85 08 3e 34 de 28 be bc 69 16 3f
       0.19022591 0.13332123 -0.16491014 0.5875509
0003a0 0d fc 14 3e d4 a8 3e be 40 35 de be 15 e8 a4 3e
       0.14549275 -0.1861909 -0.43400002 0.32208315
0003b0 09 fa 87 bd e9 0e dc 3d 22 7b 5c bd ff 0a a8 be
       -0.06639487 0.107450314 -0.053828366 -0.3282089
0003c0 c9 d7 7c be bc 21 18 ba 1d 31 9a 3d 29 4c 5a be
       -0.2469169 -0.00058033667 0.07528899 -0.21318115
0003d0 69 00 81 bd 1d fb 8c be a3 6e 04 3c e5 d0 f4 bd
       -0.06298906 -0.27535334 0.0080830185 -0.11953906
0003e0 63 6e 3f be 3a 91 0a bf ba 99 a4 bd 71 52 a2 be
       -0.18694453 -0.5412785 -0.080371335 -0.31703523
0003f0 c2 5d e6 3c 28 0f 42 be 2c 2b b4 3e 17 20 02 3d
       0.02812088 -0.18951094 0.35189188 0.031768885

deconv1.weight f4 [32, 16, 5, 5]
000000 d3 ae 03 be ea 1d 28 3e 87 01 38 be 3e cc a4 3e
       -0.12859659 0.16417661 -0.17969333 0.32187074
000010 40 54 92 3e 89 d8 94 be c4 a0 51 3e 8f c3 4a bf
       0.28579903 -0.29071453 0.20471483 -0.7920465
000020 20 dd 2a bd 67 be 3a be 1f de 89 bd 6c 2c cc bd
       -0.041714787 -0.18236695 -0.06731819 -0.0996941
000030 4b d7 eb be 33 ae f0 be c4 e6 bf be 27 2a ad be
       -0.46062693 -0.47007903 -0.37480748 -0.33821222
000040 b1 0c 39 3d 3a e6 8b 3d 21 6f be be ad 08 91 be
       0.04517812 0.068310216 -0.3719416 -0.28326932
000050 8a 26 31 bf df 40 07 3e 3b 6a 5b 3e 56 dc 89 3e
       -0.6919943 0.1320834 0.21427242 0.26925915
000060 23 02 9b bf 3d 0f 8c 3e 35 d5 10 be fa f8 f4 3e
       -1.2110027 0.27355376 -0.14143832 0.47846204
000070 05 49 81 be 14 e0 0d 3f d6 c3 85 3d 23 59 74 3e
       -0.25251022 0.5542004 0.06531493 0.23862128
000080 45 7d 4f 3f 5e 1a 81 bf 77 78 41 3e 4b 44 de 3e
       0.8105052 -1.0086172 0.1889361 0.43411478
000090 66 f4 4f be c5 76 1b 3e 4b 72 d3 bd 55 83 19 3f
       -0.20308074 0.15182026 -0.10324534 0.5996602
0000a0 4c ce 9d 3e ca d6 7d be 27 c9 85 bc 76 e2 1c be
       0.30821455 -0.24788967 -0.016331268 -0.15320763
0000b0 e0 17 9c ba b3 f0 0e 3d f0 01 ba be a2 02 53 3f
       -0.0011908971 0.034897517 -0.36329603 0.8242589
0000c0 91 f2 53 be c1 f4 3c 3f 21 93 7f bd 71 62 2a 3f
       -0.20698 0.73810965 -0.062396172 0.6655646
0000d0 7e b3 78 3e 21 68 45 3e a6 64 49 3e 82 d3 0b be
       0.24287221 0.19278003 0.196673 -0.13654903
0000e0 21 06 21 be 22 a5 51 3e ec f7 ff bd b4 e4 e8 be
       -0.15724994 0.2047315 -0.12498459 -0.45486987
0000f0 54 09 b1 be d2 ef ac 3e 32 32 d1 3e d3 83 aa 3e
       -0.3457743 0.33776718 0.40858608 0.333037
000100 f9 9b e5 be 4d 5b 35 be e4 da 8e 3e 96 11 06 3e
       -0.4484556 -0.1771061 0.27901375 0.13092646
000110 09 f3 8f bc b9 a4 1f bf 7c aa 4e be 4e 89 71 3e
       -0.017571943 -0.6236072 -0.20182222 0.23587534
000120 43 bb 55 3e ba 7d 8c be 8c f7 34 be be 38 1b bf
       0.20872216 -0.27439672 -0.17672557 -0.60633457
000130 7d 8a bd bd 2f b9 db be 28 05 bc be 11 c3 02 bf
       -0.0925493 -0.4291472 -0.36722684 -0.510789
000140 7f c5 fa bd 82 fb 8e 3e 23 81 10 be 8f 90 85 3e
       -0.12244701 0.2792626 -0.14111762 0.26086852
000150 d2 ee ad 3e 76 c4 6e be 40 70 95 bc 72 99 c9 bb
       0.33971268 -0.23317131 -0.018242002 -0.0061523253
000160 06 c6 2e 3e ac 70 b6 be 0a 5d a0 3d 90 ae 06 3e
       0.17067727 -0.35632837 0.07830246 0.13152528
000170 14 f7 93 3c 1c 17 89 3e 3c 82 82 bd 89 01 0f bf
       0.018062152 0.26775444 -0.063724965 -0.5586172
000180 60 4f e3 3d 45 5b aa bd 13 43 57 be 2e 73 2d bf
       0.11099124 -0.083181895 -0.2102168 -0.67753875
000190 cc 57 49 bf 64 31 af be 6d 6b 09 bf 35 9d b0 3e
       -0.7864959 -0.3421737 -0.53679544 0.3449494
0001a0 62 f6 f4 be a9 03 1e be 1e e1 4f 3e 10 b0 03 be
       -0.47844225 -0.15431084 0.20300719 -0.12860131
0001b0 45 41 77 be 7d 76 91 3e 47 2e ee be b3 7c 74 3e
       -0.24145992 0.28410712 -0.46519682 0.23875694
0001c0 8e f0 92 be f7 c6 08 bd 40 4e b5 3e 35 9e 25 3f
       -0.28699154 -0.033392873 0.35411263 0.6469453
0001d0 a6 b9 96 3d e4 5d 38 be 4c c8 c3 be af 0f 6d be
       0.073596284 -0.18004566 -0.38238752 -0.23150514
0001e0 35 09 d9 be 22 8d 53 3d a8 2c 17 bf c3 7e ac 3e
       -0.42389837 0.051648267 -0.59052515 0.33690462
0001f0 2a 0b dd be 59 67 fb 3e 19 ad 70 be 58 7a 8b 3e
       -0.4317258 0.49102286 -0.23503532 0.27241778
000200 3c bd cd 3e 82 ed 07 be a1 50 b9 3d 0d ad b2 be
       0.40183437 -0.13274196 0.09048582 -0.34897652
000210 3e 36 c4 3e ac c0 91 be 27 91 84 be b5 fb e3 bb
       0.38322634 -0.2846731 -0.25891992 -0.006957496
000220 b1 6f ae be 8e 08 ca 3e d9 9e d5 bd bf 9d f7 be
       -0.3406959 0.39459652 -0.104306884 -0.48362538
000230 b1 69 a3 3e 3a bd 08 3d 54 6d 1a 3e e3 c5 2e 3b
       0.31916574 0.033383586 0.15080768 0.0026668243
000240 fa 1f 7c be eb 7e ed bc ad 95 ed 3e ef 88 e1 be
       -0.24621573 -0.028991183 0.46403256 -0.44049785
000250 3f fe cc bd 03 a4 16 3f b4 d6 68 3e 25 39 d3 3e
       -0.10009431 0.5884401 0.22738153 0.41254535
000260 41 9c d0 bc b4 5e b3 3e 1b 3d c0 3d 6c 75 32 be
       -0.025465133 0.3503319 0.09386655 -0.17427605
000270 a7 ef 5f 3b 9b 78 e7 bc 0f a5 f5 bd 66 9a 14 bf
       0.0034169944 -0.028255751 -0.11994373 -0.58048093
000280 a3 26 b7 be 96 5b 74 be 22 63 91 bd b8 9f 88 be
       -0.35771665 -0.23863062 -0.07098986 -0.26684356
000290 01 e5 bf be 5a ae b2 3d ed 0f f5 3c 66 17 db be
       -0.37479404 0.08724661 0.02991482 -0.4279129
0002a0 ee b9 d8 be a4 1b 5f 3e 9a 9b e7 3d 36 38 9c be
       -0.42329353 0.21787888 0.113089755 -0.30511636
0002b0 f8 c0 eb be 3a 0c 2a be 94 a3 1e 3e c4 48 9c bd
       -0.4604566 -0.16606227 0.15492088 -0.076310664
0002c0 8b c3 04 3f 9f 97 22 be 28 2e 0b 3f 9a 32 29 bf
       0.51860875 -0.15878151 0.54367304 -0.66092837
0002d0 4f 6c 4e be 76 4a 0e 3f 1b d3 fa be e3 32 8f 3d
       -0.20158504 0.5558237 -0.48989186 0.06992128
0002e0 03 5c c2 3e 8e b4 95 be 9a be f1 3e c8 ff 6e 3e
       0.37960824 -0.29239315 0.4721573 0.2333976
0002f0 71 0d e6 3d fa 56 0e be e5 33 37 3e ea 0d 1f 3f
       0.112330325 -0.13900366 0.1789089 0.62130606
000300 94 b5 b8 be 41 10 1c 3e c5 29 99 3e ef 9b 8a 3b
       -0.36076033 0.15240575 0.2991468 0.0042300145
000310 fa c3 0d 3f 7e 86 cc 3d 5e 32 09 3f 48 1c e3 bd
       0.5537716 0.0998659 0.5359248 -0.110893786
000320 ef a7 61 be 59 32 82 3e 72 df fc 3e 37 87 13 bf
       -0.22036718 0.25429037 0.49389225 -0.57628196
000330 40 ad 35 be 69 77 03 bf 17 60 64 3d 1f 8c 25 be
       -0.17741871 -0.5135408 0.0557557 -0.16166733
000340 0d 8b 3a bf 89 ee e9 bd cb 00 a7 3e f9 ac 6a 3e
       -0.72868425 -0.1142245 0.32617792 0.22917546
000350 e2 bf cd bd 53 61 94 be f3 38 1d be ac 53 06 3d
       -0.10046364 -0.28980502 -0.15353756 0.03279464
000360 cb 60 04 3e dc 83 7e 3c 3b d0 9a be 81 08 dc bd
       0.12927549 0.015534367 -0.30236992 -0.107438095
000370 01 15 f4 3c 3e d4 bc 3e 72 c6 6c bd 62 56 22 bf
       0.029795172 0.36880678 -0.05780644 -0.6341306
000380 2a 7e 28 3f cd 22 7d 3e 7e 68 6c 3e f9 c7 29 bf
       0.6581751 0.24720307 0.23086736 -0.6632076
000390 69 6b c6 3e 14 05 a1 3e 0d 9f 9f be 33 e4 65 3f
       0.38753822 0.31449187 -0.31176034 0.8980133
0003a0 78 a5 ae 3e 6f 45 c6 bc 0b 42 40 be ef 3b ca be
       0.34110618 -0.02420303 -0.18775193 -0.3949885
0003b0 31 73 e8 be 17 a1 ce 3e 36 ae c2 3e be 2a c8 3d
       -0.45400384 0.40357277 0.38023537 0.097737774
0003c0 a8 3f 66 be 1a 29 16 3e bc d0 0c be 5c 3d 45 bd
       -0.2248522 0.14664117 -0.13751501 -0.04815422
0003d0 3f 3c 37 3f db 54 c1 3b e3 31 ab bd 6f d2 26 be
       0.71576303 0.005900008 -0.083591245 -0.16291212
0003e0 97 28 cd 3e 47 56 a2 3e 09 f0 24 bd 99 ec ac bd
       0.4007003 0.3170645 -0.040267978 -0.08443565
0003f0 95 a2 43 be 96 03 99 be 1d cd 8c 3e 88 49 fb bd
       -0.19104989 -0.29885548 0.2750024 -0.12269884

deconv1.bias f4 [16]
000000 c9 62 ac 3d 0a a1 80 bd dc 61 ac 3d c6 89 96 bc
       0.08417279 -0.06280716 0.08417103 -0.018376242
000010 79 1f c1 3d a2 0c 3c 3e c1 04 8a 3d 86 97 6c 3d
       0.09429831 0.18364194 0.06739188 0.05776169
000020 a3 a5 34 bd e0 2d 84 3d c7 63 b2 bd d6 69 1d bc
       -0.044103276 0.064540625 -0.08710437 -0.009607753
000030 70 e3 73 3b e7 1d b4 3d e9 86 94 bd 3e 91 bd bd
       0.003721442 0.08794766 -0.072522946 -0.092562184

bn1.weight f4 [16]
000000 c0 f6 ad 3f cd b0 ae 3f e6 51 b6 3f 30 f2 bb 3f
       1.3590927 1.3647705 1.4243743 1.4683285
000010 94 32 a1 3f 33 23 98 3f d6 60 83 3f a7 b2 b0 3f
       1.259356 1.1885742 1.0263927 1.380452
000020 0f 00 98 3f 3f 2c db 3f 2f ee c2 3f 66 48 a8 3f
       1.1875018 1.7122878 1.5228938 1.3147094
000030 a6 1f 9b 3f 4a 06 9b 3f 6b 58 8e 3f a3 f0 c6 3f
       1.2119033 1.2111294 1.1120733 1.5542186

bn1.bias f4 [16]
000000 f4 ff a4 bd a0 7d 81 be 71 51 8c be 22 22 8b be
       -0.08056632 -0.25291157 -0.27405885 -0.2717448
000010 78 69 46 3e 69 82 d0 bc 81 0b 8f 3e 1b a1 c2 be
       0.1937617 -0.02545281 0.27938464 -0.3801354
000020 3b 73 9f 3d c9 3a f6 be 1a 9f cf be c4 0e cf bc
       0.0778565 -0.48091725 -0.40551072 -0.025275595
000030 60 8e c4 be 0a 62 5f be c9 54 30 be cd a0 c0 be
       -0.38389874 -0.21814743 -0.17219843 -0.3762268

bn1.running_mean f4 [16]
000000 fc a7 0a 3e d1 99 e1 3f cd 33 67 40 b1 17 08 3f
       0.13540643 1.7625066 3.6125367 0.5316115
000010 a0 65 f3 bf 10 ad 61 3f 9c fe 54 bf 37 69 3f 3f
       -1.9015388 0.881547 -0.83201003 0.7476992
000020 c0 47 86 c0 3e 46 70 40 29 e5 1b 40 e8 46 02 3f
       -4.1962585 3.7542872 2.4358618 0.50889444
000030 31 15 b3 3f 3c 8b 02 3f ef 7d 0a 3f f9 f7 9f be
       1.3990842 0.50993705 0.5409841 -0.31243876

bn1.running_var f4 [16]
000000 78 c5 20 41 6d 7e fa 40 33 c0 1b 41 a6 2a 01 41
       10.04821 7.827933 9.734424 8.072912
000010 7a 0b 05 41 b7 a1 e8 40 59 7e 87 41 4e b9 37 41
       8.315302 7.2697406 16.936693 11.48274
000020 e1 0a ec 41 ac 12 23 41 48 e6 ff 40 48 5f 54 41
       29.505312 10.192059 7.9968605 13.273262
000030 18 39 04 41 97 78 cb 40 14 43 d8 40 e4 66 3b 41
       8.263939 6.3584704 6.7581882 11.71262

deconv2.weight f4 [16, 8, 5, 5]
000000 e3 26 13 3d 16 27 1a 3d 6a 9d 06 be 0d c0 83 3e
       0.035925757 0.03763493 -0.13145986 0.2573246
000010 b3 51 c5 3e f3 71 b3 bd e5 cb c3 bd 5f 53 0e 3e
       0.38538894 -0.087619685 -0.09560374 0.13898991
000020 5a c9 af 3e 9c 09 c0 3e 5b d2 d7 bd 55 65 9d bd
       0.34333307 0.3750733 -0.10538169 -0.07685343
000030 75 ea 70 be fd 82 c6 be aa c7 48 bf 6b 7a b2 bf
       -0.23526938 -0.3877181 -0.78429663 -1.3943609
000040 d3 26 88 be fc 23 3b bf d8 6b 5f be 9a 7a dc bd
       -0.2659212 -0.7310178 -0.21818483 -0.10765572
000050 a0 26 64 3f c5 c2 03 3f 8c d4 2e bf d7 47 9e 3e
       0.8912144 0.5146907 -0.6829307 0.30914184
000060 15 cd f4 be a7 17 5a be f7 b3 47 be 8a c8 66 3e
       -0.47812715 -0.21298085 -0.19502245 0.22537437
000070 3a f6 cb bd 36 db 8c be 64 af 04 bf dc eb a6 be
       -0.09959073 -0.27510995 -0.51830125 -0.3260182
000080 93 ed 9b 3e 81 f2 8d be a6 27 42 bf 88 ea 41 bf
       0.30454692 -0.27724078 -0.7584175 -0.7574849
000090 c5 36 c9 3d 15 41 84 3e 1a 29 f7 3d c5 0c 49 3f
       0.098248996 0.25830904 0.120683864 0.7853511
0000a0 d1 49 8c 3e f3 14 7a be e7 ce a8 bd 92 7f 8d be
       0.27400067 -0.24422054 -0.082425885 -0.2763639
0000b0 67 b6 c4 3d 12 f4 0e bf b5 b4 99 3d e5 20 00 be
       0.09605103 -0.5584117 0.0750517 -0.12512548
0000c0 6a c5 f8 3e 22 f4 ed bc 28 3e b9 bb 54 f5 4a 3d
       0.48588115 -0.029047076 -0.0056531616 0.04955037
0000d0 12 9a 9e bd 53 43 11 3f 9e 17 70 3d 21 67 8a be
       -0.0774423 0.56743354 0.058616273 -0.27031806
0000e0 cc 4e da be d7 3b 44 be 60 2b cd 3d f0 9e ba be
       -0.42638242 -0.19163452 0.10018039 -0.36449385
0000f0 e6 8b 52 be 8a 04 21 bf 92 37 1d 3f 86 b1 1c 3e
       -0.2056118 -0.6289755 0.6141292 0.15302095
000100 47 01 48 bf 92 a3 f7 3d b2 ae 47 3f 00 dc 21 3e
       -0.7812695 0.120917454 0.7800094 0.1580658
000110 88 04 64 3e 46 5a 24 3e 8c a5 2d be 9d 2c b5 be
       0.22267354 0.16050062 -0.16957682 -0.353856
000120 cd fd 1e bf b2 51 b7 3c d4 2a 9a be b1 7e 44 bd
       -0.6210602 0.022377823 -0.301108 -0.047972385
000130 2b 6c a0 bf 8b e1 fe bd f9 09 ab bf 59 13 de be
       -1.253301 -0.12445363 -1.3362418 -0.43374136
000140 00 ef 76 bf 6a b1 b0 bd b0 24 3f be 0a 10 13 3f
       -0.96458435 -0.08627589 -0.18666339 0.5744635
000150 bf ce 14 bf 30 40 cf 3e 4d 5b 66 3e 7b f2 83 be
       -0.5812797 0.4047866 0.22495766 -0.25770935
000160 c6 7f 86 3e 1b 82 35 bf ff 20 13 bf 95 cb c4 bd
       0.26269358 -0.7090165 -0.57472223 -0.09609143
000170 92 e8 79 bf 9d fc ad 3e 97 31 d9 bf 16 57 17 be
       -0.976205 0.3398179 -1.6968259 -0.14779314
000180 4a a6 f1 be a7 db 07 3e 9e f6 96 bd f5 70 36 be
       -0.4719718 0.13267384 -0.07371257 -0.17816527
000190 bc aa 96 be 38 2a 85 3d df e6 85 bf cb 57 9e be
       -0.29427135 0.06502193 -1.0461081 -0.30926356
0001a0 cf b9 83 bd ff f6 9f be 5f a8 c0 bd 89 8d 6b be
       -0.064319246 -0.3124313 -0.09407114 -0.2300321
0001b0 83 d3 8b 3e 23 5d 61 be 4d be 28 bf d2 be b1 bd
       0.27309808 -0.22008185 -0.65915376 -0.08678974
0001c0 36 08 c8 bd ba bc ff be b8 46 cf 3d ab 17 c1 be
       -0.09767191 -0.49948674 0.101209104 -0.3771337
0001d0 7c 19 c1 be cc 72 5b be 18 2a 2a be 7e 6d 2c bf
       -0.37714756 -0.2143051 -0.1661762 -0.6735457
0001e0 65 7d 58 be 4c f6 3d bf 4d 40 f3 be 3e d7 b1 be
       -0.21141584 -0.74203944 -0.47509995 -0.3473453
0001f0 fc 77 cf bf 6d bd 87 3e 5d df 3c bd ed a2 81 3e
       -1.6208491 0.26511708 -0.046111453 0.25319615
000200 97 7a 8d bf cb 02 74 3e b1 ce 98 be 7b 49 76 be
       -1.1053036 0.2382919 -0.29845193 -0.24051468
000210 fc 93 63 ba 8d 89 1b bf fb a4 17 be 26 44 ec 3b
       -0.0008681414 -0.6075676 -0.14809029 0.0072102724
000220 52 29 9a be 27 c5 2c bf 37 3f ea 3c 2c f0 aa bf
       -0.3010965 -0.6748833 0.028594596 -1.3354545
000230 e1 a1 d5 bd 68 fe 4e bf c6 d2 86 3d 34 52 fc 3d
       -0.104312666 -0.80856943 0.065831706 0.123203665
000240 25 7d 71 bf 01 49 d1 3a 94 35 7e 3f d9 25 2e bf
       -0.9433158 0.0015967191 0.99300504 -0.680265
000250 64 73 9f be 19 bc d8 3e 3e e6 29 be 59 43 ef bc
       -0.31142724 0.42331007 -0.16591737 -0.029206919
000260 0d 96 72 bf b2 4f a9 be 46 bc 11 3e ea 48 45 bf
       -0.9476021 -0.33068615 0.14231977 -0.77064383
000270 63 14 09 3f 6f 99 c8 3e 77 c4 9c 3e 4d 9f ea be
       0.5354673 0.3917956 0.3061864 -0.45824662
000280 26 77 00 be a0 3e 78 3e d1 20 39 be bf a2 42 be
       -0.12545452 0.2424264 -0.18078925 -0.19007395
000290 13 a5 14 bf 00 b0 26 bf ac 7d 01 be d2 6a 87 3e
       -0.58064383 -0.65112305 -0.12645596 0.26448685
0002a0 16 09 71 bf 0a bb c3 3e 1f 6d d5 3e 11 f6 6d bf
       -0.9415449 0.38228637 0.41684815 -0.9295359
0002b0 e7 bf 7f bf 54 55 ee be 51 a4 96 bf 77 49 dd be
       -0.99902195 -0.46549475 -1.1768895 -0.43220112
0002c0 2b 72 ab bf ae 1b 18 bf bb de 12 3d a2 ed d5 bd
       -1.3394216 -0.59417236 0.035856944 -0.104457155
0002d0 28 9c 8c be 55 83 86 be db 97 35 be 0c 3f ae 3c
       -0.27462888 -0.26272073 -0.1773371 0.021270297
0002e0 26 0a 08 be 81 ab 1f 3e 7f 67 89 be 4f 69 e5 3e
       -0.13285121 0.15592767 -0.26836774 0.44806907
0002f0 9a f2 d3 3e de dc 83 be bc 1e 6d be 4d 7e 33 3e
       0.41396028 -0.25754446 -0.23156255 0.17528649
000300 25 4f 99 3e 08 ca f3 bc ae 8a 11 bf f7 fb 8c be
       0.29943195 -0.029759422 -0.56852233 -0.27535984
000310 24 15 96 bf 3e 8f 85 bf cb 88 88 be 79 ad 13 bf
       -1.1725202 -1.0434339 -0.26666865 -0.57686573
000320 00 57 4c 3f 53 76 2b bf bb 50 1b 3f f7 08 82 be
       0.7982025 -0.66977423 0.6067006 -0.25397465
000330 a7 fc 9f bf 98 ed 03 bf d4 fa 5a bf 6f a9 8d 3e
       -1.2498978 -0.51534414 -0.85538983 0.2766833
000340 53 a2 a7 bf 0b 0e bb 3e 94 f5 0d bf bd 41 88 be
       -1.3096412 0.3653415 -0.5545285 -0.26612654
000350 17 0d 2d be 87 ec 4a be 41 0e 6d bf 0d 77 90 bf
       -0.16899525 -0.1981679 -0.92599875 -1.1286331
000360 55 b6 fb 3c 28 0f 19 bf 3a 0c 2f bf 67 62 64 bf
       0.030726591 -0.5978875 -0.6837803 -0.8921265
000370 27 fc a4 bf 3a 5b 35 bd 85 59 2d bf 3f 0a 8f bf
       -1.2889451 -0.044276454 -0.6771472 -1.1175002
000380 8a 59 1a bd 93 87 45 bf c1 c0 2a bf f8 fe 08 3e
       -0.037683047 -0.77159995 -0.6670037 0.13378513
000390 9c 8e 37 be c5 0c 54 3f 3b 58 42 3e 81 0b d8 be
       -0.17925495 0.82831985 0.1897897 -0.42196277
0003a0 b7 a7 fd be b0 74 85 3e fa 5c 0e bf 31 4c 5b bf
       -0.4954202 0.26065588 -0.5561062 -0.85663134
0003b0 11 aa cb be e3 bd c9 3d 75 aa a2 be 46 63 4b bf
       -0.39778188 0.09850671 -0.31770673 -0.79448354
0003c0 08 1c 84 be f9 9e 8e be 1b bd d9 3e ff 9e 03 3f
       -0.25802636 -0.27855662 0.4252709 0.51414484
0003d0 e5 4d 57 3d 68 72 ca be 57 b8 9b 3d 10 f2 ab 3d
       0.05256452 -0.3954041 0.076035194 0.08395779
0003e0 85 0f ff bd 01 c7 0d 3f 45 5c b0 be 35 4a 8d be
       -0.12454132 0.5538178 -0.34445396 -0.27595678
0003f0 30 51 09 3f c9 3c 18 3f b9 77 2e 3c c9 ac 19 3e
       0.5363951 0.5946775 0.010648661 0.15007319

deconv2.bias f4 [8]
000000 84 06 96 bd 56 05 c4 bd af 82 4a bd 78 70 b3 be
       -0.073254615 -0.0957133 -0.049441036 -0.35046744
000010 48 40 ae bd 2a 74 01 bf f0 2a 31 3c 44 72 f4 bd
       -0.085083544 -0.5056788 0.01081346 -0.11935857

bn2.weight f4 [8]
000000 ee 4c 25 40 5c 22 2c 40 4a 68 2b 40 c0 5e 22 40
       2.5828204 2.6895971 2.6782403 2.537033
000010 6e 3a 15 40 c4 54 4b 40 36 94 06 40 0e 10 0c 40
       2.3316913 3.1770487 2.102796 2.18848

bn2.bias f4 [8]
000000 1e 71 dc be 38 1b 6e bf d9 00 4b bf e1 b7 61 3f
       -0.43055052 -0.9301028 -0.7929817 0.881712
000010 4e b6 9b 3f d5 4f e0 bf 31 44 b0 be 98 d9 c6 3d
       1.216501 -1.7524363 -0.34427026 0.097094715

bn2.running_mean f4 [8]
000000 67 53 af c0 ae ad 3f c0 1a 89 4c c0 64 d5 e3 bf
       -5.478931 -2.9949756 -3.195868 -1.7799497
000010 9c d2 b6 c0 3e 64 b7 c0 b3 b5 70 c0 de d9 0d c0
       -5.713209 -5.7309866 -3.76109 -2.2164226

bn2.running_var f4 [8]
000000 d7 fc 06 42 a9 32 cc 41 26 15 ac 41 75 63 7c 42
       33.746914 25.524736 21.510326 63.097126
000010 57 2c 54 42 96 58 a1 41 f9 77 d6 41 b8 e8 12 42
       53.0433 20.168255 26.80858 36.727264

deconv3.weight f4 [8, 1, 3, 3]
000000 a4 52 78 be 25 d3 e5 bd 6a 8a d3 be 24 fc b9 be
       -0.24250275 -0.11221913 -0.4131654 -0.3632518
000010 38 0a 8a bf e5 74 12 c0 63 7d 79 3d ed 37 18 bf
       -1.0784369 -2.2883847 0.060910594 -0.59460336
000020 0d 4d ea be 52 66 a0 bd 40 2a 05 3d 83 b6 7f 3f
       -0.4576191 -0.07832016 0.032510996 0.99887866
000030 e8 90 d9 be 72 8f bb be 05 9b b4 3e 1c 13 d1 bd
       -0.42493367 -0.36632878 0.3527452 -0.10208723
000040 2a be 91 be ee e3 27 c0 d3 32 26 bf 81 00 03 be
       -0.28465396 -2.6232867 -0.649213 -0.12793161
000050 92 57 00 3e 90 11 65 bf 64 39 cd be 69 c0 cc bd
       0.12533405 -0.89479923 -0.40082848 -0.09997637
000060 f5 6d 52 bf 85 f2 31 c0 59 c4 29 be 75 bc 04 bf
       -0.8219903 -2.7804272 -0.16578807 -0.5185006
000070 d5 66 35 bf 7b da b3 be 26 7b c6 be c8 ea a5 bf
       -0.70860034 -0.35127625 -0.3876583 -1.2962275
000080 8e ff 94 bf 81 31 c9 3d 9a db a5 bf 69 d9 af bf
       -1.1640489 0.09823895 -1.2957642 -1.3738223
000090 2e b9 56 be 73 36 88 bf ca 3b 69 bf de 48 65 bf
       -0.20969078 -1.0641617 -0.91106856 -0.8956431
0000a0 2d 2d d8 bf 0d 48 af bf 30 56 93 bf c9 e2 57 bf
       -1.6888787 -1.3693863 -1.1510677 -0.8433042
0000b0 81 5e 9f 3b ad f9 5e 3e c3 d7 81 be e7 d4 09 bd
       0.0048635607 0.21774931 -0.25359926 -0.033650305
0000c0 69 74 12 be 4f 5d 76 c0 3e ca 62 3e e5 7b 1b be
       -0.1430222 -3.849445 0.22147462 -0.15183981
0000d0 cc 08 0c 3e 30 f9 13 3e c9 96 2a 3f 2b 7f 02 3f
       0.1367523 0.14450526 0.6663633 0.5097529
0000e0 4c 1e 89 be d9 36 17 3f d0 01 5c 3f 9e a6 8c bf
       -0.26780927 0.59068066 0.85940266 -1.0988348
0000f0 1f 75 ee 3d cc a9 44 3f 7b a9 90 bf 9d 5e 12 be
       0.11643433 0.7682159 -1.1301721 -0.14293905
000100 89 80 cf be 5c 52 46 bf f8 e6 32 3e 3b 22 11 bf
       -0.40527752 -0.7746942 0.1747092 -0.56692857
000110 8b 89 93 bf b7 8b 3c 3e b4 be a5 bf fc f6 af bf
       -1.152635 0.18412672 -1.2948823 -1.3747249
