model/VAE/encoder_8d.pt (torch, 118121 bytes, 18 tensors)

conv1.weight f4 [8, 1, 3, 3]
00000000: 9286 1e3e 8c71 b5be 976e 0b3e d923 4ebe
00000010: b7d7 123e 50cf 2d3f c9f3 69be c7a5 60be
00000020: 3340 e33e 5b75 0b3e 79c6 87be 5e04 703d
00000030: ff2b 713e 06f7 a9bd 9d8e 26be 685d d23c
00000040: 4819 4c3c 7c67 bebd f2af 963e 014d 553e
00000050: 243a cfbe 35f7 b2be a5eb 8d3e f526 333b
00000060: fb9e 533d d6dc 133e b558 e6bc ae95 37be
00000070: 9004 923a c1fe b83e fd70 7a3e 3d95 65be
00000080: f4e9 3b3e 5a7e 94be 6450 bdbd debe 9ebd
00000090: 2069 08be c74e dcbc c9ed 32be a7d0 83be
000000a0: 0154 3ebe 6403 6f3d 6fed 9fbd 244e a93e
000000b0: 567f 8e3e c2f3 183e 6984 11be 37d3 753e
000000c0: ef33 93be 9059 08bd 8b5a 95be 13e8 b63e
000000d0: 9b11 60be d57c c0bd cc5e 91bd b3ab a9bd
000000e0: 2a0e 44be 5864 9abc fde7 a83c 3ba6 053e
000000f0: 493c bfbd 0c13 a53d 5c65 95be 3fb4 bfbe
00000100: d94a 62bc d092 7fbe e3c8 33be 2b5f 503e
00000110: f7f4 903e e489 473e 80b7 64be b0c2 883e
0.15481022 -0.35438192 0.13616405 -0.20130862 0.14340101 0.6789446 -0.22846903 -0.21938239
0.44384918 0.13618986 -0.2651861 0.058597915 0.2355194 -0.08299069 -0.1626534 0.025679305
0.012457199 -0.09297082 0.2943111 0.20830156 -0.40474045 -0.3495423 0.27718845 0.0027336453
0.051665287 0.14439711 -0.02811847 -0.17928192 0.0011140276 0.36131862 0.24457164 -0.22420211
0.18350965 -0.2900265 -0.09243849 -0.07751249 -0.13321352 -0.026893033 -0.1747352 -0.25745127
-0.18586732 0.058352843 -0.07808959 0.3306743 0.27831525 0.14936736 -0.14210667 0.24006353
-0.2875056 -0.03328854 -0.2917064 0.35723934 -0.21881716 -0.0939881 -0.07098159 -0.08284702
-0.19146028 -0.018846676 0.020618433 0.13051693 -0.0933767 0.080602735 -0.29178894 -0.37442204
-0.01381179 -0.24958348 -0.17557101 0.20348804 0.28311893 0.19486195 -0.22335625 0.26711035

conv1.bias f4 [8]
00000000: 3e20 463e 4680 043f 538b c03e 1737 123d
00000010: 1c30 b23e 0946 ab3e fc5c 123e 0adf 2a3e
0.19348237 0.5175823 0.37606296 0.03569707 0.3480233 0.3345187 0.14293283 0.16686645

conv2.weight f4 [16, 8, 5, 5]
00000000: 34c1 bbbd 0c49 903c 89a5 043c 49f4 93be
00000010: 6671 e0be 844e 823e ea22 12be 9443 9c3c
00000020: ab04 56bd 085a d53d 0d68 90be 7e39 ed3e
00000030: 162b f83d 87d3 213e a3d8 14be 564e 7d3d
00000040: 36c4 bf3e 5f32 fe3d a52b 893d e69b a5bd
00000050: f7d0 2c3e c17c 95bd 9024 48bd bcb3 57be
00000060: 164f 12bd bddf 95bd 3df2 8e3d 3496 483d
00000070: 5ae7 553d b66d 693d 9516 603c 01bf 593d
00000080: f29c fa3d 5bd2 ad3d 978d be3c 808c dc3d
00000090: 436c 0f3e e4f1 423b 9e7c 38bd 96a5 30be
000000a0: 0abb 013d 958a 40bd 6098 b03d d584 bbbc
000000b0: 706c afbd bd8d c4bc ee3a 5dbd 09cf b6bc
000000c0: f484 7c3b df81 6fbd ab37 813d d359 81bc
000000d0: 320d 55bd 3809 25be 304d 83bd a552 b8bd
000000e0: 77a3 72be 48e1 e0ba fc89 29bf c761 40bd
000000f0: 8058 ed3d 740d ffba c690 ccbc 04af d8bc
00000100: 36fd 54bc e5cb 87bd bdd7 c9bc d0a7 6a3d
00000110: e366 ac3e 0c3b 8a3d 698d 28be aab0 413d
00000120: cbcd ccbd c868 093e d272 17be 55e5 243d
00000130: 076a 0dbd 0276 36bc 5ff2 adbd c80d 273e
00000140: 3e97 c8bc 78b1 8dbc fce8 9d3d b533 7ebd
00000150: 0168 383e bb02 f13d 723b 0c3e 064b d13b
00000160: bcba b73c bedd c6bd f00a a93d d295 a5bc
00000170: b82a 40bb 600a 643d ea94 23bd 4cad 80bb
00000180: 0378 52bd e7ef bf3c cd93 423d 5422 c03c
00000190: 31ec 0bbe 6fb6 903c 41c4 853d 8704 d7bd
000001a0: c2d1 38be 0b65 33bd 8732 a83b 3723 403c
000001b0: b671 373c de7f 38bd 17e9 2e3d 77c5 8cbd
000001c0: cfa6 363d 7efc 513d 2241 59bc 2a17 1cbe
000001d0: 31f3 22be f21c 163d ebab 53be 3039 f7bd
000001e0: 7ae9 173c 6c91 ed3d c1a2 ad3d fa73 773d
000001f0: 8806 af3d 8883 27bd e7ba 793c 1710 1abd
00000200: 7124 903c 5c4a 4dbc 151c 0fbe 03e7 41bd
00000210: d29b d6bd 4a3a 72bc 65dd 08be aa8c 383c
00000220: 42c8 ee3b 4dac 963c 2285 9dbd 25ed e5bd
00000230: 225f cd3c f971 45bd 1eda 0dbd dc31 b6bd
00000240: f394 c4bd 5101 fb3d fbc2 913a 01d0 a3bc
00000250: 8442 fdbd a3bc 89bd e6cd c6bd 74c5 02bb
00000260: b972 073d 263c 82bc 4351 94bd 5e96 9cbd
00000270: 4ea5 ea3b d4dc 93bc b254 803d e7c1 98bc
00000280: 93b6 93bd 05c8 253d a07a 02be 4210 9dbd
00000290: 99a7 b8bd 2d26 9f3d ddc5 6a3d 0630 683c
000002a0: 4a58 803c 0e75 d9bd edb0 ebbc 1733 b73d
000002b0: c0e7 e5bd 88f7 0cbe 3ec9 3fbd f3fd 9d3d
000002c0: dfa5 09bd 370c 603d 961f 5c3d bf84 adbc
000002d0: 9433 a1bd 966e 51bd 5c95 94bd 3cb2 09be
000002e0: 8170 99bd de9b 6cbc 28cc 473d ee67 db3c
000002f0: 183f fbbb 3eb6 1dbc fe2a a8bd 4f65 0fbe
00000300: 812c b1bc 3285 bfbd 0258 0abe 87da 08bd
00000310: 6311 893d a7aa 24bd b564 b9bd 7343 89bc
00000320: 16df fc3c 8584 ea3d a59c 24be d536 fabc
00000330: cfe3 23be 9e90 cdbc 111f 37bf 288b d6bc
00000340: a5dd b3bd 2ba2 13bf 50c3 5d3e 502c 083f
00000350: 0834 883d d434 81bc 0a30 1abf bd12 e03d
00000360: 05d0 143e 131b 00be bcd6 af3c 5cfc 54bf
00000370: 8ecf b53c 7567 6bbd 2877 923e 71e4 033e
00000380: 5660 c23e f8e5 553d 3e75 dcbd 12db 27bd
00000390: 31c8 23bb 7d22 cc3c 1c27 dcbc eb72 8b3d
000003a0: 6161 66bd c7a9 8d3d a355 f03d 0eb4 ab3a
000003b0: 145a bdbd 4028 cc3c be55 ebbd f090 963c
000003c0: 45d1 c8bd 4e5a 273d d3bc 0fbc 8ebe 193d
000003d0: 762c b43d 03b8 903d a54d 49bd 3b36 f1bc
000003e0: b344 9a3d 4b25 c23b 77c5 423d 476f 2ebd
000003f0: 3bdc 67bd 78dd 343e e789 943d 9143 113e
-0.0916771 0.017612956 0.008096107 -0.28897312 -0.43836516 0.25450528 -0.14271131 0.019075193
-0.052250545 0.10417563 -0.28204384 0.46332926 0.12117593 0.15803348 -0.14535765 0.061842285
0.37454385 0.12411951 0.06697778 -0.08086376 0.16876589 -0.072991855 -0.048862994 -0.21064657
-0.035719953 -0.07318065 0.06979797 0.04897137 0.052222587 0.056989394 0.013677259 0.05316067
0.12236966 0.08487388 0.023260875 0.10768986 0.14006142 0.0029746229 -0.04504072 -0.17250666
0.031672515 -0.047007162 0.08622813 -0.022890488 -0.08565605 -0.023993367 -0.054011278 -0.022315519
0.0038531395 -0.058473464 0.06309446 -0.015789902 -0.052014537 -0.16116798 -0.06411207 -0.09000138
-0.2369517 -0.0017156983 -0.6622617 -0.046968248 0.11589146 -0.0019458965 -0.024971377 -0.026450641
-0.012999823 -0.06630687 -0.024639005 0.057288945 0.33672246 0.067495435 -0.16460194 0.04728762
-0.100001894 0.13418877 -0.14789894 0.04025777 -0.034524944 -0.011136534 -0.08493494 0.16313851
-0.02448618 -0.017296538 0.07710454 -0.06206103 0.18008424 0.11768099 0.13694552 0.0063871173
0.02242791 -0.09710263 0.08254039 -0.020213041 -0.0029322337 0.055673957 -0.039936937 -0.0039269086
-0.051383983 0.023429824 0.047504235 0.023453869 -0.13664319 0.017665116 0.06531573 -0.104989104
-0.18048766 -0.043797534 0.0051329765 0.011727146 0.011196544 -0.04504382 0.04270276 -0.06873601
0.044592675 0.051266186 -0.013260158 -0.15243211 -0.15913083 0.0366487 -0.2067105 -0.120714545
0.009271974 0.11600003 0.084783085 0.06041334 0.085461676 -0.040896922 0.015242315 -0.037613
0.017595502 -0.012529936 -0.13975556 -0.04733945 -0.10478939 -0.014784405 -0.13365705 0.011264006
0.007287056 0.018392706 -0.07691409 -0.11226872 0.025069777 -0.048204396 -0.03463184 -0.08896229
-0.09598722 0.122561105 0.0011120731 -0.019996645 -0.123662025 -0.06725433 -0.09707241 -0.0019954117
0.033068392 -0.015897822 -0.07242062 -0.07645868 0.007160819 -0.018049635 0.06266154 -0.018647147
-0.07212558 0.040473957 -0.1274209 -0.076691166 -0.09016342 0.07770953 0.057317603 0.014171606
0.0156671 -0.106180295 -0.028770888 0.089452915 -0.112258434 -0.137663 -0.04682278 0.077144526
-0.033605453 0.05469915 0.05374106 -0.021181462 -0.07871166 -0.051130854 -0.072550505 -0.13446897
-0.074921615 -0.0144414585 0.048778683 0.026782956 -0.0076674335 -0.009625969 -0.08211325 -0.1400349
-0.021627666 -0.09351577 -0.13510135 -0.03341153 0.066927694 -0.04020181 -0.090524115 -0.016755795
0.030868094 0.11451057 -0.1607538 -0.030543724 -0.16004871 -0.025093373 -0.7153178 -0.026189402
-0.0878251 -0.57669324 0.21656537 0.53192616 0.06650549 -0.01577226 -0.6022955 0.10941074
0.14532478 -0.12510328 0.021464698 -0.8319757 0.022193696 -0.05747171 0.28606534 0.12880112
0.37964123 0.05222127 -0.1076455 -0.040980406 -0.002499115 0.024918789 -0.026874118 0.06809028
-0.05624521 0.06917148 0.11735084 0.0013099925 -0.09245697 0.024921536 -0.114909634 0.018379658
-0.0980554 0.040857606 -0.008773047 0.037535243 0.08797543 0.070663475 -0.049146313 -0.029444804
0.075326346 0.005924856 0.0475516 -0.04258659 -0.056606513 0.17662609 0.07252865 0.14185931

conv2.bias f4 [16]
00000000: 955e b9b7 bb90 8036 cad3 4ab8 39ec 14b8
00000010: a99e d9b7 2c68 8db7 cfdf d538 c0ce a6b6
00000020: c8cb 0fb8 fa95 1bb8 0256 0b38 be4e e7b6
00000030: 9c20 7937 74b6 8738 3bd2 77b7 45cf 35b7
-2.2097762e-05 3.831546e-06 -4.8357797e-05 -3.550595e-05 -2.5942298e-05 -1.6857019e-05 0.00010198319 -4.9712544e-06
-3.4283643e-05 -3.7094556e-05 3.3220284e-05 -6.8935033e-06 1.4849149e-05 6.471286e-05 -1.4771295e-05 -1.0836699e-05

bn1.weight f4 [16]
00000000: 94e0 673f 55b0 693f cc90 5f3f 826d 833f
00000010: 720c 713f 4d04 773f 36f2 4a3f 4455 8b3f
00000020: 0876 8c3f 63c9 883f 1b4c 893f 2159 833f
00000030: b8b6 7a3f dd29 9a3f f4f8 8d3f b900 703f
0.90577054 0.91284686 0.8733032 1.0267794 0.94159615 0.9649094 0.79275835 1.0885396
1.097352 1.0686458 1.072635 1.0261575 0.97935057 1.2044026 1.10916 0.937511

bn1.bias f4 [16]
00000000: 8334 d5bd 437a 553c 8359 52be b3dd bd3d
00000010: 9de0 05be cf06 d93b f733 25bd d6fd 58bd
00000020: c7e2 023d 112a b4ba de55 fabd 13aa 973d
00000030: 3878 8bbb 6a5f 69bd da8d 8ebc 5b85 4bbe
-0.104104064 0.013029638 -0.20541959 0.092708014 -0.13073964 0.006623126 -0.04033276 -0.05297645
0.031954553 -0.0013745447 -0.12223409 0.07405486 -0.0042562746 -0.05697576 -0.017401624 -0.1987509

bn1.running_mean f4 [16]
00000000: 391b 88c1 ff8d c941 866f 3a41 4778 b1c1
00000010: c0ea e9bc 04a0 9341 a1a9 9341 09b3 cdc1
00000020: 9f51 86c1 b612 8dc1 ec69 d8c0 3c13 0dc2
00000030: 0ac6 7841 4894 5fc1 562c a7c0 e43d 8e3c
-17.013292 25.194334 11.652227 -22.18373 -0.02855432 18.453133 18.457827 -25.71242
-16.789854 -17.634136 -6.76293 -35.268784 15.548349 -13.9737015 -5.224162 0.017363496

bn1.running_var f4 [16]
00000000: e897 5642 9a3f 1843 7031 8442 53c6 0143
00000010: 08dc 3842 ea98 b942 3a07 7d42 b0b0 c942
00000020: 30ec d242 2615 e742 cbde 7442 24d6 4543
00000030: 6484 0a43 0e03 b942 e8e8 bc42 db0d 1f42
53.648346 152.24844 66.09656 129.7747 46.214874 92.79866 63.257057 100.84509
105.4613 115.541306 61.21757 197.83649 138.51715 92.50597 94.454895 39.76353

conv3.weight f4 [32, 16, 5, 5]
00000000: 4125 bc3c 24bd f8bc 70cd 5dbc 16de c4bc
00000010: a08e 963d 7c56 17bc da89 66bd 18e3 95bc
00000020: 4e43 cc3c 3fe2 afbc a787 fbbd d5fe bdbd
00000030: 7a89 67bd 0781 b0bd 6447 3ebd 51aa e3bd
00000040: 2031 8fbc d0a7 a9bd 84b2 59be 5b6b 233c
00000050: eef1 35bd 35b2 82bd 33ed ecbc 7291 34bc
00000060: 2f85 24bc c38f 8c3e 48fe 19bc 531c cc3d
00000070: 6e98 bd3d 7da4 d23d e145 8a3c 501c 2fbd
00000080: a000 d03c a400 68bd 729d 49be 8991 d43d
00000090: f1bf 9abd 430a 93bd 95ea 59bb 2090 fbbd
000000a0: d365 73bd 54d1 6fbd 2a06 d1bc a58d 863b
000000b0: a159 073e b598 fb3a 4707 323d ce10 f93c
000000c0: f6ab dabc ca5e 033b bfd6 2cbe f19a d3bd
000000d0: 1465 8cbd 9383 8abe 7806 3b3d bee1 e63c
000000e0: 2fd7 43bc 9bb0 9fbd a265 44bd e2b0 b0bd
000000f0: dd5c 203b 86ed 2bbd 7437 4ebc 8b82 0fbe
00000100: b63a 253e 38dc 17bc 6db2 e43c 9718 01bd
00000110: a203 dabc bb0c 673a 4071 36bd 0740 a03c
00000120: 5440 863d 55a2 b53c f7b8 113d 22ce 123d
00000130: 8da8 b53d 627a ef3d 2f12 423e fabd 423e
00000140: 90c8 5c3e 57e0 393e 892f aa3b 20ff b9bc
00000150: d487 05bc 33f7 ce3b 5d8b 883d 4e3d 50bd
00000160: 07a2 fd3c b5ec 8c3c 0a1d 0fbc 870b c5bd
00000170: c968 ed3c baa4 703d 1747 ae3d 4c5f 923c
00000180: 93da e1bd a9c4 87bd 1953 01bd a853 323d
00000190: fde8 5ebe 2bbe b1bc 5dfb 37be b836 bfbe
000001a0: c8f0 d33d 2d0a dfbc 53a8 673d 6465 3e3c
000001b0: 73a4 82be bb91 133e 2df2 8b3d 02e7 343d
000001c0: 4e17 b33d ff23 c83d 8984 ec3d f294 a6bd
000001d0: 6e70 8a3d 413f 3b3d 8c66 b73d 8170 593d
000001e0: 1a6d f03c 93cb ad3c e7e9 bd3c 8fc0 b63c
000001f0: f72a 8d3c e87f 753d 4b1b 1dbd 05a1 37bd
00000200: 0d5d 3f3d 991c 8cbe 36fb a23e c13f 843e
00000210: 43a8 433e 66a2 923b 0960 933d 7c5b a5bd
00000220: bfdc adbd 525e 03be 7a6e 25be 4051 46be
00000230: 4c94 99bd 18e1 023b ff57 a83c 8730 07bd
00000240: 0fdf a3bc 3fd0 38bd 6b83 eebc 85c7 8dbd
00000250: 94bc 58bc d62c 973d bedf c73d de47 d1bd
00000260: 2cc1 563d 9d38 23be 4b5a 1cbe efd6 0e3d
00000270: 00f8 e03d 6c3c db3c d09b a13c f12e 7e3c
00000280: a416 5b3d 3e24 cabc 66c3 05bd 4c84 96bd
00000290: 24c7 03bd abb9 2e3b d765 17bd 0b57 2b3d
000002a0: 2afd 003c 9605 de3d b892 57bc 64ef c73b
000002b0: 6b89 43bd 9ed2 bdbc 84bd b03c e5e6 37bd
000002c0: 924b 953c d7ae 3c3b 2356 0d3b 6bc2 0a3e
000002d0: 04a9 963d 6313 ab3d 46e2 2a3c 95a3 b6bb
000002e0: 6aa5 213d 67d0 a9bd 55f6 d53d 39c0 0abd
000002f0: d9c2 49bd 1d7e 88ba 4842 d5bc de69 e13c
00000300: 7f7e 7bbd b3ab 02bd a1da cf3c 4af2 18bd
00000310: 65a2 b7bd 4dbe 4139 e901 43bd 5f3c f43d
00000320: 04b8 92bb 5888 7e3d 26dd 833c d927 3a3b
00000330: 4d4e 053d 3857 0cbd 0a30 093e 8b3f 933d
00000340: 0762 58bc 28f2 533d 04d1 d2bd 4c46 5f3b
00000350: d6f7 e93c e03b f23c 76bb 07bc 74ad 823c
00000360: 2b8f ea3d c870 d43d 07d6 c53c ce47 91bc
00000370: 5f85 463c 0045 f33c c6fb a3be 29b4 3fbd
00000380: 8901 5f3d 1f48 063d bc9f 393c 0670 ac3d
00000390: 95ad 493d 31f3 c63d a71d d63d ceaf 4c3d
000003a0: 03e7 923a cde0 f3bd a67b a23d b907 ec3c
000003b0: db23 04bd 1655 20bc f37b b0bc c411 fcbc
000003c0: 14ce 69bc 1487 76bd a0b9 48be 3a1f db3d
000003d0: 285b a83c 735d 093e eb2e 07bc bbf9 c53c
000003e0: 3220 63bd f94e 453c 7780 e63d 36ac 113d
000003f0: a807 21bd 0de1 5fbc 768a 2cbd 7fa9 64bd
0.022966983 -0.030363627 -0.01353775 -0.02403168 0.07351422 -0.009236928 -0.05628381 -0.018296763
0.024934437 -0.021470187 -0.12281733 -0.09277121 -0.056527592 -0.0861836 -0.046454802 -0.1111647
-0.01747948 -0.08283961 -0.21259505 0.009974326 -0.044420175 -0.063816465 -0.0289217 -0.011021005
-0.010041519 0.2745343 -0.009399004 0.0996634 0.09257589 0.1028528 0.016879024 -0.04275161
0.025390923 -0.056641236 -0.19688967 0.10379321 -0.07556141 -0.07179692 -0.0033251394 -0.12283349
-0.05942328 -0.05854924 -0.025515635 0.004106241 0.13217784 0.001919529 0.04346397 0.03040352
-0.026693325 0.0020045512 -0.16878794 -0.10332287 -0.068552166 -0.27053508 0.045660466 0.028183814
-0.011953159 -0.07797357 -0.047948487 -0.08627488 0.0024469413 -0.041974567 -0.012586463 -0.14014642
0.16135678 -0.009268813 0.027917111 -0.03151759 -0.02661306 0.00088138477 -0.044541597 0.01956178
0.06555238 0.022172133 0.035576787 0.035841115 0.08870039 0.116932645 0.18952249 0.19017783
0.21560884 0.18151985 0.005193655 -0.02270466 -0.00815006 0.0063160895 0.066672064 -0.050839715
0.03096105 0.017202714 -0.008734951 -0.09621339 0.02898063 0.058750845 0.08509653 0.017867707
-0.11028018 -0.06629307 -0.03157339 0.043536812 -0.21768565 -0.021697124 -0.17966981 -0.37346435
0.1034866 -0.027226532 0.05655701 0.011620853 -0.2551609 0.1441106 0.06833301 0.04416562
0.087446794 0.09772491 0.115487166 -0.08133878 0.067597255 0.04571462 0.08955106 0.053085808
0.029348899 0.021215236 0.023182822 0.022308616 0.017232401 0.059936434 -0.038356107 -0.044831295
0.0467196 -0.27365568 0.31832284 0.2582989 0.19107156 0.004474926 0.071960516 -0.0807409
-0.084893696 -0.12828949 -0.16155425 -0.19366932 -0.074989885 0.0019970592 0.020549772 -0.033005264
-0.020003824 -0.045120474 -0.0291154 -0.06922821 -0.013228554 0.07381599 0.09759472 -0.10218786
0.052430317 -0.15939565 -0.15268819 0.034872945 0.10984802 0.02676221 0.019727618 0.015514121
0.05348839 -0.024675485 -0.03265705 -0.073494524 -0.032172337 0.002666096 -0.036962356 0.041831058
0.007872859 0.10840909 -0.013157539 0.0061015356 -0.047738474 -0.02317172 0.021574743 -0.044897933
0.018224511 0.0028790736 0.0021566234 0.13550727 0.07356456 0.08353307 0.010429924 -0.0055736997
0.03946439 -0.08291703 0.10447375 -0.033874724 -0.049258087 -0.0010413561 -0.026032582 0.027516302
-0.061399933 -0.031902026 0.025372805 -0.03734044 -0.08966521 0.00018476807 -0.047609244 0.11925577
-0.004477503 0.062141746 0.016096663 0.0028405099 0.032545377 -0.034262866 0.13397232 0.07189854
-0.013206965 0.05174461 -0.10293773 0.0034069 0.02856056 0.029569566 -0.00828444 0.01595185
0.114530884 0.10373074 0.024149908 -0.017734434 0.012116759 0.029695988 -0.32028025 -0.046802673
0.054444823 0.032783624 0.011329588 0.08419804 0.049237806 0.09714354 0.104548745 0.049972348
0.0011207763 -0.11908112 0.0793374 0.028812276 -0.032260757 -0.009785911 -0.021543479 -0.03077019
-0.014270324 -0.060187414 -0.1960206 0.10699315 0.02055128 0.13414554 -0.008250932 0.024166932
-0.055450626 0.012042754 0.112549715 0.035564624 -0.039313942 -0.013664496 -0.042124234 -0.055825707

conv3.bias f4 [32]
00000000: ebcb 28b8 c04e 42b9 153b 8937 37e0 98b8
00000010: c976 ebb6 4dfb 2838 482d e2b8 2e50 0537
00000020: 42d7 b037 deeb ceb8 e469 2eb9 bd6c 47b9
00000030: d72c b337 b0c8 7bb8 7bc4 7e36 d676 f0b7
00000040: 6198 7b38 b42a 4438 2e52 9039 65db 8eb8
00000050: 1211 81b8 ee2a 5a39 aef3 66b9 b2e8 8cb8
00000060: f2d2 ea36 2712 29b9 a988 67b9 8561 7036
00000070: dc88 9237 0329 5a37 9406 ec37 cfa7 5839
-4.0244235e-05 -0.00018530618 1.6359185e-05 -7.289688e-05 -7.017374e-06 4.0288363e-05 -0.00010784954 7.946086e-06
2.1081072e-05 -9.866779e-05 -0.0001663338 -0.00019018627 2.1359343e-05 -6.0029968e-05 3.7963316e-06 -2.8665567e-05
5.9984977e-05 4.6769812e-05 0.0002752705 -6.811953e-05 -6.154379e-05 0.00020806093 -0.00022025287 -6.719063e-05
6.9983007e-06 -0.00016123858 -0.00022080787 3.581955e-06 1.7468286e-05 1.3003361e-05 2.8136456e-05 0.00020661879

bn2.weight f4 [32]
00000000: 7641 763f ac42 8c3f 245e 9e3f 35d3 7a3f
00000010: c5b4 8d3f df01 823f 2ca6 743f 0ff3 933f
00000020: 2f6c 723f 7425 623f faac 8a3f 6f93 903f
00000030: 9280 7b3f 6372 7b3f ddf5 5f3f d4c3 9c3f
00000040: 1d7e 9a3f 7794 773f 4df7 8b3f 03f0 8c3f
00000050: f570 503f 9a87 a53f 1b47 823f 24ca 6f3f
00000060: 2a1a 643f acc5 a03f a1c1 583f 55b6 993f
00000070: 4dff 963f 41d8 7b3f 219b 6d3f 7bc1 5a3f
0.96193635 1.0957847 1.237248 0.97978526 1.1070791 1.0156821 0.9556606 1.1558551
0.94696325 0.883384 1.0834038 1.1294993 0.9824306 0.98221415 0.8748453 1.2247262
1.2069737 0.96710914 1.0934845 1.1010746 0.8142236 1.2932007 1.017795 0.9366782
0.89102423 1.2560325 0.84670454 1.2008768 1.1796662 0.9837685 0.9281483 0.8545148

bn2.bias f4 [32]
00000000: 6e28 13bd a41a db3b 79a5 693c 04a3 4d3d
00000010: c540 563d 858a b43d 0324 063e 4f61 46be
00000020: cc71 69be e50f b0be 724e 01be 1ca8 c13d
00000030: 0e42 84bd bc30 2f3e 73ab 883d f5b0 a6be
00000040: 06df 9d3c e0ba a53d 1f2c db3b a5b6 d53d
00000050: 8dca d13c 2d50 bfbc e5cd 063e d8e1 9bbd
00000060: b8db 093e 68f3 093e 72ad 2fbe 5653 aebc
00000070: aec9 123e 0bd9 2b3d ef98 bc3e 8cf5 71be
-0.03592723 0.0066865254 0.014260643 0.050204292 0.052307863 0.08815483 0.13099675 -0.19373058
-0.22797316 -0.34387127 -0.12627581 0.094558924 -0.064579114 0.17108434 0.06673326 -0.32556883
0.019271385 0.08092284 0.0066886093 0.10435227 0.025609279 -0.02335366 0.1316448 -0.07611436
0.13462722 0.13471758 -0.17156008 -0.021279972 0.14334747 0.041955035 0.3683543 -0.23628825

bn2.running_mean f4 [32]
00000000: 2a7c c03f 5988 363f 50f9 3c3f 7875 bc3e
00000010: ee4e 6bbe e3d3 023f f41b 2340 3129 693d
00000020: ea43 82bf a210 773f 8791 5f3f f75e eabe
00000030: d583 1dbf 08c1 3cc0 5980 50bf 28c6 993e
00000040: 4bcc 67be 5e96 503f 0097 803e 20f2 a73e
00000050: 3f75 40bf 7696 143f c457 c9bb 805e 7bbf
00000060: 1313 8c3e 470b b13d 2f18 b83f 4311 e53c
00000070: 79fa 78bf 7424 db3e 2e3a b13f 5d4a 4a3f
1.5037892 0.713018 0.7381792 0.36808372 -0.22979328 0.51104563 2.5485811 0.05692405
-1.0176976 0.96509755 0.8733143 -0.45775577 -0.61529285 -2.9492817 -0.81445843 0.30033994
-0.22636525 0.8147944 0.25115204 0.32801914 -0.75178903 0.58042085 -0.0061444957 -0.9819107
0.27358302 0.08644729 1.438238 0.027962333 -0.9725719 0.4280125 1.384588 0.7901972

bn2.running_var f4 [32]
00000000: 3026 b53e a17e ab3e 7e53 a63f 03e7 ea3e
00000010: 96be 5b3f 8d81 9a3f 6c28 063f b838 a93e
00000020: a626 2a3e c1a9 0e3e 57bc 223f aaff 923f
00000030: 231c ec3e 8844 683f f7ed b93e 93d1 d43e
00000040: 1cfe 683f d17c 133f 1d04 c93e e83d 6e3f
00000050: ec46 1c3f 7f23 623f dbdc 823e d3dd 853e
00000060: bc5f 093f 7789 9e3f fa02 f03d 8e70 333f
00000070: 6ff8 873f 138c b13e b0d2 c53f 50eb cc3d
0.35380697 0.33495048 1.299423 0.45879373 0.85837686 1.2070786 0.5240543 0.33051085
0.16616306 0.13931943 0.63568634 1.1484272 0.46115217 0.9072957 0.36314365 0.41566142
0.9101274 0.5761233 0.3926095 0.9306321 0.6104572 0.8833541 0.25559124 0.261458
0.53661704 1.2385701 0.11719318 0.7009362 1.0622691 0.3467718 1.5454922 0.1000582

fc1.weight f4 [8, 736]
00000000: 4f85 493d 4af1 7a3d 5e5b 893d af6e 8a3d
00000010: 59b0 c83d 9159 b13d 55ab 6c3d 70a7 a03d
00000020: 6b53 dd3d 1cbf 4f3d d744 563d 9d77 5d3d
00000030: 4916 503d 3fb0 1a3c bbec c2bb aa81 c73b
00000040: 38a6 2e3c b421 183d 9910 533d 3455 223d
00000050: c2d1 25bb d8c1 86bc 01ee 8ebd 24f1 a23c
00000060: 98ba 043e e508 1e3e f098 163e 3b54 573d
00000070: 2be7 823d 0650 c63d 0d8d b13d 1364 a53d
00000080: 8bee a53d f17b 943d 7cf4 a73d c841 013e
00000090: 268f 1d3e 5d07 f63d 64dc 023d fab9 16bd
000000a0: c497 65bd 2482 bebb 9171 733d 3343 f43d
000000b0: 02d7 fa3d 96ed ea3c b404 c33d 9444 52bd
000000c0: 81be 84bd 922b e2bd 9f33 d0ba 955d 863d
000000d0: 7d62 873d 8119 fd3c 4154 87bb ebad d03c
000000e0: aef8 a2bc 7962 94bd 2685 cdbd c806 17be
000000f0: 5d3e 29be 2003 2cbe cb1e 22be d540 08be
00000100: f446 dabd c432 3dbd bcb6 9bbd 92e9 9cbd
00000110: 9397 61bd 02cd 853d 050d d33c caf3 31bd
00000120: d8c3 cfbd 8733 e6bd dd72 bcbd 60cc da3b
00000130: a045 093e 1ec8 193e 58c2 a33d 919f 893c
00000140: 8314 7abc b110 52bb 2d07 0f3d 89e2 8eba
00000150: 6a88 1dbc 53ae 49b8 e303 7cb9 9b2f a53d
00000160: a6c0 033e f45a 153e f168 e33d 2844 8a3d
00000170: aaf5 ac3d 7fdf fa3c 6d72 0abd c1d5 54bd
00000180: 7500 a9bd 178f 98bd db0b e83b 49e6 a93d
00000190: e45f d83d 91f2 e63d 2e4d 623d 2eec 90bc
000001a0: f672 3ebd dc66 6abd 758f 4ebd 7e59 41bd
000001b0: 681c 0fbd 8910 bc3c 9aaf c43d 6716 a53d
000001c0: 7bee 263d d51f ea3b 2e56 82bc df8d dd3d
000001d0: d0a8 6e3d 79b5 053d 16b3 f53c 74cd 013d
000001e0: 703b da3c f04d 07bb 848d 4dbc e0cb e13c
000001f0: 5a43 993c ae76 cebc 6bb5 8dbd df1f b7bd
00000200: a7f9 a9bd 180c 8cbd 9593 60bd abb8 40bc
00000210: 221b 923c 9371 3bbc 20f6 0c3c 83b5 e63c
00000220: 2bcd 99bc 7576 bf3d 2f87 883b c769 683d
00000230: efd0 063d c2e7 6f3d bf51 973d 3daa 873d
00000240: 45fd 833d 8b9f 483d 2fab 543c 7f71 c13c
00000250: e89c ad3d bf4f b93d ab6c d23d 121e 163e
00000260: ee8f 103e 83c7 e53d 20d0 a13d 99ff 293d
00000270: 2614 01bd d2d5 14bd d227 24bd ed3e 32bd
00000280: 8165 d13c 7476 553c 96d4 b83d 5e75 ea3d
00000290: 6430 0b3e f243 e13d 3720 243d 88ee 14bc
000002a0: a493 2dbc 4367 08bc 72a4 503c 9d9a 543d
000002b0: a133 af3d de8b ba3d 0275 6d3d fea8 343c
000002c0: 6275 3abd 0b99 d8bd 9c64 36be 8014 66be
000002d0: d048 2ebe 0a0b c6bd 2bd3 8cbc 3a8e fabc
000002e0: 7200 853d 1036 343d fdea 983b 2da2 1c3c
000002f0: df1c 133d b6a4 533d 2c09 5a3d ce73 273d
00000300: 0c16 b73c 5a18 1dbd c88f a9bd b042 debd
00000310: 61a9 d4bd 059d a2bd 24b7 4dbd 9f65 c53b
00000320: 64aa 4d3d dae5 9e3d 300e 983d ad3b 703d
00000330: e0ae 163d 486c d73c b86c a63c 19dc 6bbd
00000340: 42c2 67bd fd05 133c 06c1 d13d bef3 133e
00000350: 57ec 0e3e 3ba4 af3d 60ab 633c bc94 6abd
00000360: e0b4 7dbc 7cf4 e73c 9569 0b3d f722 c93c
00000370: 0568 77bc 48ec 17bd e8db e4bc 8e83 033d
00000380: fc80 313d 2f5c 843a 1ae6 1abd b926 85bd
00000390: d788 98bd 5f23 60bd e76a e73c 81b5 203e
000003a0: dddd 253e 1a02 343e 6057 4f3d 46c8 fcbc
000003b0: eed7 aeba 96ec 683c 94a7 fdbb 4656 373d
000003c0: 2189 d7bc 5953 8ebd 517f 46bd 27a6 703d
000003d0: 80c0 2c3e 3873 233e 4948 cb3d 6657 d33c
000003e0: 7d62 93bc 38c1 3e3c 9b77 f63d 9bac 4c3e
000003f0: bc11 2a3e 1ebc a73d 6b8c 78bd 7d88 87bd
0.0491994 0.061265267 0.0670688 0.067593925 0.09799261 0.086596616 0.057780582 0.07844436
0.10806926 0.050719365 0.052311745 0.05406915 0.050802503 0.009441434 -0.0059486306 0.006088455
0.010659747 0.037141517 0.0515295 0.039632037 -0.0025302027 -0.016449854 -0.069789894 0.019890375
0.12961805 0.1543308 0.14706779 0.052570563 0.06391748 0.09683232 0.086694814 0.08075728
0.08102139 0.072502024 0.082009286 0.1262275 0.15386638 0.12013123 0.031948462 -0.036798455
-0.056052938 -0.005813854 0.059434477 0.1192688 0.12248041 0.028677743 0.095223814 -0.051334932
-0.06481648 -0.11043467 -0.0015884525 0.06560818 0.06610582 0.03089595 -0.004129917 0.025473556
-0.01989397 -0.07245345 -0.10035162 -0.1474868 -0.16527696 -0.16798067 -0.15832059 -0.13305981
-0.106580645 -0.046190992 -0.07603213 -0.076617375 -0.055076193 0.06533243 0.025763044 -0.043445386
-0.10144776 -0.11240297 -0.09201596 0.0066771954 0.13405466 0.15017745 0.079960525 0.01679972
-0.015263679 -0.0032053406 0.034918953 -0.0010901253 -0.009615043 -4.8084486e-05 -0.0002403404 0.08065721
0.12866458 0.14585477 0.11104 0.06751281 0.08445294 0.03062415 -0.03380053 -0.051961664
-0.0825204 -0.07449167 0.0070814914 0.082958765 0.10565165 0.112767346 0.055249386 -0.017690744
-0.046496354 -0.057227 -0.05042978 -0.047204487 -0.0349392 0.022957103 0.09603806 0.080609135
0.040754776 0.007144908 -0.015910234 0.108180754 0.05826646 0.03264377 0.029992621 0.031690076
0.02663967 -0.002064582 -0.012545947 0.027563035 0.018708874 -0.025203075 -0.06919368 -0.08941626
-0.082995705 -0.06838244 -0.054828245 -0.011762778 0.017835204 -0.011440652 0.008603603 0.028162723
-0.01877459 0.09348766 0.0041665058 0.056741502 0.0329141 0.05857063 0.07388639 0.06624267
0.06444792 0.048980277 0.0129802665 0.02361369 0.08477193 0.090484135 0.10274633 0.14659908
0.14117405 0.112196945 0.07901025 0.041503523 -0.031513356 -0.036336727 -0.040077038 -0.043517042
0.025561096 0.01302873 0.090249225 0.11448167 0.13592678 0.10999288 0.040069785 -0.009090073
-0.010594282 -0.008325401 0.012734519 0.051905263 0.08554769 0.09108709 0.057972915 0.011026619
-0.0455221 -0.10576066 -0.17811817 -0.22468758 -0.17019963 -0.09670074 -0.017190536 -0.030585397
0.064942256 0.04399687 0.0046666847 0.00956015 0.035916205 0.051670752 0.053231403 0.040881924
0.02234938 -0.0383533 -0.08279377 -0.108525634 -0.10383869 -0.07940105 -0.050223485 0.006024077
0.050211325 0.077586845 0.07424581 0.05865066 0.036787868 0.02629675 0.020315513 -0.05758295
-0.056581743 0.008973596 0.102418944 0.14448449 0.13957344 0.08576246 0.013895839 -0.05727075
-0.0154850185 0.028314821 0.034036238 0.024552805 -0.015100484 -0.03709057 -0.02793689 0.032107882
0.0433359 0.0010098274 -0.0378171 -0.065015264 -0.07447975 -0.054721233 0.028249217 0.15694238
0.16197915 0.17578927 0.050620437 -0.030857217 -0.0013339499 0.014216563 -0.007740924 0.04476001
-0.026310505 -0.06949491 -0.048461262 0.058752205 0.16870308 0.15961921 0.09925897 0.02579851
-0.017991299 0.011642747 0.12034532 0.19987719 0.16608328 0.081901774 -0.060680788 -0.0661783

fc1.bias f4 [8]
00000000: beaa f73d 7b20 3d3d c6a1 84bc c7e6 17be
00000010: a1de 1b3e 7409 3dbe 80e1 0b3e 6168 c53d
0.12093113 0.046173554 -0.01619042 -0.14834128 0.15221645 -0.18460637 0.1366024 0.09639049

fc2.weight f4 [8, 736]
00000000: ec87 d5bb 8f4f 4dbc ce75 64bc 0ffa 59bc
00000010: d515 88bc 57e5 4ebc 5c20 74bc 53e1 78bc
00000020: 4544 63bc bcbe 16bc f3ef a6bc 7227 69bc
00000030: d409 50bc 33ad 4bbb 5a1a 50bb 191e bdbb
00000040: 6d5e b5bb 99ba d4bb c178 4bbc 93ea 9dbb
00000050: b5ec f4bb 9196 39bc d69b c3bd 1e5e 6cbe
00000060: 067c 47bc feb0 82bc f545 d1bb deb5 3cbc
00000070: 4df0 4bbc 3b5a 3dbc 35d8 1cbc 33aa 2dbc
00000080: 7988 d2bb 7bd9 fbbb 08f3 40bc 3f4e 25bc
00000090: d689 a6bb b16f 543a 7c7b 073b b080 e03a
000000a0: dbbd c7bb bcdb e2bb d0a2 21bc 2c5e 65bb
000000b0: e13c 20bb 166d c9bb 0a38 45be a570 a1bc
000000c0: 67e5 92bc 9cd2 86bc 0dbd 72bc 19d0 80bc
000000d0: 4578 56bc c853 8bbc 87ad 89bc 7264 92bc
000000e0: 2ed6 61bc f3da f6bb 76ef 0bbc 476a 17bc
000000f0: 2340 15bc 0054 58bc e6c6 f7bb 1fc9 cabb
00000100: 00b2 f8bb cc62 4abc 7135 3abc 1690 2cbc
00000110: 5ce6 64bc a0b4 98bb 1701 6bbb f6ed cabb
00000120: cccf f7bb fa5b 99bb 6379 c7bb 30d8 abbb
00000130: eec4 02bc b129 bebb a1a0 b6bb 0c6c 8cbb
00000140: 0646 fdbb 9a61 fdbb a684 03bc 386e d4bb
00000150: 2016 bebb 7dcf 17bc a0c6 27bc 1c28 adbb
00000160: 8cef d2bb 9226 06bc ae15 8fbb 37a4 14be
00000170: cd34 33be 6552 15bd 1f1f 22bd 3670 1ebd
00000180: d08e 1dbd d6c4 24bd b5b5 14bd 0899 23bd
00000190: 0460 fabc 1a76 debc ec0d febc 7777 d4bc
000001a0: 6b0e c6bc c3d8 eebc d5ea fabc 1ec5 15bd
000001b0: de9a 03bd 40f1 07bd 604c 03bd d75b f0bc
000001c0: 524e 07bd 340c ecbc f7a8 0abd 0f6e febd
000001d0: f0a9 d6bc 9f8c bcbc eb8a a4bc 0eda 9bbc
000001e0: fd9a b8bc 2142 babc 377e c4bc 81f4 9cbc
000001f0: 3983 8dbc a4e8 9abc 0d32 78bc 4d3c 83bc
00000200: a9e9 7dbc 7e8d 45bc 5148 3ebc 64d0 94bc
00000210: 1e2d 81bc 437f 81bc 68ef 87bc 7180 94bc
00000220: 01be afbc 39eb 19be 8d32 8ebc c1c3 d3bb
00000230: 3b80 e1ba f50c 12bc 859d 15bc 74b9 4cbc
00000240: 4208 a6bb 0885 c7ba 1568 02bc eac0 afbc
00000250: f0e7 82bc 8443 18bc 5c75 bcbb 13af 6cbc
00000260: f246 70bc 8e25 45bc f8e1 13bc bd03 82bc
00000270: eb31 80bc 978d 9bbc c89e 2abc 5359 b8bb
00000280: a564 97bc 0c86 19be 9b97 64bc 1ae5 88bc
00000290: 13a4 60bc de54 05bc 731e ecbb eafc 68bc
000002a0: 99df 37bc 1907 a8bc f7a4 49bc 52fc 8fbb
000002b0: 08da d1b9 b795 2bbc 2973 62bc cc2b 81bc
000002c0: 7750 68bc 3a7c d9bb e545 d2bb 50e9 18bc
000002d0: 4b14 19bc 5db7 94bb 3c3f 33bc c646 c2bb
000002e0: 91e9 b5bc 9c3d 8cbc ccc9 75bc 6098 9ebc
000002f0: c6f4 d1bc faa5 87bc c623 4abc 27a3 49bc
00000300: dbb0 6dbc 41ce 4ebc 0014 8dbc 7a03 91bc
00000310: ad85 60bc 0b48 6abc 7a2d 97bc 9819 92bc
00000320: 4c0b debc ff72 c5bc 1a41 92bc b288 82bc
00000330: a83d aebc e89a 4ebc 7551 2fbb 792e 1fbc
00000340: 17de cfbb f2ee 9abb 3887 b9bb 0f32 f9bb
00000350: 4b19 e4bb 9e80 11bc 8aad a7bb 144d dbbb
00000360: 7cf1 c7bb 0e86 4d3b 9cc6 d5bb 161d 5dbb
00000370: bb1d 283b 65e3 7cbb a51d eabb 1a6f 19bc
00000380: 1a4a 04bc 276c 99bb 2c12 dcbb 0624 00bc
00000390: afe8 2bbc 471a 77bc d094 37be 9609 7bbb
000003a0: 343d 94bb aa47 07bc 060d a2bb e8fe 97bb
000003b0: 7626 66bb 339d 1ebb f1da eabb cd4a 8cbb
000003c0: c1fa beba 457c adbb 7aa4 71bb d894 8cba
000003d0: dfb2 c6ba 492e 91bb 2b77 0abb 4098 0bbb
000003e0: 7cfc f4bb 96f5 bebb 2953 d7b7 8a0c 9cbb
000003f0: afbf 34ba b628 48be 339d 8dbc 509e 95bc
-0.0065164473 -0.012531175 -0.013944102 -0.0133042475 -0.016611973 -0.012627921 -0.014900293 -0.01519044
-0.013871257 -0.009200748 -0.020378089 -0.014230596 -0.012697656 -0.0031078577 -0.0031753988 -0.00577141
-0.005534938 -0.0064919707 -0.012418927 -0.004819223 -0.0074745067 -0.011327402 -0.09551208 -0.23082778
-0.012175566 -0.015953537 -0.0063865134 -0.01151797 -0.012447429 -0.011557157 -0.009573032 -0.010599661
-0.00642496 -0.007685838 -0.011776693 -0.010089456 -0.0050823493 0.00081038015 0.0020672968 0.0017128196
-0.0060956306 -0.006923167 -0.009865478 -0.0034998758 -0.002445035 -0.0061470373 -0.19259658 -0.019707033
-0.017931653 -0.016457848 -0.014815581 -0.015724229 -0.013090198 -0.017007723 -0.016806377 -0.017870162
-0.013783975 -0.007533425 -0.008540979 -0.009241647 -0.00910953 -0.013203621 -0.0075615523 -0.0061885263
-0.0075895786 -0.012352657 -0.0113652805 -0.0105324 -0.013970938 -0.004660204 -0.0035858804 -0.006192918
-0.007562613 -0.004680154 -0.0060874685 -0.0052442774 -0.007981522 -0.00580331 -0.0055733477 -0.004285341
-0.0077292947 -0.0077325823 -0.008027231 -0.0064828657 -0.0058009773 -0.009265778 -0.010240227 -0.0052843224
-0.0064372476 -0.008187907 -0.004366598 -0.14515768 -0.1750061 -0.03645553 -0.03958046 -0.03868123
-0.038466275 -0.04022678 -0.0363061 -0.039940864 -0.030563362 -0.027155925 -0.031012498 -0.025935872
-0.024176797 -0.029156094 -0.030629555 -0.03656494 -0.032130115 -0.03318906 -0.03205526 -0.029340668
-0.033033676 -0.028814413 -0.033852544 -0.12423336 -0.02620408 -0.023016272 -0.020085772 -0.019024875
-0.022534842 -0.02273661 -0.023985965 -0.019159557 -0.017274486 -0.01890976 -0.015148652 -0.016019965
-0.015497603 -0.01205766 -0.011613921 -0.018165775 -0.015768584 -0.015807753 -0.01659365 -0.018127652
-0.021452906 -0.15031137 -0.017358089 -0.0064625447 -0.0017204353 -0.008914222 -0.009131794 -0.012495387
-0.0050669024 -0.0015222142 -0.007959385 -0.021454293 -0.015979737 -0.009293441 -0.005751295 -0.014446038
-0.014665352 -0.0120328795 -0.009026043 -0.015870923 -0.015648803 -0.018988414 -0.010413833 -0.0056258827
-0.018480608 -0.14992541 -0.013952161 -0.016710807 -0.013710993 -0.00813791 -0.0072057783 -0.014220456
-0.011222743 -0.020511197 -0.012307397 -0.0043940926 -0.00040026032 -0.0104727065 -0.013821402 -0.015767954
-0.014179341 -0.0066371234 -0.0064170235 -0.00933297 -0.009343217 -0.00453846 -0.010940369 -0.005928847
-0.0222061 -0.017119221 -0.015001725 -0.019359767 -0.025629412 -0.016558636 -0.012337631 -0.012306965
-0.014507498 -0.012622417 -0.01722145 -0.017701853 -0.013703746 -0.014299403 -0.018454302 -0.01783447
-0.027104996 -0.024102686 -0.017853308 -0.015934322 -0.021269634 -0.012610175 -0.0026751433 -0.00971567
-0.006343614 -0.0047281915 -0.0056618713 -0.0076048444 -0.006961023 -0.008880762 -0.005117123 -0.006692538
-0.006101785 0.003136042 -0.00652392 -0.003373926 0.0025652486 -0.0038587686 -0.007144647 -0.009364868
-0.008074308 -0.004682082 -0.0067160334 -0.007821089 -0.010492488 -0.015081949 -0.17927861 -0.0038305274
-0.0045238975 -0.008256832 -0.0049454 -0.0046385415 -0.003511814 -0.0024202585 -0.007167213 -0.004281378
-0.001457058 -0.005294355 -0.0036871717 -0.0010725511 -0.0015159509 -0.0044305664 -0.0021128159 -0.0021300465
-0.0074763875 -0.005827616 -2.5668722e-05 -0.004762237 -0.0006895018 -0.1954678 -0.017286872 -0.018263966

fc2.bias f4 [8]
00000000: 4418 5dbd c738 48bd e59b 6fbd f5cc 6abd
00000010: 310b 61bd c09d 4abd 9a58 50bd 2c54 66bd
-0.05397822 -0.048882272 -0.058498282 -0.05732437 -0.054942314 -0.04946685 -0.050865747 -0.056232616
