model/VAE/encoder_128d.pt (torch, 826199 bytes, 18 tensors)

conv1.weight f4 [8, 1, 3, 3]
000000 8f b8 f4 bd be 71 84 3d 10 05 71 3d 14 95 93 bd
       -0.11949264 0.06467007 0.05884272 -0.07206169
000010 56 78 82 be 68 03 8d 3d 92 18 fc 3d 3a 40 be bd
       -0.25482434 0.06885415 0.12309374 -0.09289594
000020 16 2e 70 be 5e 0a 82 be 5d f6 35 3d 5b 2e 1e 3e
       -0.2345508 -0.25398535 0.044424403 0.1544737
000030 f5 0b 91 be f4 f7 9f be c2 3b 41 3e 0c 15 47 3e
       -0.28329435 -0.3124386 0.18870452 0.19441622
000040 96 0a 90 3e 66 4b f0 3d 7b f3 8f 3e bb 36 83 3d
       0.28133076 0.11733131 0.28115448 0.064069234
000050 3b ed 51 3e 0c b1 00 3e c6 16 d5 be b2 a3 c1 be
       0.20500652 0.12567538 -0.41618937 -0.37820202
000060 40 e5 88 3e 8a d8 58 3e b8 fc dc 3d 9e 82 6a 3e
       0.26737404 0.21176353 0.1079039 0.22901389
000070 5d fa d1 be da 25 73 be f1 67 3c 3e 78 1a 3a bc
       -0.41011325 -0.23744908 0.18399025 -0.01135885
000080 68 7b 2c be a7 91 9f 3f 40 c3 2a 3d 0e a0 cf 3d
       -0.16843951 1.2466325 0.04169011 0.1013795
000090 04 bc a0 3e 81 53 ce 3e 4e a4 06 3f 93 a6 6b be
       0.31393445 0.40298083 0.5259446 -0.23012762
0000a0 bb 05 c9 bd 6e 4a a7 bd 1d d0 e7 bc d3 1f 18 3d
       -0.09815546 -0.08168493 -0.028297478 0.037139725
0000b0 2d 70 a7 be 34 80 b2 be f2 8f 9c bc 54 49 5e be
       -0.3270277 -0.34863436 -0.019111607 -0.2170766
0000c0 9e 58 29 bd 55 2e 85 3d 46 ea 8e 3e 27 d5 63 be
       -0.041344278 0.06502978 0.2791311 -0.2224928
0000d0 54 12 7b bc f8 d6 fa 3d 2b f4 98 be 9e a8 a4 3a
       -0.015324194 0.12248033 -0.29873785 0.0012562459
0000e0 a3 45 b2 be 26 e0 e8 bd 48 aa 46 3e d8 b6 66 be
       -0.34818754 -0.11370878 0.19400895 -0.22530687
0000f0 0f af 5a 3d 1b 04 8a 3d d9 02 94 3d 9d fc 80 3d
       0.053389605 0.06739064 0.07227106 0.06298182
000100 a5 8d 1a be bc 8c 85 be d5 ef b8 bd 99 d6 80 be
       -0.15093096 -0.26083934 -0.09030119 -0.25163725
000110 ea 96 06 be 63 b0 8b be e0 b2 8a 3c a2 34 4b be
       -0.13143507 -0.2728301 0.016930997 -0.19844297

conv1.bias f4 [8]
000000 5d d9 ae 3e 96 1f 07 bc 71 10 73 bd 9b 87 67 be
       0.3415021 -0.008247277 -0.05934185 -0.22610323
000010 97 54 2b 3f 9a fb 74 3f c2 51 79 3f 2a 52 6f 3e
       0.6692595 0.95696414 0.9739038 0.23371187

conv2.weight f4 [16, 8, 5, 5]
000000 e5 ff 7b 3d 4b 2a 1b 3d bc 54 a9 3d 86 14 55 3d
       0.061523337 0.03788213 0.08268115 0.052021526
000010 bc ef 0c 3e 7c f5 76 bd c2 96 2d 3d cd 59 c0 bc
       0.13763326 -0.060292706 0.042380102 -0.02348032
000020 28 31 41 3d ad 80 1a 3d 0d 28 12 bd f2 55 fe 3c
       0.04716602 0.03772037 -0.035682727 0.031046841
000030 5d cc 8b bd 36 07 a7 bb 1b 29 7b bd 4b db 2e bd
       -0.068260886 -0.005097295 -0.061318498 -0.042689603
000040 cc 6c 8f bd ae 12 ff bc d2 00 51 bd 40 a0 bd bd
       -0.07003173 -0.031136837 -0.051026173 -0.09259081
000050 a6 07 8d 3b f4 a9 01 3d 77 b4 2a 3d f3 a2 a4 bd
       0.0043038903 0.03165622 0.04167601 -0.080388926
000060 25 bc c4 3c 18 72 04 be 71 04 2b be dd 36 30 bd
       0.024015496 -0.12934148 -0.16700913 -0.04302107
000070 35 5d d6 bd 60 58 4e bd 11 86 12 be 75 64 f2 bd
       -0.104669966 -0.05037725 -0.14308955 -0.11835567
000080 38 d8 06 be aa 7a ab bc a0 3e f9 bd b4 85 64 3d
       -0.13168418 -0.020932514 -0.12170148 0.05579157
000090 3e 71 93 3d ca 99 19 bd 91 97 2e bd be 86 36 3d
       0.071993336 -0.03750018 -0.042625014 0.044562094
0000a0 9a 8d 4c 3d cf 21 a3 bd 96 35 6b 3b 49 33 33 bd
       0.04993973 -0.07965433 0.0035890094 -0.04375008
0000b0 e8 79 06 3d b8 80 05 3d 11 72 34 bd a9 41 b4 bd
       0.032831103 0.03259346 -0.044054095 -0.08801586
0000c0 3a 7a 9b bb 2b b0 0f 3c ea 48 17 be 4d e1 5e 3d
       -0.004744795 0.008770029 -0.14773908 0.054414082
0000d0 7f 0e 83 3e 7a d6 61 3d f4 84 23 3e 9c de 08 be
       0.25596997 0.05513618 0.15968686 -0.13366169
0000e0 de 55 99 bd b4 79 56 bc 05 25 88 3e 2c 1b 64 3d
       -0.07487081 -0.01309054 0.26590744 0.055689976
0000f0 45 d4 cf bd 13 fe 01 3d b1 08 a3 3d 26 98 d7 bd
       -0.10147909 0.031736445 0.07960642 -0.10527067
000100 f6 f2 3e 3d ea b7 83 bd da 8f 1b 3d 1a 44 b0 bd
       0.046618424 -0.06431563 0.037978984 -0.08606739
000110 9d 42 62 3e 2a 38 42 3e 48 2b 7b 3d f2 c5 af bc
       0.22095723 0.18966737 0.061320573 -0.021456692
000120 6a 77 c7 3b 3d 2c c5 3d 29 ef 40 be d3 4c 44 3e
       0.0060872333 0.096275784 -0.18841232 0.19169931
000130 01 e4 a6 bd 7a 6d 3d 3e f5 79 f9 3d e6 4e c0 be
       -0.08148957 0.18498793 0.121814646 -0.37560195
000140 24 83 64 3c e9 f8 94 bd 8b c3 09 3b d4 df 76 bd
       0.013947282 -0.07274038 0.0021021094 -0.060272053
000150 9a 38 be 3b 10 f3 07 3e 37 f7 74 3c f7 a4 e5 3d
       0.0058050873 0.13276315 0.014951519 0.11213105
000160 7a 5b 9e bb ca a1 61 bc d4 50 d0 bd d3 66 10 bd
       -0.004832682 -0.013771484 -0.10171667 -0.03525431
000170 80 e0 41 bd 10 56 8f bc a6 79 17 3e 63 7b 19 3e
       -0.04733324 -0.017497092 0.14792499 0.14988475
000180 43 74 fb bd fb e5 ba bd 69 c6 8e be 42 e0 59 be
       -0.122780345 -0.091258965 -0.2788575 -0.21276954
000190 ee bd 70 bd 95 77 cd 3d fc 14 d9 3d d9 99 5a 3e
       -0.05877488 0.10032574 0.105997056 0.2134775
0001a0 0e d9 26 3e 8c 2d ae 3d 01 5c 17 be 74 34 8f bd
       0.16293737 0.08504781 -0.1478119 -0.069924265
0001b0 4c ee 3e be 56 de 90 be 26 92 7e 3c ce b2 00 be
       -0.1864559 -0.2829463 0.015537774 -0.12568209
0001c0 35 07 9a 3c 91 2d 03 bd 0b ca 9e bd 2e dd 1a 3e
       0.018802265 -0.032025877 -0.077533804 0.15123436
0001d0 8b e2 33 3d b2 ad 9a 3d e0 86 ac 3d a0 6e cb 3d
       0.04391722 0.07552661 0.08424163 0.099332094
0001e0 05 ab 3d bd 7e d6 13 bd c1 62 d4 3c ab 9a 0f 3d
       -0.046305675 -0.036093228 0.025925996 0.035059612
0001f0 56 97 1d bd fd cc ca 3d 6d e9 6a 3d 9f 43 20 3c
       -0.038474403 0.0990238 0.05735152 0.009781747
000200 ad ad eb 3d 61 66 f6 3d 7a 5b 00 3c 5b cb d8 3c
       0.115077354 0.12031246 0.00783431 0.026464155
000210 f3 59 9f bd ec bc b3 3d f4 16 7c 3e f5 b6 0d 3d
       -0.07780828 0.08776268 0.24618131 0.03459831
000220 ec 2a 13 bd 35 d9 3d 3c 7f d6 ad bd d1 ca 9b 3b
       -0.035929605 0.011587431 -0.084881775 0.004754402
000230 b9 85 9b 3a 6e ba 31 bd d8 bf a8 bc cd c5 d4 bc
       0.0011865414 -0.043390684 -0.02059929 -0.025973225
000240 3c c7 21 3d 8e fa d0 ba 51 c6 81 3d 59 67 56 3d
       0.039496645 -0.0015943812 0.06336654 0.052344654
000250 f7 97 88 bd 59 4f 10 3d 2a 9d 31 bd 89 ec d3 bd
       -0.0666961 0.03523192 -0.043362774 -0.1034785
000260 b2 ee 30 3d 9e 0b cb 3d 00 84 0b 3d 99 73 6b bc
       0.043196388 0.09914325 0.034061432 -0.014370822
000270 ec 0d 0a 3b d0 1d e8 bb f0 b4 80 3e a5 c9 ef 3d
       0.0021065427 -0.007083632 0.25138044 0.117083825
000280 d4 77 08 3d 5e 65 f2 bd a8 f5 91 3c 89 5c 71 3d
       0.033317402 -0.118357405 0.017817333 0.05892614
000290 2f e0 82 bb 18 e2 cc bd 82 2c 06 bc ee 9b ba bd
       -0.00399401 -0.100040615 -0.008189322 -0.091117725
0002a0 b2 f6 18 bd bf d4 cb bc e6 9b e7 bc 0c 56 96 bd
       -0.037344642 -0.024881719 -0.02827258 -0.07340631
0002b0 56 40 e0 bd db 0e d8 bb 1e f2 ad 3c a4 ea 3d bd
       -0.10949771 -0.006593568 0.021233615 -0.04636635
0002c0 de 0f 39 bd 49 e9 4a 3c 00 a8 05 3e b0 ed c2 3d
       -0.045181148 0.012384721 0.13052368 0.095179915
0002d0 b5 9a 25 3d 9b 13 34 3b bc d1 d8 bc ac 2e 8f 3d
       0.040430743 0.0027477506 -0.026467197 0.06991324
0002e0 da 10 0b 3c 99 65 a8 3c dc c0 89 bd cb b7 2c 3d
       0.008487904 0.020556258 -0.06726238 0.042167466
0002f0 e1 4b aa 3b 65 83 05 bc 1b bb ef 3c a3 e7 bf bc
       0.0051970338 -0.008149003 0.029264024 -0.023425883
000300 83 9c c6 bd 8a 4a 7a bd b3 5a 1c 3d ee a3 0f 3c
       -0.09697821 -0.061106242 0.038172435 0.008767111
000310 fb e6 9c bb 5d 34 3e bc cb 8c af bc f8 f4 b9 bc
       -0.004788277 -0.011609164 -0.02142944 -0.022699818
000320 5b 4e b6 3d f2 ba db 3d 0b 49 e8 3d 78 e6 30 3d
       0.08901664 0.10729016 0.11342057 0.043188542
000330 ce cf 78 bc e7 74 43 3c a7 49 d5 3d ee bf 07 3c
       -0.015186263 0.011929727 0.10414439 0.008285506
000340 51 cf a7 bc b2 2c 6d bd ee e2 16 bd cf 9e 20 3d
       -0.020484598 -0.057903953 -0.03683751 0.03921395
000350 a9 3c 58 3c 43 3e b3 bd 73 c8 5d bd cc 94 9d bc
       0.013198056 -0.0875211 -0.05414624 -0.019235991
000360 78 8d 2b 3b 6c e5 87 3d e1 9c 05 bd d9 64 36 bd
       0.0026176851 0.066355556 -0.032620315 -0.04452977
000370 17 a3 5e bd 1f 13 cc bd 8e ae 58 bc fe e2 1c bd
       -0.054354753 -0.099645846 -0.013225211 -0.038302414
000380 71 d4 63 3d 3d dd e5 3d 26 bd 09 3d a3 a4 c0 3d
       0.05562252 0.112238385 0.03362765 0.09406402
000390 13 a2 15 3d 76 89 af 3d f3 0f 29 3d ea 59 12 3e
       0.03653152 0.085711405 0.041274976 0.14292112
0003a0 c5 57 0e 3d 23 e1 68 3d 02 59 d8 3d 4b 62 fa 3c
       0.034751672 0.056855332 0.10563852 0.030564448
0003b0 ba b8 e1 bc 2e f1 18 3d 79 3e 7e bd 52 bb a8 3d
       -0.027553905 0.037339382 -0.062071297 0.082388535
0003c0 2e e5 5c 3c a7 f4 8d b9 e1 36 a7 3d 63 6b da 3c
       0.013482375 -0.00027075896 0.08164764 0.026662534
0003d0 23 8c fb 3c b0 73 0e 3d c7 84 95 3b 3b 0d 22 3d
       0.03070647 0.034778297 0.0045629474 0.0395634
0003e0 06 c3 bd bd 27 65 a4 3c 1b d6 38 3e 16 d6 1e 3e
       -0.092657134 0.020067764 0.18050425 0.15511355
0003f0 7e 7e 08 3e 6d ca ea 3d dd cc 83 3d ff 96 a6 3d
       0.13329503 0.11464391 0.06435559 0.08134269

conv2.bias f4 [16]
000000 53 40 37 b7 13 50 04 b8 c5 b8 f0 b6 23 05 bd b7
       -1.0922627e-05 -3.1545827e-05 -7.1740674e-06 -2.2532948e-05
000010 1a ff fb 35 fe 36 91 36 63 ca 23 b7 4a 18 5a 38
       1.8775202e-06 4.3277387e-06 -9.762679e-06 5.199787e-05
000020 9b 46 e9 b6 12 ae 78 36 84 86 f6 37 94 c5 df b5
       -6.9521607e-06 3.7056202e-06 2.9388124e-05 -1.6672298e-06
000030 ea 56 60 b8 28 0c 14 b8 b0 d2 4b 37 91 0e 64 b7
       -5.3486707e-05 -3.529727e-05 1.2148797e-05 -1.35932505e-05

bn1.weight f4 [16]
000000 bc 70 67 3f 78 7e 81 3f 93 ab 84 3f 76 e1 33 3f
       0.90406394 1.011672 1.036486 0.702659
000010 17 27 66 3f 25 cd 62 3f 9c 2e 70 3f 31 ca 87 3f
       0.89903396 0.88594276 0.9382112 1.0608579
000020 41 e4 82 3f a7 c7 75 3f 19 e1 77 3f 9c 82 88 3f
       1.0225908 0.9600777 0.96827847 1.0664859
000030 5a e7 77 3f ef 41 8c 3f 79 f1 81 3f 79 a3 7a 3f
       0.9683739 1.0957621 1.0151817 0.9790569

bn1.bias f4 [16]
000000 25 41 99 3e 8b 54 de 3d b0 de e7 3e f5 b3 fa 3d
       0.29932514 0.10855969 0.45287085 0.12241355
000010 f4 5e 9a bd dd 08 0d be ef 72 a4 3e e4 f1 41 bd
       -0.07537642 -0.13772912 0.32118937 -0.047349826
000020 0f ec e4 3c 06 45 08 be 63 28 7c 3d 10 33 4a 3e
       0.027944593 -0.1330758 0.061561953 0.19746041
000030 de a8 13 3f ae 36 21 3e d3 ec ce bd 5d d9 24 bd
       0.57679546 0.15743515 -0.101037644 -0.040246356

bn1.running_mean f4 [16]
000000 4d 72 2b 41 c6 23 2b c1 d3 8f a4 bf 58 19 4e 41
       10.715405 -10.696234 -1.2856392 12.881187
000010 2f d0 24 42 1f 16 7c 3e 0a 7c 98 3f 93 7f 45 c2
       41.203304 0.24617814 1.1912854 -49.374584
000020 3b cb 20 c1 fc ac 7d c1 06 e2 17 c2 3c 04 00 41
       -10.049617 -15.8547325 -37.970726 8.001034
000030 c3 51 68 c1 2d 51 1b 40 16 81 2f c2 c1 4d 22 42
       -14.519961 2.4268296 -43.87606 40.57593

bn1.running_var f4 [16]
000000 92 74 1c 44 d9 80 61 43 8c ef 43 43 4c 08 b9 43
       625.8214 225.50331 195.93573 370.06482
000010 4a 99 07 44 6a d6 42 43 3c b4 15 44 80 06 0d 44
       542.39514 194.83755 598.81616 564.10156
000020 f2 53 89 43 20 c4 00 43 39 08 d3 43 2c 43 72 44
       274.65582 128.76611 422.06424 969.04956
000030 c3 68 fc 43 ff f5 07 43 21 24 1c 44 d7 ad 1c 44
       504.81845 135.96092 624.5645 626.71625

conv3.weight f4 [32, 16, 5, 5]
000000 ef 6c 59 bd 61 8d 04 bd 02 ee 06 3a cd 17 08 bd
       -0.053082403 -0.032361392 0.000514716 -0.033225823
000010 ca 5e 37 3b aa a3 29 bd 07 54 a8 3d ea 43 8d bd
       0.0027980083 -0.041415848 0.08219152 -0.06897719
000020 3d 8d 48 3d 1a 6c 3c bc 9f 4a a6 bc aa de 54 3d
       0.04896282 -0.011500383 -0.020299254 0.05197016
000030 65 2c b4 bd a5 4e f8 3c 53 dc 9a bc 6d 38 2b bb
       -0.0879753 0.030310938 -0.018903887 -0.0026126162
000040 51 57 d8 3a fa c5 b5 bb 9a 69 2e bc 9c d4 05 3d
       0.0016505515 -0.0055472823 -0.010645295 0.032673463
000050 e1 43 3b bd e7 a6 e2 3c 77 4c e4 bc 93 38 82 3c
       -0.04571903 0.027667476 -0.027868493 0.015896117
000060 32 08 5c 3c 51 ab 83 3b 9c 50 c2 bd 5d 34 e8 3d
       0.013429688 0.0040182252 -0.09488031 0.113381125
000070 fe 52 50 bd 8c 56 29 3c 33 18 59 3b 19 53 d9 bc
       -0.050860398 0.010335576 0.0033125996 -0.026528882
000080 10 4d 5f 3d 72 63 09 bd 20 56 ac 3c 81 bb a5 3c
       0.054516852 -0.033542104 0.021037161 0.02023101
000090 d7 81 5a bd e4 72 8f 3d c5 ca 7b bd b5 43 dd 3c
       -0.05334648 0.070043355 -0.061472673 0.027009824
0000a0 33 c4 82 ba 67 92 e9 bc e6 55 bf 3d 2c 65 a6 bd
       -0.0009976685 -0.028512193 0.09342556 -0.08124766
0000b0 e5 1a e8 3d c1 f2 cc 3b ef 0f a3 3a 39 5a 51 3c
       0.11333255 0.0062545245 0.0012440662 0.012777858
0000c0 50 a6 a1 3c 19 18 ae 3c 08 87 fe bc 4b 5f 35 3e
       0.019732624 0.021251725 -0.031070247 0.17712133
0000d0 dd c1 6f be f8 ef 0f 3e 0b db 68 bd 9d 0d 8a bb
       -0.23413797 0.14056385 -0.05684952 -0.0042130486
0000e0 42 5d e7 3c cd d9 99 bd 7e ae 1e 3d 2b d5 f7 bc
       0.028242711 -0.07512245 0.038740627 -0.030253014
0000f0 e4 aa 90 bc a5 3b 67 3c 4e 1d 29 bd 8f 13 70 3d
       -0.017659612 0.014113341 -0.041287713 0.058612403
000100 00 99 a3 bc 4f 8e ad bc 9d de d2 3c 5e 0d da bd
       -0.019970417 -0.021186022 0.025740916 -0.10647081
000110 c6 9e 88 3d 10 80 2a bd 54 0a 17 3e c9 f0 94 bd
       0.06670909 -0.041626036 0.14750034 -0.072724886
000120 3f e8 78 bb c6 fa 45 bb 72 a6 30 3c ef 3d 0e 3d
       -0.0037980226 -0.0030209287 0.010781871 0.034727033
000130 53 82 11 3d 1e c1 e5 3c 3c 20 65 bd f4 28 95 3d
       0.035524677 0.028046187 -0.055938944 0.07283202
000140 e6 5b 3d 3d 81 bf b6 ba 3a d4 18 3d fd be c4 3b
       0.04623022 -0.0013942571 0.03731177 0.006004213
000150 4b 84 8d 3c c0 9f e2 3c d8 96 20 bd 4c 37 95 3c
       0.017274996 0.027664065 -0.039206356 0.018214844
000160 96 82 95 bd 7a 93 47 3d cd e0 b4 3c 35 29 3e bd
       -0.07300298 0.04872463 0.02207985 -0.046426017
000170 9e a1 bc 3d a5 59 cc bd 59 c0 5c 3d ea 17 b6 3c
       0.092105135 -0.09978036 0.053894375 0.0222282
000180 6b a4 1c 3c b4 ed 7d bc 16 91 a4 3c 27 8e 94 3c
       0.009560685 -0.015498567 0.020088714 0.01813419
000190 58 d4 88 bc fc b5 72 3c ea 7f ad 3b 35 29 7c bc
       -0.016702816 0.014813896 0.0052947896 -0.015390684
0001a0 a6 96 6c bb b1 12 0b bc 59 f6 5e 3c b2 b5 4d bc
       -0.0036100536 -0.008488343 0.013608539 -0.012555527
0001b0 b7 84 48 3c d9 e1 14 bc 14 f6 a1 bb 17 a9 1a 3c
       0.012238673 -0.009087049 -0.004942665 0.009439728
0001c0 42 f0 8c bc 2e 16 de 3c 45 81 69 bc 55 42 02 bd
       -0.017204408 0.027110185 -0.014252012 -0.03180154
0001d0 a5 d9 97 3d b9 cd 13 be 5a af 98 3d 68 78 c6 bc
       0.07414559 -0.14433946 0.07455321 -0.024227336
0001e0 2c 39 49 bc 07 45 75 bb 12 50 7c bb 53 3a cc ba
       -0.012281697 -0.0037425177 -0.0038499874 -0.0015581347
0001f0 6c 14 9f bc 7e 4d 74 bd a8 9e 9f 3c 9b ea 58 bd
       -0.019418918 -0.059644215 0.019484833 -0.052958112
000200 cc 0f 20 3d 66 c4 e7 bc ce 54 d2 39 80 85 c7 3d
       0.039077565 -0.028291892 0.00040117506 0.0974226
000210 db 16 c5 bd 96 7f c8 3d ff 5c 59 bd ed 5a 9f bd
       -0.096235 0.0978996 -0.053067204 -0.077810146
000220 f5 08 03 3e 1d 2d 1e be 0c ed d7 3d 63 7e e3 bc
       0.12796386 -0.15446897 0.1054326 -0.027770227
000230 7d cd a9 bd 30 01 4d 3e 81 ae 20 be 1e 71 d1 3d
       -0.08291147 0.20019984 -0.15691568 0.102266535
000240 ec 59 4b bd d0 89 a5 3c 95 8e 05 bd 03 95 27 3b
       -0.049646303 0.020207316 -0.03260668 0.0025570996
000250 dc 38 b9 ba 42 45 fa 3c 38 cd 36 3d 55 46 6b be
       -0.0014131325 0.030550603 0.044629306 -0.22976048
000260 bf 02 37 3e 3e ee 2b be ef e7 56 3d 7e e8 8a 3d
       0.17872141 -0.16790101 0.052467283 0.067826256
000270 18 9f ca bd bf fc c3 3d 69 54 88 bd 71 0c de 3c
       -0.09893626 0.09569692 -0.06656725 0.027105542
000280 e0 ca 83 3d 69 9b ae bd bd 1b f2 3d 4f 10 f1 bd
       0.0643518 -0.08525736 0.11821697 -0.11770689
000290 ad 62 2b 3d 09 5f 42 3c ed 50 5b be 50 6f 37 3e
       0.04184215 0.011863478 -0.2141759 0.17913556
0002a0 d8 b8 49 be 45 fe 08 3d df 80 85 3a 14 11 6d 3c
       -0.19699419 0.033445615 0.0010185501 0.014469404
0002b0 0e b1 22 3c b5 c1 80 3c 99 72 d0 be 4a ee 14 bc
       0.009929908 0.015717367 -0.4071243 -0.009090016
0002c0 ed 13 04 bc b7 a2 e7 3c 1b 32 56 bc df 1a 6c 3c
       -0.008061391 0.02827583 -0.0130734695 0.014410703
0002d0 22 d9 e0 3b 4a c3 c8 bc 03 58 d0 3c 4d 3f ff bc
       0.0068618217 -0.024507184 0.025432592 -0.031158114
0002e0 50 d5 0c 3c 0c 81 3b 3b 26 5d 36 3c d9 77 98 bb
       0.00859578 0.0028610853 0.011130607 -0.004652959
0002f0 30 e3 8c 3d 38 71 38 bd ce 43 54 bc af 13 63 bd
       0.0687927 -0.04502985 -0.012955619 -0.055438694
000300 b1 fe 07 3d 9d fc d4 bc c6 cd ad bd 72 dc 82 3c
       0.033201877 -0.025999362 -0.08486514 0.015974257
000310 8a 18 04 3b 32 bd 14 3e 14 a6 e3 bc b6 08 00 bd
       0.0020156228 0.14525297 -0.027789153 -0.031258307
000320 e2 1a 1d 3b 1a e4 c8 bc eb 01 00 bd 01 dd 7e 3d
       0.0023972322 -0.02452283 -0.03125183 0.062222484
000330 4e 01 01 bd b7 22 67 bc 94 c1 fa bc cd 7d 03 3c
       -0.031495385 -0.014107398 -0.030609883 0.008025599
000340 d3 0e de 3c 50 e9 43 bc 1b 8c 74 3c ab 66 2e bd
       0.027106678 -0.0119574815 0.014925982 -0.04257838
000350 1f 3e 16 3d f5 70 0d 3c b8 9c 90 bc e9 f1 c1 3b
       0.036680337 0.008632888 -0.017652854 0.0059187305
000360 6c fc d6 bd 7c ec b6 3d e2 43 5a bd 68 25 43 bd
       -0.104973644 0.089318246 -0.053287394 -0.047643095
000370 8d 02 47 bc dc 7f 87 bc 7c d7 28 3c a3 1b 96 bc
       -0.012146604 -0.01654046 0.010305282 -0.018323725
000380 49 a0 26 bc e2 a4 13 ba 9e 09 b8 bc fc 11 9e 3c
       -0.010170051 -0.00056321744 -0.022465523 0.019295685
000390 6e a9 9c 3c 6a 2b 0a bd e5 e0 c1 3b 2d c8 e8 bc
       0.01912376 -0.03373281 0.005916702 -0.028415764
0003a0 88 ca df bc fc 7f 14 3d 41 cb d5 bc d2 e9 2f 3c
       -0.027318254 0.036254868 -0.026097896 0.010736899
0003b0 57 85 12 bb 71 a0 30 3b 22 da 45 3d ab 92 e1 bc
       -0.0022357309 0.00269511 0.04830373 -0.027535757
0003c0 36 6b 0a 3d 46 4c 88 3b 35 ad 19 bc 77 cb eb 3d
       0.03379365 0.004159483 -0.009379675 0.11513417
0003d0 a7 0c 39 bd 14 20 9c 3b 32 87 16 bc b7 93 54 3b
       -0.04517808 0.004764566 -0.0091875065 0.0032436678
0003e0 8d 22 8a 3c ce 39 a5 bb 46 24 f0 3b 80 3a 5b bd
       0.016862178 -0.0050422912 0.007328543 -0.053522587
0003f0 f7 85 54 39 62 9e 25 bb 39 10 ba 3c 84 81 a2 3c
       0.00020267801 -0.0025271405 0.022712814 0.019837148

conv3.bias f4 [32]
000000 10 55 b5 38 a5 5b 05 b8 87 89 a9 b9 06 13 28 37
       8.646597e-05 -3.179502e-05 -0.00032336658 1.001801e-05
000010 a7 71 a9 36 41 dc 10 b9 9c fb 2b b9 ba 49 9e 38
       5.0498234e-06 -0.00013814961 -0.00016401563 7.54776e-05
000020 08 b0 d6 38 68 08 c2 b8 fa e8 15 38 c1 97 e0 39
       0.000102371036 -9.252207e-05 3.5741345e-05 0.00042837675
000030 1d bd 8a 38 cf 3c 14 ba cd 07 ad 37 8f 5f bc b8
       6.615578e-05 -0.0005654813 2.062684e-05 -8.982338e-05
000040 d0 ed 86 b9 07 19 4a 39 62 88 3c b8 6e f7 a5 38
       -0.00025735656 0.00019273545 -4.494971e-05 7.9139005e-05
000050 15 51 cd b8 7c 00 f6 37 99 e5 83 38 e1 54 9e 39
       -9.7902644e-05 2.932571e-05 6.289333e-05 0.00030199348
000060 6f 75 83 b9 f7 52 9b b8 ed a3 9b 38 77 15 00 39
       -0.00025073762 -7.406429e-05 7.4215095e-05 0.00012215028
000070 c1 f2 ab 38 07 69 9c b9 9e 2e 7a 39 bd 84 fc b9
       8.199132e-05 -0.0002983289 0.00023859224 -0.00048164083

bn2.weight f4 [32]
000000 d5 b6 38 3f c4 cf 5f 3f 4b 93 67 3f 05 a7 21 3f
       0.7215398 0.874264 0.90459126 0.63145477
000010 92 89 8b 3f f6 6f 65 3f bd 05 79 3f 99 90 36 3f
       1.0901358 0.89623964 0.9727438 0.7131439
000020 f0 82 a8 3e fb 6d 84 3f af 8d d9 3e 9d b4 59 3f
       0.32912397 1.0346063 0.42490909 0.8504122
000030 fe 81 1d 3f 7a ed 69 3f 3a 5b 5c 3f 0a dd 72 3f
       0.6152648 0.91377985 0.860767 0.9486853
000040 0f 8b 77 3f 07 34 74 3f 44 2a 77 3f 6f d9 22 3f
       0.9669656 0.9539189 0.9654887 0.6361303
000050 ed d6 20 3f 41 d1 39 3f de 46 66 3f fa 82 7d 3f
       0.6282795 0.7258492 0.89951885 0.9902798
000060 e1 5b ec 3e 7f f4 6e 3f 6f dd 87 3f af f4 4f 3f
       0.46163848 0.9334182 1.0614451 0.8123273
000070 78 04 7f 3f f8 0f 6f 3f 76 a0 92 3f de 21 1d 3f
       0.99616194 0.9338374 1.1455219 0.613798

bn2.bias f4 [32]
000000 8b af 98 3f 93 39 6d 3f 3b 80 9e 3d 0e 64 93 3f
       1.1928571 0.92665976 0.07739302 1.1514909
000010 f9 30 89 3e ce 47 33 3e 34 1a 1a 3f d7 81 0a 3f
       0.26795176 0.1750786 0.6019623 0.5410437
000020 9b 20 5a 3f fe 37 bf 3d f9 ba 49 3f 7b 46 d5 3e
       0.85206 0.093368515 0.7880092 0.41655335
000030 04 5f 73 3f e6 8b 33 3e 90 92 e4 3e 46 26 58 3e
       0.9506686 0.17533836 0.44643068 0.2110835
000040 13 25 1a 3f 99 ce 5a 3a 5b 90 93 3e b6 0a 13 3f
       0.6021282 0.00083468255 0.28821072 0.5743822
000050 fc e5 40 3f 08 66 0f 3e de ec 4c 3e 3a 77 e1 3e
       0.7535093 0.14003766 0.20012233 0.44036275
000060 99 a7 0c 3f 8f 9e 94 3e 00 b3 c0 3d 08 d5 42 3f
       0.54943234 0.2902722 0.094091415 0.7610631
000070 cb e6 12 3f 81 e8 f5 3e 5b 93 78 3e 87 62 62 3f
       0.5738341 0.4802895 0.24274962 0.8843159

bn2.running_mean f4 [32]
000000 0e b6 1a be d8 b6 a6 3e 55 45 ee bf 08 00 25 3f
       -0.15108511 0.32561374 -1.8614908 0.6445317
000010 38 1d 1d bf 4f 80 ff bd ff 6c 66 3e 29 0a 58 3f
       -0.6137271 -0.12475645 0.22502516 0.84390503
000020 bd fa 81 be ae 80 24 3f da 52 3a 3f 7b 5d 06 bf
       -0.2538661 0.6425885 0.7278267 -0.5248639
000030 7e ff 27 bc 91 8c 4b bf 61 2f 11 bd 9f a3 fe 3f
       -0.010253785 -0.7951136 -0.035445575 1.9893683
000040 f4 55 af be b6 a0 17 c0 c7 0f 94 bf 27 db 99 3e
       -0.34245265 -2.369184 -1.1567315 0.30050012
000050 bd e3 91 3f 33 c6 4a 3f 40 6e 1a bf 10 80 42 bf
       1.1397625 0.7920868 -0.6032448 -0.7597666
000060 b6 54 17 3f 6b 22 b1 3f d3 01 bb bd 3b 18 34 3f
       0.59113634 1.3838629 -0.09131207 0.7034947
000070 b4 e1 6d 3e 17 30 62 3f 06 7a 09 40 2e e6 85 bf
       0.2323063 0.8835463 2.1480727 -1.046087

bn2.running_var f4 [32]
000000 ec 7b 20 3e b1 ea 96 3e 8b 5a 8a 3e 91 96 01 3e
       0.15672272 0.2947593 0.27022204 0.12655093
000010 33 cf f6 3e cf ae a9 3e 50 0a a9 3e 8c 88 09 3f
       0.48204955 0.3314118 0.3301568 0.5372398
000020 ff 45 e5 3d ce 52 3e 3f a3 c5 a7 3d 09 3d 7b 3d
       0.11194991 0.743451 0.08191993 0.061337505
000030 75 f6 6f 3d b8 76 94 3e 01 1b 3b 3f 14 0c bd 3f
       0.05858465 0.28996825 0.7308808 1.4769311
000040 f4 23 5a 3e 50 69 84 3f 16 8f 01 3f ba 92 3e 3e
       0.21302778 1.0344639 0.50608957 0.18610659
000050 45 fd 6a 3e cd eb 02 3e 9a 88 19 3f 93 16 97 3e
       0.22948177 0.12785263 0.5997406 0.2950941
000060 0b 36 5f 3e 5b af cd 3e 78 f4 77 3f fe 33 a6 3e
       0.2179796 0.40172848 0.96857405 0.32461542
000070 ad 38 77 3f c8 3f c4 3e b0 2e a2 3e 7e 1b 01 3d
       0.96570855 0.3832991 0.31676245 0.03152036

fc1.weight f4 [128, 736]
000000 5f 70 64 bd 89 2a fb 3d 62 03 0b be 86 c3 10 3e
       -0.055771228 0.12263972 -0.13575509 0.14137086
000010 89 bf 22 be d8 da 49 bd 2a 07 e4 bd 7b 23 50 bd
       -0.15893377 -0.04928097 -0.11134179 -0.050815087
000020 72 d3 d0 3c da da 54 bc 48 1c 25 bc a3 fc bb 3c
       0.02549145 -0.012991631 -0.010077544 0.022947615
000030 7c 06 fa 3b a1 9a 96 bd 22 a5 d6 3c 58 7f db 3d
       0.0076301675 -0.07353712 0.026201788 0.10717648
000040 27 5e 13 3d 25 7f e2 3d 01 f8 a6 3d 63 a5 bb 3d
       0.035978463 0.11059407 0.08152772 0.091624044
000050 45 02 1f 3d 24 e1 4e 3c d1 98 a1 bd 88 7b fc bb
       0.038820524 0.01262692 -0.078904755 -0.0077051558
000060 8c 28 4b bc 70 2d 71 3d 6b d3 99 bc 39 83 87 3d
       -0.012399804 0.058881223 -0.01877757 0.066168256
000070 11 be b1 3d c9 bc eb 3d 61 9b 22 bd c1 0f 5d bd
       0.086788304 0.11510617 -0.039698962 -0.053970102
000080 56 4b 94 bd 9b ed 9c 3c 87 e4 0f 3a 36 c7 71 3d
       -0.07240932 0.019156268 0.00054890703 0.059027873
000090 f3 0e a5 3d 85 cf e4 3c 51 87 b3 bb 00 d9 58 3c
       0.08059492 0.027930984 -0.0054787775 0.013235331
0000a0 46 61 61 3a f6 ba 9b 3d be 24 54 bd 6d 4a bf bd
       0.0008597564 0.07604019 -0.051792853 -0.093403675
0000b0 15 95 2a bb 6d 03 bf 3c 80 21 89 3b 68 af 2d bc
       -0.0026028801 0.023317063 0.0041849017 -0.010600902
0000c0 11 b7 81 bc e9 1d 93 bd a9 fb 74 bd a0 33 ba bd
       -0.015834363 -0.07183439 -0.059810314 -0.09091878
0000d0 5b 3f be bc 74 1d be 3c 2d f0 aa ba 74 69 c2 3d
       -0.02322357 0.023207404 -0.0013041549 0.0949277
0000e0 26 d7 60 3d a2 f4 02 3d a2 d3 31 3d a9 89 3a 3d
       0.05489268 0.03197158 0.04341472 0.04554144
0000f0 0a 19 a1 3c 9f e8 61 bd 83 94 69 bc ff 5c 0c 3c
       0.01966526 -0.055153485 -0.014256599 0.008567094
000100 b7 ff 7a bc 5b 09 c0 bc 92 73 49 3d 8d 08 b8 3d
       -0.015319756 -0.023441961 0.049182482 0.08986006
000110 d8 37 4a bc a9 7d 89 bd 9f b7 f8 bd 6f a8 0e 3e
       -0.012342416 -0.06713421 -0.12144398 0.1393144
000120 b4 9d 03 be 5c a7 2b 3e fd 7d 75 3d b4 64 ed 3d
       -0.12853128 0.16763061 0.059934605 0.11591473
000130 e5 c1 6b 3d c3 29 a8 bc e4 55 03 3c cd 81 52 3c
       0.05755796 -0.020527726 0.008016083 0.01284833
000140 51 67 8e bc 0d 1d 09 bc 6b e8 96 3d 55 fe aa bc
       -0.01738325 -0.008368743 0.07368549 -0.020873228
000150 fb f3 e8 bd 18 70 1b bd ef da e7 bd 4f 2f a3 bd
       -0.113746606 -0.037948698 -0.11321055 -0.07968008
000160 d1 37 b4 bd 12 9d 28 bd de 11 6c bc 1c 98 49 bd
       -0.08799709 -0.04116542 -0.014408557 -0.04921733
000170 39 bc 39 3d a5 bd b1 3c f2 d7 ff 3b 7a 64 b0 bb
       0.04534552 0.021696875 0.007807725 -0.0053830715
000180 8c bf 89 bd a5 27 09 bd 46 2a fa 3c ef 59 1d 3d
       -0.06725988 -0.033485074 0.030537736 0.038415845
000190 8c b9 75 3d fa fe 37 3d d3 e7 55 bd b4 83 0b be
       0.059991404 0.0449209 -0.052223038 -0.1362446
0001a0 e8 c9 a3 bd 5d 3b 37 bc 4c d0 c5 3c a2 6d 0d bc
       -0.07997495 -0.011183587 0.024147175 -0.0086320955
0001b0 f7 28 9d bb 62 f9 e0 bc 33 07 6c bd 27 f9 8f bd
       -0.004796143 -0.027462665 -0.057624053 -0.07029944
0001c0 5a 6e 17 bd 3e a3 d7 bc 70 53 2d 3d c2 ab 49 3c
       -0.036970474 -0.026322957 0.0423159 0.012309017
0001d0 30 5c 79 bc c1 38 34 bd 4a 1d 61 bd ca f2 f2 bb
       -0.015219733 -0.043999437 -0.054959573 -0.0074141966
0001e0 0a 2c 01 3d a3 51 8d 3d 66 1e 8e 3c e8 f7 b8 3c
       0.03153614 0.069003366 0.01734848 0.022579148
0001f0 25 2e 2b 3c 4b c7 67 3d 9c 3c 5a 3c ac 3c a3 bb
       0.010448013 0.056586545 0.013320114 -0.004981598
000200 ed 0c 7c bd ba c6 c6 bd 03 37 98 bd 11 9b 6b bd
       -0.061535764 -0.09705873 -0.07432368 -0.05752093
000210 81 a6 97 bc 30 95 f4 3c 01 2c 71 3d 30 0d d2 3c
       -0.018512012 0.029856294 0.058879856 0.025641054
000220 0e 6c 0d bd 41 e0 13 3d e0 a0 11 bd db 05 a1 3a
       -0.034526877 0.036102537 -0.035553813 0.001228507
000230 1f 52 8a bc 13 16 83 3d 87 da f9 3b f1 f4 0b 3c
       -0.016884862 0.06400695 0.0076249274 0.008542285
000240 79 f2 3a 3d e8 e2 d3 3b 83 0c 3f bb c4 a6 d8 3a
       0.045641396 0.0064662583 -0.0029151745 0.0016529192
000250 3d b5 f7 bc 1e 60 e0 bb 31 30 9b bc 3e e7 f2 3b
       -0.030237788 -0.0068473956 -0.018943878 0.00741282
000260 c2 37 5c 3c c4 a4 e8 3b b8 90 86 3c 1d 6e 8a 3c
       0.013441028 0.0070997197 0.01642643 0.01689821
000270 f4 69 18 bd d7 fb 62 bd cf 71 81 3c a9 52 ed bc
       -0.03721042 -0.055415954 0.015801338 -0.02897008
000280 0e 38 23 3d cf 47 b4 bd 88 f7 ef 3c fa 57 63 3d
       0.03984838 -0.08802759 0.029292837 0.055503823
000290 22 1c 56 3d 2a c4 b7 bd 83 24 33 3d 07 6f 28 bd
       0.052272923 -0.08972962 0.043735992 -0.04112151
0002a0 9f 33 14 bc a3 00 2c 3d 62 a6 99 3c 64 41 21 3c
       -0.009045511 0.041992795 0.018756095 0.0098422505
0002b0 e7 62 a4 bc 3c af 5a bb 81 a2 21 3d b7 d2 ad bc
       -0.020066692 -0.0033368608 0.039461616 -0.02121864
0002c0 f9 ca 90 bc d3 cd 83 bd 00 3c 00 bd 64 26 1c bd
       -0.01767491 -0.06435742 -0.03130722 -0.03812255
0002d0 44 b9 52 3c 86 8a 1a 3d 31 04 df 3c 6e 94 26 3d
       0.012861554 0.037729762 0.027223678 0.040668897
0002e0 21 34 a7 bc dd f3 b9 bc 49 1d 4d bd 87 16 d3 3c
       -0.0204106 -0.02269929 -0.050076757 0.025767578
0002f0 ab 73 99 3c eb 2c 36 3a 8b a8 e8 bd 64 90 ac bd
       0.018731913 0.00069494423 -0.11360272 -0.08425978
000300 01 0b 28 bd aa 64 b5 3d fb c6 42 3d 16 b7 1f 3d
       -0.04102612 0.08857091 0.047553044 0.038992964
000310 8b d0 67 bc 5e 0d 5b 3c 80 bf c3 3c db 7d 49 3d
       -0.014148842 0.013369886 0.023895025 0.04919229
000320 1f 01 96 3d c2 9c a4 3d 0b a0 9c 3b ba 0f 88 3c
       0.073244326 0.08037712 0.004779821 0.016609062
000330 09 54 ca 3c d3 62 0b bc 6f 5d f1 3d 85 a9 2a 3d
       0.024698274 -0.008507448 0.11785399 0.041665573
000340 9b e5 b8 bd da 7b 6f ba 0f 31 df bc d6 60 89 3a
       -0.09028169 -0.0009135582 -0.027245073 0.001048113
000350 66 35 25 3d 8b c6 2a 3c e1 9a 7a bb 04 d8 8c bc
       0.040334128 0.010423313 -0.0038239288 -0.017192848
000360 2c fb 31 bc c8 89 1e 3d e9 53 69 3d 52 20 1b bb
       -0.010863107 0.038705617 0.05696479 -0.0023670387
000370 71 18 d3 3b 01 be 75 3c 85 e1 31 3c cf 4d 59 3c
       0.0064421226 0.014998914 0.010856991 0.01326318
000380 e7 a4 df 3c 01 ec 5d 3c 84 0d 6d 3c 7a 58 df 3c
       0.027300311 0.013545037 0.014468554 0.027263869
000390 d3 47 2b 3d 8c d9 9a 3d 18 9d 5a bc 12 4f f9 3b
       0.041816544 0.07561025 -0.013343118 0.007608303
0003a0 76 39 6f bd c8 c7 97 3c 97 92 9d bd f2 26 dd bd
       -0.05840441 0.01852788 -0.076939754 -0.10798444
0003b0 e3 cf e9 bd fc f3 61 3d 1b 7b 97 3d 07 23 a6 3d
       -0.11416604 0.055164322 0.073965274 0.0811215
0003c0 c0 76 0c bd 76 f4 2f bc 02 92 a3 bd 16 19 a1 bd
       -0.034292936 -0.010739436 -0.07986833 -0.07866113
0003d0 99 f1 eb bc 72 e0 72 3b e4 24 23 bc 05 f5 6b bc
       -0.028801726 0.003706005 -0.009957526 -0.014401679
0003e0 b4 6c 9c bd 9d a3 61 3d 22 ae b5 3d 71 d5 f8 bb
       -0.07637921 0.055087674 0.08871104 -0.0075938036
0003f0 2f ce f6 3a 00 87 06 bd b8 5a b6 3c 74 17 04 bd
       0.0018829758 -0.03284359 0.022260055 -0.03224893

fc1.bias f4 [128]
000000 0c e4 da 3d 40 b1 7a 3d 2d 9a 98 bd 16 a0 58 bd
       0.10688028 0.061204195 -0.07451282 -0.052887045
000010 48 e0 5c 3e d2 4f 09 bd c1 b0 5b 3d 17 1e 78 3d
       0.21569932 -0.03352339 0.053635363 0.06057557
000020 cf 10 2d 3d 75 5e 94 bc 7b ce 10 3d c0 22 81 bc
       0.042252358 -0.018111447 0.035353165 -0.01576364
000030 7f b5 fb bc 1a cd ae 3c cc cc 4e 3d a4 26 61 3d
       -0.030726193 0.021338034 0.05048828 0.05496849
000040 15 ff 9e 3b 5d 0c a6 3d 6d f2 d3 3c e8 25 95 3c
       0.0048521855 0.08107827 0.025872434 0.018206552
000050 ee e9 a5 3b fa e6 54 3d 9d d2 2d bd 4d 9f 1c bd
       0.005063287 0.05197809 -0.042437185 -0.03823786
000060 98 87 8c bb a5 62 90 bc 10 36 d5 3d d1 be 2f 3d
       -0.004288625 -0.017625162 0.10410702 0.042906586
000070 07 9b 96 3d 70 f7 0e 3d 32 1d a9 bd e6 47 9a bc
       0.07353788 0.034903944 -0.08257522 -0.018833112
000080 11 f3 05 3e de 5e 42 3c ef 2e da 3a 1a 99 73 bd
       0.13081004 0.011863438 0.0016646067 -0.05947218
000090 68 56 4c 3d da 1b 89 3d 43 3e ee bc 2e 3a b2 3d
       0.04988709 0.066947654 -0.029082423 0.08702503
0000a0 c4 f4 24 bd 92 87 1c 3d d0 ca 12 3d 06 8c ec bc
       -0.04027249 0.038215227 0.03583795 -0.028875362
0000b0 97 c9 f3 bd 0c c5 c2 3c ad c7 f7 3c 21 a5 bf ba
       -0.119036846 0.0237756 0.03024658 -0.0014621356
0000c0 3b 0e dc bc 08 df dc bc b8 58 87 bd ac 65 ef bb
       -0.026862254 -0.026961818 -0.06608719 -0.0073058214
0000d0 04 24 10 bd 0f 3b 66 be 4d 4a 0f bd d8 0f 09 3e
       -0.035190597 -0.22483467 -0.034982968 0.1338495
0000e0 8c 9c 94 3c 80 d2 6f 3d 40 03 cb 3d 12 f2 9e 3d
       0.018141054 0.058550358 0.09912729 0.07761015
0000f0 9b cf e1 3c a3 13 6d bd 99 76 70 bd 47 2c 07 bd
       0.027564814 -0.057880055 -0.058706854 -0.03300121
000100 e9 94 49 bd 9f 73 3f 3b 29 72 4f bd f5 59 8b 3d
       -0.049214277 0.0029213203 -0.05064598 0.06804267
000110 fe ea d8 3b bd af 7d 3d 0e 78 04 be af a1 14 be
       0.00661981 0.061935175 -0.12936422 -0.14514802
000120 d4 eb 11 3b 1f f0 84 3a 9c bf 48 3c 93 ef 51 3c
       0.0022265809 0.0010142362 0.0122527145 0.012813467
000130 9e 8a 42 3b 8f 67 cc bd 5b e3 b5 bb cf 08 7a bd
       0.0029684673 -0.0998069 -0.0055507845 -0.061043557
000140 17 a3 1b 3e 04 1c 53 3d b9 1f 1e be d7 9d db bc
       0.15198933 0.05154039 -0.15441789 -0.026808662
000150 43 56 75 3c 86 48 99 ba c3 bb 88 3a 89 f8 b5 bc
       0.01497418 -0.0011694587 0.0010431934 -0.022213237
000160 3c 43 44 bd f3 49 9e bc 1f 65 38 3c 7f 90 63 bc
       -0.047915682 -0.019322371 0.011254578 -0.013889431
000170 c5 0a 6c 3b 4a 28 e1 bc 4e ef 85 3d 20 c6 a7 bd
       0.0036017161 -0.027485032 0.06539784 -0.08192086
000180 5d b8 89 bd 5c bf 5e 3d 51 1a 44 bd ee 57 32 3d
       -0.06724618 0.054381713 -0.04787666 0.043540888
000190 66 84 65 bd b4 99 1e bd d8 c8 92 bc 70 7a 60 bd
       -0.056034468 -0.0387208 -0.017918035 -0.054804265
0001a0 27 23 0d bd 30 a8 e2 bd ae 2e 44 bd 17 58 3f bc
       -0.034457352 -0.110672355 -0.04789608 -0.011678717
0001b0 da 9e 0a 3d 61 41 48 bc 88 c2 1f bd a1 7b 0b 3e
       0.0338429 -0.012222619 -0.03900388 0.1362138
0001c0 f8 d1 07 3d 87 78 d4 3d 4b a6 c1 3d 52 5c 1b 3d
       0.033159226 0.10374551 0.09455546 0.03792984
0001d0 12 17 22 be 03 4d 32 3d 36 56 f5 bd 12 a2 ac bd
       -0.15829113 0.043530475 -0.11979334 -0.0842935
0001e0 f4 08 d6 3d 7c e2 48 3d 76 7a bb bc de 98 94 bb
       0.104509264 0.049044117 -0.022885542 -0.0045348248
0001f0 f3 e3 90 3c e9 49 f5 bb 1f fb 20 bd 14 8b 4d 3d
       0.01768682 -0.0074856174 -0.039301988 0.050181463

fc2.weight f4 [128, 736]
000000 6c 98 c8 bd 6c 1c f1 bc e3 d7 f8 bc 0e 16 e8 bc
       -0.09794697 -0.029432498 -0.03037638 -0.028330829
000010 fa 02 f7 bc 90 03 f2 bc ac 27 00 bd d1 92 ee bc
       -0.030152787 -0.029542714 -0.031287834 -0.029122742
000020 2b c2 fd bc 72 6f f1 bc fe 5b ee bc 71 96 ea bc
       -0.030976376 -0.029472087 -0.0290966 -0.02863619
000030 95 72 02 bd 98 fe f5 bc 2b 02 ed bc 6a 90 fa bc
       -0.031847555 -0.030028626 -0.028931698 -0.03058644
000040 dd 86 f8 bc 83 66 00 bd 64 ac fc bc b3 e6 01 bd
       -0.030337745 -0.031347763 -0.030843921 -0.031714153
000050 88 54 f8 bc 48 e5 f7 bc 3a b2 e2 bc a5 63 ba bd
       -0.030313745 -0.030260697 -0.027672876 -0.09101037
000060 ec b2 9f bc a2 60 94 bc e7 79 93 bc e5 2b a1 bc
       -0.019494496 -0.018112484 -0.018002464 -0.01967425
000070 67 c9 9f bc fe 3b 96 bc 29 ba 92 bc 9f 35 9e bc
       -0.019505216 -0.018339153 -0.017911034 -0.019312678
000080 1d 21 95 bc 9b 5e 8a bc 71 0c 93 bc ad c1 90 bc
       -0.018204266 -0.016890815 -0.017950268 -0.017670477
000090 11 02 96 bc 47 be 8b bc 9e 55 98 bc 7c db 96 bc
       -0.018311532 -0.017058505 -0.018595513 -0.018415205
0000a0 04 84 95 bc 42 45 99 bc c1 8c 95 bc 0e bf a1 bc
       -0.018251427 -0.018709783 -0.018255593 -0.019744422
0000b0 39 42 94 bc 26 57 c6 bd 27 5c 63 39 14 0b 40 bc
       -0.018097984 -0.09684591 0.00021682736 -0.011721391
0000c0 d8 fd 32 bc 85 cf 2a bc 4a 03 2c bc f2 8b 41 bc
       -0.010924779 -0.010425453 -0.010498831 -0.011813151
0000d0 1f 1c 3a bc d0 e3 31 bc c7 a6 43 bc 68 53 45 bc
       -0.011359244 -0.010857537 -0.011941618 -0.012043811
0000e0 e1 d8 48 bc d2 d0 4d bc 9b d7 61 bc 26 15 79 bc
       -0.012258739 -0.012561994 -0.0137843145 -0.015202796
0000f0 f5 5c 7f bc a7 1e 83 bc 4f 51 6f bc 00 11 57 bc
       -0.0155861275 -0.016005827 -0.014606788 -0.013126612
000100 08 2d 56 bc ed c1 65 bc a5 2f 68 bc c9 cf 63 bc
       -0.01307226 -0.014023286 -0.014171516 -0.01390452
000110 dc bd e2 bc 6d 40 4e bd 1f cf e1 bc 77 be dd bc
       -0.027678423 -0.05035441 -0.027564583 -0.02706836
000120 83 e6 e1 bc ed 58 e2 bc 80 cc e3 bc 5b d6 e2 bc
       -0.027575737 -0.027630294 -0.027807474 -0.027690103
000130 eb a8 de bc 11 a8 eb bc e4 4e e4 bc 85 be f3 bc
       -0.027180156 -0.028766664 -0.02786965 -0.029753933
000140 f4 0d e7 bc e5 50 e7 bc 70 43 e7 bc 66 be d8 bc
       -0.028204896 -0.028236816 -0.028230399 -0.026457977
000150 84 36 ea bc 40 1f e2 bc 13 fa fd bc de b0 de bc
       -0.028590448 -0.027602792 -0.031003034 -0.027183946
000160 c4 ab e5 bc c4 a3 e8 bc a6 bb e3 bc 49 29 97 bd
       -0.028036006 -0.028398402 -0.027799439 -0.073809214
000170 2e 4b 7c bd 18 b3 2a bc b2 68 1d bc dd 60 1e bc
       -0.061595134 -0.010418676 -0.009607481 -0.009666649
000180 46 f6 15 bc 6c bf 14 bc 9b 1a 19 bc 4f 60 1b bc
       -0.009152954 -0.009078842 -0.009344722 -0.009483411
000190 2b 41 23 bc c4 91 2a bc ce ac 3c bc 88 51 52 bc
       -0.009964268 -0.01041073 -0.011515809 -0.012836821
0001a0 03 51 44 bc 88 d7 3e bc 07 04 3a bc ab db 36 bc
       -0.011982205 -0.011648066 -0.011353499 -0.011160771
0001b0 6f b2 35 bc 8e ba 27 bc 50 ba 21 bc bd b2 18 bc
       -0.011089905 -0.010237349 -0.0098710805 -0.009319958
0001c0 ad 3d 1b bc d9 0f 26 bc 24 6c f0 bd 14 b3 3e bc
       -0.009475154 -0.010135614 -0.11739376 -0.011639375
0001d0 ff 4f 46 bc 7e 3b 43 bc ee 24 3b bc 64 e8 2c bc
       -0.0121040335 -0.0119160395 -0.011422379 -0.010553453
0001e0 e2 0a 0b bc 44 c6 1b bc 36 e7 24 bc c6 0b 2b bc
       -0.008486481 -0.009507719 -0.010064891 -0.010439819
0001f0 af e2 4c bc b7 18 41 bc 61 f8 5b bc 58 68 67 bc
       -0.012505217 -0.011785678 -0.013425917 -0.014123999
000200 a6 97 60 bc 71 0b 51 bc 0c f2 45 bc cd 5b 4e bc
       -0.013708031 -0.0127590755 -0.012081634 -0.012595129
000210 55 66 38 bc c4 9d 39 bc c9 bf 1d bc 76 16 44 bc
       -0.011254867 -0.011329118 -0.009628245 -0.011968246
000220 74 ae 3b bc fb 5d 2b bc b1 18 99 bd 8f 8e 7a bc
       -0.011455167 -0.010459418 -0.07475413 -0.015292778
000230 86 76 86 bc b1 e6 81 bc 99 13 82 bc a5 93 77 bc
       -0.016413938 -0.015857073 -0.015878486 -0.015110885
000240 6a 6e 7d bc dd c6 87 bc 70 6e 98 bc 56 6c 8d bc
       -0.015468219 -0.016574318 -0.018607348 -0.017263573
000250 f4 2d 96 bc 31 40 7a bc a4 10 56 bc f1 b0 52 bc
       -0.018332459 -0.0152740935 -0.013065491 -0.012859569
000260 4d 45 6b bc bd 17 89 bc 82 5a 82 bc 7f e0 74 bc
       -0.014359784 -0.016734952 -0.015912298 -0.014946102
000270 0c 78 86 bc c5 41 8b bc 2a 87 81 bc 10 68 9b bc
       -0.016414665 -0.016999135 -0.015811522 -0.01897052
000280 a7 bc b0 bd 88 0b 38 bd 7b 62 03 bc 9e 71 1f bc
       -0.086297326 -0.044932872 -0.008019085 -0.009731678
000290 26 8d 1d bc 50 07 23 bc 64 ec 30 bc 3f 32 27 bc
       -0.009616172 -0.009950474 -0.010798547 -0.010204851
0002a0 c3 fa 21 bc 50 ab 25 bc 4f 84 13 bc 42 51 16 bc
       -0.009886446 -0.010111645 -0.009003713 -0.009174647
0002b0 0f f3 c7 bb 14 46 c5 bb 2e 4c 06 bc 1d d0 18 bc
       -0.006101973 -0.006020317 -0.008196874 -0.009326962
0002c0 71 fa 24 bc ff fc 07 bc 5a ab 31 bc 5c cf 31 bc
       -0.0100694755 -0.008300065 -0.010844076 -0.010852661
0002d0 59 50 1a bc 8e 4c 0a bc 4b a9 2d bc ef 51 82 bd
       -0.00941857 -0.008441104 -0.010599445 -0.06363284
0002e0 22 04 e0 bc 1b b6 c5 bc cc c6 c5 bc 72 24 cb bc
       -0.02734572 -0.024134686 -0.024142645 -0.024797652
0002f0 12 ca cb bc e2 b9 cf bc 0c 39 d0 bc 36 22 d0 bc
       -0.024876628 -0.02535719 -0.025417827 -0.025406938
000300 64 76 d0 bc 29 94 c6 bc 38 0a cc bc 49 95 c8 bc
       -0.025447078 -0.02424057 -0.024907216 -0.024485247
000310 39 80 c8 bc 2d 01 cb bc 1d 38 d1 bc 12 05 d8 bc
       -0.024475204 -0.024780834 -0.025539452 -0.026369605
000320 7c 1b d7 bc 20 d1 d1 bc b3 42 ca bc 97 3c d4 bc
       -0.026258223 -0.025612414 -0.024690008 -0.025907798
000330 df 30 ca bc cd 52 d1 bc ce 25 be bc fa 55 20 bc
       -0.024681507 -0.025552178 -0.023211386 -0.009786123
000340 7a a2 1e bc 83 c6 0a bc 55 5c f0 bb f6 42 d7 bb
       -0.009682292 -0.00847018 -0.0073352256 -0.0065692617
000350 c3 3b d0 bb 84 1f c7 bb 0b 2c d6 bb 13 32 eb bb
       -0.0063547804 -0.006076755 -0.006536012 -0.0071776
000360 d1 6a 07 bc 13 a9 0d bc 32 00 05 bc 1f 51 fb bb
       -0.008265213 -0.0086462675 -0.008117722 -0.0076695825
000370 2e 63 e8 bb c6 05 e9 bb fd dd fd bb 64 63 f0 bb
       -0.0070919013 -0.007111284 -0.0077474103 -0.007336067
000380 8a 23 ed bb f8 4b 05 bc cf 29 0b bc 11 1c 0f bc
       -0.0072369026 -0.008135788 -0.008493855 -0.008734719
000390 d3 26 29 bc 57 7a e6 bd d1 ee 47 bd a2 e2 a6 bc
       -0.010324198 -0.11253803 -0.048811737 -0.020371739
0003a0 7e d3 a8 bc 1d 8b 9b bc e5 64 9c bc 27 35 a3 bc
       -0.02060866 -0.018987233 -0.019091079 -0.019922806
0003b0 73 b1 a3 bc a4 45 a9 bc 7a 57 a2 bc 53 36 9f bc
       -0.019982075 -0.02066309 -0.019817103 -0.019435083
0003c0 d9 5f ab bc ba 82 90 bc af 5b b2 bc 2b d3 ab bc
       -0.020919727 -0.01764046 -0.021772234 -0.020974716
0003d0 32 12 9d bc 1b b4 a4 bc c4 f9 a2 bc 61 0d 9f bc
       -0.019173715 -0.020105412 -0.019894488 -0.01941556
0003e0 c6 c5 a5 bc 3a 75 b0 bc 11 9b 9f bc 20 1d af bc
       -0.020235907 -0.021540273 -0.019483121 -0.021376193
0003f0 7e ae 86 bc be 6a a1 bc 71 46 17 bc cf c9 21 bc
       -0.016440626 -0.019704219 -0.009233103 -0.009874775

fc2.bias f4 [128]
000000 1b a0 f0 bc c1 88 e9 bc e1 34 f5 bc ef 56 f4 bc
       -0.02937322 -0.028507592 -0.029932441 -0.02982661
000010 f3 c0 fe bc b2 39 f4 bc 99 de ee bc 4c c0 f2 bc
       -0.031097865 -0.029812668 -0.029158877 -0.02963271
000020 fd f6 fa bc 29 5d f6 bc 9f a2 ff bc 10 a2 ef bc
       -0.030635351 -0.03007372 -0.031205473 -0.029252082
000030 53 61 f7 bc 9a d3 f6 bc d8 28 f7 bc 8b a7 f6 bc
       -0.030197775 -0.030130196 -0.030170843 -0.030109188
000040 6c 74 fc bc d6 f9 f0 bc b3 24 f9 bc fa fa f5 bc
       -0.030817233 -0.029416006 -0.030413007 -0.030026902
000050 b5 c7 f6 bc c6 a1 f5 bc 10 e8 f4 bc 3e 12 eb bc
       -0.030124525 -0.029984366 -0.029895812 -0.028695222
000060 f3 66 f6 bc d8 cd f7 bc 15 2a f9 bc 6e b5 ef bc
       -0.030078387 -0.030249521 -0.030415574 -0.029261317
000070 8a 42 f4 bc 16 ac ed bc 06 35 ee bc 2c 69 fd bc
       -0.029816885 -0.029012721 -0.029078018 -0.030933939
000080 23 15 f5 bc 7a 8b f1 bc ad 9e fb bc 62 26 ea bc
       -0.029917305 -0.029485453 -0.030715311 -0.028582755
000090 94 d2 f2 bc e2 3e f1 bc 7f 48 f2 bc b2 35 f4 bc
       -0.029641427 -0.02944893 -0.029575584 -0.02981076
0000a0 5c db fa bc f0 09 ff bc 94 8f f1 bc e2 24 f2 bc
       -0.030622177 -0.031132668 -0.029487409 -0.029558603
0000b0 20 cc f0 bc 59 8e fa bc 00 ba f8 bc 55 1d fa bc
       -0.02939421 -0.030585455 -0.03036213 -0.030531565
0000c0 ac 54 fd bc d6 41 ea bc 59 6d f1 bc ac ae f0 bc
       -0.030924164 -0.028595846 -0.029471086 -0.029380165
0000d0 dc db f9 bc 50 c6 f5 bc 52 7b ef bc 26 68 f5 bc
       -0.030500345 -0.03000179 -0.029233608 -0.029956888
0000e0 bb ab f1 bc a1 e4 f2 bc 87 57 f9 bc 31 ae fa bc
       -0.029500833 -0.029650034 -0.030437244 -0.030600639
0000f0 a9 1a f3 bc a3 dd fe bc 59 cd ee bc 6e d1 fb bc
       -0.029675798 -0.031111544 -0.029150652 -0.030739512
000100 90 73 f2 bc e6 29 ec bc 39 4c f3 bc f4 94 fc bc
       -0.02959612 -0.028828572 -0.029699432 -0.030832745
000110 ba 91 f6 bc fe 55 f3 bc 4a 28 f7 bc f1 8b 01 bd
       -0.030098785 -0.02970409 -0.030170579 -0.0316276
000120 66 4a f9 bc 56 0b fe bc da 01 ee bc 52 bd f6 bc
       -0.030430984 -0.031011265 -0.029053617 -0.030119572
000130 11 a4 f8 bc 3f e1 f5 bc 5d 95 f5 bc 1b 68 f9 bc
       -0.03035167 -0.030014632 -0.029978449 -0.03044515
000140 bf 75 f5 bc 58 75 f2 bc 1d 30 f3 bc be 1c f8 bc
       -0.029963372 -0.02959697 -0.029686028 -0.030287143
000150 c7 d0 f5 bc 8b 35 f1 bc aa ce fb bc a7 b7 fa bc
       -0.03000678 -0.029444477 -0.030738194 -0.03060515
000160 ff 0c 00 bd 01 c9 f6 bc 2c 88 f3 bc 12 bf ec bc
       -0.031262394 -0.030125143 -0.029728018 -0.028899703
000170 99 33 f7 bc 39 73 f8 bc ab 71 f5 bc ad 5b f9 bc
       -0.03017597 -0.03032838 -0.029961428 -0.030439222
000180 67 4f f1 bc 74 56 f2 bc c1 dd ea bc 84 db fb bc
       -0.029456807 -0.02958224 -0.028670194 -0.030744322
000190 b4 34 ee bc a8 14 e7 bc 78 95 f8 bc 90 61 fe bc
       -0.029077865 -0.028208092 -0.03034471 -0.03105238
0001a0 ff 1f fd bc 62 f0 f7 bc e3 9c f3 bc 7c 14 f5 bc
       -0.030899046 -0.03026599 -0.029737895 -0.029916994
0001b0 3e ba f5 bc 63 18 f6 bc fc 91 f9 bc 69 30 ee bc
       -0.029996034 -0.030040925 -0.030465119 -0.029075818
0001c0 af 6f f2 bc 7a 6b f7 bc f7 b2 f1 bc 93 da f2 bc
       -0.02959427 -0.030202616 -0.029504282 -0.02964524
0001d0 eb a9 ec bc 18 c2 f9 bc a4 78 ed bc d5 01 ea bc
       -0.028889617 -0.030488059 -0.02898819 -0.028565327
0001e0 70 3b fa bc 87 c9 f8 bc 7d 58 f5 bc 09 8e fa bc
       -0.03054592 -0.030369533 -0.029949421 -0.030585306
0001f0 53 48 f2 bc aa 68 fa bc 3f 89 ed bc 3d 21 fa bc
       -0.029575502 -0.030567486 -0.028996108 -0.030533427
