model/Autoencoder/classifier_256d.pt (torch, 18639 bytes, 4 tensors)

fc1.weight f4 [16, 256]
000000 51 d1 cf bc 7c 30 8a be da 76 9a 3e c2 0b 3f 3e
       -0.025368365 -0.26990116 0.30168802 0.18656829
000010 91 51 39 be b9 7f 1d be 6a 09 60 be ce 60 ed 3e
       -0.18097521 -0.15380754 -0.21878591 0.4636292
000020 a7 d5 87 bd e1 cc c8 3d e7 21 3f 3e 46 0c 90 3d
       -0.06632548 0.098047026 0.18665276 0.07033591
000030 29 26 a0 3d fc f3 84 3d 6f 17 fa bb e5 ab 07 be
       0.078197785 0.06491849 -0.007632188 -0.13249166
000040 fa 3c 1f be de fa 6a 3d e9 ee fb bd 62 b1 8a bd
       -0.15550604 0.05736815 -0.12301428 -0.06772114
000050 59 e1 1a 3e 8e 1b 29 3e 35 cb 10 be 5f bd 72 be
       0.15125026 0.16514418 -0.14140017 -0.23705052
000060 22 3a 36 3d d6 66 29 3c e9 45 a3 bd a4 bd b7 3e
       0.044489034 0.010339459 -0.07972319 0.35886872
000070 e3 ec 52 be 92 61 23 be fc c3 7f bd 99 2e 3e be
       -0.20598178 -0.15955189 -0.062442765 -0.18572463
000080 96 7e ec 3d 6d 05 bf be 19 97 78 3d 1c 1f e7 bd
       0.11547582 -0.37308827 0.060690973 -0.112852305
000090 83 57 04 bc 42 9d 7e bd ef e4 5e be 72 f0 59 bd
       -0.008077505 -0.06216169 -0.21767019 -0.053207822
0000a0 32 08 7d 3e 08 d3 04 3e 6c de e5 bd 43 dc 78 bc
       0.24710158 0.12971127 -0.11224064 -0.015189233
0000b0 0f 3a 59 3c 47 cf c2 3e 87 48 ad 3b 87 6a 80 be
       0.013258471 0.38048765 0.005288187 -0.25081274
0000c0 80 6d 89 be f0 2a a0 3d a5 af 84 bc 45 f0 04 3e
       -0.26841354 0.0782069 -0.016197035 0.1298228
0000d0 65 13 c7 bd be 9e 0f 3e 75 b3 05 3e ed c1 d4 3c
       -0.09720496 0.14025399 0.13056739 0.025971377
0000e0 66 ff ef bd f6 99 4b be c4 0e 95 3e 4d 82 1a 3e
       -0.11718635 -0.1988295 0.29112828 0.15088768
0000f0 3c 2b 57 3e df 8e 22 be 02 01 c7 3b 9a b4 1a 3e
       0.21012586 -0.15874813 0.006073118 0.15107957
000100 3f 50 71 3d 31 44 5a bd 50 98 93 bc d7 38 be 3e
       0.05891442 -0.05328769 -0.018016964 0.3715274
000110 16 91 d2 bd 01 ba 74 bd 22 9c a5 bc 9a 21 34 3e
       -0.10281579 -0.0597477 -0.020216051 0.17590943
000120 27 8b 5c be 85 93 84 3e 23 fe 8b 3e 3d 6b 5f bd
       -0.21537457 0.25893798 0.27342328 -0.05454563
000130 4c 96 ad 3e 90 66 08 3f 7b bb 28 3e a5 44 77 3e
       0.3390373 0.532815 0.16477768 0.2414728
000140 55 08 ce bc a5 30 0a 3d 47 f1 e7 bd 1b ee 6c be
       -0.025150457 0.033737797 -0.11325317 -0.23137705
000150 eb 4e ac 3c ef 9a ec be 64 cc bc 3c 3c 84 03 3f
       0.021033725 -0.46211955 0.02304668 0.5137365
000160 55 02 bd 3d 3d d9 76 be 80 72 33 be f0 20 a8 3d
       0.092289604 -0.24106307 -0.17524147 0.08209407
000170 c0 43 f8 bc 83 22 2a be 32 93 8f be cb 59 e1 bc
       -0.030305743 -0.16614728 -0.2804199 -0.027508637
000180 6a 9c d5 3e 62 79 91 be 47 51 10 3e 49 36 ae 3c
       0.41720897 -0.2841292 0.14093505 0.02126612
000190 88 b5 13 bd 0d fe b8 3e 93 3a e2 3d a1 65 94 bd
       -0.036061794 0.36131325 0.110463284 -0.07245947
0001a0 1f ff 08 3c 72 f6 4a 3d e2 5d 53 be ac f3 04 bf
       0.008361607 0.049551435 -0.20641282 -0.51934314
0001b0 2f be 43 be 8c 63 18 be 86 30 d7 bd 10 55 79 3e
       -0.19115518 -0.14881724 -0.10507302 0.24348855
0001c0 32 cc a7 bd 99 80 e7 be 90 57 7c 3c b3 7f 4e 3d
       -0.08193244 -0.452153 0.015401736 0.050414752
0001d0 80 35 4f bd a6 8d 2e bd 8f 7b a5 3e 48 50 bc be
       -0.05058813 -0.042615555 0.3232083 -0.3678
0001e0 84 59 fc 3a 14 fd c4 bd 51 50 45 3d 73 e8 c6 3d
       0.0019252752 -0.09618583 0.0481723 0.09712305
0001f0 0c f6 6d 3e 10 18 ab bb 5d d9 2d be 6c 3e 2d 3e
       0.2323839 -0.0052213743 -0.16977449 0.16918343
000200 f6 6c d6 bc 13 96 51 be e2 90 bc bd 30 c6 58 3e
       -0.026175003 -0.20467405 -0.09207322 0.21169353
000210 65 52 12 bf 6a cb d1 3c 37 03 18 3e 2c 13 fc be
       -0.57156974 0.02560969 0.14844976 -0.49233377
000220 2e 91 ae bd ec 72 22 3e 3b 6b 88 be 98 ac 94 3e
       -0.085237846 0.15864152 -0.2664431 0.2903793
000230 76 24 a6 be 5c 9d ea bd f6 74 86 be 31 37 63 3d
       -0.32449692 -0.11455795 -0.2626111 0.055472557
000240 ca 62 67 3e 60 9c 11 be da 60 83 be ba 5d 08 3e
       0.22596279 -0.14219809 -0.2565983 0.13317004
000250 2c 44 59 3d 9f 62 09 be a1 db b5 3e 12 92 d3 3d
       0.05304353 -0.13416527 0.35519126 0.10330595
000260 b0 5b 9d 3e dd fd 4c 3d 1b f6 6d bd ae 12 2b bd
       0.30734015 0.05004679 -0.058096033 -0.04176586
000270 66 7c ec bc 48 9c 3c bd 84 cd fb bc 68 bf cd 3d
       -0.028867912 -0.04604748 -0.030737646 0.100462735
000280 c9 f9 08 3e e1 d2 ad bd dc 89 6b be 8e 6a 4b 3d
       0.13376535 -0.084874876 -0.23001808 0.049662165
000290 63 1e 79 3e c6 83 94 be 5a 06 80 3e 5c d7 62 3c
       0.24327998 -0.29006785 0.25004846 0.013845291
0002a0 7b ef 08 be 32 0b af 3e 92 59 8b bd eb bf 9c 3e
       -0.13372605 0.3418823 -0.068041936 0.30615172
0002b0 f2 17 ca 3a b0 78 8b bc 03 e5 d1 bd a4 03 dc 3d
       0.0015418513 -0.017025322 -0.10248759 0.10742882
0002c0 b2 b2 19 3f f1 5b f9 bd 1b f9 ae 3e ff 76 af bc
       0.6003829 -0.121757396 0.34174427 -0.021419046
0002d0 23 75 07 3e ee 10 c2 bc 18 8d 2a 3c ef dd 55 3d
       0.13228278 -0.023689713 0.010409616 0.052213605
0002e0 fb 65 4e 3e 4d c1 4b be a6 b8 83 be 98 ca 65 3e
       0.2015609 -0.19897957 -0.25726813 0.22440565
0002f0 27 43 b1 be 94 f0 23 3f b8 a5 7a ba 74 5a 8c 3e
       -0.34621546 0.6403897 -0.0009561437 0.2741276
000300 79 02 b1 bd 53 e5 d9 3e 42 4c 97 be 1f e8 1a 3c
       -0.0864305 0.42557773 -0.29550368 0.009454756
000310 eb b7 94 3d 62 b2 9a be 9e ea f6 3b 2a 23 71 3e
       0.07261642 -0.3021422 0.0075352928 0.2354857
000320 c7 54 b7 bd e7 3d ef 3d 93 6f c7 be 48 0f 92 be
       -0.08951717 0.11681729 -0.38952312 -0.28527284
000330 a0 9c 03 bf 82 8b 03 be 97 82 08 3e e7 04 af bd
       -0.51410866 -0.12846187 0.13331066 -0.08545857
000340 55 61 1c be 28 42 af bd 96 a7 c9 3e c7 a8 bd 3b
       -0.15271504 -0.0855754 0.3938567 0.005787942
000350 f1 44 84 be 63 d6 fd 3e be 4c 9f bd cd 98 62 be
       -0.25833848 0.49577627 -0.07778309 -0.22128601
000360 ff 40 e7 3d 72 4d 64 be ec 07 01 bd 7d f6 e9 3e
       0.11291694 -0.22295168 -0.031501696 0.45695868
000370 bb e9 87 bd df f5 62 bd c8 b0 b6 3d 29 0b cd 3e
       -0.066363774 -0.055410262 0.08920437 0.40047577
000380 17 7b cc 3d 02 0c 20 3e 2e a0 12 be 63 d2 b8 3e
       0.09984415 0.1562958 -0.14318916 0.36098012
000390 33 04 ce 3d 57 3c 1e be 8d ff b2 3d 1e 41 89 3e
       0.10059395 -0.15452705 0.08740149 0.26807493
0003a0 f7 59 e7 3e 38 68 b0 3e 8b bd 38 be 9f 96 b5 3d
       0.45185825 0.34454513 -0.18041055 0.08866619
0003b0 8b 43 03 be f4 6d a4 3e 41 57 9d 3e cd c4 6c be
       -0.12818734 0.32115138 0.30730632 -0.23121949
0003c0 51 88 a0 3d 7c a9 21 3e f4 0c 9c be 93 d8 6e be
       0.078385 0.1578731 -0.30478632 -0.23324804
0003d0 b5 03 79 3d fe ba f0 bd 28 1f d9 bd fc 7d 29 bd
       0.06079455 -0.11754416 -0.10601646 -0.041379914
0003e0 08 a3 5a be 4f c0 4f bf e6 33 09 be 69 26 9a be
       -0.21351254 -0.81152815 -0.13398704 -0.3010743
0003f0 67 3a 0a be 80 48 00 bf f3 c4 50 3e 72 f4 14 3e
       -0.13498841 -0.50110626 0.2038763 0.14546373

fc1.bias f4 [16]
000000 06 6e a3 3e 7e dd 37 bd 21 a5 94 3e 4f 2d ab bd
       0.3191988 -0.044888966 0.29032233 -0.08358251
000010 11 a5 53 3d 0f ef 0c 3b 06 3c b6 3d 2f ae d8 bd
       0.05167109 0.0021504795 0.08898167 -0.10580098
000020 3f 50 ba 3e d3 b9 4e 3e 24 03 6c 3e 08 c7 96 bd
       0.36389348 0.20188074 0.23048073 -0.07362181
000030 e1 50 6c 3e 76 13 70 bd 50 ba 93 3a 51 58 c5 3d
       0.23077728 -0.05861231 0.0011270735 0.09635986

fc2.weight f4 [7, 16]
000000 5c 45 8b bf 2b 23 ee 3e cd 23 b4 bf 55 7a 89 bd
       -1.0880542 0.46511206 -1.4073426 -0.06712786
000010 aa 81 30 3e f7 ec 8a 3d 8d fc 33 3e a3 31 03 3f
       0.17236963 0.06783479 0.17576809 0.51247615
000020 fd 33 8c bf a5 00 34 bf 39 ec 20 3e e4 8e a3 ba
       -1.0953366 -0.70313483 0.15715112 -0.0012478498
000030 ac d5 a1 be e9 c1 af 3e ab a5 2d bf d2 54 8c be
       -0.3160833 0.3432763 -0.67830914 -0.27408463
000040 e5 5d 90 3e aa 8a 9e bf 14 c2 a0 3a ec 3f 1f bf
       0.28196636 -1.2386067 0.0012264871 -0.6220691
000050 38 79 8d 3e 72 23 b2 be 2f e4 d6 be a8 c8 63 3d
       0.27631545 -0.34792668 -0.41970965 0.055611283
000060 66 da 2d 3e d3 55 c8 be 20 e2 04 3c f2 53 48 bf
       0.16977844 -0.3912798 0.008110553 -0.7825309
000070 a4 d5 22 3f c0 b6 39 3e f3 fb 28 bf e1 e5 1a bf
       0.6360724 0.1813612 -0.66009444 -0.6050702
000080 1d ee 5c 3e bd 4f ea be c6 25 8b 3e 37 82 cd be
       0.21575208 -0.4576396 0.27177256 -0.4013841
000090 f4 6c 93 be 1d 7b 80 bf e8 3c 0d 3e 5c 34 00 bf
       -0.28794062 -1.0037571 0.13792765 -0.50079894
0000a0 46 c5 20 be 56 6c dc bd e6 b0 8f bf 7e 05 6e 3f
       -0.15700254 -0.10762851 -1.122586 0.9297713
0000b0 96 bb ca 3e b0 f4 69 bd fe 49 bf 3d 77 fb eb 3e
       0.39596242 -0.057118118 0.09340285 0.4609029
0000c0 79 5f 16 3e fa 8e c2 be b8 f2 0b 3e c3 13 f3 3e
       0.14684857 -0.37999707 0.13666809 0.47476014
0000d0 d7 30 0c 3f d9 38 30 3f 0e 05 37 bf 73 ee 29 bf
       0.54762024 0.6883674 -0.7149209 -0.6637947
0000e0 0e 5d fc 3e a6 09 a1 3e 1e 96 c4 bf ed d1 4a bf
       0.49289745 0.31452674 -1.5358312 -0.7922657
0000f0 ab b0 d6 3e f9 4d 87 bf fb 82 5c bc 8c 6d 00 3b
       0.41931662 -1.057067 -0.013458963 0.0019596545
000100 32 3d b2 3e 00 93 9c 3d 51 1c 07 be 7a 6a 9b be
       0.34812313 0.076452255 -0.13194396 -0.30354673
000110 17 c9 b5 bd 2b 99 03 3e c1 19 cf 3e d7 e5 1a 3b
       -0.088762455 0.12851398 0.40449336 0.002363553
000120 95 cd bd bd 75 80 98 bd b7 06 c0 3e 78 48 d8 3a
       -0.09267727 -0.07446376 0.37505123 0.001650109
000130 38 4a b5 bf 27 75 51 be 56 60 50 be 2e 2e 01 3f
       -1.4163275 -0.20454846 -0.20349249 0.5046109
000140 ab 2f 81 be ae 8e 0c 3f c4 0f c1 3e 11 90 9b 3f
       -0.2523168 0.5490521 0.3770734 1.215334
000150 b2 12 d8 be 3e d2 40 3f bd 90 10 3f c9 c1 19 bf
       -0.42201763 0.75320804 0.56470853 -0.6006132
000160 76 f4 31 3e 68 9c a4 be 03 32 0f be 88 51 84 be
       0.1737841 -0.32150578 -0.13983922 -0.25843453
000170 0c d2 54 be 79 89 85 3e a5 0e a8 be dd 02 85 bf
       -0.20783252 0.26081446 -0.32823673 -1.0391499
000180 7e eb 43 bf f0 c4 5f be b8 aa cc 3e fb ae 58 bf
       -0.7653121 -0.2185247 0.39973998 -0.84642
000190 08 a9 59 be 26 4f 07 3f 87 26 35 bf a4 2d 55 3e
       -0.21255887 0.52855146 -0.70761913 0.20818192
0001a0 6d 45 12 bd 48 3e 76 3f 0e f9 68 3e fa 30 4d be
       -0.03571074 0.96188784 0.22751257 -0.20038214
0001b0 bb 1e ed be eb c8 2e bd 1e b7 85 3f 74 30 b2 be
       -0.46312508 -0.04267208 1.0446508 -0.34802592

fc2.bias f4 [7]
000000 5d 68 fa bd 42 d7 b9 bd e6 18 33 be d7 a3 41 3e
       -0.12226937 -0.0907426 -0.17489967 0.18910156
000010 6b ae 0d 3d 40 89 91 3d de a5 f7 3c
       0.034590166 0.071062565 0.030230459
