model/Autoencoder/classifier_128d.pt (torch, 10447 bytes, 4 tensors)

fc1.weight f4 [16, 128]
0	0x3dc6b1d3	0.09701886
1	0x3d41e5b4	0.047338203
2	0xbeb92250	-0.3615899
3	0x3e34d728	0.176602
4	0xbf21fd4f	-0.63277143
5	0xbdefd8a3	-0.11711242
6	0x3def4104	0.116823226
7	0xbe293f32	-0.16528013
8	0x3e347eca	0.17626491
9	0x3e3afb0b	0.18259828
10	0x3d5a7a7b	0.053339463
11	0xbe5f0697	-0.21779858
12	0x3e57b2ff	0.21064375
13	0x3e1a4517	0.15065418
14	0xbe716581	-0.23573877
15	0x3d76e86a	0.06028024
16	0x3eacde80	0.33763504
17	0xbdb74dae	-0.08950363
18	0xbe6d60c6	-0.23181447
19	0x3d014f04	0.031569496
20	0xbeae10d2	-0.33997208
21	0x3e9b2414	0.30300963
22	0xbdc3d83e	-0.09562729
23	0xbe167aca	-0.14695278
24	0x3e870c1d	0.2637643
25	0xbe093361	-0.13398506
26	0xbe32422f	-0.1740806
27	0xbc5d7dff	-0.013518809
28	0x3ea86616	0.32890385
29	0x3f065626	0.524752
30	0x3d9de0ad	0.07708869
31	0x3d6847ac	0.056708977
32	0xbcbe52fa	-0.023232926
33	0x3d3d2ca3	0.046185147
34	0xbedb14ed	-0.42789403
35	0xbe8e78c6	-0.27826518
36	0x3ee2a048	0.4426291
37	0xbd179556	-0.037007652
38	0xbe1b551a	-0.15169182
39	0x3c38aff6	0.011272421
40	0xbe90f6aa	-0.2831319
41	0xbe0f7174	-0.14008123
42	0xbe9c0332	-0.30471188
43	0xbec4a312	-0.38405663
44	0x3ba43265	0.0050108903
45	0x3df6dbc5	0.120536365
46	0x3ec3d0a5	0.3824512
47	0xbeb0391f	-0.3441858
48	0x3b1d9e38	0.0024050605
49	0x3db6d3a4	0.08927086
50	0x3dbdadfa	0.09261699
51	0xbe383b75	-0.17991431
52	0x3ee6c684	0.4507333
53	0xbdc9865f	-0.098400824
54	0xbe4e5238	-0.20148551
55	0x3e33fb67	0.17576371
56	0x3eaf60c4	0.34253514
57	0x3ec26ff5	0.3797604
58	0x3ca0399c	0.01955872
59	0xbdfb77f5	-0.12278739
60	0x3e64132b	0.22272937
61	0xbddddf0a	-0.10833557
62	0x3e3bd79c	0.18343967
63	0x3dfc4d5d	0.123194434
64	0xbe29fe7b	-0.16600983
65	0x3ebeb0ec	0.37244356
66	0x3e77ffa1	0.24218608
67	0xbc07da16	-0.008291742
68	0x3e030866	0.12796172
69	0x3e51d750	0.20492291
70	0x3ee4321d	0.44569483
71	0x3e93483d	0.2876605
72	0xbd82f971	-0.063952334
73	0xbd18c64b	-0.037298482
74	0x3df1a6ca	0.117993906
75	0xbebe061c	-0.37114036
76	0x3e25db9a	0.16197053
77	0x3dea0437	0.11426585
78	0x3e8030ed	0.25037327
79	0xbdfb0ec0	-0.12258673
80	0xbdf2948b	-0.118447386
81	0xbd5a95d3	-0.05336554
82	0xbe64f661	-0.22359611
83	0x3edbb0e7	0.42908403
84	0xbe672b2c	-0.22575063
85	0xbea1f945	-0.3163549
86	0x3b81f7a9	0.003966291
87	0xbe5cf9e7	-0.21579705
88	0x3e316f2a	0.17327562
89	0xbe9c5c75	-0.3053929
90	0xbe3f7c9c	-0.18699878
91	0x3bebd5d5	0.0071971216
92	0x3e3152ed	0.1731679
93	0xbd1ff8dd	-0.039055694
94	0xbebb158f	-0.36539885
95	0xbd3ec219	-0.046571825
96	0x3eb1e743	0.3474675
97	0x3dec05c1	0.11524535
98	0xbe9730e5	-0.2952949
99	0x3e179fa9	0.14807
100	0x3de8f796	0.11375348
101	0xbe465698	-0.1936897
102	0x3e86e5df	0.26347253
103	0xbdb342e2	-0.08752991
104	0xbea5aa3a	-0.32356435
105	0x3d9d909c	0.07693598
106	0x3e84ae57	0.2591426
107	0xbdc76c6f	-0.09737479
108	0xbde58777	-0.112074785
109	0xbe45ad88	-0.19304478
110	0x3ea0cf1d	0.31408015
111	0xbefaf72b	-0.490167
112	0xbf0f431e	-0.5596179
113	0xbf0a3dfa	-0.5400082
114	0x3dc5567c	0.09635636
115	0x3e78df7c	0.24304003
116	0xbe053c58	-0.130113
117	0x3ddf0a94	0.108906895
118	0xbed5f51c	-0.41788566
119	0x3e14f9bc	0.14548391
120	0xbe90e26d	-0.2829775
121	0x3e5f50a2	0.21808103
122	0xbee5c667	-0.4487793
123	0x3d2c99e1	0.042138938
124	0x3e362f51	0.17791487
125	0x3e3e61bc	0.1859197
126	0x3e293c1e	0.16526839
127	0xbe9dc40c	-0.30813634
128	0xbf10d830	-0.56579876
129	0x3d87e642	0.06635715
130	0x3ea88bd1	0.3291917
131	0x3cab7726	0.020930838
132	0x3db3a9ae	0.08772598
133	0xbde92726	-0.1138442
134	0x3ed1eced	0.41001073
135	0xbd8108f3	-0.06300535
136	0x3d18662e	0.03720682
137	0xbe08799e	-0.13327643
138	0x3e18535d	0.1487555
139	0x3c068598	0.008210562
140	0x3cf4e938	0.029896364
141	0x3e44e19c	0.19226688
142	0xbd93d18d	-0.07217703
143	0x3cff2f61	0.031150522
144	0xbe9ceb8d	-0.3064846
145	0xbd94f6d4	-0.07273641
146	0x3e2f75c2	0.17134765
147	0xbc25f3ce	-0.010128928
148	0x3d732a5a	0.05936656
149	0x3cdd564c	0.027018689
150	0x3e20f19f	0.15717171
151	0xbd8266b9	-0.06367249
152	0xbde8924d	-0.1135603
153	0x3e3e4a72	0.18583086
154	0xbd666f04	-0.056258217
155	0xbda0e626	-0.07856397
156	0xbe2b0181	-0.16699792
157	0xbe2d6327	-0.16932355
158	0xbe3b8baa	-0.18314996
159	0xbed89be9	-0.4230645
160	0xbeb6c113	-0.3569418
161	0xbd5706d9	-0.052496765
162	0x3cdb96bf	0.02680528
163	0x3c32dfb3	0.010917592
164	0x3dc03522	0.09385134
165	0x3e83d1a3	0.25745878
166	0xbd1e3391	-0.038623396
167	0x3cb79dd2	0.022414122
168	0x3ceabaff	0.02865362
169	0x3e66b60d	0.22530384
170	0x3e749cab	0.23887889
171	0xbbf720ef	-0.007541768
172	0x3dc23ec7	0.0948463
173	0x3c7255c2	0.014790954
174	0xbcb3ff59	-0.021972345
175	0xbd817e85	-0.0632296
176	0x3e54bc97	0.20775066
177	0xbd97839e	-0.07398151
178	0xbde46613	-0.111522816
179	0x3dc5ae54	0.09652391
180	0xbe1af0ee	-0.1513097
181	0xbbae0a3c	-0.0053112786
182	0x3d9b7ced	0.07592187
183	0x3d665652	0.056234665
184	0xbbc91515	-0.0061365464
185	0xbd96fed1	-0.07372821
186	0x3d4cd624	0.050008908
187	0xbe4dcaa5	-0.20096834
188	0xbe7b3d56	-0.24535117
189	0xbdc506e9	-0.09620459
190	0x3e542626	0.20717677
191	0xbd62f8de	-0.05541312
192	0x3e4f33b3	0.20234565
193	0xbe0d86cc	-0.13820952
194	0xbd9fb621	-0.0779841
195	0xbd06d6f7	-0.03291985
196	0xbd8c6307	-0.068548255
197	0xbd7961d6	-0.06088432
198	0xbd5b62a4	-0.053560868
199	0x3df30f3f	0.11868142
200	0x3c88f291	0.016717227
201	0x3d3ba1c4	0.04580857
202	0xbe2bdbf4	-0.16783124
203	0x3e701b3e	0.23447892
204	0xbe94b067	-0.29040834
205	0xbec29b94	-0.38009322
206	0x3dfcbfeb	0.12341293
207	0x3ca781d1	0.020447643
208	0x3e44b70e	0.19210455
209	0xbe1fc473	-0.15602283
210	0xbe08faf4	-0.13376981
211	0xbe1d09cc	-0.15335768
212	0xbce03c3d	-0.027372474
213	0xbd99f970	-0.075182796
214	0x3d0657dc	0.032798633
215	0xbce06e60	-0.02739638
216	0xbbfee4b9	-0.0077787307
217	0x3e22e66a	0.15908208
218	0x3e1e8393	0.15479879
219	0xbc869873	-0.016430115
220	0x3e287b06	0.1645318
221	0x3e397849	0.18112291
222	0x3e233bc1	0.15940763
223	0xbe2b2c64	-0.16716152
224	0xbb547000	-0.003241539
225	0xbdd6c6ce	-0.10487138
226	0x3d95a823	0.0730746
227	0xbe6237c4	-0.22091585
228	0xbd52f349	-0.051501546
229	0xbdb29c28	-0.08721191
230	0xbbeef4e0	-0.007292375
231	0xbe4225b1	-0.1895969
232	0x3eb03b6a	0.3442033
233	0xbe22166e	-0.15828869
234	0xbc6e1b5b	-0.014532889
235	0x3c0f1cf8	0.008734934
236	0x3e12521f	0.14289139
237	0x3df09baa	0.117484406
238	0xbd4a2335	-0.049349982
239	0xbd29589e	-0.041344278
240	0x3edfc035	0.4370133
241	0x3e66bfdd	0.22534128
242	0xbd4c5a7a	-0.049890973
243	0xbc9e6218	-0.019333884
244	0x3e93a345	0.28835502
245	0xbd4655c4	-0.048421636
246	0x3e3ff4f6	0.18745789
247	0xbef45b6c	-0.47726
248	0x3e20ef46	0.15716276
249	0x3d84d3ea	0.06485732
250	0x3dfbfa4a	0.12303598
251	0xbdcf9b82	-0.10137083
252	0xbe062c93	-0.13102941
253	0xbe30c856	-0.17263922
254	0x3e864b61	0.26229385
255	0x3c5f5bcd	0.013632727

fc1.bias f4 [16]
0	0x3e71e5e4	0.23622853
1	0xbe12b3a9	-0.14326347
2	0x3c078f0e	0.008273853
3	0x3d1cff07	0.03832915
4	0xbd812a42	-0.06306888
5	0xbdac03d2	-0.08399166
6	0x3e2cab7b	0.1686229
7	0x3e8f3a02	0.27973944
8	0xbe24b796	-0.16085657
9	0x3ea907b7	0.33013698
10	0x3e172447	0.14759932
11	0xbe38a5f3	-0.18032055
12	0xbd5c59ca	-0.053796567
13	0x3ee5e1d6	0.44898862
14	0xbdbbba36	-0.09166376
15	0x3eb684f2	0.35648304

fc2.weight f4 [7, 16]
0	0x3e2d4af6	0.16923127
1	0x9986689b	-1.3897525e-23
2	0x3a4c59ca	0.0007795362
3	0x3ec819c8	0.3908217
4	0x3f1170e9	0.5681291
5	0x3edd076c	0.43169725
6	0xbb93b057	-0.0045071053
7	0xbf75b0cf	-0.95972914
8	0x3f046577	0.51717323
9	0x3e844598	0.25834346
10	0xbbf07fa4	-0.0073394347
11	0x3ec8afc4	0.391966
12	0x9ee2a6b4	-2.3997628e-20
13	0xbeb106cd	-0.345755
14	0x3f056aa6	0.5211586
15	0xbfb82ae6	-1.4388092
16	0x3f0e8bc7	0.55682033
17	0xba17a742	-0.0005785116
18	0xbfaa979e	-1.332752
19	0x3dee7307	0.116430335
20	0xbe773d56	-0.24144492
21	0xbe889a6c	-0.26680315
22	0xbf15efcd	-0.5856903
23	0x3ea90092	0.33008248
24	0xbf3bf8ed	-0.73426706
25	0x3e8295b0	0.25504827
26	0xbf9fdd66	-1.248944
27	0x3cad74f4	0.021173932
28	0xbf0be0cb	-0.5463988
29	0x3f0f9c0e	0.56097496
30	0xbf978a2c	-1.1839042
31	0x3e61e654	0.2206052
32	0xbf0bdbb2	-0.54632103
33	0x3f66994a	0.9007765
34	0x3ecf2b72	0.40462834
35	0xbc8e35da	-0.017359663
36	0xb7cab80b	-2.4165978e-05
37	0x3f31721d	0.6931475
38	0x3f06aaed	0.5260456
39	0x3dfc127e	0.123082146
40	0xbbafc0d4	-0.005363563
41	0xbf3e9967	-0.74452823
42	0x3e73c162	0.23804238
43	0x3f3e1905	0.74256927
44	0x3f4d8bfc	0.80291724
45	0xbe51f883	-0.20504956
46	0xbb529485	-0.0032131982
47	0x3d084bb4	0.03327532
48	0x3e459f8a	0.1929914
49	0xbf5d124f	-0.8635606
50	0xbe3d6830	-0.18496776
51	0x3e527007	0.20550548
52	0xbe10b05f	-0.1412978
53	0xbf3a7807	-0.728394
54	0x3ddf47a7	0.109023385
55	0x3e38c87c	0.18045229
56	0xbe9bfc85	-0.30466095
57	0x3e3d1c8c	0.18467921
58	0x3e877345	0.2645513
59	0xbf5912cd	-0.8479431
60	0xbf31740b	-0.6931769
61	0x3e03efb2	0.12884405
62	0xbf264b31	-0.64958483
63	0x3e8fe1cf	0.28101966
64	0xbe80dafa	-0.25167066
65	0xaa2eb39e	-1.5516622e-13
66	0xbe3c36cb	-0.18380277
67	0xbd960986	-0.07326035
68	0x3e7ba621	0.24575092
69	0x3ef56f53	0.47936496
70	0xbfb6f7bd	-1.4294354
71	0xbecbaaaa	-0.39778644
72	0x3ebd4552	0.3696695
73	0x3ec7bc5e	0.390109
74	0xbf40e545	-0.7534984
75	0xbea361a5	-0.31910434
76	0xac30c3f6	-2.5119884e-12
77	0x3e6f3c9c	0.23362964
78	0x3e831f45	0.25609794
79	0x3e6d35e8	0.23165095
80	0x3d92ffb9	0.071776815
81	0xad350177	-1.0288984e-11
82	0x3aed07da	0.0018084005
83	0x3f02d0e4	0.5109999
84	0xbfa7cd5f	-1.3109549
85	0x3f311f18	0.6918807
86	0xbfc89f67	-1.5673646
87	0x3e312d14	0.17302352
88	0x3f297142	0.6618844
89	0xbd92fda3	-0.071772836
90	0xbeb0e7fd	-0.34551993
91	0x3eb70e7a	0.35753232
92	0xbd662c24	-0.05619444
93	0xbe028503	-0.12746052
94	0x3e231999	0.15927733
95	0x3e911692	0.28337532
96	0xbd467dbb	-0.04845975
97	0xb8bad27c	-8.908377e-05
98	0xbe3b5366	-0.18293533
99	0xbfa955e2	-1.3229334
100	0x3f29020c	0.6601875
101	0xbef0488c	-0.4693035
102	0xbef018b8	-0.4689386
103	0x3eb1fae0	0.34761715
104	0xbdee2a3e	-0.11629151
105	0x3e0ae885	0.13565262
106	0xbe89a30a	-0.268822
107	0x3e51aacc	0.2047531
108	0xbc79fc84	-0.015257958
109	0xbc1c8fc2	-0.009555759
110	0x3ee28ca7	0.44247934
111	0x3e208f70	0.15679717

fc2.bias f4 [7]
0	0x3b17ee16	0.0023182682
1	0x3ee786dd	0.4522008
2	0x3e1fb928	0.15597975
3	0xbd48fdfe	-0.04907035
4	0x3e2052eb	0.1565663
5	0x3dce3267	0.10068207
6	0x3dca6ea6	0.09884386
