model/Autoencoder/classifier_8d.pt (torch, 2691 bytes, 4 tensors)

fc1.weight f4 [16, 8]
0	0x3f685dc7	0.9076809
1	0x3e8e5d83	0.2780572
2	0x3da792bf	0.081822865
3	0xbe528f48	-0.2056247
4	0xbf0d397f	-0.5516586
5	0x3e001ee3	0.12511782
6	0xbf27d192	-0.65554154
7	0x3f009809	0.5023199
8	0x3efff9e4	0.4999534
9	0x3ec512df	0.3849096
10	0xbe87118a	-0.2638057
11	0xbc31e278	-0.010857217
12	0x3d9cead6	0.07661979
13	0xbe93e38a	-0.28884536
14	0xbdf5f921	-0.12010408
15	0x3c662fde	0.014049498
16	0x3db49cb1	0.08818949
17	0xbe8d7809	-0.27630642
18	0x3e5226b0	0.2052257
19	0xbe1a9f09	-0.1509973
20	0xbe46f2f1	-0.19428612
21	0xbebff289	-0.37489727
22	0x3e725e33	0.23668747
23	0xbf6d7632	-0.92758477
24	0xbeaec7da	-0.3413685
25	0xbf1c54c5	-0.6106685
26	0xbf198c01	-0.59979254
27	0xbe025b55	-0.12730153
28	0xbe3db9c8	-0.18527901
29	0x3ddc1db5	0.10747854
30	0x3e1ce3e2	0.15321305
31	0x3e6ba27c	0.23011202
32	0x3d420f53	0.047377896
33	0x3e111e0e	0.14171621
34	0xbcbee20a	-0.023301143
35	0x3eb1aa8f	0.34700438
36	0xbab2de0d	-0.0013646499
37	0xbd8efa54	-0.0698134
38	0x3dc6dfe4	0.097106725
39	0x3e87cdc5	0.26524177
40	0xbd2b7e02	-0.041868217
41	0xbef1dc6d	-0.47238484
42	0xbf5a28a3	-0.85218257
43	0xbf6d8ceb	-0.9279315
44	0x3e8344ba	0.25638372
45	0xbf39cc68	-0.72577524
46	0x3f8beea0	1.0932198
47	0x3e0b3a40	0.1359644
48	0xbf16d122	-0.5891286
49	0xbf2171ae	-0.63064086
50	0xbd32a4e1	-0.043614272
51	0xbeec16a3	-0.4611102
52	0x3ecdebb2	0.40218884
53	0xbf1eed9e	-0.62081325
54	0x3ed450ed	0.4146799
55	0xbeaa75b8	-0.33292937
56	0x3ef3f10e	0.47644848
57	0x3ed7cc18	0.421479
58	0xbde0b77e	-0.10972498
59	0x3edb1461	0.42788985
60	0xbe922dd6	-0.28550595
61	0x3efe8104	0.49707806
62	0xbf1ca549	-0.61189705
63	0x3f1bba22	0.6083089
64	0x3efca72c	0.49346292
65	0x3eeb44e7	0.45951006
66	0xbe9fba46	-0.31196803
67	0xbe8069ca	-0.2508071
68	0x3ed3e5b1	0.41386178
69	0xbec1b4dd	-0.378333
70	0x3ddd2563	0.107981466
71	0xbde4830e	-0.11157809
72	0xbd146588	-0.03622964
73	0xbe842ecb	-0.2581695
74	0xbf08d605	-0.5345157
75	0xbf3800e9	-0.7187639
76	0x3ec6a2a6	0.38795966
77	0xbf73aea7	-0.95188373
78	0x3f8cc3a0	1.09972
79	0xbf085978	-0.5326152
80	0xbe1e862c	-0.1548087
81	0xbc86d7a8	-0.016460255
82	0x3eaba36b	0.33523116
83	0xbd71ed15	-0.05906399
84	0x3d938824	0.07203701
85	0xbecf3358	-0.4046886
86	0x3eba1f8f	0.36352202
87	0x3f29e815	0.66369754
88	0xb99abec5	-0.00029515303
89	0xbddfeeda	-0.10934229
90	0xbc1bd635	-0.00951152
91	0xbf1637e3	-0.58679026
92	0x3ec4a2bf	0.38405415
93	0xbeee161f	-0.46501252
94	0x3f7f5cfa	0.99751246
95	0xbedeb9f6	-0.43501252
96	0xbd5b2270	-0.05349964
97	0xbe1996a8	-0.14998877
98	0xbc9d1b96	-0.019178193
99	0xbd7c05ed	-0.06152909
100	0x3da086c9	0.07838208
101	0x3c9a20fd	0.018814558
102	0xbd113cc7	-0.035458352
103	0xbdb3173f	-0.08744668
104	0x3f5c2422	0.85992634
105	0x3f7447c5	0.9542201
106	0xbf229104	-0.63502526
107	0x3f1e0ba4	0.6173651
108	0xbce1d1a6	-0.027565788
109	0xbd0b9dea	-0.034086145
110	0xbf0b913c	-0.54518485
111	0x3ddf9c52	0.109184876
112	0x3df9b4eb	0.121927105
113	0xbc05cc55	-0.008166392
114	0xbf334d1f	-0.7003955
115	0xbedd27e0	-0.43194485
116	0x3d212069	0.03933755
117	0xbf2ea0ae	-0.6821393
118	0x3f17191c	0.5902269
119	0xbe066b85	-0.13126953
120	0x3f11c592	0.56942093
121	0x3f45670a	0.7711035
122	0xbe4100d2	-0.18847969
123	0xbcd079d3	-0.025448715
124	0x3ccd1768	0.025035575
125	0x3e2c4861	0.16824485
126	0xbeca6f86	-0.3953821
127	0x3ca34e16	0.019934695

fc1.bias f4 [16]
0	0x3fcfef43	1.6244892
1	0xbf3e599f	-0.743555
2	0x3fb3bf58	1.4042768
3	0x3f53c2c9	0.82719094
4	0x3d336fec	0.04380791
5	0xbff005f6	-1.8751819
6	0xbdb1f612	-0.08689512
7	0x3fe32636	1.7746036
8	0xbfd8b2b4	-1.6929536
9	0xbf9dd884	-1.23317
10	0x3f979238	1.1841497
11	0xbfcf94b4	-1.6217256
12	0x3d79e433	0.061008643
13	0x40351477	2.829374
14	0xc046139a	-3.0949464
15	0x40389c16	2.8845267

fc2.weight f4 [7, 16]
0	0xbfab2d57	-1.3373212
1	0x3e26d822	0.16293386
2	0xbe78064e	-0.24221155
3	0xbe576ae2	-0.21036866
4	0xbf0ebde9	-0.5575853
5	0x3f136fd6	0.57592523
6	0x3ed9a0b2	0.42505413
7	0xb4a50936	-3.0740347e-07
8	0x3e8324ed	0.2561411
9	0x3f3199e9	0.69375473
10	0xbf0ca34a	-0.5493666
11	0x3ed07948	0.4071753
12	0xbe07f3d9	-0.13276614
13	0xc0066a8b	-2.1002529
14	0x3f269db3	0.6508438
15	0xc00e139d	-2.219947
16	0x3ebfafca	0.37438804
17	0x3ef013f5	0.46890226
18	0xbe7a5dcd	-0.24449845
19	0xbf778eec	-0.96702456
20	0xbd5a2843	-0.053261053
21	0x3de138ce	0.10997163
22	0xbfae948b	-1.3639082
23	0xc01ae78c	-2.4203825
24	0x3f1459bc	0.57949424
25	0xbde7da5c	-0.113209456
26	0xbeddf1c1	-0.43348506
27	0x3e994a78	0.29939628
28	0xbe0999cd	-0.13437577
29	0x3e27d2fe	0.16389081
30	0x3eb7b35e	0.35879034
31	0xbdd43764	-0.103621274
32	0x3f203faf	0.62597173
33	0xbe0d0a0b	-0.13773362
34	0xbf753a0e	-0.9579171
35	0xbfe9075e	-1.8205373
36	0xbc8d9185	-0.017281303
37	0xbff076d9	-1.878627
38	0xb954e877	-0.00020304495
39	0x3fc45964	1.533978
40	0xbef4fe64	-0.47850335
41	0xc01f7395	-2.4914296
42	0xbf4a4bc2	-0.7902185
43	0xbfc2b7cf	-1.5212344
44	0xbe038b49	-0.12846102
45	0x3f939429	1.152959
46	0xbf956bf1	-1.1673566
47	0x3f45f415	0.77325565
48	0x3edf4e73	0.4361454
49	0xbe401f43	-0.18761925
50	0x3ed6e9e2	0.41975313
51	0x3f3ec5d0	0.7452059
52	0xb7d54c01	-2.542697e-05
53	0xbf15a029	-0.5844751
54	0x3f04fab2	0.5194503
55	0xbec07a54	-0.3759333
56	0xbe3c61f8	-0.18396747
57	0xbf332123	-0.6997244
58	0x3f5e27a3	0.8677923
59	0xbfbad115	-1.4595057
60	0xbcf9d65a	-0.030497719
61	0x3f897c47	1.0741051
62	0xbf835556	-1.0260417
63	0x3f55241c	0.83258224
64	0xbe19a3c1	-0.15003873
65	0xbd9cb14a	-0.07651003
66	0xbd8c0a56	-0.06837909
67	0xbd163b50	-0.03667766
68	0xbbf4a812	-0.0074663246
69	0xbe49f6eb	-0.19723098
70	0xbc1fc4cb	-0.009751509
71	0xbd645864	-0.05574836
72	0xbdd2d04a	-0.10293634
73	0xbe317e38	-0.17333305
74	0xbd15834d	-0.03650217
75	0xbdde9a6f	-0.108692996
76	0xba989198	-0.001164007
77	0xbe40d627	-0.18831693
78	0xbdabb23e	-0.083836064
79	0xbe46c564	-0.19411236
80	0xbed5fef7	-0.41796085
81	0xbea719f8	-0.32637
82	0x3ea0726a	0.3133729
83	0x3fbdcf62	1.4828913
84	0x3f0bdca6	0.5463356
85	0xbd0caeb4	-0.034346297
86	0x3f470e9f	0.77756685
87	0xc00e8677	-2.226957
88	0xbe6ef392	-0.23335102
89	0x3f0ea4c9	0.5572019
90	0x3f2dbeb5	0.6786912
91	0x3eff4b73	0.4986225
92	0x3e44506d	0.19171305
93	0xbf469628	-0.7757287
94	0xbeb4e66c	-0.35332048
95	0xbec32276	-0.3811223
96	0xbe199f7e	-0.15002248
97	0xbd9cb32f	-0.07651364
98	0xbd8c0fa4	-0.06838921
99	0xbd163682	-0.036673076
100	0xbbf49deb	-0.0074651144
101	0xbe49fb6c	-0.19724816
102	0xbc200640	-0.009767115
103	0xbd644f60	-0.05573976
104	0xbdd2d55a	-0.102946
105	0xbe318561	-0.17336036
106	0xbd158267	-0.036501314
107	0xbddea408	-0.1087113
108	0xba988c31	-0.001163846
109	0xbe40d34b	-0.18830602
110	0xbdabbcdc	-0.083856314
111	0xbe46c201	-0.19409944

fc2.bias f4 [7]
0	0xbfe0d63a	-1.7565377
1	0xbf7882e2	-0.9707471
2	0x3f81eccb	1.0150388
3	0x3fc05ce7	1.5028352
4	0xbd01ea3c	-0.031717524
5	0x3f9bcd30	1.2171993
6	0xbd01e83c	-0.031715617
