model/Autoencoder/classifier_512d.pt (torch, 35023 bytes, 4 tensors)

fc1.weight f4 [16, 512]
000000 be cc ce bb 35 5b 80 bd ae 15 2a bd 52 83 1c bd
       -0.0063110283 -0.06267396 -0.04152458 -0.038211174
000010 9d 14 c8 bd 90 8e 78 be 44 4a 42 be d7 37 76 bd
       -0.09769557 -0.24273133 -0.18973643 -0.060111847
000020 69 3d 34 3c cd 6e 98 bd 6f a3 67 3c ab 54 a6 3d
       0.011000969 -0.074430086 0.014138087 0.08121618
000030 9f 04 24 be 8f 06 53 3e 6e a3 23 be b2 fe 64 3d
       -0.16017388 0.2060797 -0.15980312 0.05590696
000040 e7 59 f4 bd 78 eb 8b 3b 41 ed 5e be e6 87 50 3e
       -0.1193121 0.0042700134 -0.21770193 0.20364341
000050 6a 92 bf bd 4a 4e 99 be e7 78 6a 3d cd ac d0 be
       -0.09354098 -0.29942542 0.057244208 -0.40756837
000060 c1 13 6a 3e ed 99 9e 3d e7 06 90 be d9 31 2e 3e
       0.22859098 0.07744203 -0.28130266 0.17011203
000070 70 2a da be 3d df 67 bd 11 c4 01 3e 10 be a6 3e
       -0.42610502 -0.05660938 0.1267245 0.3256688
000080 13 2a b8 bc 01 c6 ca be 5e 5b 2e 3d 62 f5 7a 3d
       -0.022481 -0.3960419 0.042567603 0.06126917
000090 a5 3c 55 3d 6c 4f 6a be 70 bd 96 3d 35 1e d5 3e
       0.05205979 -0.2288186 0.07360351 0.4162461
0000a0 fe 9c 65 3e c8 cd 28 3e 07 df 38 be 02 3e 96 3e
       0.22423169 0.1648475 -0.18053828 0.29344183
0000b0 d0 f2 6c be f4 db 69 be b2 ed e0 3d 59 37 bd 3e
       -0.231395 -0.22837812 0.10982837 0.3695629
0000c0 f7 3e 1a be 6b d2 d7 3d df 58 0d bd 3b 5e 14 3e
       -0.15063082 0.10538181 -0.034508582 0.14489071
0000d0 8c 2f be 3d b9 df 99 3e ca 2c 48 bd 78 84 71 3d
       0.092864126 0.300535 -0.04887084 0.058964223
0000e0 38 7e 01 3d 42 d2 84 3a c5 79 00 3d 5b 3b 43 bd
       0.031614512 0.0010133462 0.03136613 -0.047664028
0000f0 0b aa f5 bd 6c 29 b3 3c 89 1a 62 3e 52 33 1f 3d
       -0.11995324 0.021870337 0.22080435 0.038867302
000100 92 b6 0d be 05 3f c5 3c 9a 9b 8a bd 9a c9 17 3e
       -0.13839176 0.024077902 -0.0676796 0.14822999
000110 71 74 fc 3c ff e6 ba bd d8 88 f2 bd e4 57 c5 bd
       0.030817242 -0.0912609 -0.11842507 -0.096359044
000120 c9 bb 3c 3d 2c ac 82 3c 14 89 a4 be 04 3a 73 3e
       0.046077523 0.015951239 -0.32135832 0.237526
000130 ef 9a 93 be 4d 24 57 bd 05 1d 3c 3d a0 d7 37 bd
       -0.28829142 -0.052524853 0.045926113 -0.04488337
000140 0c 54 1c be 96 c3 f4 bd 7e 92 de 3e 69 da a5 3c
       -0.15266436 -0.119513676 0.4347114 0.020245748
000150 fb 00 94 3e 4d c2 be 3e b4 3d d6 be e8 82 57 bd
       0.28906998 0.37257615 -0.4184395 -0.052615076
000160 70 76 27 3e ae 15 15 bc 81 7f c3 3c c5 1b be 3e
       0.16353774 -0.009099407 0.02386451 0.3713056
000170 12 31 d3 3d c3 a5 ae bd a5 ca 0d 3e dd e4 e7 3d
       0.10312094 -0.0852771 0.13846834 0.11322949
000180 6c 74 78 bc de 60 bd bd d5 8f 0f 3d 6b 94 49 3e
       -0.015164476 -0.092469916 0.03504928 0.19685523
000190 2f df 60 bd bc da 50 3e fd 10 0b be 52 ee 6b 3e
       -0.054900344 0.2039594 -0.135807 0.2304013
0001a0 43 69 c4 be ef 58 d1 3d e7 f1 36 3d c6 4c 7f 3b
       -0.38361558 0.10222041 0.04466429 0.0038955673
0001b0 78 15 0d be c8 27 37 3e 32 ba 18 3e e1 89 47 3d
       -0.13777721 0.17886269 0.14914778 0.048715476
0001c0 86 7f ff bd 16 86 ae 3d 67 af bd bd 7d 6d e2 bd
       -0.12475495 0.085216686 -0.09261971 -0.110560395
0001d0 35 a1 f6 bd 81 6a 24 bc 8a 76 df bd 58 b6 ef bd
       -0.120424666 -0.010035158 -0.109112814 -0.11704701
0001e0 bc e7 ea bd ca 8d 1d 3e 2a 75 28 3e e7 57 cb 3d
       -0.11469981 0.1538612 0.16450945 0.099288754
0001f0 15 01 d5 bd 29 c5 05 bc d9 af 32 3e b3 be d0 bc
       -0.10400597 -0.008164682 0.17449893 -0.025481557
000200 22 f0 25 3d 57 1d 3a be c6 d8 f9 3d f4 79 ae bd
       0.04051221 -0.18175255 0.121995494 -0.085193545
000210 8b f6 27 be ca e6 8a bd 79 8f 32 be 4d 60 be bc
       -0.16402642 -0.06782301 -0.17437543 -0.02323928
000220 11 30 ca 3a 71 fd 05 be 6d 83 b3 be 87 7a 3b 3e
       0.0015425702 -0.13084961 -0.35061207 0.18308459
000230 04 36 30 be 1a 33 c6 3e 69 15 84 bd 4e 58 e4 3d
       -0.17208105 0.38710862 -0.06449396 0.11149655
000240 98 7e 91 be bc 6b 20 be 70 20 3a 3b 9a d7 11 3c
       -0.28416896 -0.15666097 0.0028400682 0.008901501
000250 56 e3 11 3e 91 2f ad 3d 73 17 41 3e 58 2e c1 3d
       0.14246878 0.08456338 0.18856601 0.094326675
000260 73 8b 45 3e 49 40 00 3e 62 a5 1d 3e a5 44 30 bd
       0.19291477 0.12524523 0.1539512 -0.043034215
000270 75 90 b6 3e 76 49 50 3e 9e 2c 61 3e a5 6c f4 bd
       0.35657087 0.20340523 0.21989676 -0.11934785
000280 70 73 c0 3e b9 ac 4a bd 8b 42 cc 3c e6 10 ab 3e
       0.37588072 -0.049481127 0.024934074 0.3341133
000290 18 d3 92 bc d6 0f 92 3d b8 5c 62 be 80 4f 9c 3c
       -0.017922923 0.07131927 -0.22105682 0.019080877
0002a0 09 3e a5 be fd 20 a1 3e 16 83 d6 bc 7f 04 92 bd
       -0.32273892 0.3147048 -0.026185554 -0.07129764
0002b0 36 56 7c bd 5a 3b 31 3e 2b 50 28 bd 8f 77 32 bc
       -0.061605655 0.17307797 -0.04109208 -0.010892763
0002c0 4c 6a 2c 3d e2 8b 8a bd 22 14 a2 3e d7 e7 a0 bc
       0.04209356 -0.06764962 0.31655985 -0.0196418
0002d0 c4 fd f2 3e c8 ca fa bc 76 45 a5 be 3b 37 49 3d
       0.47459233 -0.030614272 -0.32279557 0.049124938
0002e0 49 4b ce 3d f3 eb 91 be 14 47 3d bc c1 e2 48 be
       0.10072953 -0.28500327 -0.011552591 -0.1961775
0002f0 86 45 63 be f9 d8 24 bd 60 15 43 3d 0d 13 36 3d
       -0.2219449 -0.040245984 0.047627807 0.044451762
000300 1a ed 3a 3e 02 f2 b0 3d fd 2a 1a 3c 81 92 dc 3e
       0.1825451 0.08639909 0.009409663 0.43080524
000310 56 ad fe bd bf 78 0a bf ef f5 47 be 5c 95 8f be
       -0.12435405 -0.54090494 -0.1952741 -0.2804364
000320 8f b1 02 be 1d 1d 7c be 15 44 6f be 74 57 57 3d
       -0.12763046 -0.24620481 -0.23365815 0.052573636
000330 ef de 6a be b9 7d a1 3d ff fc be bd 94 04 e8 3d
       -0.22936605 0.07885308 -0.09325599 0.11328998
000340 71 bc 75 3d 0b 28 7b bd c6 3e 88 3d 6f 03 10 3e
       0.059994165 -0.061317485 0.06652598 0.1406381
000350 0c cf 8f bd 8c 76 76 be 9b 8c ac 3d 32 17 2b 3e
       -0.07021913 -0.2406866 0.08425256 0.16708067
000360 53 bd 16 3e 08 ab 05 be 89 5b aa bc 05 3b 07 3d
       0.14720659 -0.13053524 -0.0207956 0.03301527
000370 ec ea 0c 3e 5c 4b 6f 3e 77 19 20 be a8 b3 2e 3d
       0.1376149 0.23368591 -0.15634714 0.042651802
000380 82 91 39 be 0b b3 3a 3e b5 54 12 be 76 27 df bd
       -0.18121913 0.18232362 -0.14290126 -0.108961985
000390 63 35 0d be 26 f6 ae 3d 66 42 e1 bd c8 25 1d 3e
       -0.13789897 0.08543043 -0.109989926 0.15346444
0003a0 62 7e a1 bd c4 1d 09 3e 28 b2 9a 3d 21 5d a4 be
       -0.07885434 0.13390261 0.07553512 -0.32102302
0003b0 8d d4 fc be cf 8f b8 bc 63 20 60 3e 42 99 22 3d
       -0.49380913 -0.02252951 0.21887355 0.03969694
0003c0 31 49 d7 3b c2 ab 5e bd ff 43 b0 3c 7d a6 e1 bd
       0.0065700044 -0.05436302 0.021516798 -0.11018083
0003d0 b4 40 a4 3b 4f ed 2f be 46 15 5d be ef 28 68 3e
       0.005012596 -0.1718037 -0.21590146 0.22671865
0003e0 bd 41 22 be c3 f1 26 3e 7a d1 3d 3e 2e aa 88 be
       -0.1584539 0.16303162 0.1853694 -0.26692337
0003f0 98 d3 06 bf 83 ac 01 bd a7 e9 5a be 45 d8 b0 bd
       -0.52666616 -0.03165866 -0.21378194 -0.08635

fc1.bias f4 [16]
000000 6e b5 1a 3e d4 a2 6d 3e 68 2c ff 3a 23 93 78 3e
       0.15108272 0.23206645 0.001946819 0.24274878
000010 bb 86 79 3e fe 70 06 3d 1f 64 a3 3d 87 eb 4f bd
       0.24367802 0.0328226 0.07978081 -0.050761726
000020 71 68 79 3a 26 a0 4d bd f4 1b dc bc f8 e9 64 3e
       0.0009514159 -0.050201558 -0.026868798 0.22354877
000030 73 2d 6a 3e dc 08 f8 bd 2a a1 96 3e 1f 72 e5 bc
       0.228689 -0.12111065 0.29419833 -0.028008519

fc2.weight f4 [7, 16]
000000 57 8b 7c 3c cc 52 e0 bd 5f 71 56 bd 28 f7 a1 bf
       0.015414081 -0.10953292 -0.052354213 -1.2653551
000010 8a b3 83 bf 07 b7 77 3e ae 61 e0 3e 13 31 a4 3e
       -1.0289166 0.24190913 0.43824524 0.3206869
000020 dd b6 ef 3d c2 ae 15 be 3a f9 8b 3e c9 8c 14 3e
       0.117048 -0.14617446 0.27338582 0.1450683
000030 40 9e 0d be e4 ea cd 3e c1 4f 92 bf 4f cb 67 3e
       -0.13829899 0.4021827 -1.1430589 0.2263615
000040 b9 96 06 3f 4e e9 9f 3d d9 15 91 3e 94 9c e0 bd
       0.52573735 0.07808171 0.2833698 -0.10967365
000050 5e 3c 0b 3f a9 7c 99 be 0e fa 87 bf 04 23 02 bf
       0.5438899 -0.2997792 -1.0623186 -0.5083468
000060 2d cc 56 bd 03 c7 bc bf c9 bc 8e 3e 89 07 ce bd
       -0.05244081 -1.4748234 0.27878407 -0.10060031
000070 7f 00 5d 3e 5e b5 9d 3e 64 bd 50 3e 4a 79 ea 3e
       0.2158222 0.30802435 0.20384747 0.4579566
000080 fa fd 05 3d 76 24 05 bf 32 5b b8 3d fe 3f 90 3e
       0.032712914 -0.5200876 0.09001769 0.28173822
000090 8e de 09 3e 89 0e 17 bf 9a b2 f4 ba eb 91 00 bd
       0.13463804 -0.59006554 -0.001866895 -0.03138916
0000a0 b6 31 c0 bd b9 48 f9 3e f5 36 33 3d 53 d7 8a be
       -0.093844816 0.48688295 0.043753583 -0.27117404
0000b0 bb 2d 13 bf 35 ed ce bd 82 bd c3 3e a8 7a 3f be
       -0.57491654 -0.101038374 0.3823052 -0.18699133
0000c0 00 4b cd 3d cc 96 05 3f dd b5 f8 be 46 24 d9 3d
       0.10024071 0.5218322 -0.4857625 0.10602622
0000d0 37 dc 9e 3e 72 96 3c 3f 4a 18 3a bf 8c c9 d6 be
       0.31027386 0.7366706 -0.7269331 -0.41950643
0000e0 7a a3 be 3d 8c 2b 58 be 74 db ff be 3c 76 9d bf
       0.093085244 -0.21110362 -0.49972117 -1.2301707
0000f0 2f b7 bc 3e 0f 1f 5e be 71 4d 1b 3e 04 ff d1 3e
       0.36858508 -0.21691535 0.1516626 0.41014874
000100 a0 78 d5 3e f9 80 84 bd 7d 88 c0 be 90 3c 6f 3c
       0.41693592 -0.06469912 -0.37604132 0.014601842
000110 6d 0e 3f 3d 54 94 2c 3d bf ce fa 3e cf 8e ea bd
       0.046644617 0.042133644 0.4898586 -0.1145302
000120 9f fa f2 bd ed c2 7e be 4f a8 2f bd e4 2c 66 3e
       -0.118642084 -0.24879046 -0.04288512 0.22478062
000130 85 ad 08 3e a3 aa 84 3c 11 4e ec bd ec eb ea be
       0.13347442 0.016194647 -0.115383275 -0.4588312
000140 cc 03 d5 3c c2 98 ac 3e df 47 0a bf 9a 29 80 3e
       0.026002787 0.33710295 -0.54015917 0.2503174
000150 de a0 73 be 35 24 e1 bd f5 04 7e be 77 7b 19 3f
       -0.23791835 -0.10993234 -0.24806578 0.5995402
000160 a4 28 20 3e 16 12 26 bf d1 22 9b bf 29 68 ba 3e
       0.15640503 -0.64871347 -1.212 0.36407593
000170 fb 5b f6 3d da d7 a6 bf a2 c0 23 3c 7b 96 32 3e
       0.12029263 -1.3034623 0.009994658 0.17440216
000180 94 50 92 bf f0 3e 77 3e bf 75 10 3f 88 e4 2b 3e
       -1.143084 0.24145103 0.56429666 0.16786397
000190 1d 49 64 3e 27 78 f4 3c 47 94 5d 3e 7f 0c c9 bd
       0.22293516 0.02984245 0.21638595 -0.098168366
0001a0 14 35 b5 bc f9 ac 67 bf 19 f8 03 3d bb 41 d2 3d
       -0.022120036 -0.9049831 0.032219026 0.10266443
0001b0 3c 2a 87 3d f9 b9 35 3d 66 b6 d8 3d 77 e9 b0 be
       0.065998524 0.04436681 0.10581665 -0.3455312

fc2.bias f4 [7]
000000 a5 80 3d be c4 e4 4b 3e fd d3 05 be 8c b7 26 3e
       -0.18506105 0.19911486 -0.13069148 0.16280955
000010 fc a2 8f bd b3 e7 10 3e 0f 9b 53 3e
       -0.07013509 0.14150886 0.20664619
