model/Autoencoder/classifier_16d.pt (torch, 3185 bytes, 4 tensors)

fc1.weight f4 [16, 16]
000000 c8 7a e6 be 45 90 65 be 9a 09 23 bf d2 d0 2c 3f
       -0.4501555 -0.22418316 -0.63686526 0.67506135
000010 2b 35 ba 3e e8 d5 95 be d9 ac 92 be ee 8b f6 be
       0.3636869 -0.2926476 -0.28647497 -0.48153633
000020 da ca a9 3e c8 1c 59 3f a4 c1 ac 3e 63 a5 fa 3e
       0.33162576 0.8480954 0.33741486 0.48954305
000030 0d 99 1c 3d 72 77 07 be cb 43 f1 be 5f d3 7b be
       0.038231898 -0.13229159 -0.47122034 -0.2459235
000040 ae bb cd 3c 16 e0 85 3e 2d 75 63 be 1b 59 06 3f
       0.025113907 0.26147527 -0.22212668 0.52479714
000050 22 dc f1 3e e8 03 2c bf 84 f9 f2 3d 3a df ae 3d
       0.4723826 -0.6719346 0.118639976 0.08538671
000060 d4 c7 52 3e 86 65 97 3f 39 ff 10 3d cd 09 97 3e
       0.20584041 1.1827857 0.03539965 0.29499665
000070 00 46 a8 3d 42 8b dc bd a5 02 96 be a0 0c 04 bf
       0.082164764 -0.10768749 -0.29298893 -0.51581764
000080 d9 d2 dc 3d 5b 4f c3 be 67 34 fc 3e cf c6 fe 3c
       0.107824035 -0.3814648 0.4925873 0.031100659
000090 f1 ea 53 bf ae 36 fe 3e 8a 31 1d bf ec ae e3 be
       -0.8278037 0.49651092 -0.61403716 -0.44469392
0000a0 bd bf b4 be 75 ca 8a bf 2b ea a3 3e d2 de 05 be
       -0.35302535 -1.0843035 0.32014593 -0.1307328
0000b0 75 68 02 bf 38 65 3b 3e 27 44 e9 3e 82 96 d8 3e
       -0.5094064 0.1830033 0.4555981 0.42302328
0000c0 00 bb c7 be cc 70 d9 3e c5 04 fe 3e b7 71 a6 be
       -0.39009857 0.4246887 0.49613014 -0.32508633
0000d0 1a 86 81 3d e5 1a 55 3e b3 83 0e 3f 8e c9 15 bf
       0.06324406 0.2081104 0.5566971 -0.58510673
0000e0 86 fb 81 bd 1e 78 96 be 2b fd c0 bd 94 5e a9 3e
       -0.063468024 -0.29388517 -0.09423288 0.3307997
0000f0 c1 93 23 3f 79 f8 d3 3d 19 f1 7a bf 3d 87 8b be
       0.6389733 0.10350127 -0.98024136 -0.27251616
000100 7e ff 0d 3e ca cb 5f 3f e1 9b b0 3e e5 4c 81 3e
       0.13866994 0.8742033 0.34493926 0.25253978
000110 2b cb 63 3e 0a de 1f bf c4 72 73 3c 70 5b 0d bf
       0.22245471 -0.6244818 0.014858905 -0.5521765
000120 d9 59 fd 3c db 88 00 be 1e 91 44 3f e2 cc 0d 3f
       0.030926632 -0.12552206 0.7678393 0.5539075
000130 ee 10 87 3d d2 b5 83 3e 50 0f 26 be f6 c7 40 3e
       0.06595026 0.25724655 -0.16216779 0.18826279
000140 e8 be 17 bf 1d e9 0a 3d 91 c8 f4 be 2f 95 b7 3e
       -0.59275675 0.03391372 -0.4780927 0.35856006
000150 da 95 87 3e cd b3 23 bd 78 5b 0d bd ba 83 ba 3e
       0.26481515 -0.039966393 -0.03451106 0.36428624
000160 cf 27 17 be d9 1b a4 3e 59 0d 07 3f 51 00 aa 3e
       -0.1476128 0.32052496 0.5275474 0.33203366
000170 93 57 30 be e2 61 b6 3d 8f 48 19 bf 4c c3 77 be
       -0.17220907 0.089053884 -0.5987634 -0.24195594
000180 d1 83 11 3d 8c 3d cb 3e 40 56 32 bf 5b 3f 42 bf
       0.0355261 0.39695394 -0.6966286 -0.7587792
000190 8a 7c b0 bc e3 2b 29 be e2 41 f1 be 0a 04 aa 3e
       -0.02154376 -0.16520648 -0.47120577 0.33206207
0001a0 6c 8d 36 3e 5e 44 f9 bd ab fc fb bd f5 6b 51 3c
       0.17827386 -0.12171243 -0.12304052 0.012782087
0001b0 28 9f 4b be 77 52 43 be 17 a0 04 bf 4c 07 01 3f
       -0.19884932 -0.19074427 -0.5180678 0.5040176
0001c0 47 56 e2 bc ac 4c 06 be d6 d0 14 3f 0e 3a c9 3e
       -0.02762903 -0.13115185 0.5813116 0.39302105
0001d0 8a 05 4c bf db b1 34 3f 25 cd 30 be e3 34 0c bf
       -0.7969595 0.70583886 -0.17265756 -0.547682
0001e0 61 9a a6 bd 8a 9a b1 bf ef d8 af be 33 3d be be
       -0.08134914 -1.3875287 -0.34345195 -0.37156066
0001f0 83 0e db bd 5e 1d b2 3e ec 6d c0 3e 3d 0c 4b 3f
       -0.10696127 0.3478803 0.37583864 0.7931555
000200 60 5d c5 be 35 e4 e5 3b db 37 17 be e9 17 4b 3e
       -0.38547802 0.00701573 -0.14767401 0.1983334
000210 93 05 3d bf f9 1e 26 3d 93 ad 9d 3b d0 0c 02 bf
       -0.7383663 0.04055688 0.0048119514 -0.508008
000220 71 d9 4c 3f 3a 3f 49 3f 32 9d ed 3e 24 b7 d2 3c
       0.8001929 0.786121 0.46408993 0.025722094
000230 e0 42 2f 3e 11 ff 51 bf 1e c4 47 bf 70 5b b4 be
       0.17115355 -0.82029825 -0.78033626 -0.3522601
000240 61 e5 f7 bb 75 99 81 bc b5 db d9 3e 3c 73 04 3e
       -0.007565186 -0.015820244 0.42550436 0.12934583
000250 46 f1 16 3e be 0e 18 bd 6c 1c b4 bd b8 d4 65 3e
       0.14740476 -0.037123434 -0.087944835 0.22444427
000260 da e1 43 3e 05 f9 39 be 7c ae 4e bd 9e fe 23 3e
       0.19129124 -0.181614 -0.05045937 0.16015097
000270 fa 83 1e 3c a9 66 0a be a6 11 11 be ac d6 e7 39
       0.00967502 -0.13515724 -0.14166889 0.00044219696
000280 c8 60 19 3e 05 13 8b bd ec df fd be c9 0a 28 3f
       0.14978325 -0.06790737 -0.495849 0.65641457
000290 ac 60 28 3e a3 bc 30 bf 0c d2 cd be da d9 ba be
       0.16443127 -0.69037837 -0.40199316 -0.36494333
0002a0 6f 6f 74 3e 0e 43 1f 3f d2 2f 45 3f 14 af 30 3f
       0.23870634 0.6221169 0.77026093 0.6901715
0002b0 6f b5 86 be 36 d6 0d 3e 6b 89 fa 3d e7 1e 4f be
       -0.26310298 0.13851246 0.12233242 -0.20226632
0002c0 25 67 b2 bd 74 79 fc be 68 d7 6c 3d a7 ac 60 3e
       -0.087110795 -0.4931141 0.057822615 0.21940862
0002d0 10 e3 dd 3e 3e be 2e 3e 3b 2c 1c be 4b 1d 51 be
       0.43337297 0.17064759 -0.15251248 -0.2042133
0002e0 ed da 90 3e ab 26 2a 3f 27 4a bc be 5e 3e 1d 3f
       0.28292027 0.6646525 -0.36775324 0.6142329
0002f0 a6 c3 e0 3e 11 42 97 bd 2b e4 78 bf 3c 3e 92 be
       0.43899268 -0.07385648 -0.97223157 -0.28563106
000300 e2 6c 1b 3d d3 3c 85 be 40 34 1e 3f c7 54 e6 3e
       0.037945636 -0.26022968 0.6179848 0.44986555
000310 42 65 13 bf 33 c3 1c 3f 69 e3 ed be b0 68 18 bf
       -0.5757638 0.6123535 -0.46462563 -0.5953474
000320 cb 06 97 bd 05 41 6a bf 4d f9 3f 3e 94 9a 85 be
       -0.073743425 -0.9150546 0.18747444 -0.26094496
000330 9f 47 36 bf 5a 81 9c 3e de ac 48 3f 69 c8 0d 3f
       -0.71203035 0.30567437 0.78388774 0.55383927
000340 f7 8b 9b be ba c5 00 be 20 36 bb be b7 45 e5 3d
       -0.30380222 -0.12575427 -0.36564732 0.11194938
000350 8d 8e a7 3e 3f 14 b8 3d dd 9d 0e bd 05 87 69 3d
       0.32725945 0.08988237 -0.03481852 0.05701353
000360 1a 5e aa be 5e dd db 3e df aa 0f bf fb 47 ff be
       -0.3327492 0.42942327 -0.56120104 -0.49859604
000370 20 ac 74 be 47 d8 94 3e d9 ac 84 bf 7f 2b dd be
       -0.23893785 0.29071257 -1.0365249 -0.43197247
000380 34 3c 02 bf 0d 1d e6 be f6 c9 1f bf 27 64 93 bf
       -0.5087311 -0.4494404 -0.6241754 -1.1514939
000390 e4 fc 9e be e9 29 0d 3f 3b 35 d8 3c 52 48 af be
       -0.31052315 0.55142075 0.02639257 -0.34234864
0003a0 9a 3c 8e bc 4b cd 67 bf 28 a8 8b be 2d f8 62 3e
       -0.017362881 -0.9054763 -0.2727673 0.22164984
0003b0 5d 67 22 3e b6 f2 a4 3e 89 fb f1 be ee aa b8 3e
       0.15859742 0.32216424 -0.4726222 0.3606791
0003c0 44 d2 ac bd ab b3 6a bc b3 00 38 be d6 96 73 3e
       -0.084385425 -0.014325063 -0.17969017 0.23788008
0003d0 4d 5e 35 3e a3 09 cd be 59 00 a4 3d 27 f0 23 be
       0.17711754 -0.40046415 0.08007879 -0.1600958
0003e0 db 5d b8 3e 30 af 8e 3f 65 70 94 3e 84 94 f4 3e
       0.36009106 1.1147213 0.28992 0.47769558
0003f0 22 c0 25 3e 35 b8 6d be ae d0 dd be 2e eb ae be
       0.16186574 -0.232148 -0.43323272 -0.34163803

fc1.bias f4 [16]
000000 3f 97 36 3f 3d 58 c9 3e 6f 6c 19 bf 02 b7 88 be
       0.71324533 0.39325133 -0.5993108 -0.26702124
000010 99 9d 8c bd 38 bf 69 3f a3 60 4d 3e e9 6b bd 3e
       -0.06865997 0.913074 0.20056395 0.3699639
000020 b8 f1 a7 3f f7 80 57 3e c1 71 9a 3f 1c a0 2c 3f
       1.3120642 0.2104529 1.2065965 0.6743181
000030 5d 70 35 bf c5 65 d9 3e aa 95 b1 be 5c fd c5 3e
       -0.7087458 0.42460456 -0.34684497 0.3866986

fc2.weight f4 [7, 16]
000000 17 a4 be bf 23 f6 13 86 eb 23 01 3f 6b 3c a8 3e
       -1.4893826 -2.782846e-35 0.5044543 0.32858595
000010 c3 2f 4e 3f 1d 3a b1 bf a4 33 b8 3e 72 52 cf 3e
       0.8054163 -1.384586 0.359769 0.40492588
000020 8b f1 f1 bf ff 34 20 bf 18 07 dc bf f4 a6 10 c0
       -1.8901838 -0.62580866 -1.7189665 -2.26019
000030 78 01 29 3f cb c1 a1 bf ad 89 d8 3e 67 13 5c a6
       0.66017866 -1.2637266 0.42292538 -7.635413e-16
000040 90 30 ef 3e f1 d6 9a bf a4 66 1d be 12 1e fe bf
       0.46716738 -1.2096845 -0.15371186 -1.9852927
000050 42 ed fc 3f 82 56 44 3f 09 a9 aa bf dd bc e2 be
       1.9759905 0.766945 -1.3332835 -0.44284716
000060 22 7a 19 3f f3 60 26 be c9 2f 07 bd 89 67 21 3f
       0.59951985 -0.1624792 -0.033004556 0.6304861
000070 84 05 a2 be 15 31 84 3f a7 ad 03 3f 87 61 e4 be
       -0.31644833 1.0327479 0.5143685 -0.44605657
000080 f5 99 d8 bc 99 a8 60 b1 05 33 67 bd 4a 1c 26 bc
       -0.0264406 -3.2692127e-09 -0.05644514 -0.010138581
000090 ad a6 77 bb 9b 45 bb bc de e8 99 bb 65 a8 76 bd
       -0.0037788555 -0.022860339 -0.0046969494 -0.060219187
0000a0 36 6f 05 bd d3 7d de ba dc cc 5c bc 11 b1 35 bc
       -0.032576762 -0.0016974754 -0.013476577 -0.011089579
0000b0 5b f6 5f bd 4f 82 05 bc c0 75 48 bd e2 07 0c b9
       -0.054678302 -0.008148744 -0.04894042 -0.00013354377
0000c0 4a a1 c6 3e 28 94 ac 3f 66 de f0 be 0d b4 e2 3a
       0.3879493 1.3482714 -0.47044677 0.0017296091
0000d0 02 32 1a 3f de a3 05 3f fb a6 19 3f e0 55 6f bf
       0.60232556 0.52203166 0.60020417 -0.9349041
0000e0 cf 0a f6 3e d5 dc 80 3d 8a c7 04 3e 11 42 83 3e
       0.4805512 0.0629212 0.12966743 0.25636342
0000f0 ee 01 7e bf ce 37 c1 3e 64 73 09 bf 44 4d 84 3f
       -0.99221694 0.37737888 -0.536917 1.033608
000100 f0 93 8d bd 7c e7 be b3 d1 f2 17 3e a6 01 55 3e
       -0.069129825 -8.889671e-08 0.14838721 0.2080141
000110 07 60 81 bf 40 09 0d 3e 60 bd f7 bc df 96 b5 3e
       -1.010743 0.1377306 -0.030241668 0.35466668
000120 af a6 7c bf f5 64 3f be 10 6c dd 3d 98 46 04 be
       -0.9869184 -0.18690856 0.10811627 -0.12917554
000130 a5 94 91 3e c1 91 1b 3d 9e f7 2b 3e 38 de ef bb
       0.2843372 0.0379808 0.16793677 -0.0073201917
000140 1e 08 ff 3e 19 94 16 bf 99 37 c2 3d c5 b9 a9 3f
       0.4981088 -0.5881973 0.09483261 1.3259817
000150 4f a8 d4 bf f8 f8 c0 3d 70 21 b3 3f 55 52 03 be
       -1.6613864 0.09422487 1.3994579 -0.12824376
000160 f0 09 43 3d 9c 5e 19 be bb e0 85 3f 29 2d 08 3e
       0.0476169 -0.14977497 1.0459207 0.13298477
000170 43 e7 85 3e 82 dd 7f be e1 60 ff be b1 84 c0 bf
       0.26153 -0.24986842 -0.498786 -1.5040494
000180 b7 e3 89 bf b7 3c c0 a0 92 84 8b 3e cf f6 0b bf
       -1.0772618 -3.2566243e-19 0.2724958 -0.54673475
000190 d8 e5 14 bf 29 da 03 bf d8 6a 27 bf ac 59 d5 3e
       -0.58163214 -0.5150476 -0.65397406 0.41669977
0001a0 dc 93 5a 3d ec 93 1f 3f 20 06 47 bf 56 34 33 be
       0.053363666 0.62335086 -0.7774372 -0.17500433
0001b0 47 37 98 3e 04 94 86 bf 04 c4 b7 3e 19 1e bf bb
       0.29729673 -1.0513921 0.35891736 -0.0058324453

fc2.bias f4 [7]
000000 7a 11 bb bf e8 49 6d be 91 04 94 bb a3 5b 75 bd
       -1.4614708 -0.23172724 -0.004517146 -0.059901845
000010 69 9f 91 3f db 08 a6 bd b9 85 40 3f
       1.1376773 -0.08107158 0.75204045
