model/Autoencoder/classifier_12d.pt (torch, 2953 bytes, 4 tensors)

fc1.weight f4 [16, 12]
0.2749529 -0.20468327 0.3441077 0.04387885 0.3635425 0.073600635 0.22716214 -0.046205766
-0.63156325 0.061995924 -0.07814258 -0.03790756 -0.028048044 0.14938289 0.42059597 -0.47541094
0.21687691 0.38816822 0.4632947 0.005669907 -0.42532355 -0.5338343 -0.3208067 0.53421265
0.25140113 -0.07712883 0.134115 0.4427701 0.044328894 0.13206927 -0.2709966 0.21813723
-0.58686256 -0.4000476 -0.07170317 -0.401482 0.2371828 0.24606001 -0.08872424 0.42507133
0.45357835 0.45554537 -0.961947 0.19170444 -0.4852456 -0.52288 0.098097235 -0.23205903
0.17880799 -0.093611084 0.044618737 -0.038791258 0.36392564 0.04313399 -0.7227924 0.2866823
-0.5089529 0.0114538735 0.18212952 -0.21809275 -0.5400432 -0.14581373 -0.004500039 -0.21816213
-0.08504011 0.047016855 0.24831015 0.011702018 -0.022537837 0.13827229 -0.47069338 0.30159602
0.02861581 -0.19407815 0.28314137 -0.6930973 0.29165742 0.39131138 0.9277593 0.05169669
-0.36172265 -0.38210908 -0.2759519 0.9797916 -0.7128803 0.31635314 0.1592807 0.041569345
0.052337866 -0.14779165 0.19662109 -0.16145481 -0.36184874 0.27494505 -0.21329354 -0.12764162
0.3668361 -0.030891681 0.08037828 0.2823203 0.3096703 0.44212824 -0.88387865 0.6023227
-0.69119185 -0.11852387 0.07801239 -0.5329399 0.305666 0.14286451 0.034833543 0.47685122
0.091808476 0.2265614 -0.7197761 0.13382928 -0.47022566 -0.19776657 -0.18166009 -0.8577405
0.2672543 -0.10947156 0.21666546 0.38852715 0.25792196 0.25751245 -0.73674357 0.48354694
-0.42191944 -0.18999057 -0.107200846 -0.3253275 0.57463676 0.003506706 0.08292473 0.35896122
0.33885413 -0.028886318 -0.8760828 0.31901884 -0.34554604 -0.47064897 -0.013606846 -0.4256243
0.12950645 -0.26920313 0.12914188 -0.44889945 0.36819443 0.3026347 0.22853205 0.12537508
-0.058562685 -0.15681079 -0.045205362 0.28601372 0.019270884 -0.33618718 0.19546305 -0.7389478
0.09732116 0.32405397 1.3660995 -0.07594614 -0.16732346 -0.30669278 -0.22638097 1.036906
0.09441374 -0.0025853412 -0.10639189 -0.31077892 0.04016843 0.49097493 0.4651391 0.20960838
-0.42421827 -0.3513615 -0.37777713 0.6406987 0.4534603 -0.5514722 0.5749942 0.20843457
-0.33020276 -0.25677288 1.3253044 -0.07525704 0.09194612 -0.04183736 0.3682897 0.8487091
00000000: a0c6 8c3e 7e98 51be e22e b03e 4fba 333d
00000010: 3e22 ba3e eebb 963d 319d 683e 4242 3dbd
00000020: 21ae 21bf 70ef 7d3d 3809 a0bd f544 1bbd
00000030: 03c5 e5bc d4f7 183e 5b58 d73e 1069 f3be
00000040: fb14 5e3e fcbd c63e f734 ed3e a1ca b93b
00000050: 02c4 d9be 5da9 08bf c740 a4be 29c2 083f
00000060: a6b7 803e b8f5 9dbd 7155 093e c3b2 e23e
00000070: 3792 353d 2b3d 073e 11c0 8abe 5e5f 5f3e
00000080: a03c 16bf 0ad3 ccbe 1dd9 92bd 0c8f cdbe
00000090: 0ce0 723e 28f7 7b3e 0eb5 b5bd f3a2 d93e
000000a0: 6c3b e83e 3e3d e93e 2942 76bf 2b4e 443e
000000b0: 1c72 f8be 77db 05bf 34e7 c83d e2a0 6dbe
000000c0: 7119 373e 2bb7 bfbd 23c2 363d 95e3 1ebd
000000d0: 7654 ba3e 44ad 303d ec08 39bf 06c8 923e
000000e0: bd4a 02bf 07a9 3b3c 2980 3a3e b553 5fbe
000000f0: 4540 0abf 3250 15be 1075 93bb e565 5fbe
00000100: 8229 aebd bf94 403d 0445 7e3e d2b9 3f3c
00000110: 45a1 b8bc 4097 0d3e b9fe f0be cb6a 9a3e
00000120: b46b ea3c 6cbc 46be e8f7 903e d36e 31bf
00000130: 1f54 953e f759 c83e a281 6d3f e9bf 533d
00000140: b633 b9be cda3 c3be 9149 8dbe 9fd3 7a3f
00000150: 537f 36bf 0af9 a13e 7b1a 233e 9e44 2a3d
00000160: 3b60 563d b256 17be 0a57 493e 6954 25be
00000170: 3d44 b9be 99c5 8c3e 9f69 5abe 7cb4 02be
00000180: f1d1 bb3e 8d10 fdbc 5e9d a43d 498c 903e
00000190: 1b8d 9e3e a25e e23e df45 62bf d231 1a3f
000001a0: f3f1 30bf a5bc f2bd f6c4 9f3d c06e 08bf
000001b0: 4180 9c3e 134b 123e 9ead 0e3d d825 f43e
000001c0: 1506 bc3d b6ff 673e 3f43 38bf 8b0a 093e
000001d0: 6bc1 f0be 5283 4abe 1a05 3abe e294 5bbf
000001e0: 8ed5 883e a032 e0bd 8ddd 5d3e 08ed c63e
000001f0: 590e 843e acd8 833e 3a9b 3cbf 7793 f73e
00000200: d305 d8be e38c 42be 1e8c dbbd 5391 a6be
00000210: 651b 133f c4d0 653b 71d4 a93d c4c9 b73e
00000220: 4a7e ad3e 00a3 ecbc f646 60bf 7056 a33e
00000230: 69eb b0be e7f8 f0be 40ef 5ebc 6eeb d9be
00000240: 579d 043e fed4 89be c53d 043e 26d6 e5be
00000250: fb83 bc3e eff2 9a3e 4e04 6a3e 5362 003e
00000260: 6ddf 6fbd 0293 20be 4229 39bd 6470 923e
00000270: f9dd 9d3c ba20 acbe 7727 483e af2b 3dbf
00000280: 5150 c73d 67ea a53e 59dc ae3f a689 9bbd
00000290: d756 2bbe d606 9dbe 6ad0 67be 56b9 843f
000002a0: fe5b c13d d46e 29bb fee3 d9bd 6a1e 9fbe
000002b0: a787 243d 1161 fb3e b626 ee3e 94a3 563e
000002c0: 2333 d9be a8e5 b3be 016c c1be d404 243f
000002d0: f32b e83e 482d 0dbf d232 133f df6f 553e
000002e0: 5610 a9be bc77 83be 93a3 a93f 5d20 9abd
000002f0: 3f4e bc3d a75d 2bbd 7890 bc3e 0045 593f

fc1.bias f4 [16]
-0.94319946 0.10283158 -0.07036459 -0.12964503 0.73605627 -0.48992836 1.1223727 1.2126589
0.7880716 -0.7489784 0.6925912 0.7879574 1.0196517 0.49438596 1.3356739 0.6171103
00000000: 8575 71bf 5d99 d23d 4f1b 90bd abc1 04be
00000010: 2f6e 3c3f e4d7 fabe e9a9 8f3f 6838 9b3f
00000020: 0fbf 493f 0cbd 3fbf a84d 313f 93b7 493f
00000030: f283 823f 2820 fd3e 5df7 aa3f f1fa 1d3f

fc2.weight f4 [7, 16]
0.058836628 -0.47837296 0.20311038 0.3928496 0.16780959 -0.46986958 0.8314548 -0.35977668
0.36226514 0.4330553 0.34808376 0.2547775 -0.5138408 -3.0677466 -0.65379006 -0.10481479
0.37767476 0.16249405 0.5099468 0.35377222 0.2474367 -0.8798105 -0.5509075 -0.461691
0.1727486 -0.13964255 0.34836218 0.1740916 0.11339064 0.0055684396 -0.08507613 -1.6642573
0.10242853 0.56032825 -0.47633478 -1.2057042 -0.7117325 0.70221 0.358097 -1.3418905
-1.214027 0.21652967 -1.2913173 -1.1212234 0.37932932 0.66887784 0.2744763 0.31405386
-0.48318207 0.07348514 -0.26657048 -0.39404443 0.054823108 -0.2712129 0.29295623 1.8404227
-0.10655903 -1.8575352 0.015281549 0.10029287 0.41147476 0.22484298 0.35238808 0.27304772
-0.058190044 -0.09048722 -0.061914306 -0.054807168 -0.0486742 -0.002692688 -0.11397429 -0.0047652046
-0.09434019 -0.02982168 -0.07070892 -0.06416571 -0.07138417 -0.09138505 -0.09890216 -0.04851911
-0.05819044 -0.090487234 -0.061912738 -0.054801676 -0.04867086 -0.0026927348 -0.11397655 -0.0047643394
-0.09433621 -0.029817857 -0.07070603 -0.06416191 -0.07138457 -0.09138916 -0.098902665 -0.04852141
-0.058190048 -0.09048722 -0.06191431 -0.05480716 -0.048674203 -0.0026926878 -0.11397429 -0.004765205
-0.0943402 -0.029821679 -0.07070893 -0.06416571 -0.07138417 -0.091385044 -0.098902166 -0.04851911
00000000: adfe 703d 4ded f4be 2bfc 4f3e 9523 c93e
00000010: 47d6 2b3e bf92 f0be 39da 543f a634 b8be
00000020: d17a b93e 6db9 dd3e 0938 b23e 3272 823e
00000030: 128b 03bf f655 44c0 c95e 27bf 23a9 d6bd
00000040: 965e c13e d764 263e e08b 023f a221 b53e
00000050: 0c60 7d3e 433b 61bf 4608 0dbf c362 ecbe
00000060: 02e5 303e 75fe 0ebe 875c b23e 1245 323e
00000070: 5a39 e83d 7577 b63b 653c aebd 6206 d5bf
00000080: 0dc6 d13d ac71 0f3f 27e2 f3be 8454 9abf
00000090: 1a34 36bf 09c4 333f 7d58 b73e 11c3 abbf
000000a0: 3d65 9bbf f4b9 5d3e e349 a5bf 4084 8fbf
000000b0: 7437 c23e 943b 2b3f 2888 8c3e abcb a03e
000000c0: a463 f7be 617f 963d ed7b 88be 31c0 c9be
000000d0: 328e 603d 6bdc 8abe 5cfe 953e f992 eb3f
000000e0: 9f3b dabd b7c3 edbf 765f 7a3c 5966 cd3d
000000f0: d2ac d23e 3d3d 663e 366c b43e e9cc 8b3e
00000100: af58 6ebd 5d51 b9bd db99 7dbd 7b7d 60bd
00000110: 995e 47bd cf77 30bb 5a6b e9bd 6f25 9cbb
00000120: 6e35 c1bd 994c f4bc d7cf 90bd 5069 83bd
00000130: dd31 92bd 1628 bbbd 378d cabd f9bb 46bd
00000140: 1959 6ebd 5f51 b9bd 3698 7dbd b977 60bd
00000150: 185b 47bd 9878 30bb 8a6c e9bd 2d1e 9cbb
00000160: 5833 c1bd 9444 f4bc 53ce 90bd 5267 83bd
00000170: 1332 92bd 3d2a bbbd 7b8d cabd 63be 46bd
00000180: b058 6ebd 5d51 b9bd dc99 7dbd 797d 60bd
00000190: 9a5e 47bd ce77 30bb 5a6b e9bd 7025 9cbb
000001a0: 6f35 c1bd 984c f4bc d8cf 90bd 5069 83bd
000001b0: dd31 92bd 1528 bbbd 388d cabd f9bb 46bd

fc2.bias f4 [7]
-0.45614806 -0.16539283 -0.3971661 1.3795131 -0.013188762 -0.013188654 -0.01318876
00000000: 3d8c e9be bd5c 29be 5b59 cbbe e393 b03f
00000010: ad15 58bc 3915 58bc ab15 58bc
