model/Autoencoder/decoder_128d.pt (torch, 450067 bytes, 15 tensors)

fc1.weight f4 [736, 128]
000000 9e 0c 0a 3d 7d b3 fb 3d ab 64 c2 bd 9c bd 64 3d
       0.03370344 0.12290094 -0.09491857 0.055844888
000010 8f 3d b3 3c 65 9d 39 3d 3c 47 3c bd c9 31 a5 bd
       0.02187994 0.04531612 -0.045966372 -0.080661364
000020 8f 45 28 3d ce 9d a2 3d 99 1b 14 3c 57 e2 86 3b
       0.04108196 0.07940255 0.009039783 0.0041163373
000030 41 b3 71 bc 1c 37 e9 3d b2 d0 10 3d ab 58 90 3d
       -0.01475221 0.113874644 0.035355277 0.07048162
000040 b1 10 35 bc 4a d1 dc bb 68 10 94 bd 0b 37 e9 3c
       -0.011051343 -0.0067388164 -0.07229692 0.02846863
000050 e5 ad d2 bd a1 38 4f 3d af b0 02 be 92 68 51 3d
       -0.10287074 0.050591115 -0.12762712 0.051125117
000060 f3 d5 76 3d 93 f1 13 bc f4 44 31 3c 9b b1 aa 3d
       0.06026263 -0.009029764 0.010819662 0.08334657
000070 f5 37 43 be c5 e0 eb 3d b4 38 4c 3c 94 63 c6 3c
       -0.19064315 0.11517481 0.012464691 0.024217404
000080 9c c7 e5 bc 75 77 dd 3c a3 36 2e 3c 86 d2 a5 bd
       -0.028049283 0.0270345 0.010633144 -0.08096795
000090 ec 59 b3 3c 56 90 9b 3d bd a0 9f 3b f1 8b ac bd
       0.021893464 0.07595889 0.0048714564 -0.08425129
0000a0 04 28 27 bd 69 d7 9b 3c f5 35 92 bc 57 68 d2 bc
       -0.040809646 0.019023614 -0.017847994 -0.025684519
0000b0 35 d1 83 3d 94 c8 ab bd d4 b5 8f bb 4b 7e 54 bd
       0.064363874 -0.083878666 -0.0043856893 -0.051878255
0000c0 1b 0e 52 3d 3e 5b c3 bd 63 7b 10 3b 43 ce cf 3c
       0.051282983 -0.095388874 0.00220462 0.025366908
0000d0 00 b9 e3 bd 2a 1e b2 bd 07 2d 3a 3d 63 a7 f0 3d
       -0.1111927 -0.086971596 0.045453098 0.117506765
0000e0 06 78 b0 bd 52 d6 9e 3d a1 fc 04 bd 81 0d b2 bd
       -0.08616643 0.07755722 -0.03246749 -0.08693982
0000f0 1e d5 0b 3c 6b b9 0e 3c c7 3f 23 3e 4f a9 d6 bd
       0.008534698 0.008711199 0.15942298 -0.10481512
000100 3b e3 26 bd 67 9e c6 bc 7a 53 1d 3c 34 66 94 3c
       -0.040744048 -0.024245454 0.009602422 0.01811514
000110 75 45 f0 bd 46 f3 b8 bb 81 5b 20 3c db 7c 10 3e
       -0.11731998 -0.005644235 0.009787441 0.14110129
000120 07 1a 2d bb c0 69 a3 bd 4d 82 6e bc f9 24 3f 3e
       -0.0026413219 -0.079791546 -0.014557433 0.18666448
000130 20 32 85 bc ad e0 04 3e ab 38 a2 3d f7 c0 41 3c
       -0.016259253 0.12976332 0.07920965 0.011825792
000140 da ca 48 bd fc a6 f7 3c 5b 10 ac 3d 51 ea f0 3d
       -0.04902158 0.030230992 0.08401557 0.11763442
000150 cb 8c 31 bd b0 7e fe bb 8f 70 d2 3a 0e a0 27 bc
       -0.04334716 -0.007766567 0.0016055274 -0.010231031
000160 78 25 10 3d 4b 72 34 bd fb bb fd bc c4 4a 60 3d
       0.035191983 -0.04405431 -0.030973425 0.054758802
000170 77 07 ea bd 15 31 f5 bc 4d fc 4d 3c b3 bc 66 3d
       -0.11427205 -0.02993063 0.01257236 0.0563323
000180 5b e1 03 3d 24 7f 02 bd 89 2a 4f be b7 a8 44 bd
       0.032197338 -0.031859532 -0.2023107 -0.04801246
000190 2d c1 8e 3c 7d f1 8f bd 0f 78 22 bd ef a2 04 3e
       0.017426098 -0.07028482 -0.039665278 0.12952779
0001a0 fa 3d e4 3b 82 04 2f 3d a9 5b e1 3c bf d1 8f 3d
       0.006965396 0.04272891 0.027509527 0.07022428
0001b0 da 9a dc bc 3c 9f 32 3e a2 50 cc 3d 4b 50 de 3d
       -0.026929308 0.17443556 0.09976317 0.108551584
0001c0 86 de 37 3c 53 bb 11 3e 85 cd 67 3d 2b 41 20 be
       0.011222487 0.14231615 0.056592483 -0.1564986
0001d0 c3 3d a1 bc 4c 51 05 3e 89 d9 a2 3b 1a 17 4c 3a
       -0.01968277 0.13019294 0.00496978 0.0007785425
0001e0 6f 0d c6 3d b1 d3 28 be c2 ee 17 bc 70 53 02 3d
       0.09670531 -0.16487004 -0.009273233 0.031817853
0001f0 d9 39 2e bd c3 dd 46 3d c4 57 ef 3d 93 86 23 bd
       -0.042535637 0.048551332 0.11686662 -0.03992326
000200 dd f6 b2 3d 0e 08 ac 3d 53 0b 1d bc 85 94 d8 bd
       0.08738492 0.08399974 -0.009585219 -0.10575203
000210 7d 63 df 3b aa 9d 17 3e 8a 35 38 bd 22 ee 21 3d
       0.00681728 0.14806238 -0.044972934 0.03953374
000220 7a 39 8d 3d 17 85 5f 3d 02 96 8b 3d 6b 8c f6 bd
       0.068957284 0.054570284 0.06815721 -0.12038501
000230 ad 68 bc 3d 50 fc c5 3c b3 61 1a bd b3 bb a6 bb
       0.09199653 0.024168164 -0.03769083 -0.0050882935
000240 a9 f9 60 3d f2 33 1b 3d 40 85 03 be b8 ca b2 3c
       0.054925594 0.037891336 -0.128438 0.02182518
000250 00 aa e3 bd 11 92 78 3c 12 49 af 3c 5f bf 1f ba
       -0.11116409 0.015171544 0.021397147 -0.0006093885
000260 36 12 e3 3d e5 ea 53 bb 79 6d 86 bd bd 3e ba bd
       0.11087458 -0.0032336053 -0.06563849 -0.09093998
000270 f0 11 60 3d 4f ad 20 be e5 f6 bd bd b9 aa 1c be
       0.054704607 -0.15691112 -0.09275607 -0.152995
000280 e9 e9 fd 3c ea 3e 67 3d 81 75 e3 bc 3a b8 6f bd
       0.030995326 0.056456484 -0.027765991 -0.0585253
000290 14 b2 cb 3c 8b 69 8a bd a2 d1 8f bc e8 72 3f 3d
       0.024865188 -0.06758412 -0.017556015 0.046740443
0002a0 03 6f a5 bb ef b8 e8 bd 08 36 7f 3c a2 b3 06 bc
       -0.005048634 -0.11363398 0.015576847 -0.008221539
0002b0 a3 27 d4 3d 20 f8 62 bd 84 82 2a 3c b3 1d a8 3b
       0.103591226 -0.05541241 0.010407094 0.0051304935
0002c0 49 9d c5 3d 26 9f 42 bc 5b 07 9c 3d ae eb 30 bd
       0.096491404 -0.011878764 0.076185904 -0.04319351
0002d0 9e d5 3c bd 2c 2f d8 bd 8b 67 e0 bd 9b 94 0e 3c
       -0.04610216 -0.10555872 -0.10957249 0.0087024225
0002e0 4e b8 f9 bd 6a 63 8e 3d 61 96 8e 3d 51 ed f4 bd
       -0.121933565 0.069525555 0.06962276 -0.11959327
0002f0 da 24 95 bd 8e 18 bd bd 0b 31 11 bd 64 35 69 3d
       -0.072824195 -0.09233199 -0.03544716 0.056935683
000300 5f 31 85 bd b2 fc bc bd 4d aa 76 bd 1f 63 f1 bc
       -0.065035574 -0.09227885 -0.060221005 -0.02946621
000310 d4 90 b2 3c 7c 5b 84 bc a6 35 5d bc 21 83 96 3d
       0.021797575 -0.016156904 -0.01350156 0.073492296
000320 a9 d6 e8 3b 71 4d 7c bc 32 ef 76 bd 96 ea 58 3d
       0.0071056676 -0.015399323 -0.06028671 0.052958094
000330 91 f9 1f bd eb 13 b6 3c 06 5e ec bc e7 6e 20 3d
       -0.039056364 0.022226295 -0.028853428 0.039168265
000340 51 d2 48 bd 2d be 97 3d 91 b5 1e 3e 2f d5 f7 3d
       -0.0490287 0.0740932 0.1549895 0.121012084
000350 04 3d 06 3d 54 c7 27 bd c0 e1 82 3d f1 3f ba 3d
       0.032773033 -0.04096158 0.06390715 0.09094227
000360 7c 8d 01 be 9d c6 78 bd d4 b6 3e bd ec 63 97 bd
       -0.12651628 -0.060736287 -0.046561077 -0.073921055
000370 32 3b ad bd 8e 1a b0 3d f2 b4 17 3c a3 64 a7 bc
       -0.08458556 0.08598815 0.009259449 -0.02043373
000380 06 c9 08 3d ae 9b 0c bd a9 e8 29 3c 49 3b 46 3d
       0.033394836 -0.034328155 0.010370412 0.048396382
000390 9a 58 c9 3c 5c 5b eb bd 04 68 e7 bc ed f4 35 3e
       0.024578381 -0.11492035 -0.02824784 0.17769213
0003a0 0f bf 64 3b 72 51 35 bd c1 d6 04 3e c6 94 77 3d
       0.003490392 -0.044267125 0.12972547 0.060444616
0003b0 fe a0 3a bd 91 dd 0a 3e 36 84 27 bc e3 00 19 be
       -0.04556369 0.13561083 -0.010224393 -0.14941745
0003c0 3c 97 91 3c 4b d0 ca 3d 11 fc 73 3b a7 2f 78 bc
       0.01777231 0.0990301 0.00372291 -0.01514808
0003d0 b5 fe f9 bd c9 e5 1a 3d cc fd 92 3c 16 a7 00 3d
       -0.12206785 0.037816796 0.017943285 0.031409346
0003e0 c1 5a 02 3e d2 74 c2 3b d1 69 90 3d b0 0a 83 bc
       0.12729932 0.005934336 0.07051433 -0.015996307
0003f0 75 d8 c9 bc 56 bb 89 bd 73 cb 8a 3d e3 c9 db bd
       -0.024639348 -0.067251846 0.06777086 -0.10731866

fc1.bias f4 [736]
000000 1b 80 41 bd 9b 3a 43 3e 83 51 31 3e ac 42 52 3c
       -0.04724131 0.19065325 0.1731625 0.012833279
000010 d2 72 04 3e 48 df b2 3c f1 a0 1d bd 15 99 af 3d
       0.12934425 0.021834984 -0.038483564 0.0857412
000020 f9 db d0 3c 08 e5 3c 3d f9 de 0f aa 36 fa d7 3d
       0.025495516 0.04611686 -1.277831e-13 0.10545771
000030 79 e1 f0 3c 53 73 d8 3d 65 62 07 3e d5 98 cd 3c
       0.029404389 0.10568871 0.13221128 0.02509729
000040 96 2a e9 3d 97 db be 3b 3a cb d9 3d f1 71 11 3e
       0.11385076 0.005824517 0.106344655 0.14203621
000050 a2 e0 e5 3d ae ec f4 bc f7 75 55 3e 58 2d ed 3d
       0.11224486 -0.029898014 0.20845781 0.11580914
000060 fd b3 10 3e c4 87 50 3d c9 2d fc 3d 29 8a 3d 3e
       0.1413116 0.050910726 0.1231342 0.18509735
000070 88 d5 f8 3d 0d 77 a6 3d a1 99 2f 3e 95 f2 f1 3d
       0.12150103 0.08128176 0.17148449 0.11813847
000080 94 50 27 3e fb 72 7f 3e 60 52 43 3e 86 0c 31 3e
       0.16339332 0.24946205 0.19074392 0.17289934
000090 57 94 27 3d 1d 90 fd 3d c6 80 32 3e 1f 42 87 b4
       0.040912952 0.12381003 0.17431936 -2.519382e-07
0000a0 57 75 97 3d 82 7e 40 3e 32 fe 5b 3d 93 6f 52 3e
       0.07395428 0.18798259 0.053709216 0.20550375
0000b0 5a 73 cc 3d 58 ec d9 3d 2a 1c a5 3c 58 11 8e 3d
       0.09982939 0.10640782 0.020155031 0.06936902
0000c0 11 ce 2d 3e 5d 80 9a 3c 7e 4a 94 3d 0a e7 0e 3d
       0.1697314 0.018860037 0.07240771 0.034888305
0000d0 0a 5c a1 3a 93 52 96 ba f8 3d 39 3e 3c 94 a1 3d
       0.0012310755 -0.0011468701 0.18090045 0.078896016
0000e0 b9 47 5a a3 b8 ef c4 3d 81 a5 71 3b d3 9b 04 3c
       -1.18329915e-17 0.09616035 0.003687233 0.008093792
0000f0 65 ed aa 3d 35 01 6c b9 86 6c 88 3d 96 99 51 3d
       0.08346061 -0.00022507164 0.06661324 0.05117186
000100 5b 8d 90 3d d0 0c ed 3c 7f fd f8 3d 72 09 64 ba
       0.070582114 0.028936774 0.121577255 -0.0008698917
000110 79 62 11 bd d3 39 41 bb 9c 7f ae ba ef 12 0d bc
       -0.0354943 -0.0029483929 -0.0013313177 -0.008610471
000120 f4 5a c3 3d 1a 74 96 b8 25 fd 4f 3d 94 a3 3d bc
       0.09538832 -7.174183e-05 0.050778527 -0.011574645
000130 ae b0 3c b9 92 69 b1 bc 2f 01 fd 3a 12 0d d8 bb
       -0.00017994895 -0.021656785 0.0019302721 -0.006593355
000140 45 ea 02 3e f3 4b 55 bb c1 b3 c6 bb f6 cc 5f a7
       0.12784679 -0.003254649 -0.006063909 -3.1058576e-15
000150 f5 4f 74 bb cb f9 6b 3d f8 a4 d2 bb 7f cc 83 3a
       -0.0037279103 0.057611268 -0.006428357 0.0010055451
000160 72 66 52 3e 57 04 07 3e 11 4f cb b9 68 9a f1 3d
       0.20546892 0.1318525 -0.00038778086 0.11797029
000170 1a ee e0 3d 95 78 ef bc d0 2f e9 bc 2e 08 2f 3c
       0.10982914 -0.029232303 -0.028465182 0.0106831025
000180 00 8e 82 bd 60 ba 5e bc 05 1f 32 b9 8a a2 95 3c
       -0.063747406 -0.01359424 -0.00016986959 0.018265981
000190 49 8e 45 bb 95 6b 56 bd c3 6d c7 b9 66 f9 59 bd
       -0.0030144623 -0.052348692 -0.00038038017 -0.05321636
0001a0 06 b7 08 3d 01 b1 56 39 d2 be 35 3e e9 81 61 3d
       0.03337767 0.0002047457 0.17748573 0.055055533
0001b0 a5 61 02 3c 09 f9 de bd be 2e 6e bd c9 ec 1c bd
       0.007957851 -0.108873434 -0.058150046 -0.038311753
0001c0 d8 00 6b b9 fe c2 39 3d a3 14 3c 3e e8 d3 e6 3b
       -0.00022411661 0.045351975 0.18367247 0.007044304
0001d0 ff 29 21 bd 10 e6 87 3d 77 7e 58 3b 8e cb d7 3d
       -0.03934669 0.06635678 0.0033034363 0.10536872
0001e0 6b 97 14 3e ff 51 db 3d 2e 4d c8 3d d3 5a 5f 3d
       0.14510886 0.10708999 0.09780346 0.054529976
0001f0 07 2f f4 3b a8 1d c0 3c cb 80 dd bc c2 b7 05 3d
       0.007451895 0.023451641 -0.027038952 0.03264595
000200 3b f5 ac 3d 66 4d 1a 3e 4f 5c 91 3d fc d3 48 3d
       0.084452115 0.15068588 0.070976846 0.04903029
000210 34 bb 42 bc 2c f0 e4 3c e0 c9 81 3d a2 52 bf 3d
       -0.011885453 0.027946554 0.06337333 0.09341933
000220 f6 a3 ef 3d e7 5c 0d bd d5 ad d1 3d 15 fd e4 bd
       0.11701195 -0.034512427 0.10238234 -0.11181084
000230 53 b7 ca 3d 50 78 99 bc d8 5d 79 ba 7f 59 93 3d
       0.098982476 -0.018734127 -0.000951258 0.071948044
000240 b6 00 bd 3d 47 79 a0 3d 71 a4 13 3e 1e f4 16 3d
       0.09228651 0.07835632 0.14418198 0.036853902
000250 3d a9 c8 3d ef 6a c8 bc 1c 95 c7 3c ed b6 0d 3e
       0.09797905 -0.024465052 0.024363093 0.13839312
000260 d9 25 10 bd 4c da e5 bb da c8 06 3e 2f 04 17 3e
       -0.035192344 -0.0070145484 0.13162556 0.1474769
000270 3b a2 2b bd 43 32 48 3c 58 e3 24 3e d1 7a 48 3d
       -0.041902762 0.012219015 0.1610235 0.04894525
000280 34 65 1f 3e bc 9f 02 bd c3 de c5 3c 03 45 aa 3d
       0.1556595 -0.031890616 0.024154073 0.08313944
000290 29 d2 c7 3d fb fe 78 3e ee 40 72 3e a5 e3 5f 3e
       0.09756882 0.24316017 0.23657581 0.21864183
0002a0 e2 83 19 3e a9 86 9e 3d c3 40 11 3e 3e 0c 61 3e
       0.14991716 0.07740528 0.14184861 0.21977326
0002b0 6b 48 a9 bd 0c 0f 70 3d d7 19 a4 3d db ab 1f 3e
       -0.08265766 0.0586081 0.08012741 0.15592901
0002c0 f4 9d 49 3e 83 4c 6a 3b 46 ae 09 3e c0 85 45 bc
       0.1968916 0.003575117 0.13445386 -0.012055814
0002d0 9c ae c1 3d 04 42 19 bd 84 7f 3a 3d 57 e2 3a 3e
       0.09457132 -0.037416473 0.045531765 0.18250404
0002e0 71 17 08 3e 07 36 36 3e 0a 46 fd 3d 81 11 4e 3e
       0.13290192 0.17794047 0.123668745 0.20123865
0002f0 3a 00 20 3e b7 98 87 3e b0 87 50 ba d5 59 a9 3d
       0.15625086 0.264837 -0.00079547893 0.08269087
000300 d7 18 52 bc 5c 3e c9 3d 38 6d 43 3e 14 d5 5b 3d
       -0.012823305 0.09826347 0.19084632 0.053670004
000310 64 7f 92 bb f7 47 d4 3d a8 7a 5d 3e 8b 49 5a 3d
       -0.0044707526 0.10365289 0.21628821 0.053292792
000320 b1 22 ea 3d b1 8d 28 3a 0a cc 2f 3e c0 76 0f 3b
       0.11432398 0.0006429805 0.17167678 0.002189085
000330 20 86 28 3e 6a e3 a6 3d b3 96 33 3e c4 5c be 3d
       0.16457415 0.081488445 0.17537956 0.092950374
000340 e2 33 0c bc fb 43 db 3d bc d3 7f bd 61 0f 98 3d
       -0.008557292 0.107063256 -0.062457785 0.07424808
000350 68 d2 49 bb 44 21 f9 bd 4d 05 bf bd e8 54 88 bb
       -0.0030795578 -0.12164548 -0.09327183 -0.0041605122
000360 c9 c6 ee 3b d1 95 d0 3d 00 8a b7 3c 30 74 5f 3d
       0.0072868806 0.10184825 0.02240467 0.054554164
000370 7a 0f 9a 3d 80 0f d2 3b 4a 06 2f 3d 2d 96 f5 bd
       0.07522483 0.006410539 0.042730607 -0.119915344
000380 5b 78 ae 3c a5 90 2d bd b2 1c ea bd 18 d1 98 bc
       0.021297624 -0.042374272 -0.114312544 -0.018654391
000390 f9 0d 15 bb f2 d3 4c a4 9d 78 db bc 45 51 07 3e
       -0.0022743924 -4.4414973e-17 -0.026790911 0.13214596
0003a0 2a 2e 6c 3d f0 d3 31 3e 0d 12 3c bc 42 3a 26 bc
       0.057661213 0.17366004 -0.011478913 -0.010145726
0003b0 82 80 13 bb 5d 35 27 3d b6 24 75 b9 71 a2 23 3d
       -0.0022507017 0.040822376 -0.00023378697 0.039949838
0003c0 85 9e bf 3d 7d 00 9d 3d 25 24 b1 3d e2 12 90 bc
       0.09356407 0.07666109 0.08649472 -0.017587129
0003d0 bb ec fd 3d f5 9b 96 3d 8d 89 0c 3e 47 4c fd 3d
       0.123986684 0.07353965 0.13724346 0.123680644
0003e0 26 0c 33 3e 1f d8 e0 3d e4 c3 d6 b9 43 59 1d bb
       0.17485103 0.10978722 -0.0004096321 -0.0024009503
0003f0 11 21 08 3e a8 a0 80 3c a3 68 3a 3e a6 e5 15 3e
       0.13293864 0.015701607 0.18203978 0.14638385

deconv1.weight f4 [32, 16, 5, 5]
000000 bd 9a 07 be 65 cc a0 bd c7 2f 68 bd 69 4a a5 3c
       -0.13242622 -0.07851485 -0.05668619 0.020177083
000010 bd ad 5d bc a2 1a cc bd 51 72 76 bd d8 23 a7 bd
       -0.013530192 -0.09966017 -0.060167614 -0.081611335
000020 f0 87 15 bd 47 17 a4 bc ca 95 d4 bb c5 1e 15 3d
       -0.036506593 -0.02003063 -0.006487583 0.036406297
000030 28 4a 48 3d dc 49 48 3d cb 73 93 3b 7c 3b 81 bd
       0.048898846 0.048898563 0.0044998876 -0.06310174
000040 65 10 2a bb 42 c2 07 bc fe c7 24 3d 3b 79 9b bd
       -0.0025949713 -0.008286061 0.04022979 -0.07591482
000050 05 60 8c bd be 51 bf 3c 52 0a bb bd 62 a8 39 3d
       -0.06854252 0.023354407 -0.09132828 0.045326598
000060 a1 ac 80 bd 68 65 16 bb 63 2f 75 3c 9f 67 45 3d
       -0.06282926 -0.0022948626 0.014964911 0.048194524
000070 9e be 84 3c 4c a6 8b 3d d6 32 13 3c 14 62 31 3b
       0.016204175 0.06818828 0.008984288 0.0027066516
000080 fb 73 53 bb 44 8b 6a bc 0f 67 21 bd 9b 34 6c bc
       -0.0032265175 -0.01431543 -0.039404925 -0.014416839
000090 c5 d0 95 bc fb 63 1d 3d 5c ce 14 bd c5 06 2e 3d
       -0.018288026 0.038425427 -0.036329612 0.042486925
0000a0 bd 6a 72 3b 33 0c 40 bd cb 7c 4e bc fc 20 2e bd
       0.003698989 -0.046886634 -0.012602995 -0.042511925
0000b0 0c ea 84 bb f5 65 82 3a fa 62 2a bd bc f2 bf bd
       -0.004056221 0.0009948598 -0.041598298 -0.0937247
0000c0 c3 f5 bc bd 94 73 b5 bd 1f a5 e4 bc ba 28 e5 bd
       -0.09226563 -0.088599354 -0.027910767 -0.111894086
0000d0 2a 5e 10 be 16 22 0a be d0 3f 92 bd ad bf 65 3c
       -0.1409842 -0.13489565 -0.071410775 0.01402275
0000e0 e3 f6 09 bd 61 61 ed bc ab 98 70 3d e2 bf 9d bb
       -0.033682715 -0.028977098 0.058739346 -0.004814134
0000f0 58 a1 fd bc 3a 70 0e be 23 d9 81 bd 34 0d 46 be
       -0.030960724 -0.13909999 -0.06340244 -0.19340974
000100 27 2b ad bd 50 21 1a bd d9 fa 4f bd 58 54 5d bd
       -0.08455496 -0.037629426 -0.050776336 -0.054035515
000110 c2 03 ba bd fd 92 24 bd 63 12 11 3c 07 45 f7 bc
       -0.09082748 -0.04017924 0.008854481 -0.030184282
000120 c1 e7 81 bc 0a 05 93 bd ca e9 b3 bd 91 a5 f8 bd
       -0.01585758 -0.071786955 -0.08784826 -0.12140954
000130 14 90 08 3d 21 1c b5 bd 33 33 99 bd af 8d ea bd
       0.03334053 -0.08843256 -0.074804686 -0.11452805
000140 a2 67 77 bd 13 ec 0d 3d cd 8d f9 bd f3 7f 96 3b
       -0.060401566 0.034648966 -0.121852495 0.0045928895
000150 37 12 03 be 36 58 36 bd 00 46 ef 3c 6c 91 b1 bd
       -0.12799917 -0.04451772 0.029208183 -0.08670315
000160 4e 1f 77 3b 9d 8e 96 bd de f6 25 bc 31 e5 a9 bc
       0.0037707868 -0.0735142 -0.0101296585 -0.02073917
000170 30 43 b7 bc a3 ac 2f bd 8c 19 87 bc 47 83 96 bd
       -0.022370905 -0.04288925 -0.016491674 -0.07349258
000180 5a 1d 8e 3d ac 7f d5 bd 4c 4b af 3c 37 39 65 bd
       0.06939192 -0.10424742 0.021398209 -0.055962767
000190 9c 29 ef bc d9 27 51 bd 23 06 ae bd 9a b1 09 be
       -0.029194646 -0.051063392 -0.08497264 -0.13446656
0001a0 12 dd 9e bd 4c d6 15 3b 4d 2f 8e bc 64 de 8c bd
       -0.077570096 0.0022863327 -0.01735654 -0.06878355
0001b0 6b ea 31 bd 47 cd 67 bd ca 3c b2 bd f8 1f 99 bd
       -0.04343645 -0.056592252 -0.08703001 -0.07476801
0001c0 33 1a a3 bd 6d 37 ad bd 82 4e b4 bd cc f3 21 bc
       -0.079639815 -0.08457837 -0.08804037 -0.009884786
0001d0 3d e5 e5 ba ea b0 b3 bd 58 95 ad bd 97 95 a8 bd
       -0.0017539632 -0.08773978 -0.08475751 -0.08231657
0001e0 6a 77 6d bc 64 7b d6 bc c8 bf c2 bc 75 19 d0 bd
       -0.014493803 -0.026181884 -0.023773089 -0.101611055
0001f0 7c 8c a9 bd e0 3c 81 3d 6f 80 dd bc 2d f6 c1 3d
       -0.082787484 0.06310439 -0.027038781 0.094707824
000200 e1 d8 ab 3d 5a f5 ab 3d fa ec d8 bc 82 e0 9e 3b
       0.08390976 0.083964065 -0.026480187 0.0048485408
000210 2d d3 3b 3d 07 6b ad 3b c4 91 92 bc 0d 0a 61 bc
       0.04585569 0.0052922997 -0.017891772 -0.013735306
000220 21 07 1b 3a 67 6c 44 3d 6f e5 88 bc 4f e4 43 bc
       0.0005913843 0.047954943 -0.016710965 -0.0119562885
000230 23 9a 48 3d f0 05 49 3d 33 70 b4 3c 88 82 dc 3c
       0.04897512 0.049077928 0.022026157 0.02691771
000240 56 f0 42 3b 31 81 73 bc 07 5b bc bc 7a 66 d7 bc
       0.0029745302 -0.014862345 -0.022992624 -0.026293982
000250 1e b0 0a ba c8 c7 ad 3c 46 98 2a bb 8a ba 3f 3d
       -0.0005290526 0.021213427 -0.0026030703 0.046808757
000260 3f 1d 6d 3d 4b 20 b2 3d 50 37 98 3d 7b b8 de bc
       0.05788922 0.08697566 0.07432425 -0.027187577
000270 bf df b8 3b 54 c5 91 bd 14 e6 b6 bb d9 f5 31 3c
       0.005641907 -0.071177155 -0.0055816267 0.010861837
000280 a0 31 bc bb 4c b5 f4 bc ab 6b 90 3c 8c 5a 19 bd
       -0.0057432204 -0.029871605 0.017629465 -0.037439868
000290 6b 5a b0 3c 0a 14 46 bd a5 24 9a bc f6 c0 05 bd
       0.02152749 -0.048358954 -0.018816302 -0.032654725
0002a0 18 78 b3 3c fc cc 07 bc 56 ac 35 bd d8 7f 2b bd
       0.021907851 -0.008288618 -0.044353805 -0.04186997
0002b0 ef 01 c4 bd 98 90 14 be 1f 63 9e bd 93 70 37 3d
       -0.09570681 -0.14508283 -0.077337496 0.044785094
0002c0 e0 d6 b8 3d b4 57 dc 3c a2 eb 9c 3d e9 60 bb 3c
       0.09025359 0.026897289 0.07662131 0.022873359
0002d0 25 02 e2 bb 87 ea a7 3c 54 68 50 bc 13 82 06 bd
       -0.0068972283 0.020497574 -0.012720186 -0.032838892
0002e0 a1 23 49 3b 03 29 ef 3b e4 d7 98 3d e4 c0 b2 bc
       0.0030691402 0.00729859 0.07463053 -0.021820493
0002f0 47 82 98 3d f1 fb 4b bc 04 31 4f 3d 10 b2 0f 3d
       0.074467234 -0.012450204 0.050583854 0.035081923
000300 fd a7 33 3d b9 02 22 3b 75 64 fd 3c 89 cc 28 3c
       0.043861378 0.002472086 0.03093169 0.010302671
000310 ea ca f3 bc b5 11 84 bd 74 22 90 bd 3e 0c 9c bd
       -0.029759843 -0.0644869 -0.070378214 -0.076195225
000320 b4 d1 2d 3b 07 d8 b6 3d d0 40 fc 3d 87 ea 67 3d
       0.0026522698 0.08927923 0.123170495 0.056620147
000330 c6 6b 05 bc 20 4a 8e bd 6c e9 68 bc 99 23 31 3c
       -0.008143371 -0.06947732 -0.014215808 0.01081171
000340 2c ad a1 3c 5b ad c9 3c 78 f5 23 3d 78 1b 0e bc
       0.019735895 0.024618795 0.04002902 -0.008673541
000350 15 e9 44 bd 80 d6 df bc e8 cc d7 bc 38 c1 3f bc
       -0.048073847 -0.027323961 -0.026342824 -0.011703782
000360 c8 e1 88 3d 3e ba 92 bc 7e 40 ce bc 7a 84 16 bc
       0.06683689 -0.017911073 -0.025177237 -0.009186858
000370 22 0c 2a 3d 36 3a 6d 3d 2d e9 02 3c 4a 32 65 bd
       0.041515477 0.057916842 0.007990164 -0.055956163
000380 78 a6 5b bd 84 87 85 3c c5 d9 1a 3d e7 4a 5d bb
       -0.053625554 0.01629997 0.037805337 -0.003376657
000390 ce 37 a5 bd 79 d3 07 bd 7e 6d 4b 3d 6c 1e 27 3b
       -0.080672845 -0.03316066 0.049664967 0.002550031
0003a0 e4 fb 6d 3d dd ae 86 bb 4f fb 71 3c f8 72 25 bd
       0.05810155 -0.004110201 0.014769389 -0.040392846
0003b0 61 2d 21 3c ae 4a 92 3d 95 9f 84 3b 94 4d d4 3d
       0.009837479 0.0714315 0.004047344 0.10366359
0003c0 1c f8 3b b9 f5 73 b3 bd e8 d4 50 bd 72 a3 57 bc
       -0.00017926138 -0.087623514 -0.050984293 -0.013161527
0003d0 f6 c0 98 bc 49 74 19 bc 2b 08 9c 3d 32 23 a4 bc
       -0.018646698 -0.009366103 0.076187454 -0.020036314
0003e0 99 01 2a 3e 4c ac 35 bc 9d d5 9d 3c 40 af 20 bd
       0.16602172 -0.011088442 0.019266898 -0.03922963
0003f0 ae 08 55 3d 0d db 83 bd 34 78 c5 3c 9b ea ad 3d
       0.05201023 -0.06438265 0.024105169 0.08492013

deconv1.bias f4 [16]
000000 d0 df d7 b8 12 e1 11 b9 24 79 75 39 d0 72 02 39
       -0.00010293687 -0.00013912123 0.00023410149 0.00012440537
000010 04 55 bd 38 ce 1d 13 39 b0 4c 89 b8 35 3e 06 39
       9.028058e-05 0.00014030116 -6.546953e-05 0.0001280241
000020 90 7e 57 b8 1f 38 80 b9 10 ec b7 37 f7 a3 dc 38
       -5.1377865e-05 -0.00024455876 2.1925225e-05 0.00010520958
000030 c1 a2 20 b9 64 f9 8b 38 df 66 91 38 10 d7 e4 38
       -0.0001531942 6.674489e-05 6.9333e-05 0.00010911946

bn1.weight f4 [16]
000000 ff 1b 84 3f 2d 0f 84 3f 41 41 86 3f 73 67 78 3f
       1.0321044 1.0317131 1.0488664 0.9703285
000010 fe b3 89 3f b2 6b 62 3f 22 71 7b 3f eb 30 84 3f
       1.0758054 0.8844558 0.982195 1.0327429
000020 6b e8 82 3f ab 5d 78 3f e3 39 81 3f 5e 26 78 3f
       1.0227178 0.97017926 1.0095791 0.96933544
000030 05 62 6a 3f 3e 17 84 3f d9 0f 74 3f 7f a0 72 3f
       0.91555816 1.0319593 0.9533668 0.9477615

bn1.bias f4 [16]
000000 23 f3 ae 3d dd 6d 41 bd 99 c0 8f bd cc b2 5d bc
       0.085424684 -0.047223914 -0.07019157 -0.013531398
000010 29 2b 55 3c 1f 2b 69 be f5 50 cd bb 64 64 19 3d
       0.013010778 -0.22770356 -0.0062657543 0.037449256
000020 54 59 8b 3c 1b 28 83 bd 9a c0 24 bd ec 1a 41 3b
       0.017010368 -0.06404134 -0.04022274 0.002946551
000030 96 a7 b9 bd e6 95 a6 3d d8 7f c9 be e4 62 c7 bb
       -0.090651676 0.081340596 -0.3935535 -0.0060847867

bn1.running_mean f4 [16]
000000 3b fe fd bf e6 9e ed be 5a c5 18 c0 79 b7 7b bf
       -1.984321 -0.46410292 -2.3870454 -0.9832683
000010 ed ac 1c c0 2e a8 13 3e dc 6c 32 3c 96 9f 2e bf
       -2.4480546 0.14419624 0.010890212 -0.6821226
000020 ee df 24 3f 95 8e 38 bf 38 2a 83 bf c2 cc b7 bf
       0.6440419 -0.7209256 -1.0247259 -1.4359362
000030 08 75 36 bf aa 2e 95 bf 56 a4 fb bd 37 cf 6a bf
       -0.71272326 -1.1654866 -0.12287204 -0.91722435

bn1.running_var f4 [16]
000000 da 9e a6 40 9c f8 49 40 5f b8 09 40 c6 01 4a 40
       5.206891 3.155799 2.151878 3.1563582
000010 a6 28 c6 40 05 69 19 3f c9 a1 66 40 61 69 89 40
       6.192462 0.5992587 3.6036246 4.2941136
000020 9f d5 c8 3f d8 78 10 40 48 d8 2d 40 12 6f 97 40
       1.5690192 2.2573757 2.7163258 4.7323084
000030 25 d8 b1 3f c1 51 d5 3f ee e9 d1 3e 14 0e 8e 40
       1.3894087 1.6665574 0.40998787 4.4392185

deconv2.weight f4 [16, 8, 5, 5]
000000 a7 60 a5 bc 06 1f 01 3d 47 5a f9 bc d6 39 45 bd
       -0.020187689 0.031523727 -0.030438555 -0.04815086
000010 0c 79 02 bc 61 79 f4 3c f0 15 aa 3d 0a 8f ae bd
       -0.00796343 0.029843034 0.083049655 -0.08523376
000020 61 80 6d be be 92 57 bd 7e 28 28 bd 0a 67 55 bc
       -0.23193504 -0.05263018 -0.04105424 -0.013025055
000030 30 7d 8f 3b f5 6e 57 bd 74 e7 98 bc 05 d1 a4 bc
       0.004378937 -0.05259605 -0.018665053 -0.0201192
000040 35 3a 68 bd 66 25 17 be 7b dc be bd d0 74 35 bd
       -0.056696136 -0.1476036 -0.09319397 -0.044300854
000050 36 7e cf b9 55 76 55 3d 21 67 97 bd 82 c1 0b bd
       -0.0003957615 0.052114803 -0.07392717 -0.03412009
000060 77 e5 0b 3d 4b 30 95 3d 4d 27 f2 3d db 55 9e 3d
       0.03415438 0.07284602 0.11823902 0.077312194
000070 30 6f 2c 3d fd ea 80 3d c6 f1 80 bd 68 73 81 3c
       0.042098224 0.062948205 -0.062961146 0.0158021
000080 50 29 00 bd a2 f4 13 bc f0 1c 83 bc 6d 54 0e bc
       -0.0312894 -0.009030493 -0.01600501 -0.008687121
000090 65 94 9b bd 1c 10 08 bb c1 79 16 be 46 84 67 bd
       -0.075966634 -0.0020761555 -0.14694883 -0.05652263
0000a0 db dc 10 bc fc fd 66 bd e8 e8 b3 bd e4 79 cc bd
       -0.008841719 -0.056394562 -0.08784658 -0.09984186
0000b0 36 ba d5 3b 94 30 70 bd 87 0d ae bd fc 20 a6 bd
       0.006522442 -0.058640078 -0.08498674 -0.0811176
0000c0 84 56 25 be 8f b7 59 bd 68 5e 0f bd 94 d7 d8 3c
       -0.16146284 -0.05315357 -0.035002142 0.026469983
0000d0 cf be 92 bd b8 e5 c9 bd 06 ba fe 3c ab 9b b1 3c
       -0.071653 -0.098582685 0.031094562 0.021680674
0000e0 af 93 e3 bb c4 5c 0c be 8d 7d 96 bd 70 8a f6 bc
       -0.0069450955 -0.13707262 -0.07348166 -0.030095309
0000f0 1f 55 45 3c 5f 62 0f 3b 86 75 3f bd 3d 62 f3 3c
       0.01204422 0.0021878702 -0.04674294 0.02970993
000100 01 ce 92 3d d1 60 4a 3d 50 a6 d1 bd 56 ff 04 be
       0.071681984 0.049408738 -0.102368 -0.12988028
000110 0b 7d d1 bc e3 c4 00 be 0c 47 ae bb a5 7b d5 bc
       -0.02557232 -0.12575106 -0.005318528 -0.026059935
000120 93 68 9e bd 8b ee cb bd 80 df 68 bd 47 10 77 3d
       -0.0773479 -0.09957608 -0.05685377 0.060318258
000130 98 cf 99 bb 6d 84 23 bd 39 dd 14 be 1f 6a b6 3c
       -0.0046939366 -0.039921213 -0.14537515 0.0222674
000140 04 f7 4a 3d 79 44 6e bc 74 5a 8b bd d2 e9 ae bd
       0.04955198 -0.014542692 -0.06804362 -0.085406914
000150 3d 70 ea bc 07 bb b4 3c 4f da 8b bd 85 3b 56 bc
       -0.028617973 0.022061838 -0.068287484 -0.013075714
000160 6a 39 5b bd 84 7c 55 bc 7d 14 49 bd 5d b4 14 be
       -0.05352155 -0.013030175 -0.049091805 -0.14521928
000170 99 67 2b be 0f 71 e3 bd f0 8e 39 3c 7e 18 69 bd
       -0.16738738 -0.111055486 0.011325583 -0.056908123
000180 eb c1 22 bd 59 11 0b be e5 13 0c 3c d0 bb e1 bd
       -0.039735716 -0.13580836 0.008549665 -0.110221505
000190 3e b8 bc bc db 68 50 3d 85 00 e9 3c 7f 4e 26 3d
       -0.023037072 0.050881248 0.02844263 0.040602203
0001a0 d9 d4 f0 3d 7f b6 15 3c 14 68 5d bd c6 a4 8b bd
       0.117593475 0.009137749 -0.054054335 -0.068185374
0001b0 1b df fd bd 7f 25 81 bd 4b 23 c6 3c 23 68 9e bd
       -0.123960696 -0.0630598 0.02418675 -0.07734706
0001c0 9e c4 57 bc 2a 10 64 bc 82 4b 47 bd e4 49 07 be
       -0.013169436 -0.013919869 -0.048655994 -0.13211781
0001d0 5c 3b fa bd 70 23 cf bd 0a 1b 43 bd 70 1f b0 bd
       -0.12218353 -0.10114181 -0.04763321 -0.08599746
0001e0 4c 1d d6 bd 95 40 8c bd b6 54 4a be 19 9c 1b be
       -0.10454807 -0.068482555 -0.19758877 -0.15196265
0001f0 c0 76 66 bd 62 10 b8 bc a0 d5 29 bd 1f 36 0d be
       -0.056265593 -0.02246875 -0.041463494 -0.13790177
000200 04 13 14 bd 13 37 b3 bd a8 fc cc 3c 40 b8 5f bd
       -0.036150947 -0.08750739 0.02502282 -0.054619074
000210 2b 13 b4 bd a5 e6 66 be 47 db b8 bd 36 ed f2 ba
       -0.087927185 -0.22548921 -0.09026199 -0.0018533829
000220 92 a0 5b bd f4 e0 a6 bd 0d 8a 0a bd ea c0 34 bd
       -0.05361993 -0.08148375 -0.03382306 -0.04412929
000230 c2 dd 05 bc 09 78 00 bd 74 b4 f1 bd ac cb 21 bd
       -0.008170547 -0.031364474 -0.11801997 -0.039500877
000240 f6 99 bf bd 40 d2 bb 3b 49 5e b6 bd 5e ed 97 bd
       -0.093555376 0.005731851 -0.08904702 -0.07418321
000250 af 8d 97 bd 99 ef 2d bd b4 7a ff bc 33 04 19 bd
       -0.07400071 -0.042464826 -0.03118644 -0.03735752
000260 b6 bc 83 bd 5f 09 02 be fc 11 30 bd 82 08 62 bd
       -0.06432478 -0.12698887 -0.0429859 -0.055183895
000270 b6 2c aa ba b0 2a 99 bd 96 b1 74 bd ae 68 ad bd
       -0.0012983296 -0.07478845 -0.05973967 -0.08467232
000280 fb 87 05 3d ad 24 b6 bd 8a 5d 15 bd 2c 67 be bc
       0.032600384 -0.08893714 -0.03646616 -0.023242556
000290 9b 06 e7 bd 11 c1 aa bc af 0d bb 3b ef 34 5c bd
       -0.11280557 -0.020844014 0.0057084183 -0.05376142
0002a0 60 18 52 bd 9d 4c 29 3d b5 62 00 bd df 78 ba 3c
       -0.051292777 0.04133283 -0.031344134 0.022762714
0002b0 2b dc ce 3c ec 75 0a bd f7 bc c0 3d 37 c1 b3 bc
       0.025251469 -0.033803865 0.09411042 -0.021942718
0002c0 f4 f6 07 3e ae 9a ac bd ef 09 10 be 75 32 53 3b
       0.13277799 -0.0842794 -0.1406629 0.003222612
0002d0 24 b4 00 3b a5 b9 48 3c d9 35 c1 bc a3 f1 9c bd
       0.0019638622 0.012251292 -0.023585247 -0.07663276
0002e0 43 00 c3 bd 8c 5e 53 3d 25 99 63 3c a8 87 e8 3b
       -0.09521534 0.05160384 0.013891493 0.0070962496
0002f0 09 3d 4c bd 40 72 a0 bd d5 74 20 bd 0a 11 25 bc
       -0.049862895 -0.078342915 -0.03917392 -0.010074863
000300 67 1c c3 bd c8 eb 93 3c dd 5c 3f bc 4b 07 00 3d
       -0.09526902 0.018056765 -0.011679855 0.031256955
000310 f4 39 c9 3c 02 6f 1c bc 3d a7 9e 3d d5 8a 73 3d
       0.024563767 -0.009547951 0.07746742 0.059458572
000320 4f fa 52 3b 39 eb 4c bc 9b 24 00 3d 29 cb 63 3d
       0.0032192653 -0.012507253 0.03128491 0.05561367
000330 31 85 89 3d 9a 94 fe 3c 7d ef 6c 3d 2a e5 4b 3d
       0.06714857 0.031076718 0.05784558 0.049779095
000340 87 e3 cd 3d 6b d0 ae 3d fe 17 35 bd 4c 13 50 bd
       0.10053163 0.08535846 -0.044212334 -0.050799653
000350 e3 b5 57 bd 40 c9 b1 3d aa 0e 36 bc 69 42 06 bc
       -0.052663695 0.086809635 -0.011111895 -0.008194544
000360 07 86 16 3d 6b 5f 3d 3d 16 4c d9 bc af 46 31 bd
       0.036748912 0.046233576 -0.026525538 -0.0432803
000370 cb 1e de 3c 9c dc 1a 3e 9e fa 3b bd 93 6f c7 3d
       0.027114293 0.15123218 -0.045893304 0.09738078
000380 bd b3 dc bc 9d 2b ad 3c c9 00 8f 3b 6e 73 d9 3c
       -0.026941175 0.02113896 0.0043641073 0.026544299
000390 5e 52 9b 3d c9 b9 aa 3d 04 53 9e 3b a4 6e 25 3d
       0.0758407 0.08336217 0.0048316736 0.04038872
0003a0 ee d9 ad bb ef 5d 97 3d 41 71 ea 3c 66 d7 b1 bc
       -0.0053055203 0.07390963 0.028618457 -0.021709155
0003b0 61 4f fc 3c 53 df 4f 3d c7 43 67 3b db 4a 07 ba
       0.03079957 0.050750088 0.0035288201 -0.00051609956
0003c0 ed d6 ea 3c 2d df 2a bc 5d e7 90 3c 85 7a e7 3c
       0.028666938 -0.010429186 0.017688448 0.028256664
0003d0 bc 96 09 3b 81 b9 38 bc 5d c8 a4 bc f1 22 db bc
       0.0020994386 -0.011274696 -0.020115072 -0.02675006
0003e0 d3 14 46 3d ab bb f9 3c 79 fd 97 bd 7e 5b 13 3d
       0.048359703 0.030484995 -0.07421393 0.035975926
0003f0 42 89 66 bd 18 d7 24 3c 86 06 6b ba b5 9f 70 3d
       -0.056283243 0.010061048 -0.00089655106 0.05874606

deconv2.bias f4 [8]
000000 83 74 1c b9 30 2e 09 b8 29 df 3c 39 2c 63 0c 39
       -0.00014920723 -3.270636e-05 0.00018012211 0.00013388385
000010 77 1f 84 b9 f7 94 39 38 d4 4f a1 b4 e5 0c b7 39
       -0.00025200445 4.424617e-05 -3.004667e-07 0.00034914087

bn2.weight f4 [8]
000000 2a 64 e1 3f 80 13 d9 3f 8a 79 d2 3f 03 e3 d9 3f
       1.7608693 1.6959076 1.6443341 1.7022403
000010 da 96 d6 3f 2c e9 d8 3f 48 aa c9 3f 97 cf d0 3f
       1.6764786 1.6946158 1.5755091 1.6313351

bn2.bias f4 [8]
000000 d3 9c 40 3f a7 ed 40 3f f7 a3 23 3f f3 89 37 3f
       0.75239295 0.7536263 0.63922065 0.7169487
000010 b3 45 36 3f 1a 4a 2d 3f fa 12 1d 3f 28 48 24 3f
       0.712001 0.67691195 0.6135708 0.641726

bn2.running_mean f4 [8]
000000 7f d0 ad bd 46 37 09 3d 27 f4 47 be a5 99 30 be
       -0.08487033 0.03349998 -0.1952673 -0.1724611
000010 57 c6 6a be be b0 69 be c0 77 a4 3e 31 b5 55 3d
       -0.22927223 -0.22821328 0.32122612 0.05217475

bn2.running_var f4 [8]
000000 46 74 49 3e d7 57 25 3e f3 d0 1e 3e 98 35 26 3e
       0.19673261 0.1614679 0.15509395 0.16231382
000010 2b fb 19 3e 76 9e 9b 3e 76 03 3a 3e 6a 61 12 3e
       0.15037219 0.30394334 0.18165383 0.14294973

deconv3.weight f4 [8, 1, 3, 3]
000000 24 1e 4d bf 86 78 c2 be 03 76 9f be d7 64 23 bf
       -0.80124116 -0.37982577 -0.31144723 -0.63825744
000010 1e e2 ef be a1 74 21 bf 12 14 e4 be 99 6a 25 bf
       -0.468522 -0.63068587 -0.44546562 -0.6461578
000020 8a 90 20 bf a3 69 e4 be 08 cd 46 be 86 4c 54 bf
       -0.6272055 -0.44611844 -0.1941415 -0.82929265
000030 f9 fd 60 bf 1b 88 17 bf 5d 72 6e bf c4 49 e4 be
       -0.8788753 -0.59192055 -0.93143255 -0.4458753
000040 4e c7 0c bd fd 41 5b bd f2 7d 0d bf b4 bf 44 bf
       -0.03436976 -0.05352973 -0.552703 -0.76855016
000050 c9 cb a3 be 59 39 9f be 0e 80 5e bf 0f 47 8e be
       -0.31991413 -0.3109844 -0.86914146 -0.27788588
000060 27 5c 34 bf 1d af 68 bf 54 6d 0b bf 87 c8 4b be
       -0.70453113 -0.908922 -0.54463696 -0.19900714
000070 82 2e 46 bf df f1 4d bf 00 b1 9b 3b e7 46 1c be
       -0.77414715 -0.8044719 0.0047513247 -0.15261422
000080 b1 7a 81 be 74 2d 2b bf 5d b2 32 bf 6f 96 3d bf
       -0.2528892 -0.6686623 -0.6980341 -0.7405767
000090 f8 9d eb be 6a 3e 1c bf 9f 5c 73 bd 6e 8a 5a bf
       -0.46018958 -0.61032736 -0.059414502 -0.85367477
0000a0 90 9d 5a bf fc c1 81 bf c7 56 ba be a5 dd 8b be
       -0.8539667 -1.0137324 -0.3639433 -0.2731754
0000b0 75 0d 50 be d4 15 11 bf 5c 24 85 be 79 f9 9d be
       -0.20317633 -0.5667393 -0.26004303 -0.30854395
0000c0 1d 5a 34 bf 87 3e 50 bf 85 c7 1e bf 71 6c 19 bf
       -0.7045 -0.8134541 -0.6202319 -0.59931093
0000d0 09 26 5b be 56 5b 44 bf 5c e1 99 be 9a d8 47 bf
       -0.21401228 -0.7670187 -0.30054748 -0.7806488
0000e0 05 55 36 bf 7f 29 d2 be fc a0 eb be c0 53 45 bf
       -0.7122348 -0.41047284 -0.4602126 -0.7708092
0000f0 d4 3b 45 bf c9 9c 8b be a2 6a 4d bf ac 10 62 be
       -0.77044415 -0.27268055 -0.80240834 -0.22076672
000100 36 e2 96 be 10 7e af be c1 ab 03 bf fc 4b 38 bf
       -0.2946946 -0.34275866 -0.5143395 -0.7199094
000110 58 a0 3c bf 94 c8 09 bf ac 84 55 bf 27 7c 4b bf
       -0.73682165 -0.5382168 -0.83405566 -0.79486316
