model/Autoencoder/decoder_20d.pt (torch, 132095 bytes, 15 tensors)

fc1.weight f4 [736, 20]
00000000: d378 3d3d 7d56 c53c 74b6 4d3b f372 34be
00000010: b58f 9a3d 36c4 a33d e2b4 ee3d f674 1d3e
00000020: 0ccd bebd 8c4c c2bd 9f02 87bc 1f30 443e
00000030: 2e11 5bbd 4752 f0bc 426c aabd 0e1d dc3d
00000040: a377 903d 6129 8fbd 9ab7 e73d 1fce 8cbd
00000050: ac07 0b3e 4dea e43d 36da 843e e16a 76bc
00000060: d52a ecbc 82cf 67be cba4 063e a92d a8be
00000070: 0b38 e63d 21fd ebbd 5e13 a2bd 8f0b d93d
00000080: 596b af3c 543a 933c ca52 cabd c21d e73d
00000090: dcaf 29be 3d9f a2bd 2bdd e13d 0357 163e
000000a0: f200 41bd 4410 18be c5e4 9d3e 9629 19bc
000000b0: b4d7 b9bd daaa 0ebd ae80 003e 781d e6bd
000000c0: 2827 133c 34fe bfbd d116 9c3b 5283 d7bc
000000d0: 2534 ebbd 49ec 6f3c 1564 7a3d ff6e 4f3d
000000e0: f86f 48bd 9105 daba 0d14 26be 15e6 d7bd
000000f0: d84f b1bd 5c1a f6bd ad6b 90bd 6c80 90bd
00000100: 4ff5 3ebe fb4d 5e3d d582 c63d 5098 853d
00000110: 7fd4 2abe 8d21 19bb 7cf9 a03d 18c4 d53a
00000120: a3ce 2a3e 5667 1fbd 21ec 9cbd adde a33d
00000130: dc49 c23d dd02 1cbd c6d9 493d bbfc c8bd
00000140: 7f94 8abd 16a2 38be 228d 3ebe 37ca f33d
00000150: 77fe b13c ec91 bd3d 80a1 733e 19cd eebd
00000160: 7d36 ac3e 50a2 81be 0645 90bc fb8f 80be
00000170: 25e4 cf3d c690 69bd 7bee 2d3e 5387 6f3d
00000180: e435 a53d 5c7a 243d ff65 4bbe b072 603d
00000190: 8d9c 95bc ed38 903d 2262 94bd e2ee a23a
000001a0: e853 973e 8fde 353e 0642 813e 74d9 5cbd
000001b0: 0b3f 753d be87 01be 2180 023e 829e ba3d
000001c0: 0d74 85bd 3971 2abe 7573 323e 6dc7 89bc
000001d0: c9b2 bbbd 3fd0 c8bd af41 7a3d 3102 88bd
000001e0: 0c7d 15be 2dba ce3d a5f4 c9bd 80b7 9f3b
000001f0: c22a 433e 6795 50be d14b 963c 3ca8 843d
00000200: 559d e63d e128 c4bb 3a63 c13d 6884 563d
00000210: 8495 463d 9390 89be ac2a 0cbe 16ff a53d
00000220: 6fbb fdbd 9050 cb3d bf74 813d 8825 07be
00000230: 7cdc bdbc adb5 d93d 4617 0c3e 397c 4bbe
00000240: 280c babd b5db c3bd 3b75 f0bd 16ac 04bd
00000250: 8d50 47bd 5fec f8bd 35fc 093e dbc1 10bd
00000260: c35c 9ebe 79b9 7b3d 037b e0bd 8a30 9a3d
00000270: bd6b 9abd 7168 c73d f71b d13d a923 103d
00000280: 8d60 783e 76e3 043e 0d07 d83e c32f 97ba
00000290: d271 61bc e894 9c3e 1963 353d c979 173d
000002a0: 7c13 173e abde 19be 885a da3c 1f8b 1e3d
000002b0: 6f31 d43d eb89 853d 1307 1a3d 7bce 7cbe
000002c0: 4773 763d 8ce9 4ebe 533e 183d e4d1 473e
000002d0: 770f 9ebc 049e bb3d 8986 94bd bd05 9e3d
000002e0: 7d25 7cbe 9ef6 b2bd 9d28 ae3d 2796 0ebe
000002f0: 596f 733c ca53 bd3d 5153 833d 7c10 c7bd
00000300: df0b 8c3e 4303 3bbe 3e8f c83d d721 a53d
00000310: ee0a 8bbb 5c42 e93d 630a 5c3e 4ced 933d
00000320: 6324 083f 1969 03be 77fa ae3e cc69 0dbe
00000330: 82d0 3ebd 05d0 453d 251c e0bc 0e36 49bc
00000340: 76b4 c4bd b898 28be af1e 9dbd 3f07 b13e
00000350: 5308 18be 8673 2c3e 7b82 72bb 7eab b4be
00000360: 0763 8d3e e2e5 26bd 5de8 b7bd fa57 6e3c
00000370: e07e c63d a3eb 24bb 19e6 8d3e 29c7 dbbb
00000380: 8b0a 013d ad3f 893e 3a93 d8bc 59fc bbbd
00000390: 9e7f 21bd a2b9 80be 9c6a b0bd 84f7 243d
000003a0: 9cc2 a13c d8ea febd 3fb9 3a3d 8354 a73d
000003b0: bd0d 39be 6950 7f3d 0178 44be 595e 7fbd
000003c0: 3d0f 52be ef8e cb3e 708a 83bc 9718 84bd
000003d0: 9fe0 053e bedb 3f3d 2f2b 4fbd 38bc 8cbd
000003e0: f26b bd3e a1ab f33e a729 463e eed4 393b
000003f0: 73a9 f9bd 4227 56be 8d42 bd3c d20c 703d
0.046257805 0.024089092 0.0031389268 -0.17621975 0.07546941 0.07996409 0.116555944 0.15376648
-0.09316453 -0.094872564 -0.016480742 0.19158982 -0.05348318 -0.029336108 -0.0832143 0.10747729
0.07054069 -0.06990314 0.11314316 -0.06875252 0.13577145 0.11177502 0.25947732 -0.01504013
-0.028829018 -0.22637752 0.13148801 -0.32847336 0.11241158 -0.1152289 -0.0791385 0.10597908
0.021413492 0.017972149 -0.09879072 0.11284973 -0.16570991 -0.079405285 0.110285126 0.1468163
-0.047120042 -0.14849955 0.308386 -0.009348294 -0.09074345 -0.034830905 0.12549087 -0.112360895
0.008981504 -0.09374657 0.004763462 -0.026307736 -0.11484555 0.014643737 0.061130602 0.050642963
-0.048934907 -0.0016633739 -0.16218586 -0.105419315 -0.08657807 -0.120167464 -0.070517875 -0.070557445
-0.18648265 0.054273587 0.09692923 0.06523192 -0.16682623 -0.0023365945 0.07860085 0.0016309051
0.16680388 -0.03891691 -0.076622255 0.080014564 0.09486744 -0.03808867 0.04927995 -0.098138295
-0.06766605 -0.18030581 -0.18608525 0.11903804 0.021727784 0.09256348 0.23792076 -0.11660213
0.3363532 -0.25319147 -0.017611038 -0.25109848 0.10150937 -0.057022832 0.16985504 0.058478665
0.080669194 0.040155753 -0.19863127 0.054796875 -0.018263126 0.07042108 -0.0724528 0.0012430812
0.29556203 0.1776068 0.25245684 -0.053918317 0.059874576 -0.12649438 0.1274419 0.09112264
-0.065162756 -0.16644754 0.17426856 -0.016818726 -0.0916496 -0.09805345 0.061097797 -0.06641043
-0.14598483 0.10094104 -0.09861115 0.00487417 0.1905928 -0.20369492 0.018346699 0.06477401
0.112604775 -0.0059863185 0.09442754 0.052372366 0.048482433 -0.26868114 -0.13688153 0.081052944
-0.12389266 0.099274755 0.06321096 -0.13197911 -0.023176424 0.10630355 0.13680753 -0.19871606
-0.0908435 -0.0956339 -0.1174111 -0.032390676 -0.048660804 -0.12154459 0.13475116 -0.035341125
-0.30930147 0.061456177 -0.109609626 0.07528789 -0.07540081 0.097367175 0.10210412 0.03519026
0.24255581 0.12977394 0.4219288 -0.001153462 -0.013760047 0.30582356 0.04428396 0.036981378
0.14753526 -0.15026347 0.026654497 0.038706895 0.10360991 0.065204464 0.037604403 -0.24688141
0.06016853 -0.20206279 0.037168812 0.1951366 -0.019294484 0.091609985 -0.07252223 0.07715938
-0.24623676 -0.08738445 0.0850384 -0.13924466 0.01485809 0.09244497 0.06412376 -0.09719941
0.27352807 -0.18262963 0.09792946 0.08063095 -0.0042432463 0.1138961 0.21488337 0.07222995
0.5318052 -0.1283306 0.34175465 -0.1380989 -0.046585567 0.048294086 -0.02735717 -0.012280954
-0.09604733 -0.16464508 -0.07671868 0.3457584 -0.14846925 0.16840944 -0.0037004042 -0.35287088
0.27614614 -0.040746577 -0.08979867 0.014547342 0.09692168 -0.0025164864 0.27714613 -0.0067070914
0.031504195 0.26806393 -0.02643739 -0.09178991 -0.039428346 -0.25141627 -0.08614084 0.04027511
0.019746117 -0.12447137 0.04558682 0.08170416 -0.18071647 0.062332544 -0.19186403 -0.062345836
-0.20513625 0.39757487 -0.016057223 -0.06450003 0.13073967 0.04684042 -0.050578292 -0.068718374
0.36996418 0.4759188 0.19351827 0.0028355676 -0.12190523 -0.20913413 0.023103023 0.058605976

fc1.bias f4 [736]
00000000: c279 4fbe 854d 32bb 64ff 803e 8b00 303e
00000010: fcde 00be f483 63be 30d5 a3be d4ae 9b3d
00000020: 5556 bbbe d336 66bb 4cb9 1fbe 1a2d cebe
00000030: 55e7 5cbe 713e 843d 11dc 00be 32b6 2fbd
00000040: 47ad 473c 22e7 c3bd f743 103d 8ee0 bebd
00000050: d7fc 5fbe 9b68 393e 4926 083e 3de2 e4bd
00000060: 5e27 fe3d 33f9 713e e702 523e 782f 3fbe
00000070: 5b07 053e 8603 c73d 04a3 5f3c e08c 8ebe
00000080: 7523 343e 65fe cbbc 5878 b93d 5de9 03be
00000090: eb27 053e f3fd e5bc ea72 8cbe 0cff 2c3e
000000a0: 1a54 a3bd 8560 d6bd 6cc3 88bd 7e28 ce3d
000000b0: c65b 2f3e dbb8 41bd 68bb b9bd cac1 11be
000000c0: ddca 413e bee3 7ebd c736 803d 8fdf 263e
000000d0: ae0c 773e 20b5 293e 176e 9c3e 6a7f 5dbe
000000e0: d499 63be ecd8 02bd 734e 9d3e 281a 22be
000000f0: d3c3 3a3d fdca f5bd ad73 c03d 010a 6f3d
00000100: 48db a8bd e023 e8bd a67a a4bd 12f6 47be
00000110: a2d3 b93e 4723 c63e 977b 59bd 7a72 5e3e
00000120: 23d0 c53c 5c18 993e 9eea a13e 6c87 1d3e
00000130: f9d2 d63d d56b ba3e 42c2 063e f588 6b3d
00000140: e0eb dabd 7603 623e 87ae 4c3e da6c 9f3d
00000150: a149 18bc 3153 203e 3b72 98bd 46b4 9abd
00000160: 10f9 833e d9cb 49bd 04f8 71bc 9e76 933d
00000170: f3f0 8d3e 51b1 89bc bb1a 8d3c d541 713c
00000180: 6bc0 0fbe cfb7 893d f24f 803d 0267 6bbd
00000190: eca2 4e3e eeff 2c3e 7304 fdbd 8505 e03c
000001a0: 19a5 2d3e 9c94 913e 2aee b53c 911f 643e
000001b0: 5894 0bbd 1cc7 2b3e a7c6 70be cbad 8f3e
000001c0: 0d3b 373e 5196 60bd ee4b c63d d623 5f3e
000001d0: 3608 a53d 8328 b73d 0070 b73d 78aa 76bd
000001e0: 513f f0be f9d6 7e3d bfd4 1f3d 7d33 90bd
000001f0: 53ef 34be d61e 85bd b286 a63d 7c90 8e3d
00000200: 8dbe bbbe fe15 4fbc e171 81bd 5ff8 37be
00000210: cc0d 903d aec6 dabd c3ef 023d f07e d4bd
00000220: 4a7a 83be e249 e33d a765 933e 43fd 5ebc
00000230: 8ea4 493e 2ea5 8ebc e4af 9abc 0216 8d3d
00000240: d6de 5a3e 2f5d 34be cc63 893e 1fd3 293e
00000250: cb69 433d 0e75 833e 7666 37bc 3b52 003d
00000260: c473 003e 5e67 773e 0f24 313e 17ac eb3c
00000270: 8dac 303e 97ac 2abe c36a fa3d 1b6e 87bd
00000280: 758a 94bd e8af 7e3e 7466 15bd f53a 193e
00000290: 3d9a 22be 81da 90bd 3373 36be 5185 c63d
000002a0: 2d61 b4bc 8070 6abe d337 a93d 24ed b6bd
000002b0: ab6a b9bd 50fc 1dbe e478 8dbd 9533 0c3e
000002c0: a7f1 96be b4a0 d63d 6ada cfbd 888a 92be
000002d0: a612 f9bd 3e8d 363d 9470 683e 2963 9e3e
000002e0: 305d 4e3d f6bd a53c 63ff 5dbb 5538 15bd
000002f0: 2dd3 693e 6a3f 7d3c 8a47 693e 5b4d 393d
00000300: b683 99bd 0d35 40be 1051 343e 3ee3 a23c
00000310: ff86 d23d 09fa 833c 504e c8bc 7e74 443e
00000320: ba98 2abd 896c b6bd 5658 ffbc 34a6 f7bc
00000330: 65ac 6f3e be1d 99bc c62b 553d 9ef8 b63e
00000340: b5f5 27be cabc 33be a4c5 99bd 712c 8bbe
00000350: 10ae bdbd 701c 563d 2236 5cbe f3b3 f03d
00000360: 1414 37bd 4dcb c03a 5987 0c3e cf9e 363e
00000370: 9d9c 203e 318c 3abe e60c 0cbc b208 073e
00000380: 6c65 f4bd 3bcb f53d 5872 06bd 22a6 8d3d
00000390: 2782 f8bb 795a 07be 1768 173e 1f47 1c3e
000003a0: 184e 7e3e 32d0 8ebd e7f0 16be e9aa 0bbe
000003b0: 1066 f63c ee07 96be a8ef 0bbd 0638 bcbd
000003c0: c35c 4ebd 6d09 5c3e d270 a1ba 96af d93c
000003d0: 6ac4 2f3b 12c3 383e cf9f ac3c 61dc afbd
000003e0: 604f e73c 68cd 8b3b c679 163e 27f5 b0bb
000003f0: 02f4 b2bd df1e d83e f1d0 a0be 7866 133e
-0.2026129 -0.002720685 0.25194848 0.17187707 -0.12585062 -0.22218305 -0.31998587 0.07601705
-0.36589304 -0.0035127893 -0.15598029 -0.40268785 -0.21572621 0.06457222 -0.12583949 -0.042898364
0.012187309 -0.095655695 0.035221066 -0.09320174 -0.21873794 0.1810631 0.13295855 -0.11175964
0.124098524 0.23630218 0.2050892 -0.18670452 0.12991087 0.09717469 0.013649706 -0.27841854
0.17591651 -0.024901578 0.09056157 -0.1288199 0.13003509 -0.028075194 -0.27431422 0.16894168
-0.079750255 -0.104676284 -0.06677899 0.10066317 0.17124853 -0.047295433 -0.09068948 -0.14234081
0.18925042 -0.06222891 0.06260448 0.16296218 0.2412593 0.16573 0.30552742 -0.21630636
-0.2222665 -0.031945154 0.30723915 -0.1583029 0.04559691 -0.120016076 0.093970634 0.05835915
-0.082449496 -0.113349676 -0.08031206 -0.19527462 0.36294276 0.3869879 -0.05309638 0.21723357
0.024147099 0.29901397 0.3162431 0.1538369 0.104894586 0.36410394 0.13160041 0.05750366
-0.10689521 0.22071633 0.19988452 0.07784434 -0.009294898 0.15656735 -0.07443663 -0.07553916
0.25775957 -0.04926667 -0.014768604 0.07200359 0.27722892 -0.016808184 0.01722466 0.014725168
-0.14038245 0.06724512 0.06265248 -0.057471283 0.20179337 0.16894504 -0.12354364 0.027346382
0.16957511 0.28433692 0.022208292 0.22277667 -0.03407702 0.16775173 -0.2351328 0.2806228
0.1789362 -0.054830853 0.09682451 0.21791014 0.08058207 0.08943274 0.08956909 -0.060221165
-0.46923307 0.062216733 0.03902125 -0.070410706 -0.1766942 -0.06500022 0.0813116 0.06961152
-0.36668816 -0.012639521 -0.06320549 -0.1796584 0.070338815 -0.106824264 0.031966936 -0.10375774
-0.25679237 0.110980764 0.28788492 -0.013610187 0.19691679 -0.017412748 -0.0188827 0.06888963
0.21374068 -0.17613672 0.2683395 0.16584443 0.047708314 0.25675243 -0.011193862 0.03132842
0.12544161 0.24160525 0.17298912 0.028768582 0.17253323 -0.166674 0.122273944 -0.06612798
-0.07252971 0.2487179 -0.03647466 0.14963897 -0.1587915 -0.07072926 -0.17817383 0.09693397
-0.022018993 -0.22894478 0.08262601 -0.0893195 -0.090535484 -0.15428281 -0.06907824 0.13691552
-0.2948124 0.104798704 -0.10149081 -0.28621316 -0.1216176 0.044568293 0.22699195 0.30935028
0.05038184 0.020232182 -0.0033874146 -0.036430676 0.22834463 0.015457014 0.22781196 0.045239788
-0.07495825 -0.18770237 0.17609048 0.019883748 0.10279655 0.016110437 -0.024451405 0.19185063
-0.041649558 -0.0890742 -0.031170052 -0.030230619 0.23405607 -0.01869094 0.0520437 0.35736555
-0.16402324 -0.17552486 -0.075084 -0.27182344 -0.092617154 0.052273214 -0.21505025 0.117530726
-0.044696882 0.0014709026 0.13723506 0.17834018 0.15684743 -0.18217541 -0.008547997 0.13186911
-0.11933407 0.12001654 -0.03282389 0.06916453 -0.0075838747 -0.13218106 0.14785801 0.15261506
0.24834478 -0.06973304 -0.14740334 -0.13639416 0.030077964 -0.29302925 -0.0341641 -0.09190373
-0.050381433 0.2148797 -0.0012316948 0.026572984 0.0026819953 0.18043163 0.021072296 -0.08586956
0.028236091 0.0042664297 0.1469489 -0.005400318 -0.08737947 0.42211053 -0.3140941 0.14394557

deconv1.weight f4 [32, 16, 5, 5]
00000000: bca9 693d c1bd 16bd 07fd c93d d7a8 8e3c
00000010: 5aca d53d fd17 9dbc 49c8 f5bc b160 723d
00000020: 1a06 9ebd 63ab cb3d c751 403c e009 a1bc
00000030: 718d a03d 14e2 a8bc c9a4 023c 92e9 92bb
00000040: 7229 4cbc c08b 423c 466a 58bc 955e 8cbd
00000050: 8a7f d43d 825a 45bd 3695 1cbd 6ef5 afbb
00000060: 68b3 cebc f26f 37bd be68 66bd c327 dabd
00000070: f2e9 9ebd 20cd efbd bdd4 07be ce51 b23b
00000080: 4f24 09bd 17b9 85bd 6839 10bd 0025 363c
00000090: 7441 a9bd f22f 2f3d 00a3 95bd 9d9c 39bb
000000a0: 59cf 883b 1046 37be 6f61 293c cc0b 98bc
000000b0: 1ee4 a33b 2400 83bd ceb7 fa3c 0ca2 b5bd
000000c0: c9a4 693c f3b1 81bd e287 c9bd 2504 a8bd
000000d0: 55df 9fbc fb6a 7bbd c512 49bc 6104 e9bc
000000e0: d5d9 c1bc be91 c0bc 2dba 4d3d e7c3 a63c
000000f0: 3e89 1c3d efd4 5bbd 45b2 7a3d 5256 b1bd
00000100: ba64 9d3c 9475 083c 8201 94bc d709 3b3d
00000110: a9a1 42bd c39f 41bc d25b 4b3d dfe1 35bd
00000120: 42e9 12bd 726b d83c 925e 52bd 7ef6 003e
00000130: bd31 973d bbc7 bd3c 5804 98bd 3341 303d
00000140: 1c5a 71bc fb58 fbbc 09ef 5c3d b301 4a3d
00000150: ff9c 9bbc c691 14bc febe 33bd ae2d 13bd
00000160: cd46 b03d 1742 43bd 9d5d 75bd a431 003d
00000170: f699 03bc 71db 323b f19d 87bd db52 593d
00000180: 7564 993c 6cc8 003d ea73 f5bd ea2e bcbc
00000190: b46d b7bc 40f1 13be f1f0 babd c32a 7cbd
000001a0: 206b 01be 1c09 5f3d b025 afbc d870 2f3d
000001b0: 776c 1b3c 409e 523c b374 e63c 9ea5 983d
000001c0: 0164 40bd 1f96 fb3d fbe5 5ebc 1cbe b3bc
000001d0: 2f85 acbd d7f0 763d 2dde 9ebe 7e0b 0b3d
000001e0: af1b 553c 5522 96bc 6168 8f3d 2bf1 d9bb
000001f0: 8b50 9e3c 62dc ba3c c129 e03d b36f babc
00000200: ef1a 1c3d 82e4 623d b6ab 8f3b e535 1cbd
00000210: 7955 5c3c d01b 303b bd31 80bd 1f0d 9c3c
00000220: 1b71 9cbb 1bac ad3b ca50 1fbc bb63 313b
00000230: 21d7 cebb 5ac2 643e e964 af3b 9b75 acbd
00000240: 55db a0bc 49a1 863d e440 0dbe 37f7 f43c
00000250: dcbd 653c 4d84 993d 593d 41bc 8021 c1bc
00000260: 6ae9 15bd 6b9c babb b651 ccbc 2442 e4bc
00000270: c0bf c53d 5613 b0bd 38a3 56bb 047a 8a3d
00000280: 7f0b 04be 493a 763d 73c6 f3bd 2e4a 8ebd
00000290: 3506 5fbc f3c1 173d 2009 0b3d 7c3f 8a3b
000002a0: d4a0 17bd fed7 323d a527 a53c 5c32 a9bc
000002b0: 2733 9fbd 54fb 803d 8b45 f3bc 6d33 6bbd
000002c0: b2a6 323d 01d2 65bd b4ad f8bc db62 343d
000002d0: 3699 153d 1c6a 203a 48e7 61bc 74d3 b53c
000002e0: 2ed7 243c c585 773d b346 6b3c 7404 4e3d
000002f0: 96e5 033c 6736 16bd ca2b 8e3c f2f0 13be
00000300: d29b abbc 43bc 3dbd b7d8 f6b8 d487 0ebd
00000310: 12d3 21bd 4366 f13c d361 f7bd 9355 93bc
00000320: 33bb 9c3d 61e7 9bbd 11a6 813d d791 a2bd
00000330: a075 32bd 1b7d ea3c 629a ea3b 2418 ccbc
00000340: bcb2 2dbd d78b 59bd 0155 c33c c5b7 a1bd
00000350: b988 66bc ecc9 133c b551 3e3c b16c 2abe
00000360: aaed acbb 59c5 e3bd b5a3 37be 35ff f5bc
00000370: 6378 55bd a3db c7bb 3202 83bc 28b1 f0bc
00000380: ce9a 10bc 37f1 aebc dd11 03be b790 33be
00000390: 4c47 fbbd ecc9 83bc d18e a93b 0e2e b5bc
000003a0: e4c0 1a3d 9f5b 70bd c028 743c 7649 88bd
000003b0: 2e0b 113e 31bd 3ebd 49ae 993d 74a8 bb3d
000003c0: 8949 9c3d f436 0cbd 80a0 d1bd 136b af3c
000003d0: a791 34bd f0e1 7e3c c2ab 3c3c b2ec 41bc
000003e0: 8da7 adbc 44c6 313d 3324 bbbd 617a cbbd
000003f0: 2f7d 93bc 5e32 00bd 78f8 1cbd 6895 bd3a
0.057046637 -0.036802057 0.09862714 0.017414493 0.10438986 -0.019176478 -0.03000273 0.059174243
-0.077160075 0.09944799 0.011738247 -0.01965803 0.07839478 -0.020615615 0.007973858 -0.00448341
-0.012461053 0.011874139 -0.013208931 -0.068539776 0.10375889 -0.048182018 -0.038228236 -0.0053698337
-0.025232032 -0.044784494 -0.056252234 -0.10652115 -0.07759465 -0.11709046 -0.13264747 0.005441881
-0.033481892 -0.06529444 -0.035210997 0.01111722 -0.08264437 0.042770334 -0.073064804 -0.0028322109
0.0041751084 -0.1789782 0.010338171 -0.018560313 0.005001559 -0.06396511 0.030605223 -0.088687986
0.014260479 -0.06332769 -0.09840371 -0.082039155 -0.019515673 -0.06138132 -0.012272541 -0.02844447
-0.02366344 -0.023506995 0.05022638 0.020357085 0.03821682 -0.053669866 0.061205167 -0.086590424
0.01921307 0.008328814 -0.018067125 0.04566368 -0.047517452 -0.011817875 0.049648114 -0.04440486
-0.035866983 0.026418421 -0.05135972 0.1259403 0.07382534 0.023166528 -0.074227035 0.04303093
-0.014730956 -0.030682078 0.0539389 0.049318027 -0.01899576 -0.009067958 -0.043883316 -0.035932235
0.08607254 -0.04767045 -0.05990373 0.03129734 -0.008032313 0.0027291442 -0.06621922 0.053057533
0.01872466 0.031441137 -0.119849995 -0.02297159 -0.022391178 -0.14447498 -0.09127987 -0.06156422
-0.12638521 0.054452047 -0.021380275 0.042832226 0.009486309 0.012855113 0.028131818 0.07453464
-0.04697037 0.12284493 -0.013604636 -0.021941237 -0.0842384 0.060288277 -0.31028882 0.033946507
0.013007089 -0.018326918 0.070023306 -0.006651064 0.019325515 0.022810165 0.10945464 -0.02275834
0.038111623 0.055393703 0.004384483 -0.038137335 0.013448113 0.0026872046 -0.06259487 0.019049225
-0.0047742254 0.0053000576 -0.009723851 0.00270675 -0.0063122665 0.22339764 0.0053526056 -0.08420869
-0.019635836 0.065737315 -0.13794285 0.029903037 0.014022317 0.074959375 -0.011794412 -0.023575544
-0.036599554 -0.005694916 -0.024941307 -0.02786357 0.09655714 -0.08597438 -0.0032751095 0.06761554
-0.1289501 0.06011418 -0.119030856 -0.069477424 -0.01361232 0.0370502 0.03394425 0.0042189937
-0.037018612 0.043663017 0.020160506 -0.020653896 -0.077734284 0.06297937 -0.029696247 -0.05742209
0.043616004 -0.05610848 -0.030356266 0.04403959 0.036523066 0.0006119327 -0.013788052 0.022195555
0.010061068 0.060430307 0.014360118 0.050297216 0.008050343 -0.036672976 0.017354865 -0.14447382
-0.020948324 -0.04632212 -0.000117705604 -0.034797505 -0.039507933 0.029467707 -0.12079205 -0.01798514
0.07652893 -0.076124914 0.06330503 -0.07937973 -0.043569207 0.028624108 0.007159517 -0.024913855
-0.042406783 -0.053111877 0.023844244 -0.078963794 -0.014070683 0.00902031 0.01161616 -0.16643025
-0.005277355 -0.111216255 -0.17933543 -0.030028919 -0.052116763 -0.006099181 -0.015992258 -0.02938135
-0.008825971 -0.021355255 -0.12799783 -0.17535673 -0.12269458 -0.016087495 0.0051744957 -0.022116687
0.03778161 -0.058681127 0.014902294 -0.066546366 0.14164421 -0.046567146 0.075039454 0.09162989
0.07631213 -0.034232095 -0.10235691 0.021413362 -0.044084217 0.015556797 0.01151556 -0.011836218
-0.021198059 0.04340197 -0.09137764 -0.09935451 -0.018004028 -0.031298034 -0.038322896 0.0014464082

deconv1.bias f4 [16]
00000000: a3d7 6ab9 37b5 83b7 f01d ce38 f218 c5b7
00000010: 5cde f438 c4ee 17b4 4d13 b5b6 ede9 2639
00000020: 7631 2ab8 d983 c8b9 b92f d137 5c7c 2fb8
00000030: cc59 5e39 98ed 3c37 c4f7 8bb9 a598 6939
-0.0002239631 -1.5700802e-05 9.828422e-05 -2.3495846e-05 0.00011676244 -1.4149833e-07 -5.3964673e-06 0.00015918138
-4.0577223e-05 -0.00038245207 2.4936964e-05 -4.183907e-05 0.00021205022 1.1260992e-05 -0.00026696746 0.00022277476

bn1.weight f4 [16]
00000000: 9f70 813f b8ea 883f eebf 6f3f f8fd 803f
00000010: 2aa4 7f3f d3bd 743f e8b9 803f 5aef 8e3f
00000020: 867d 813f be02 843f 3f48 793f 87f7 7e3f
00000030: a833 6f3f 2576 863f fd80 813f e840 823f
1.0112494 1.069663 0.93652236 1.0077505 0.9985987 0.9560215 1.0056734 1.1166794
1.0116432 1.0313337 0.97375864 0.99596447 0.93438196 1.0504805 1.0117489 1.0176058

bn1.bias f4 [16]
00000000: f198 a3bc 6333 c8bb 113a 21be 9600 84bd
00000010: 8ee5 49be ce3d 79bc 5d99 04be 0b71 b63d
00000020: c1e3 37bc 5e84 06be 2362 1cbe 9893 3fbe
00000030: 1626 acbd 6ebd 1e3d 6b13 963c a59c 71bb
-0.01997039 -0.0061096414 -0.15744807 -0.06445424 -0.19716474 -0.015212489 -0.12949128 0.0890828
-0.011223734 -0.13136432 -0.15271811 -0.18708646 -0.08405702 0.038754873 0.018319806 -0.003686705

bn1.running_mean f4 [16]
00000000: ff0d 85bf 9674 40c0 6ca3 0abf 3ae7 bbbf
00000010: 93c2 943f 7501 60bf 4cac 12c0 221b 21c0
00000020: 98d6 16c0 501c dbbf 881b 28be be5b 22be
00000030: 297d 85bf 5249 3fbf 126b 19c0 01cb ad3f
-1.0394896 -3.0071158 -0.5415561 -1.467994 1.1621879 -0.87502223 -2.2917662 -2.517281
-2.3568478 -1.7118015 -0.16416752 -0.1585531 -1.0428821 -0.7472125 -2.39716 1.3577577

bn1.running_var f4 [16]
00000000: 9d1c 8040 25a8 8f40 ab20 2040 7eec 2840
00000010: db26 3640 d9e9 8140 f7dd 2c40 e6d7 ab40
00000020: ac46 5540 322f 4540 ace5 4540 c56f 6e40
00000030: 39f2 1440 7aa2 8740 d9be fa40 4713 3840
4.003493 4.4892755 2.501994 2.6394343 2.8461215 4.059796 2.7010477 5.370105
3.3324385 3.0810056 3.092143 3.7255719 2.327284 4.2385836 7.835797 2.8761766

deconv2.weight f4 [16, 8, 5, 5]
00000000: 66d4 953d 2a43 863d f207 3d3e 49a2 333c
00000010: 8238 033d 6ea6 2cbc 7d1c 6d3d 86b1 aebc
00000020: ed70 2fbd 5e19 85bd 906b f1bc 437d 903d
00000030: c7a2 92bd b3f7 e4bc 6e16 c3bd c648 583d
00000040: f457 b7bd b068 933b cf98 49bd 3fd9 ca3c
00000050: 7721 043e be9a 87bd f043 163e 5eb0 55bc
00000060: 15d8 c83a 2c5c 423d 7f9d 8f3c 96ab 823c
00000070: d2d4 113e f62d 9abb 4c8c 0bbd f107 f7bd
00000080: 72f5 1f3e 3700 013e 0147 0cbd c895 09bd
00000090: b4ed 99bd 0bd7 c3bd 0150 1bbd f422 0c3c
000000a0: 39f5 c43c 34b0 c63d 5330 0dbd 44be 073e
000000b0: 68b1 da3b 0f71 fabc 4218 90bd 56c6 653c
000000c0: 3c42 9a3e 861a a03c 9c37 cb3d 0902 983d
000000d0: ba22 c93d e81c bc3c 8450 afbb 67cd 523d
000000e0: 4de4 0c3d 7350 ad3d 45f1 9cbb 770e 79bd
000000f0: 9d9e 53bd 1691 c1bc 1e51 0bbe 341b ccbc
00000100: 3f5a 28bd 7651 38ba 533e 03bc 55a8 b63c
00000110: a2df c4bd e09c 5fbd ff5e 213d 9c56 5bbd
00000120: 4752 2d3e fbab 15be 1a76 033b f288 f6bd
00000130: b45d f2bb d188 ad3c 8a76 bf3d 9b95 583d
00000140: daa6 adbc 5d81 78bd 2525 7fbd ad39 873b
00000150: 4133 02bd b6d1 f33c 6d08 febd 097f a9bd
00000160: add6 943b 28eb 68bd 1e52 81bd a9b5 ebbd
00000170: fc81 193d a33f 813c 05b4 b6bc cbff 7a3d
00000180: 5832 70bd d0da a3bd ab8e ebb9 e444 213d
00000190: 6129 f43d 0229 983d d837 9b3a 8c8a d43d
000001a0: d21e b83d 1de3 ee3c b926 d9bd f252 9fbd
000001b0: 78f6 27be a159 293c b359 9dbd af22 33be
000001c0: 70b4 f2bd 980d 41be b09f ddbd bf50 e4bd
000001d0: 28d8 303d 314c adbd 2126 41be 2d3a 28bd
000001e0: c498 04be c07e ab3d 22ab 24bd 0f49 71bd
000001f0: 1f33 64bd 55f0 613d 8bb2 ddbc afb2 bc3d
00000200: 7835 fbbb 2f30 b8bc 0c53 033d f68e ba3c
00000210: 184d d9bc 179c 13bd 262c 9b3d 22c5 30bd
00000220: 7f2d 613d 6f33 f5bb bb43 61bd 92bc d0bc
00000230: f212 a63d ab45 21bc f802 123d 0981 21bb
00000240: 1f83 b23c c4d4 c93d 69c3 5fbd cf4e 4b3e
00000250: fed5 ffbc 776b a2bd e503 5f3d c3f6 3c3d
00000260: 4919 d23d 630b 2a3d 2093 983d 5e84 acbc
00000270: 79df 01bd cea4 15bd e4a8 16bd e9e9 883d
00000280: ccaa 60bc 2e11 79bd d7eb de3d 52b0 02bd
00000290: c16a 51be dd94 8ebd 6d16 75be 195a 4eba
000002a0: ac7c 8dbd 6c10 82be 308d 1cbe 57a6 c5bd
000002b0: cb85 a2bd 2494 6fbd c3ab 3bbc 0bc2 eb3a
000002c0: 3533 a2bc b81d 743c f436 1b3d 8576 5f3c
000002d0: 5b45 f8bd 323d d0bc c6c0 f23c 6a8a c73d
000002e0: bd37 6c3c 7fdb e7bb 54ec 9a3d 3faa bebd
000002f0: 90d9 0c3e 0052 eabb 24f1 c73c 9f61 56bd
00000300: 9b29 26bd 593c 003d 3759 5a3c 9f4a 1e3e
00000310: 7462 2d3d 6882 b83d 1e90 5a3c 48fb 98bd
00000320: 3ad1 0ebe b155 20bd 93f7 07be 40ba 00bd
00000330: 495c 43bd ea3b 0abd 12e7 99bd 07a9 e7bd
00000340: 2ff4 0abe 5fbc b8bc 0fdd a33c 9c75 db3c
00000350: 4f3b 5bbc c41f 943d 65e5 62bc 5652 023d
00000360: ac0c 7bbb c09b 71ba 1a0d 113e 0c7e 86bd
00000370: b32a 923d 9c0c 4a3d ce2e 303e 28d9 223e
00000380: 1e04 e43d 6767 253c 4e20 be3d 880d ac3d
00000390: 4436 b3bc e9c3 eb3c 6afa fbbc 9497 8cbd
000003a0: 3532 dc39 9d43 9abd b6af 973c a6ec c7bc
000003b0: 357e 1f3d fdb0 60bc 6806 283d 8e34 86bd
000003c0: d4b2 5b3d 2096 87bc cd5d 41bd e8bb c7bc
000003d0: 4b84 0f3d 42b8 603d d5c3 343d 7ee4 d63c
000003e0: 0f92 133d 29fa 01be 68a8 d4bd 2fe4 c8bd
000003f0: 786c f7bc 533a 82be 4183 97bc 18ce 6fbd
0.073159024 0.06555779 0.18460062 0.010963985 0.032036312 -0.010537727 0.057888497 -0.021324884
-0.042832304 -0.06498979 -0.029470235 0.07055142 -0.071599536 -0.027950143 -0.095257625 0.052803777
-0.089523226 0.0044985637 -0.049217995 0.024761794 0.12903391 -0.066213116 0.14674354 -0.0130425375
0.0015323187 0.047451183 0.017531155 0.01595096 0.14241341 -0.004705186 -0.034069344 -0.120620616
0.15620974 0.12597738 -0.034247402 -0.03359011 -0.075160414 -0.095625006 -0.037918095 0.008553255
0.024042713 0.09701577 -0.034469914 0.13256174 0.0066739805 -0.030571489 -0.07035877 0.014024338
0.30128658 0.019543897 0.09922716 0.07422263 0.09821077 0.022963002 -0.0053501744 0.05146542
0.034397412 0.0846261 -0.0047895038 -0.06080481 -0.051664937 -0.023628753 -0.13605163 -0.024915315
-0.04110169 -0.00070311816 -0.008010465 0.022297064 -0.09612967 -0.054592967 0.039397236 -0.053549394
0.16925918 -0.14616387 0.0020059408 -0.12037839 -0.007396424 0.021183403 0.093487814 0.05287705
-0.021197725 -0.060670245 -0.062291283 0.0041267485 -0.03178716 0.029763084 -0.12403951 -0.08276183
0.004542193 -0.056864887 -0.06314491 -0.11509258 0.03747748 0.015777415 -0.022302637 0.0612791
-0.05864176 -0.080007195 -0.0004492899 0.03937234 0.11921955 0.074296966 0.0011842204 0.10377988
0.089902535 0.02916103 -0.10603089 -0.077794924 -0.16402614 0.010336311 -0.076831244 -0.174937
-0.11850822 -0.18852842 -0.108214736 -0.111482136 0.043174893 -0.08461798 -0.18862201 -0.041071106
-0.129489 0.08373785 -0.040202267 -0.058907565 -0.055712815 0.05516084 -0.027062675 0.09213769
-0.007666286 -0.022483913 0.03206162 0.022773247 -0.026526019 -0.03603753 0.0757678 -0.04315675
0.05497503 -0.007482938 -0.054996233 -0.025480542 0.08109082 -0.00984327 0.035647362 -0.0024643561
0.021791039 0.09855035 -0.054629717 0.19854282 -0.03122997 -0.079306535 0.054447073 0.046133768
0.10258729 0.041514765 0.07449937 -0.021059211 -0.03170726 -0.036534123 -0.03678216 0.0668524
-0.013712596 -0.0608074 0.10884827 -0.031906433 -0.2045088 -0.06961987 -0.23934336 -0.0007871702
-0.06908545 -0.25403154 -0.15288234 -0.096508674 -0.07935675 -0.058490887 -0.011454525 0.0017986906
-0.019799808 0.014899664 0.037894204 0.013639097 -0.121226035 -0.025419805 0.029632937 0.09743197
0.014417586 -0.0070757265 0.07564607 -0.093098156 0.13754869 -0.0071508884 0.024406977 -0.052339192
-0.04056702 0.031307552 0.013326935 0.15458153 0.04233022 0.09009248 0.013340024 -0.07469803
-0.13947001 -0.03914422 -0.13278036 -0.03142762 -0.04769543 -0.033748545 -0.07514776 -0.11311536
-0.13569711 -0.02255076 0.02000287 0.026789479 -0.0133808395 0.07232621 -0.013848637 0.031816803
-0.0038307114 -0.0009216629 0.14165154 -0.0656701 0.071370505 0.04932843 0.17205355 0.15903151
0.11133598 0.010095454 0.092835054 0.084010184 -0.021876462 0.02877994 -0.030759055 -0.06864849
0.00041999077 -0.075324275 0.018516403 -0.024404835 0.03893872 -0.013714072 0.041021734 -0.06552993
0.05363734 -0.016551077 -0.047208596 -0.024381593 0.035038274 0.054863222 0.044132072 0.026232
0.036027964 -0.12693085 -0.103836834 -0.098091476 -0.03020309 -0.25435123 -0.018495204 -0.058546156

deconv2.bias f4 [8]
00000000: 8674 4cb9 008d 6e39 a249 343a b5dc 09ba
00000010: 8ec0 95ba 5d96 a3b9 c38a 0eb5 56d7 7b39
-0.00019498364 0.00022749975 0.0006877427 -0.0005259023 -0.0011425184 -0.00031201812 -5.3101047e-07 0.00024017444

bn2.weight f4 [8]
00000000: e4ac e43f f477 de3f a774 e83f ab42 d73f
00000010: d7e5 de3f 0dc3 e63f f4e5 d83f 8a9b d33f
1.7865262 1.7380357 1.81606 1.681722 1.7413892 1.8028275 1.6945176 1.6531842

bn2.bias f4 [8]
00000000: 4a99 103f 101c 223f 1d9c 373f e7bd 013f
00000010: c3cf 213f 0bb5 2e3f 2522 183f f090 0e3f
0.564839 0.6332407 0.71722585 0.50680393 0.63207644 0.68245 0.594271 0.5568991

bn2.running_mean f4 [8]
00000000: 0800 debd a66a 163e 0207 0bbf 3e71 aa3d
00000010: d150 1cbf 8133 30be d558 b9be 8bdd e73c
-0.1083985 0.1468912 -0.5430757 0.083223805 -0.61060816 -0.17207147 -0.36200586 0.028303882

bn2.running_var f4 [8]
00000000: 8612 0f3e 738f 993e 8fc5 7e3e 2c0a 833e
00000010: 7189 3e3e 7120 653e f953 2c3e 6237 9e3e
0.1397191 0.29992256 0.2488005 0.25593698 0.18607117 0.22375657 0.16828908 0.3090163

deconv3.weight f4 [8, 1, 3, 3]
00000000: 411b 80be dae7 cbbe 2188 a4be 592d 39bf
00000010: 38e4 88bf 08a1 11bf e826 91be 682a 80bf
00000020: 1626 5ebf 76f0 33bf d6a2 90be 66c1 a9be
00000030: 5270 08bf 4126 41be 9542 dcbe 159a 60bf
00000040: dd9a dfbe 9c62 43bf 7859 48bf 9c94 81bf
00000050: 9ff6 0cbf 2a22 a2be 798f ebbe 5df3 dabe
00000060: 85bb 9ebe e5d6 60bf bc6c 89be c3bd 30bf
00000070: a21c 2fbf a8ff 37bf 6d00 eabe ebe1 a4be
00000080: 3e18 65bf 5488 08bf 0a8f e2be a910 5bbf
00000090: 3856 debe 7c26 0ebe a2df 0abf 4487 84bf
000000a0: 5abb 18bf 71c3 76bf 0e1c d3be 0048 51be
000000b0: 4769 98be 67c3 9bbe a0d5 f8be 6e55 a3be
000000c0: b7e8 afbe 1dad 19bf aa42 c8be c42d 54bf
000000d0: 6e90 53bf 5384 32bf b09d 44bf 96c3 85bf
000000e0: 4b15 6cbf aa1b 61be ff4a 27bf 4af6 1ebf
000000f0: 90b7 45be 1edf 57be 2aa3 3cbe 8fa1 a5be
00000100: cf6f 9dbe 5430 55bf b34a 25bf beec 89be
00000110: c831 54bf e198 21bf 2330 37bf 9b2c 3fbf
-0.25020793 -0.39825326 -0.32135108 -0.7233482 -1.0694647 -0.5688634 -0.28349996 -1.0012941
-0.86776865 -0.7028879 -0.28249234 -0.33155364 -0.5329639 -0.18862249 -0.43019548 -0.8773511
-0.4367284 -0.7632234 -0.7826152 -1.0123477 -0.55063814 -0.3166669 -0.46007898 -0.42763796
-0.3100244 -0.87827903 -0.2684077 -0.69039553 -0.68403065 -0.71874475 -0.4570345 -0.32203612
-0.89490116 -0.5333302 -0.44249755 -0.85572296 -0.43425155 -0.13881868 -0.54247487 -1.035378
-0.59660876 -0.9639197 -0.41232342 -0.20437622 -0.2976782 -0.30422518 -0.48600483 -0.31901115
-0.34357235 -0.60029775 -0.3911336 -0.8288233 -0.8264226 -0.6973316 -0.7680311 -1.0450313
-0.9221999 -0.21983209 -0.6534881 -0.6209456 -0.19308305 -0.21081206 -0.18421617 -0.32349822
-0.30749366 -0.8327687 -0.64567107 -0.26938432 -0.8288846 -0.631239 -0.71557826 -0.7467744
