model/Autoencoder/encoder_128d.pt (torch, 448275 bytes, 16 tensors)

conv1.weight f4 [8, 1, 3, 3]
0	0xbdaec409	-0.085334845
1	0xbdfea41b	-0.124336444
2	0xbd87cc8c	-0.06630811
3	0x3dbacee2	0.09121491
4	0x3e154d54	0.1458028
5	0xbce012a5	-0.02735264
6	0x3d85d80f	0.065353505
7	0xbd205b9f	-0.039149877
8	0xbe81e93d	-0.2537326
9	0x3e242105	0.16028221
10	0xbe0a5c7a	-0.1351184
11	0x40211ca5	2.5173733
12	0x3da1c41b	0.07898732
13	0xbe179286	-0.14801988
14	0x3ecbd2e6	0.3980934
15	0xbe8509d8	-0.25984073
16	0xbeb940fa	-0.36182386
17	0x3f15773a	0.5838505
18	0xbe838e16	-0.2569434
19	0xbebb9784	-0.36639035
20	0xbe4bc8b2	-0.19900778
21	0x3e9d6469	0.3074067
22	0x3e5fa850	0.2184155
23	0x3e3ecfbb	0.1863393
24	0x3dc8e9b7	0.098102026
25	0xbd9ec085	-0.07751564
26	0x3e1086e6	0.1411396
27	0x40296fdb	2.647452
28	0xbc36ba8a	-0.011152873
29	0xbe1cd7ca	-0.15316692
30	0x3e77f58d	0.24214764
31	0xbeba3d18	-0.36374736
32	0xbe12a794	-0.14321738
33	0x3edbe159	0.42945364
34	0xbddbf5ba	-0.10740228
35	0xbdaa0dcb	-0.08303412
36	0xbd4c91c9	-0.04994372
37	0x3e2404e6	0.16017494
38	0x3d18dce1	0.03732002
39	0xbdab9085	-0.08377174
40	0x3de36573	0.11103334
41	0x3e1e4b62	0.15458444
42	0xbebf5346	-0.3736822
43	0xbd804cdd	-0.062646605
44	0xbdefafe3	-0.117034696
45	0xbd3e82fe	-0.046511643
46	0xbe0d51a6	-0.13800678
47	0xbe27b8b8	-0.16379058
48	0xbbbc4d67	-0.0057465318
49	0xbe163243	-0.14667611
50	0xbe37c0e6	-0.17944679
51	0xbe08f34b	-0.13374059
52	0xbd974c4c	-0.07387599
53	0x3d24009e	0.04003965
54	0x3d833a10	0.06407559
55	0x3e2636af	0.16231798
56	0x3fcd6fb7	1.6049718
57	0xbe543766	-0.20724258
58	0xbdedf7ce	-0.116195306
59	0x3d8d4a0c	0.06898889
60	0xbe168c33	-0.1470192
61	0xbcb6416c	-0.022247992
62	0x3ea20704	0.31645977
63	0xbe02147c	-0.12703127
64	0xbd645dd7	-0.055753555
65	0xbe732c55	-0.2374738
66	0x3e9887fc	0.29791248
67	0x3e79e176	0.24402413
68	0x3e8227f6	0.25421113
69	0xbe8b6648	-0.27226472
70	0xbbe786dc	-0.007065637
71	0xbdda22ea	-0.106511906

conv1.bias f4 [8]
0	0x3d1710ce	0.03688126
1	0xbc8227b8	-0.01588808
2	0x3e0b72b5	0.13617976
3	0xbe541a83	-0.20713238
4	0x3eb8eb8f	0.36117217
5	0x3eefbd2b	0.4682401
6	0xbe37106d	-0.1787736
7	0xbecbb5a0	-0.39787006

conv2.weight f4 [16, 8, 5, 5]
0	0x3c089921	0.00833729
1	0xbd729c10	-0.059230864
2	0x3dbbe2c8	0.091741145
3	0xbcdfe330	-0.027330011
4	0xbdbc18e9	-0.09184439
5	0x3c8ec789	0.01742913
6	0x39fdd753	0.0004841635
7	0x3dd536d6	0.1041085
8	0xbca97386	-0.020684969
9	0xbdc5c385	-0.09656433
10	0xbc463186	-0.012096768
11	0xbd0cdb14	-0.034388617
12	0xbc590e63	-0.013248059
13	0xbd5f21aa	-0.054475464
14	0xbdf4fbab	-0.11962064
15	0x3d032855	0.032020885
16	0x3d042ed5	0.032271225
17	0x3d1c36ca	0.03813819
18	0xbcc407d9	-0.023929523
19	0xbce29e03	-0.027663236
20	0x3ce1b22b	0.027550777
21	0x3c96776d	0.018367494
22	0x3d591cda	0.05300603
23	0xbadc30b7	-0.0016799186
24	0xba1319ea	-0.00056114665
25	0xbd1f9a10	-0.038965285
26	0x3c902507	0.017595781
27	0x3d7a8345	0.061160345
28	0x3d8b2667	0.06794434
29	0x3d5f1872	0.054466672
30	0x3ded0387	0.115729384
31	0xbe640948	-0.22269166
32	0x3d1d52cb	0.038409036
33	0xbd939026	-0.072052285
34	0x3dcc0842	0.099625126
35	0x3b35a79a	0.0027718307
36	0xbdd4252f	-0.10358655
37	0x3d4798d3	0.04872973
38	0x3c8dd26d	0.017312253
39	0xbcd2523e	-0.025673982
40	0x3cd4ba8e	0.025967862
41	0x3d67ba62	0.056574233
42	0x3c1c07b1	0.009523318
43	0xbd6759ff	-0.05648231
44	0x3d8f61f4	0.07001105
45	0xbdb62f5e	-0.08895753
46	0xbe0600f6	-0.13086304
47	0x3da0cf14	0.07851997
48	0xbd3091ae	-0.04310768
49	0x3b692245	0.0035573405
50	0xbd4d3dcc	-0.050107762
51	0xbbae2740	-0.0053147376
52	0xbc8a969d	-0.016917521
53	0xbdd6a420	-0.10480523
54	0xbd1cbb3a	-0.03826449
55	0xbd7330b4	-0.05937262
56	0xbd53a4f9	-0.051671002
57	0xbcb968e6	-0.022633027
58	0xbd886673	-0.06660166
59	0xbda863ce	-0.08222161
60	0xbd66dec3	-0.056364786
61	0x3cee2392	0.029069696
62	0xbc9ff315	-0.01952509
63	0xbd5faa80	-0.05460596
64	0xbdf9077e	-0.12159632
65	0xbd373b03	-0.044734012
66	0xbc7d1e9f	-0.015449195
67	0xbc02a941	-0.007974924
68	0xbd859e33	-0.06524315
69	0xbdb117f7	-0.08647149
70	0xbd3b2503	-0.045689594
71	0xbd1dff03	-0.038573276
72	0x3d3031ee	0.043016367
73	0x3d527b1d	0.05138694
74	0x3c1d39aa	0.009596268
75	0x3cc53287	0.024071945
76	0x3d750be5	0.059825797
77	0xbc39c52c	-0.011338513
78	0x3d003ab4	0.031305984
79	0x3d83a3e4	0.06427744
80	0x3c8cc9c5	0.017186055
81	0x3ce938b5	0.028469423
82	0xbda737b6	-0.08164923
83	0xbcce077d	-0.025150055
84	0xbe0c7efc	-0.13720316
85	0x3cb15e5d	0.021651441
86	0xbc193b1d	-0.009352473
87	0x3d2f90ae	0.042862587
88	0x3d62c8de	0.055367343
89	0x3b902303	0.004398705
90	0x3df84370	0.12122238
91	0x3ce38201	0.027771952
92	0x3d25a1c1	0.040437464
93	0xbe30937d	-0.17243762
94	0xbcebd76c	-0.028789245
95	0x3e1d7a8c	0.15378779
96	0xbcb29218	-0.021798179
97	0x3e0398de	0.12851283
98	0x3e5dad4e	0.21648142
99	0xbe96bf80	-0.29442978
100	0xbc634884	-0.01387227
101	0xbd382fe5	-0.04496755
102	0xbd5f8241	-0.05456758
103	0xbcc0abf2	-0.02351949
104	0xbd5821f5	-0.05276676
105	0xbc8aa58f	-0.016924648
106	0xbbf6710d	-0.007520801
107	0xbc3fa478	-0.011696927
108	0xbd5b068d	-0.053473044
109	0xbd5370a2	-0.051621087
110	0x3cf82955	0.030293146
111	0x3d401d2d	0.046902824
112	0x3d13a304	0.036044136
113	0x3a7f6343	0.0009742269
114	0xbd8dcb0c	-0.06923494
115	0x3d30f199	0.043199155
116	0x3d96b732	0.073591605
117	0x3d838a01	0.064228065
118	0x3e0e95ca	0.13924327
119	0x3d69027b	0.05688713
120	0xbd3edc05	-0.046596546
121	0x3be56f73	0.007001811
122	0x3d93ade7	0.072109036
123	0x3db57fb1	0.08862246
124	0x3c66ef50	0.0140951425
125	0x3d303ea0	0.043028474
126	0xbd0b87d0	-0.034065068
127	0xbc8eaf1f	-0.017417489
128	0xbe04fae3	-0.1298633
129	0xbe101442	-0.14070228
130	0x3c134766	0.008989191
131	0x3d93dab8	0.07219452
132	0x3d5cd016	0.053909384
133	0xbc7ab582	-0.015302064
134	0xbdbe8d00	-0.09304237
135	0x3c8bce18	0.017066047
136	0x3c205a98	0.009787224
137	0xbd471426	-0.0486032
138	0xbe1a0bd9	-0.15043582
139	0xbe26b085	-0.16278274
140	0xbd292f0b	-0.04130463
141	0x3c7c69b4	0.015406061
142	0xbda58bd2	-0.08083309
143	0xbe18bfa0	-0.14916849
144	0xbe14c8da	-0.14529744
145	0x3d2c8618	0.04212007
146	0x3d89cda2	0.067286745
147	0x3d1abcd7	0.037777748
148	0x3d550d4d	0.052014638
149	0x3bd7a2f3	0.0065807044
150	0x3e477820	0.19479418
151	0x3e4ee728	0.20205367
152	0x3e0b7ebf	0.13622569
153	0x3e02aee0	0.12762022
154	0x3d88396c	0.06651577
155	0xbd1ec07e	-0.038757794
156	0xbdd8817f	-0.105715744
157	0x3e14e9f3	0.1454237
158	0xbe0eacf7	-0.13933168
159	0x3da6c2fa	0.081426576
160	0xbd3fef92	-0.04685933
161	0x3e27e323	0.1639524
162	0x3e1000cb	0.14062802
163	0x3d432427	0.0476419
164	0xbd3543d8	-0.044254154
165	0xbed2582b	-0.41082892
166	0x3d61f013	0.055160593
167	0x3d5a7c49	0.053341184
168	0x3d038f9c	0.03211938
169	0x3dc47ce9	0.09594137
170	0xbdd0a526	-0.101877496
171	0x3e1a8c49	0.15092577
172	0x3d45754c	0.048207566
173	0x3dcb2c1b	0.09920522
174	0x3dfb75e1	0.12278343
175	0x3d8815fc	0.06644818
176	0x3d197b7f	0.03747129
177	0x3db1a429	0.08673889
178	0x3e3a554d	0.18196602
179	0x3e461276	0.1934298
180	0x3be9ea30	0.007138513
181	0xbd0f62f3	-0.035006475
182	0xbbf52f88	-0.007482473
183	0x3d8de600	0.06928635
184	0x3e1713dd	0.14753671
185	0xbce7fe2e	-0.028319445
186	0xbc30ab54	-0.010783035
187	0xbd4a92f6	-0.04945656
188	0x3c7aac67	0.015299893
189	0x3d9f80ef	0.07788264
190	0x3d00a6fe	0.031409256
191	0x3cad51fe	0.021157261
192	0xbc858e20	-0.016303122
193	0xbbdcd063	-0.006738709
194	0x3d3916d7	0.045187797
195	0xbbf776db	-0.0075520105
196	0xbc22ce73	-0.009936917
197	0x3dcd5e31	0.10027731
198	0x3cb1df38	0.021712884
199	0x3c33515f	0.010944693
200	0xbd48fa96	-0.049067102
201	0xbdc14c1a	-0.09438343
202	0x3d857c7e	0.065178856
203	0xbb61ac4e	-0.0034434977
204	0x3d49eb74	0.04929681
205	0xbdadd5bd	-0.08488033
206	0xbd9bfa57	-0.07616108
207	0xbca83814	-0.020534553
208	0xbd0c763e	-0.034292452
209	0x3bcda31e	0.0062755486
210	0x3cbb37fc	0.022853844
211	0xbcc40972	-0.023930285
212	0x3d5786a0	0.052618623
213	0x3d1b3cef	0.037899908
214	0x3cec05bd	0.02881133
215	0x3b677cab	0.003532211
216	0xbd741dea	-0.05959884
217	0x3d3ac8c0	0.045601606
218	0xbc78b1ae	-0.015179081
219	0x3d49e7cf	0.049293336
220	0xbdf16a1e	-0.11787818
221	0xbd5aa8dd	-0.053383697
222	0x3c1ccf14	0.009570856
223	0xbd63def0	-0.05563253
224	0xbd1f9ae5	-0.03896608
225	0xbdbbd649	-0.09171731
226	0x3d2aec64	0.041729346
227	0x3c39b99f	0.011335759
228	0x3daaadf8	0.08333963
229	0xbd11377d	-0.03545331
230	0xbdeb433b	-0.114874326
231	0xbf25c5d7	-0.64755005
232	0xbe190e26	-0.14946803
233	0x3db902b9	0.090337224
234	0xbdff746f	-0.1247338
235	0xbe04d3c3	-0.12971406
236	0xbe14b0f1	-0.14520623
237	0xbd8cd921	-0.068773516
238	0x3d81d3d4	0.06339231
239	0x3cf75871	0.03019354
240	0xbd8c9667	-0.068646245
241	0xbd92c044	-0.07165578
242	0x3d054251	0.032533947
243	0x3d8e251a	0.0694067
244	0x3d46be16	0.048521124
245	0xbe1d3605	-0.15352638
246	0x3de157b6	0.11003058
247	0x3d5e2511	0.054234568
248	0x3d6d3452	0.057911225
249	0x3c6d16aa	0.014470736
250	0x3c9e00df	0.019287525
251	0xbda90a61	-0.08253933
252	0xbcf780c8	-0.030212775
253	0xbce2c5a1	-0.027682127
254	0x3db63b2d	0.08898006
255	0x3d15b864	0.0365528

conv2.bias f4 [16]
0	0xb83e1573	-4.5319506e-05
1	0x3857f3d6	5.1487084e-05
2	0x38c2d58a	9.2904156e-05
3	0xb7c55c68	-2.352726e-05
4	0x38a034b6	7.639213e-05
5	0x364a3018	3.012834e-06
6	0xb838045c	-4.387308e-05
7	0x37989c22	1.8192517e-05
8	0x38968ec8	7.1791525e-05
9	0x37a13cc9	1.9221001e-05
10	0x379d8ac7	1.8780482e-05
11	0xb7e761dd	-2.7582917e-05
12	0x37832f51	1.563845e-05
13	0x372feaf7	1.048552e-05
14	0xb74dc8c4	-1.2265697e-05
15	0x369e696d	4.72104e-06

bn1.weight f4 [16]
0	0x3f7571fb	0.95877045
1	0x3f94011e	1.1562841
2	0x3f5b1ff7	0.8559565
3	0x3f4345b2	0.7627822
4	0x3f760ba8	0.96111536
5	0x3f790213	0.9726879
6	0x3f53bc63	0.8270933
7	0x3fa6f7b2	1.3044341
8	0x3f4b25dc	0.79354644
9	0x3f63db0d	0.8900612
10	0x3f557b57	0.83391327
11	0x3f7e801e	0.9941424
12	0x3f81c65d	1.0138661
13	0x3f8b9a85	1.0906531
14	0x3f9a4fd2	1.2055609
15	0x3f798c2b	0.97479504

bn1.bias f4 [16]
0	0x3e0f7ef5	0.14013274
1	0x3c95b7bc	0.018276088
2	0x3f326d0f	0.6969766
3	0x3eec9828	0.46209836
4	0x3ec9293a	0.39289266
5	0x3dbc71be	0.09201382
6	0x3ee58205	0.4482576
7	0x3f2a6751	0.665639
8	0x3ea6b401	0.32559207
9	0x3eb0aa0e	0.3450474
10	0x3bee0a3f	0.007264405
11	0xbcb76320	-0.022386134
12	0x3d7675aa	0.060170807
13	0xbd8b0cca	-0.06789549
14	0x3e34eb5b	0.17667906
15	0xbc2fa849	-0.010721275

bn1.running_mean f4 [16]
0	0xc171db4a	-15.116037
1	0xc107f216	-8.496603
2	0x3fdae12e	1.7099969
3	0xbf53b0ae	-0.82691467
4	0x40f8e0ba	7.7774324
5	0x417097b1	15.037034
6	0xbfc3c791	-1.5295278
7	0x404e46ce	3.2230716
8	0xbfb1dca8	-1.3895464
9	0x40926fc7	4.5761447
10	0x412da083	10.851687
11	0xc1486761	-12.525239
12	0xc2261c5b	-41.52769
13	0xc16b47be	-14.705015
14	0xc02ea563	-2.7288444
15	0x41d84bc7	27.037

bn1.running_var f4 [16]
0	0x430343a5	131.26424
1	0x42a5af72	82.84267
2	0x424b46ac	50.819016
3	0x424d724f	51.36163
4	0x42691890	58.273987
5	0x4325eae8	165.9176
6	0x42253890	41.305237
7	0x432ac2b3	170.76054
8	0x420dc93b	35.446514
9	0x4314d044	148.81354
10	0x428a6744	69.20169
11	0x42b2cac0	89.395996
12	0x43a30b30	326.0874
13	0x42f52e65	122.590614
14	0x42f5997a	122.79976
15	0x4395de22	299.7354

conv3.weight f4 [32, 16, 5, 5]
0	0x3e47a0b6	0.194949
1	0x3e5d4b47	0.21610747
2	0x3e46f238	0.19428337
3	0x3dfe164d	0.12406597
4	0x3adbaa1c	0.001675907
5	0xbd244afb	-0.04011057
6	0xbbad2fec	-0.0052852537
7	0xbccfa676	-0.02534793
8	0xbce86eee	-0.028373208
9	0x3cec35dd	0.028834278
10	0x3d770f56	0.06031736
11	0xbc07aabd	-0.008280453
12	0x3b27e310	0.0025617518
13	0x3d17507b	0.036941987
14	0x3c9ca0c7	0.019119633
15	0x3c5a525f	0.013325303
16	0xbd04321d	-0.032274354
17	0xbbf2a6f9	-0.0074051586
18	0x3beb400d	0.0071792663
19	0xbd2e21e7	-0.0425128
20	0xbd36decd	-0.044646073
21	0x3c822547	0.015886916
22	0x3cebacb2	0.028768871
23	0xbbe3a457	-0.006947081
24	0x3ced1114	0.028938808
25	0x3debabb0	0.11507356
26	0xbe81a629	-0.25322083
27	0xbe9a1ce9	-0.30100182
28	0xbe8b5043	-0.27209672
29	0x3da3b585	0.079936065
30	0xbd978fc3	-0.07400467
31	0x3d493be2	0.049129374
32	0x3dd2dbba	0.10295816
33	0xbd228f68	-0.039687544
34	0xbd9429e8	-0.072345555
35	0xbcf40135	-0.029785732
36	0x3c47ddc3	0.012198868
37	0xbc85122f	-0.016244022
38	0x3ea6a69f	0.32548997
39	0xbd5529f2	-0.052041955
40	0x3d7b1ce7	0.06130686
41	0xbe86bf1d	-0.26317683
42	0xbeebda50	-0.46064997
43	0xbe4611d7	-0.19342743
44	0xbb5fe2b8	-0.0034162235
45	0xbcc568f4	-0.024097897
46	0xbdf7d571	-0.121012576
47	0x3dccbe95	0.09997288
48	0xbdb112b3	-0.08646145
49	0xbd5a39d8	-0.05327782
50	0xbd1ad62e	-0.037801914
51	0x3dc825d4	0.0977284
52	0x3b940e2c	0.004518291
53	0xbcfbd21f	-0.030739842
54	0x3bcd76be	0.0062702587
55	0x3dbebb80	0.093131065
56	0xbd79fd59	-0.061032627
57	0xbcd59ae4	-0.026074834
58	0xbd5911d4	-0.052995518
59	0xbcde7c86	-0.027158987
60	0xbdbf0a0a	-0.09328087
61	0x3d0ee1c4	0.034883276
62	0x3cfe1a84	0.031018503
63	0x3d252c08	0.040325195
64	0xbd1fd85b	-0.039024692
65	0xbd825ba3	-0.063651346
66	0x3d6b45a4	0.05743946
67	0x3d9d93e2	0.07694222
68	0x3d6dd29c	0.05806218
69	0x39a7db1b	0.00032015968
70	0x3db23c44	0.08702901
71	0xbe107ca7	-0.14110051
72	0xbe0bcae9	-0.13651623
73	0xbe04c4a7	-0.12965642
74	0xbd167db7	-0.036740985
75	0x3cfe3109	0.031029241
76	0xbd444af6	-0.04792305
77	0x3d301367	0.042987254
78	0xbd4c56c2	-0.049887426
79	0x3d6070c7	0.054795053
80	0xbc86f9d3	-0.016476547
81	0x3c0865ff	0.008325099
82	0x3d4c46eb	0.04987232
83	0xbc5a14e1	-0.013310642
84	0x3c2f9afd	0.010718104
85	0x3c4ceff6	0.012508383
86	0x3ca552db	0.02018111
87	0xbbbcb35c	-0.005758686
88	0x3c9540d0	0.018219382
89	0xbc5ce491	-0.013482229
90	0x3c6e2a5a	0.014536465
91	0x3c0aa563	0.008462283
92	0x3c254fc8	0.010089822
93	0xbcacd923	-0.021099633
94	0xbcafdd67	-0.021467878
95	0x3cc59476	0.024118643
96	0x3c443ac3	0.0119769005
97	0xbc0472e6	-0.008084035
98	0xbd0cd3b1	-0.034381572
99	0x3c23cfa5	0.009998237
100	0xbcbec227	-0.023285938
101	0xbc9997d0	-0.018749148
102	0x3c6fe46d	0.014641863
103	0x3b1f8c84	0.0024345228
104	0x3cbdcee8	0.02316995
105	0xbcbf3188	-0.023339048
106	0xbcd37467	-0.02581234
107	0x3e3d9447	0.18513595
108	0x3d047e91	0.032347266
109	0x3df7e9b6	0.12105124
110	0x3d1612d6	0.036639057
111	0xbd7d614e	-0.061860375
112	0xbdedd597	-0.11613005
113	0xbd77a87b	-0.06046341
114	0xbd786ffa	-0.060653664
115	0x3b2489cf	0.0025106554
116	0x3de74d4b	0.11294039
117	0x3e35f973	0.17770939
118	0x3ddd846a	0.108162716
119	0x3dd517d7	0.10404938
120	0xbdf9557d	-0.12174509
121	0xbdf48ee9	-0.119413204
122	0xbe19f647	-0.15035354
123	0xbe03738d	-0.12837048
124	0xbe123fd7	-0.14282165
125	0x3db93019	0.09042377
126	0xbd081b47	-0.03322914
127	0xbe64dda3	-0.22350173
128	0x3dc3b129	0.09555275
129	0xbcdf114d	-0.02722993
130	0x3c02df68	0.0079878345
131	0xbbf3d555	-0.0074412026
132	0xbce265f9	-0.027636515
133	0x3d95fccc	0.07323608
134	0x3cbf555e	0.023356136
135	0xbc836dc5	-0.016043553
136	0xbd63fb21	-0.055659417
137	0xbb4fdd0c	-0.0031717448
138	0x3d918b10	0.07106602
139	0xbd034976	-0.03205248
140	0xbc8c8199	-0.01715164
141	0x3d4f5276	0.05061575
142	0x3d143980	0.03618765
143	0xbd5cd6e9	-0.05391589
144	0xbc012940	-0.00788337
145	0x3d247cdb	0.040158134
146	0x3dba7773	0.091048144
147	0x3d8e022e	0.069340095
148	0x3dd5114d	0.104036905
149	0x3db2182b	0.08696016
150	0xbd9caa2b	-0.076496445
151	0x3d5a58f2	0.05330748
152	0xbcb665ab	-0.022265276
153	0xbc0062ec	-0.007836085
154	0xbc9a4b49	-0.018834727
155	0xbcc3bb76	-0.0238931
156	0x3c38421c	0.01124623
157	0x3e2d9501	0.16951372
158	0x3ddac463	0.10681989
159	0x3d8aaa19	0.06770725
160	0xbdca98e4	-0.09892443
161	0xbd37d970	-0.0448851
162	0x3d20019e	0.039064042
163	0x3cf9cfff	0.030494688
164	0x3d42d597	0.047566976
165	0x3e0a6ec2	0.13518813
166	0x3db4eb42	0.08833934
167	0x3c1dfed1	0.0096432725
168	0xbca7c21a	-0.020478297
169	0x3ba1b9f2	0.0049354965
170	0xbc0b20dc	-0.008491721
171	0x3b5be432	0.0033552763
172	0x3caaffb6	0.020873886
173	0xbd917c5d	-0.071037985
174	0xbd1dc08b	-0.0385137
175	0x3c3d29b6	0.011545589
176	0xbd64d5ea	-0.055868067
177	0xbc636553	-0.013879138
178	0x3d6c03b6	0.057620727
179	0x3d5a7977	0.053338494
180	0xbd8a83e9	-0.06763441
181	0x3ddc682f	0.10762059
182	0x3e114c1f	0.14189194
183	0x3e0cf373	0.13764744
184	0x3be4ecce	0.006986237
185	0xbd808da0	-0.06277013
186	0xbde1333b	-0.109960996
187	0xbe029f61	-0.1275611
188	0xbe387aa0	-0.18015528
189	0xbd3586e4	-0.044318095
190	0x3e1f9374	0.15583593
191	0x3e1eb07e	0.15497014
192	0x3de66e42	0.11251499
193	0x3da11dc7	0.07867008
194	0x3dfe362f	0.124126785
195	0xbdca2b77	-0.098715715
196	0x3d9033b6	0.07041113
197	0x3d0c5f23	0.034270417
198	0x3d90bedb	0.07067653
199	0xbe352972	-0.17691591
200	0x3c889f31	0.01667747
201	0x3b4cce5b	0.0031250927
202	0x3e46f4c3	0.19429307
203	0x3db70016	0.08935563
204	0x3d5b6ed2	0.053572483
205	0x3d151860	0.0364002
206	0xbd3f84a9	-0.046757374
207	0xbdb955a6	-0.09049539
208	0xbd58f987	-0.052972343
209	0xbd11c32d	-0.035586525
210	0x3ce8f96e	0.02843925
211	0x3daab9e9	0.08336241
212	0x3c5784c5	0.013154213
213	0x3d6127fb	0.05496977
214	0xbd3347d1	-0.04376966
215	0xbd27241f	-0.040805932
216	0x3c6f1223	0.0145917265
217	0xbc93dec3	-0.018050557
218	0x3d0df347	0.034655835
219	0x3c8356a1	0.016032519
220	0x3b9614f3	0.004580134
221	0xbd1a1609	-0.03761867
222	0xbca3a4f4	-0.019976117
223	0xbc23c5b6	-0.009995868
224	0x3d844ac3	0.06459572
225	0xbde81e44	-0.11333898
226	0xbe6c3417	-0.23066746
227	0x3da13441	0.07871295
228	0x3d287348	0.041125566
229	0xbe65b3b6	-0.22431836
230	0x3c9e87c1	0.019351842
231	0xbc90ed05	-0.017691145
232	0xbd5a5065	-0.053299326
233	0xbd03cb9e	-0.032176606
234	0x3d02e8f2	0.031960435
235	0xbd91c609	-0.0711785
236	0x3d06627e	0.032808773
237	0x3d7899c3	0.060693514
238	0x3d81952c	0.063272804
239	0x3c9d4fac	0.01920303
240	0x3bc6fd61	0.0060726856
241	0xbd90270e	-0.07038699
242	0xbd1a40ff	-0.03765964
243	0xbd4d67dd	-0.05014788
244	0xbd9a4533	-0.0753273
245	0xbdb540b7	-0.08850234
246	0xbd0de6dd	-0.034643997
247	0x3d30927f	0.04310846
248	0xbcf53749	-0.029933589
249	0x3d02e266	0.03195419
250	0xbd3645eb	-0.044500273
251	0x3d12a7e0	0.03580463
252	0xbc5610b7	-0.013065509
253	0x3d82b7f2	0.06382741
254	0xbda91c6e	-0.08257376
255	0x3b98df78	0.0046653114

conv3.bias f4 [32]
0	0x3880eb9e	6.147403e-05
1	0x37ce8444	2.4618705e-05
2	0x392d7d2a	0.00016545193
3	0x3872eda0	5.79186e-05
4	0x3a5a40af	0.00083256786
5	0x37bcd075	2.2508417e-05
6	0x3636b484	2.7225187e-06
7	0x3a126f30	0.0005586026
8	0x38a1d668	7.7170145e-05
9	0x37decb2a	2.6559068e-05
10	0x38b1183a	8.44453e-05
11	0x379458c9	1.7684319e-05
12	0xb953cdd7	-0.0002019921
13	0x38db0efb	0.00010445524
14	0x3a292392	0.0006452139
15	0x388e86e4	6.796213e-05
16	0xb8d3b1aa	-0.000100943565
17	0x377a3481	1.4913386e-05
18	0x37a0163a	1.9083836e-05
19	0x37b8e5af	2.2041464e-05
20	0xb8aaf9a3	-8.15273e-05
21	0x38855d4e	6.3593136e-05
22	0xb8df218b	-0.000106397165
23	0xb7fc538f	-3.0079651e-05
24	0x3875123c	5.8429534e-05
25	0xb72d21bf	-1.0319461e-05
26	0xb7a566ec	-1.971746e-05
27	0x38067397	3.205574e-05
28	0xb73f7320	-1.1411292e-05
29	0xb8d1fa1d	-0.00010012484
30	0xb920c795	-0.00015333139
31	0x3481455a	2.4078582e-07

bn2.weight f4 [32]
0	0x3f4b45ae	0.794032
1	0x3f69023d	0.9101904
2	0x3f519c3f	0.8187904
3	0x3f262722	0.6490346
4	0x3f193a27	0.5985436
5	0x3ec33745	0.38128105
6	0x3f475770	0.77867794
7	0x3eda2029	0.4260266
8	0x3f65afd6	0.8972143
9	0x3f5bcd00	0.8585968
10	0x3f86dd99	1.0536376
11	0x3ed0cbf5	0.40780607
12	0x3f95a624	1.1691327
13	0x3f1f31aa	0.62185156
14	0x3f162076	0.5864328
15	0x3f791028	0.9729028
16	0x3f796471	0.97418886
17	0x3f739db4	0.9516251
18	0x3f55da6d	0.83536416
19	0x3f5053dc	0.8137796
20	0x3f5d64ec	0.8648212
21	0x3f634f81	0.8879319
22	0x3f534278	0.825233
23	0x3f083044	0.5319865
24	0x3f84fdcc	1.0389953
25	0x3f237851	0.63855463
26	0x3f005b9c	0.50139785
27	0x3f805258	1.0025129
28	0x3f430931	0.761859
29	0x3f4a90b8	0.79127073
30	0x3ecc54fb	0.39908585
31	0x3f710b0e	0.94157493

bn2.bias f4 [32]
0	0x3e1c8c96	0.15288004
1	0x3db75d8f	0.08953392
2	0x3ea714ca	0.32633048
3	0x3f047882	0.5174638
4	0x3f228cb2	0.63495934
5	0x3f50b591	0.8152705
6	0x3f15e39f	0.5855045
7	0x3f556ee3	0.83372325
8	0x3e750261	0.23926689
9	0x3e86a522	0.2629786
10	0x3e8d7371	0.27627137
11	0x3f17e958	0.5934043
12	0x3e7bca86	0.24588975
13	0x3f505756	0.81383264
14	0x3fbcc4b1	1.4747525
15	0x3e9b9888	0.3038981
16	0x3eb154f9	0.34635141
17	0x3dee3ba7	0.116324715
18	0x3ec9e761	0.3943434
19	0x3ebca091	0.36841252
20	0x3f3a2a2e	0.7272061
21	0x3e3887ed	0.18020602
22	0x3eaec513	0.3413473
23	0x3f096605	0.53671294
24	0xbce49afb	-0.027905932
25	0x3fc21e00	1.5165405
26	0x3f6f5bdc	0.9349954
27	0x3eb61119	0.3555992
28	0x3f120169	0.570334
29	0x3f1899ed	0.5960987
30	0x3f54d050	0.8313036
31	0x3e9a3f5e	0.3012647

bn2.running_mean f4 [32]
0	0xbdef7672	-0.116925135
1	0xbfd5d941	-1.6706926
2	0x3fd5fa21	1.6716958
3	0x3e166056	0.14685187
4	0x3fcf2409	1.6182872
5	0x3e899a64	0.26875603
6	0x3f515208	0.81765795
7	0x3ef912e7	0.48647234
8	0x3fc3a0d0	1.5283451
9	0xbf0b76f8	-0.54478407
10	0xbff5228e	-1.915117
11	0xbf200e47	-0.62521785
12	0x3fef2466	1.8682983
13	0x3f91f07a	1.1401513
14	0x3f2c7050	0.67358875
15	0xbfdd5e81	-1.7294465
16	0xbfbfc5b5	-1.498221
17	0x3f2e6618	0.6812453
18	0xbf57e657	-0.84335846
19	0x3f6426e6	0.89121854
20	0x3f0eee80	0.5583267
21	0xbf0ec14e	-0.5576371
22	0xbf1aa7d7	-0.60412353
23	0xbf210d6e	-0.6291112
24	0xc02ae717	-2.6703546
25	0x3ddecb9f	0.108786814
26	0x3ee8cb02	0.45467383
27	0x40371a81	2.8609927
28	0x3fad79c2	1.3552783
29	0x3f78de47	0.9721417
30	0xbc013aea	-0.007887581
31	0x3fb01344	1.3755879

bn2.running_var f4 [32]
0	0x3e8cd0a7	0.2750294
1	0x3f6e4b38	0.93083525
2	0x3e9d6064	0.30737603
3	0x3e618de5	0.22026785
4	0x3e928175	0.28614393
5	0x3d9262fc	0.07147786
6	0x3ebf0c6a	0.3731416
7	0x3de8ce29	0.11367447
8	0x3f3026e9	0.6880937
9	0x3f7cb0d4	0.9870732
10	0x3fb48152	1.4101965
11	0x3e090f27	0.13384686
12	0x3fabc89e	1.3420599
13	0x3eaf4e71	0.34239534
14	0x3dda888c	0.106705755
15	0x3edbc30e	0.42922252
16	0x3f4647ed	0.774535
17	0x3f89fdd1	1.0780584
18	0x3f9d3a86	1.2283485
19	0x3e5f80b3	0.21826439
20	0x3f88b091	1.0678884
21	0x3e8ef606	0.27922076
22	0x3f89aa81	1.0755159
23	0x3e425066	0.18975982
24	0x3f8fd6f4	1.1237473
25	0x3e1e5363	0.15461497
26	0x3e7ebe62	0.24877313
27	0x3f96d756	1.1784465
28	0x3f2f8ed9	0.68577343
29	0x3f2f2a24	0.68423676
30	0x3e764203	0.24048619
31	0x3f85fdf9	1.0468131

fc1.weight f4 [128, 736]
0	0x3d41baec	0.047297403
1	0x3c6df0f2	0.014522778
2	0x3c65cf19	0.014026427
3	0xbbbbc542	-0.005730302
4	0x3c212570	0.009835586
5	0x3dda6292	0.10663332
6	0xbc0b9a90	-0.008520737
7	0x3da017ea	0.07817061
8	0xbd1876c9	-0.037222657
9	0xbcc71734	-0.024303056
10	0x3cf893b1	0.030343862
11	0x3d6cc014	0.057800367
12	0x3d4d51e1	0.050126914
13	0xbcd1dd4a	-0.025618214
14	0xbcfae3ea	-0.030626256
15	0x3c8b60bd	0.017013902
16	0x3d689100	0.056778908
17	0x3d4de47c	0.050266728
18	0x3dbf4f29	0.093412705
19	0xbd16a447	-0.03677776
20	0xbdcf3ab2	-0.10118617
21	0x3d5f4c9d	0.054516423
22	0x3d1e342e	0.03862398
23	0x3bdb59ab	0.006694039
24	0x3db06212	0.086124554
25	0x3d2dd76a	0.042441763
26	0x3cff996a	0.031201083
27	0x3d4a391f	0.04937088
28	0x3d70fb13	0.058833193
29	0xbd288c22	-0.041149266
30	0xbd74c1b7	-0.059755053
31	0x3ba0d801	0.004908562
32	0xbc425c00	-0.011862755
33	0xbc8c59be	-0.017132636
34	0xbcd86790	-0.02641657
35	0x3c33867c	0.010957357
36	0x3d162d81	0.03666449
37	0x3d076b3b	0.033061247
38	0xbc8592ed	-0.016305411
39	0xbcfd0779	-0.030887352
40	0x3d398489	0.04529241
41	0x3cf65fed	0.030075038
42	0x3d491518	0.049092382
43	0xbc9f1a38	-0.019421682
44	0x3c5953c4	0.0132646
45	0x3ae352f3	0.0017343446
46	0xbd71e4c8	-0.059056073
47	0x3decb4c4	0.11557916
48	0x3dba3224	0.09091595
49	0x3c3767d4	0.011194188
50	0x3d79b389	0.060962234
51	0x3e20c25c	0.15699142
52	0x3d19e8bd	0.037575472
53	0x3d5819b4	0.052758887
54	0xbc92b01d	-0.017906243
55	0x3d233f39	0.039855216
56	0x3c9de6dd	0.019275123
57	0x3da1b8b8	0.078965604
58	0x3d2dd9ec	0.042444155
59	0x3d9481f2	0.072513476
60	0x3dbdfd47	0.092768244
61	0x3d92eaed	0.07173715
62	0xbcf0694b	-0.029347083
63	0x3e05b942	0.13058951
64	0x3dfbc498	0.12293357
65	0x3e016e32	0.12639692
66	0x3d4b4a7b	0.049631577
67	0xbe11a441	-0.14222814
68	0x3d88fc97	0.06688803
69	0xbd9e3e9b	-0.07726785
70	0x3cf4bedc	0.029876165
71	0xbbb67bc8	-0.005568955
72	0xbd46b13e	-0.048508875
73	0x3d68df89	0.056853805
74	0xbd871ace	-0.065969095
75	0x3dab091f	0.08351349
76	0x3d264ced	0.040600706
77	0x3d32b658	0.043630928
78	0xbc41d07b	-0.011829491
79	0x3d0d81c6	0.03454759
80	0x3d5ea5c1	0.054357294
81	0xbbfba668	-0.0076797493
82	0x3c5ee06d	0.013603312
83	0x3c6636d2	0.014051156
84	0x3d9bf9b7	0.07615989
85	0xbbfd4727	-0.0077294293
86	0x3d1d0418	0.038333982
87	0x3db23665	0.08701781
88	0x3cdc919f	0.026924906
89	0x3dec398e	0.11534415
90	0x3bdb4a27	0.0066921893
91	0xbde76051	-0.11297668
92	0xbd391102	-0.045182236
93	0x3d6e8e9a	0.058241464
94	0xbcb55a85	-0.02213789
95	0xbd5544b8	-0.05206749
96	0x3d864b5f	0.06557345
97	0xbe0830a5	-0.13299806
98	0x3dc3f6eb	0.0956858
99	0xbd4b67bf	-0.049659487
100	0x3d18c31a	0.03729544
101	0x3ccd89b5	0.025090078
102	0x3d027b96	0.031856142
103	0x3d3b700c	0.045761153
104	0xbcb5ea53	-0.022206461
105	0x3d97e7d6	0.07417266
106	0x3da727c0	0.081618786
107	0x3db578b5	0.08860914
108	0xbcf5d25b	-0.030007532
109	0x3c8274fd	0.015924925
110	0xbd01798f	-0.031610068
111	0xbcd18efd	-0.025580877
112	0x3e46eb98	0.1942581
113	0xbd45df2e	-0.048308544
114	0xbd8133c8	-0.063087046
115	0x3b320240	0.0027161986
116	0xbd4e900e	-0.05043035
117	0xbd2a2267	-0.041536715
118	0x3d8721f3	0.06598272
119	0xbdfebb1b	-0.12438031
120	0x3df8ca14	0.12147918
121	0xbdd79efb	-0.1052837
122	0x3da588aa	0.08082707
123	0xbd6b11a5	-0.057389874
124	0x3d4984a3	0.049198758
125	0x39ea43df	0.00044682526
126	0xbbd241c2	-0.0064165303
127	0x3d8474d5	0.064675964
128	0xbc8e024e	-0.017335083
129	0x3d6f721f	0.058458444
130	0x3d6b7563	0.057484996
131	0xbd16992e	-0.036767177
132	0x3de8c8e8	0.11366445
133	0xbda942e8	-0.082647145
134	0x3dd84d7d	0.10561655
135	0xbd66c923	-0.056344163
136	0x3b8ae8a6	0.0042391596
137	0x3dad3d50	0.0845896
138	0x3b88fe5f	0.004180714
139	0x3db7ad00	0.08968544
140	0xbcda0b7e	-0.026616808
141	0xbd35a855	-0.044349987
142	0x3d746c95	0.059673864
143	0xbd79740b	-0.060901683
144	0x3dad327b	0.08456894
145	0x3d0f37de	0.03496539
146	0xbba2a9f1	-0.0049641063
147	0xbcedf3b4	-0.02904687
148	0x3c4c0b7d	0.012453911
149	0x3d23a421	0.039951447
150	0xbcf0268f	-0.029315261
151	0xbc29e491	-0.010369436
152	0x3c52a4fe	0.01285672
153	0xbc98b718	-0.018641993
154	0xbac78018	-0.001522067
155	0xbc7c31b0	-0.015392706
156	0x3a96c11e	0.0011501645
157	0xbcac6d0a	-0.021048088
158	0x3dcfaea1	0.1014073
159	0xbd41800d	-0.04724126
160	0xbd9f461b	-0.077770434
161	0xbab28845	-0.0013620934
162	0xbc29c180	-0.010361075
163	0x3c9ec35e	0.019380268
164	0x3d59e466	0.053196333
165	0xbc1acd01	-0.009448291
166	0x3c8c2dd0	0.017111689
167	0x3cebaf4f	0.028770117
168	0xbd2f85b8	-0.042852134
169	0x3d4b0cf2	0.049572892
170	0xbd335cf5	-0.043789823
171	0xba04f8ee	-0.0005072494
172	0xbd4e1f51	-0.050322834
173	0x3c57f344	0.013180558
174	0xbd2256a2	-0.0396334
175	0xbb3f41b2	-0.0029183445
176	0xbe174766	-0.1477333
177	0x3dac17a0	0.084029436
178	0xbdce110b	-0.100618444
179	0x3c3a8052	0.011383133
180	0x3db21f2c	0.08697352
181	0xbd9bc264	-0.076054364
182	0x3c98018a	0.018555421
183	0xbd08c0b7	-0.033386912
184	0x3c999765	0.018748948
185	0x3d2c5647	0.042074468
186	0x3daf03b5	0.08545629
187	0x3d91c728	0.07118064
188	0x3d94fe1f	0.07275032
189	0x3dfd485f	0.12367319
190	0x3d456e73	0.048201036
191	0x3d5f129a	0.0544611
192	0xbcae5c2d	-0.021284187
193	0x3dba4b38	0.09096378
194	0x3d776f50	0.06040889
195	0x3d6a7f6f	0.057250436
196	0x3d7159a0	0.058923364
197	0x3dc00106	0.09375195
198	0x3e0c8e92	0.13726261
199	0x3d8ad3a3	0.06778648
200	0x3d09c937	0.03363916
201	0x3ba2b416	0.0049653156
202	0x3d7e8841	0.06214166
203	0x3d16fe00	0.036863327
204	0xba02ec6f	-0.0004994338
205	0xbd2dae55	-0.042402584
206	0x3cc96e8e	0.02458885
207	0xbd2d2b4a	-0.04227761
208	0xbd827b16	-0.06371133
209	0xbd371d36	-0.044705592
210	0xbd6f856d	-0.058476854
211	0xbd98c520	-0.074594736
212	0xbdb6f87d	-0.08934114
213	0xbd8663e8	-0.06562024
214	0x3c8dfae2	0.017331544
215	0x3d9bf962	0.07615925
216	0x3d48a932	0.048989482
217	0x3d2dfea6	0.04247918
218	0x3d322c91	0.043499533
219	0x3d85a263	0.065251134
220	0x3d6019b6	0.05471202
221	0xbb850108	-0.004058961
222	0x3b8d0230	0.0043032393
223	0x3c256b82	0.010096433
224	0xbd9449b9	-0.07240624
225	0xbd4251ef	-0.04744142
226	0xbd89ea61	-0.06734157
227	0x3c1731da	0.009228194
228	0x3d68b013	0.056808542
229	0xbd9bea28	-0.07613021
230	0x3d4cb469	0.04997674
231	0xbdcc90e0	-0.0998857
232	0xbd9d4d3e	-0.076807484
233	0xbda1f533	-0.07908096
234	0xbe0d722d	-0.13813086
235	0xbd8dff3a	-0.06933446
236	0xbd759f14	-0.05996616
237	0xbc255c80	-0.0100928545
238	0xbda970e3	-0.082734846
239	0xbdbb0f2c	-0.09133753
240	0xbd8a470f	-0.067518346
241	0xbda9b10f	-0.08285724
242	0xbe08d6ee	-0.13363239
243	0xbe0f175c	-0.13973755
244	0xbdfe6bb4	-0.124228865
245	0xbd48cf5b	-0.049025875
246	0xbdb77bf8	-0.08959192
247	0xbd87a5a5	-0.06623391
248	0xbd6ee377	-0.058322396
249	0x3c15cd38	0.009143166
250	0x3ca6c26e	0.020356383
251	0xbc3eda01	-0.011648656
252	0x3dcb6618	0.09931582
253	0xbd1eb997	-0.03875121
254	0x3ddb99e5	0.107227124
255	0xbd52badb	-0.05144773

fc1.bias f4 [128]
0	0x3da794a3	0.08182647
1	0x3de1d02a	0.11026032
2	0x3ca18294	0.019715585
3	0xbc370147	-0.011169738
4	0x3cfef058	0.031120464
5	0x3cd79ed6	0.026320856
6	0x3ccbbf20	0.024871409
7	0x3d1d4a20	0.03840077
8	0x3c5b9cfd	0.013404128
9	0x3bf8e18a	0.0075952457
10	0x3debef29	0.115202256
11	0xbe07ebbc	-0.1327352
12	0x3dd197eb	0.10234054
13	0x3db34f2c	0.08755335
14	0xbd9a31e1	-0.07529045
15	0x3c96505b	0.018348863
16	0x3e0351bb	0.12824146
17	0xbc57eb8a	-0.0131787155
18	0x3c12bf85	0.008956795
19	0xbd495176	-0.049149953
20	0xbdec139e	-0.11527179
21	0x3afef42a	0.0019451429
22	0xbdbaa8d2	-0.09114231
23	0x3d2b4fc2	0.04182411
24	0x3e02b479	0.12764157
25	0x3d0e9464	0.034809485
26	0x3cecfde8	0.028929666
27	0x3dad4abb	0.08461519
28	0xbdea5ef6	-0.114438936
29	0x3d843da2	0.06457068
30	0x3d06d3fb	0.032917004
31	0x3da09e03	0.07842638
32	0x3d0d6e94	0.034529284
33	0xbcde06d3	-0.027102863
34	0xbc78a430	-0.015175864
35	0xbd6ae73e	-0.057349436
36	0x3c8eba4c	0.017422818
37	0xbb66335d	-0.003512583
38	0xbdc2e3bf	-0.09516095
39	0x3cdf029b	0.027222922
40	0xbdc917fd	-0.098190285
41	0xbd2d35da	-0.042287685
42	0x3c8bb30d	0.017053152
43	0xbda2d1e6	-0.07950191
44	0x3d7e3d4b	0.062070172
45	0xbd6d1eb4	-0.05789061
46	0x3d0c338e	0.034228854
47	0x3ce238ea	0.02761503
48	0x3c698eeb	0.014255266
49	0xbd4b3b5a	-0.04961715
50	0x3c6c0bfb	0.014407153
51	0xbc1a5889	-0.0094205225
52	0xbcbb0bb2	-0.022832725
53	0xbd96431a	-0.07337017
54	0xbcbbcc04	-0.02292443
55	0x3db9450a	0.09046371
56	0xbd167e45	-0.036741514
57	0x3ca36da8	0.01994975
58	0x3bca34d4	0.0061708484
59	0xbd817c4a	-0.063225344
60	0x3d810b68	0.06301004
61	0xbd7cc0bb	-0.06170724
62	0x3cb636d8	0.022242948
63	0xbce7c29a	-0.028291035
64	0xbd699a9b	-0.05703221
65	0xbca42616	-0.020037692
66	0xbccf3c0f	-0.025297193
67	0x3c69aa0f	0.014261737
68	0x3d91a310	0.0711118
69	0x3c844c7d	0.016149754
70	0x3e0e6c00	0.13908386
71	0x3d6c51b7	0.057695117
72	0x3bb3678d	0.0054749907
73	0xbd487f7b	-0.0489497
74	0x3bdf59ca	0.0068161236
75	0x3bd70ee3	0.006563054
76	0x3df9ac7c	0.12191102
77	0x3dccc2f2	0.0999812
78	0x3d77c45d	0.06049
79	0xbccb61a5	-0.024826834
80	0xbe08355c	-0.13301605
81	0x3d662655	0.0561889
82	0x3cc5d71c	0.024150424
83	0x3cdbeb30	0.026845545
84	0xbd523077	-0.05131575
85	0xbbb7940b	-0.005602365
86	0x3c6de7f3	0.014520633
87	0x3cf29a16	0.02961449
88	0xbd6a6437	-0.05722448
89	0x3d5b907a	0.05360458
90	0xbb42e425	-0.0029738036
91	0xbb5fc025	-0.0034141627
92	0xbd084b4c	-0.033274934
93	0x3dba86e2	0.09107758
94	0x3d6eb1d0	0.058275044
95	0xbc06cfc1	-0.008228243
96	0xbc93fdca	-0.018065352
97	0x3d9cab3a	0.076498464
98	0xbe1af784	-0.15133482
99	0x3dbc3ae2	0.091909185
100	0xbc81a213	-0.015824353
101	0xbd9364d6	-0.07196967
102	0x3c876cd9	0.016531395
103	0x3d5a4d72	0.053296514
104	0x3d537bb5	0.051631648
105	0xbd67ba22	-0.056573994
106	0x3c906374	0.017625548
107	0x3d294036	0.041321002
108	0xbd0eadd7	-0.034833755
109	0x3d81777e	0.063216195
110	0xbc964042	-0.018341187
111	0xbbfbd84f	-0.007685698
112	0xbd1968cf	-0.03745347
113	0x3d4b2102	0.049592026
114	0x3d1cda66	0.03829422
115	0xbd4b7124	-0.049668446
116	0x3d750a54	0.059824303
117	0x3cc1a55c	0.02363842
118	0x3dac5012	0.0841371
119	0x3dc09ec6	0.09405284
120	0x3c8e1032	0.017341707
121	0xbd048d40	-0.03236127
122	0xbd5750d1	-0.052567307
123	0x3d328d98	0.043592066
124	0xbd14d373	-0.036334466
125	0xbd561844	-0.052269235
126	0x3d5e678f	0.05429798
127	0xbdaa9093	-0.083283566
