model/Autoencoder/encoder_256d.pt (torch, 825619 bytes, 16 tensors)

conv1.weight f4 [8, 1, 3, 3]
0.063470155 -0.064945646 -0.14295225 0.15572809 0.11047219 0.26827383 -0.06794411 -0.1931496
-0.22865437 -0.2047485 0.10002705 2.6730268 -0.1547015 -0.36472127 2.425994 -0.08095144
-0.0851137 3.206889 0.14276193 0.014427307 3.0057771 -0.08767238 -0.52701396 -0.12441026
0.13591884 0.21613704 0.42805505 -0.18071705 0.09966999 0.3062613 0.15302849 -0.19884765
-0.065191716 -0.08693169 -0.11046002 -0.15300937 0.12086716 0.0032507633 -0.010777689 0.0457508
-0.12671071 -0.18118337 0.01082146 0.06650952 -0.14404443 4.360222 -0.008416472 -0.15125296
-0.30233777 -0.42728603 -0.04223668 0.4449303 0.21976487 -0.11868204 -0.230425 -0.11952486
-0.18337698 0.20650019 0.07209422 0.24504931 0.0019646012 0.06985538 -0.06556935 -0.14319845
-0.15065223 -0.083109535 -0.114569664 -0.057569273 -0.08851683 0.053511538 0.049856 0.12560989
00000000: a4fc 813d 3902 85bd 1362 12be 2f77 1f3e
00000010: 3e3f e23d 305b 893e 4826 8bbd 02c9 45be
00000020: 5f24 6abe 97a9 51be fbda cc3d df12 2b40
00000030: 126a 1ebe bfbc babe 7c43 1b40 dec9 a5bd
00000040: 1750 aebd ab3d 4d40 2f30 123e 8360 6c3c
00000050: a75e 4040 948d b3bd 63ea 06bf ceca febd
00000060: 4f2e 0b3e 0753 5d3e 082a db3e e40d 39be
00000070: c81f cc3d 48ce 9c3e 80b3 1c3e b89e 4bbe
00000080: 3c83 85bd 3e09 b2bd dd38 e2bd 7dae 1cbe
00000090: 3489 f73d c20a 553b e794 30bc 3165 3b3d
000000a0: 74c0 01be 2288 39be 7e4c 313c 2536 883d
000000b0: 6280 13be f086 8b40 3ee5 09bc 0ee2 1abe
000000c0: 04cc 9abe 3cc5 dabe 5e00 2dbd e7cd e33e
000000d0: 0b0a 613e 920f f3bd 88f4 6bbe 73c9 f4bd
000000e0: 2dc7 3bbe c974 533e 22a6 933d 35ee 7a3e
000000f0: 8ac0 003b 5610 8f3d 3949 86bd 9da2 12be
00000100: 9444 1abe 5535 aabd 80a3 eabd c2cd 6bbd
00000110: 5048 b5bd ea2e 5b3d ce35 4c3d e19f 003e

conv1.bias f4 [8]
0.74943656 0.114353366 -0.15994373 0.38837957 0.83907723 0.088418536 0.91118187 0.6789254
00000000: 13db 3f3f 1932 ea3d 4ac8 23be b0d9 c63e
00000010: c4cd 563f c714 b53d 3743 693f 0ece 2d3f

conv2.weight f4 [16, 8, 5, 5]
-0.104226284 0.27913225 0.11244619 0.22669473 0.19271426 0.042054165 0.1228771 -0.10786529
-0.16485429 -0.123514965 -0.08693012 -0.13443539 -0.012542844 0.058555476 -0.088720866 0.087468974
-0.15528786 -0.09315582 0.033028964 0.11052006 -0.051426705 -0.11739292 -0.013056357 -0.1677674
-0.11259184 0.46595323 0.49524218 0.3477635 -0.045175176 -0.033177014 0.19345944 0.41509947
-0.5085456 -0.034336228 -0.061618097 0.33191645 0.2307753 -0.03418699 0.081059985 0.05250028
0.11356656 0.11760092 -0.4444761 -0.009312737 0.063876286 0.24634634 0.047627456 -0.75153357
-0.0293222 -0.020644708 0.048780434 0.14685865 0.16664882 0.3474142 0.12708953 -2.556779
-1.8188449 -1.3798947 -0.07413108 0.073049374 -3.2203796 -3.0543723 -3.358757 -0.19526306
-0.15801856 0.3489712 -0.27086502 -0.2569278 0.027458478 -0.024056574 -0.030818265 0.04720642
-0.45774335 -0.015906796 0.022118876 0.096416816 0.05620911 0.12197152 0.090434 0.11809863
-0.027411731 -0.12174943 -0.25379494 -0.16388023 -0.08199517 0.099927194 -0.13930514 -0.05827458
0.014439604 0.10228574 -0.03721775 0.18210025 0.16062091 0.047813863 -0.04619597 -0.11092511
0.094683826 0.10170307 0.061470337 -0.07533987 -0.018306457 0.08283709 0.0039396887 0.07844838
-0.015823154 -0.08700416 -0.013154664 -0.01557378 -0.11216867 -0.035794068 -0.030465778 0.04517044
-0.0058262176 -0.055805326 -0.0046865805 0.004006242 0.008774851 0.047516786 -0.005122331 0.005269922
-0.012056344 0.016857607 0.072903976 0.080825344 0.07500744 -0.19643326 -0.035127852 -0.14487462
0.08570406 -0.053357348 0.09589042 -0.06596157 -1.7689909 -1.058282 -1.174157 -0.045776453
-0.066370256 -0.11241251 -0.27474946 0.11079355 -0.075918145 -0.00020490233 0.02095786 -0.07439645
0.2808509 0.031877514 0.000367676 0.0547846 -0.17874564 -0.118833676 -0.04680036 -0.0038631228
0.043976102 -0.04137203 -0.044328194 0.043406155 0.10009742 0.0072214785 -0.18159471 0.11472169
0.029974425 -0.17559002 0.027755907 0.110929966 -0.059920117 -0.05637039 0.07598457 -0.0064792223
-0.0070787854 -0.015108929 -0.03828335 0.044957615 -0.01773795 0.003951632 0.01929706 0.04492827
0.041942216 0.038908157 -0.02216964 -0.10528943 -0.015223881 -0.021704702 -0.001668141 0.07734801
0.007557403 -0.058872163 0.032870606 -0.07326061 -0.08954043 0.019943392 -0.02151901 0.047152303
0.04349316 0.06648158 0.017919827 -0.045828182 -0.021637464 -0.007942805 -0.07491872 0.0012081875
0.057645805 0.12688266 0.029441465 0.11667296 0.09324517 0.12533712 0.055722296 0.009481527
-0.01679438 -0.032272026 -0.036071185 -0.019481126 -0.025501398 -0.044384863 -0.065226644 0.012240552
0.050377876 0.022827052 0.06420252 0.048990384 -0.02309172 -0.010090214 0.11729447 -0.00463943
0.05455137 0.24361944 0.1247831 -0.04421357 -0.26640794 -0.16052443 0.19405119 0.044113155
-0.022110794 -0.17845885 -0.039366994 0.18384711 0.04604063 -0.099599935 -0.12338216 0.101675965
-0.0980188 -0.11544271 -0.13024531 0.01210592 -0.032217115 -0.05646649 0.013250904 -0.12988228
-0.031470343 -0.12206925 -0.13241658 0.0017301033 0.26175797 -0.07594988 -0.014667383 -0.12566121
00000000: 9774 d5bd 6cea 8e3e 304a e63d aa22 683e
00000010: e356 453e fd40 2c3d fda6 fb3d 7ae8 dcbd
00000020: 90cf 28be 6af5 fcbd 6b08 b2bd 6ea9 09be
00000030: 8080 4dbc ded7 6f3d 49b3 b5bd ef22 b33d
00000040: c803 1fbe 7bc8 bebd 6149 073d 5758 e23d
00000050: cfa4 52bd b36b f0bd 55ea 55bc 38cb 2bbe
00000060: 8d96 e6bd 6c91 ee3e 6290 fd3e 0f0e b23e
00000070: 9b09 39bd 9fe4 07bd 3b1a 463e eb87 d43e
00000080: 0b30 02bf 25a4 0cbd 4263 7cbd f4f0 a93e
00000090: 5c50 6c3e a807 0cbd c702 a63d 890a 573d
000000a0: 9695 e83d c0d8 f03d 5f92 e3be 7394 18bc
000000b0: 92d1 823d 3742 7c3e 0215 433d 8164 40bf
000000c0: 1c35 f0bc 171f a9bc fecd 473d 1d62 163e
000000d0: fda5 2a3e 46e0 b13e c223 023e 44a2 23c0
000000e0: e9cf e8bf 64a0 b0bf 09d2 97bd e99a 953d
000000f0: b31a 4ec0 d67a 43c0 e0f5 56c0 0af3 47be
00000100: 9ecf 21be 5aac b23e d2ae 8abe 0a8c 83be
00000110: 9af0 e03c 4b12 c5bc 9676 fcbc 855b 413d
00000120: 565d eabe f84e 82bc a532 b53c 2e76 c53d
00000130: 863b 663d 34cc f93d 7635 b93d b2dd f13d
00000140: 918e e0bc c457 f9bd 69f1 81be 38d0 27be
00000150: 15ed a7bd a1a6 cc3d 02a6 0ebe 53b1 6ebd
00000160: 1794 6c3c 307b d13d a471 18bd 7d78 3a3e
00000170: cf79 243e 78d8 433d fc37 3dbd b42c e3bd
00000180: 98e9 c13d b349 d03d 52c8 7b3d ca4b 9abd
00000190: 6cf7 95bc 7ea6 a93d 8118 813b 8ba9 a03d
000001a0: 8f9f 81bc 3d2f b2bd a986 57bc 2b29 7fbc
000001b0: b0b8 e5bd cd9c 12bd 5e93 f9bc a404 393d
000001c0: dbe9 bebb 2094 64bd e391 99bb cb46 833b
000001d0: 65c4 0f3c f6a0 423d 3ad9 a7bb 4faf ac3b
000001e0: f987 45bc f718 8a3c ae4e 953d c287 a53d
000001f0: 809d 993d cd25 49be 39e2 0fbd 035a 14be
00000200: 9c85 af3d 3c8d 5abd 3262 c43d dc16 87bd
00000210: 4b6e e2bf c975 87bf c74a 96bf 1780 3bbd
00000220: 21ed 87bd 8838 e6bd f6ab 8cbe bbe7 e23d
00000230: f97a 9bbd 0ddb 56b9 d1af ab3c 2a5d 98bd
00000240: b0cb 8f3e ff91 023d a3c4 c039 d165 603d
00000250: 1909 37be 125f f3bd bcb1 3fbd 722c 7dbb
00000260: 4920 343d b875 29bd 7b91 35bd a7ca 313d
00000270: e0ff cc3d 27a2 ec3b f7f3 39be 35f3 ea3d
00000280: ed8c f53c dfcd 33be 5b60 e33c 402f e33d
00000290: cc6e 75bd a3e4 66bd cc9d 9b3d a84f d4bb
000002a0: 28f5 e7bb 718b 77bc 01cf 1cbd 7a25 383d
000002b0: 2d4f 91bc b17c 813b de14 9e3c b506 383d
000002c0: 9acb 2b3d 295e 1f3d 1b9d b5bc fca1 d7bd
000002d0: 966d 79bc 0fce b1bc 86a5 daba a268 9e3d
000002e0: 17a4 f73b f023 71bd 54a3 063d a909 96bd
000002f0: f960 b7bd 5360 a33c a348 b0bc c622 413d
00000300: e225 323d 7f27 883d 9acc 923c 55b6 3bbd
00000310: 0d41 b1bc 8a22 02bc fc6e 99bd 0c5c 9e3a
00000320: 021e 6c3d 87ed 013e 3a2f f13c 3cf2 ee3d
00000330: 53f7 be3d 6058 003e 103d 643d 6858 1b3c
00000340: 5e94 89bc ac2f 04bd 61bf 13bd e296 9fbc
00000350: 4fe8 d0bc e7cc 35bd 8c95 85bd 998c 483c
00000360: 0859 4e3d ccff ba3c 9c7c 833d 24aa 483d
00000370: d92a bdbc 6d51 25bc 1538 f03d 5c06 98bb
00000380: 4271 5f3d 6077 793e 488e ff3d 4a19 35bd
00000390: 9f66 88be 8460 24be 5bb5 463e ffaf 343d
000003a0: b221 b5bc ebbd 36be 493f 21bd 6b42 3c3e
000003b0: 1a95 3c3d 0dfb cbbd c9af fcbd 7d3b d03d
000003c0: 15be c8bd 3a6d ecbd 075f 05be e957 463c
000003d0: 18f6 03bd 6849 67bd 521a 593c dcff 04be
000003e0: 0ce7 00bd 71ff f9bd 3698 07be a2c4 e23a
000003f0: 2405 863e 9c8b 9bbd 774f 70bc 55ad 00be

conv2.bias f4 [16]
0.00020489474 -8.0836e-05 5.5665914e-05 1.5564148e-05 0.000104379724 0.00023387876 -0.00014143014 -9.979329e-06
9.542163e-05 2.161992e-06 -1.3218452e-05 0.00013813331 3.324845e-05 3.244144e-05 -5.8222893e-05 -4.8257007e-05
00000000: 03d9 5639 7f86 a9b8 d27a 6938 c18f 8237
00000010: 70e6 da38 5a3d 7539 dd4c 14b9 e46c 27b7
00000020: 191d c838 bd16 1136 d2c4 5db7 e1d7 1039
00000030: 4074 0b38 bb11 0838 5b34 74b8 9167 4ab8

bn1.weight f4 [16]
0.55848986 0.8486254 0.930638 1.2091849 0.8492882 0.93341297 0.92969346 0.89627856
1.0862378 0.88976467 1.0143367 0.99138916 1.1703763 0.8125164 1.1616408 1.1313177
00000000: 31f9 0e3f 843f 593f 4b3e 6e3f 92c6 9a3f
00000010: f46a 593f 27f4 6e3f 6400 6e3f 8372 653f
00000020: d709 8b3f 9ec7 633f c9d5 813f aecb 7d3f
00000030: e4ce 953f 1301 503f a5b0 943f 05cf 903f

bn1.bias f4 [16]
1.1224848 0.41174743 0.04437338 -0.07933577 1.1650438 0.462794 0.1992414 0.10235441
0.5362459 -0.005659746 0.39642334 0.10685747 0.8926849 0.9194696 -0.08419207 0.3960982
00000000: 95ad 8f3f 8fd0 d23e dcc0 353d cb7a a2bd
00000010: 2820 953f 56f3 ec3e f005 4c3e 309f d13d
00000020: 6947 093f 6475 b9bb 00f8 ca3e 17d8 da3d
00000030: ff86 643f 5c62 6b3f e46c acbd 62cd ca3e

bn1.running_mean f4 [16]
-4.0591836 7.061743 -26.404621 -23.904621 0.060250055 -2.372752 6.767699 -8.468844
0.08305461 27.056347 3.4821455 -1.3806652 -2.6970577 -3.6016498 -4.1908507 5.9736724
00000000: d5e4 81c0 ccf9 e140 aa3c d3c1 aa3c bfc1
00000010: c3c8 763d 2bdb 17c0 fd90 d840 6380 07c1
00000020: 8918 aa3d 6673 d841 79db 5e40 a3b9 b0bf
00000030: 989c 2cc0 6e81 66c0 731b 86c0 5328 bf40

bn1.running_var f4 [16]
420.01785 219.85007 134.0961 175.827 95.35997 57.078304 76.94543 45.954117
77.19585 192.04453 77.202965 19.609886 155.3698 292.91608 37.43876 126.83463
00000000: 4902 d243 9ed9 5b43 9a18 0643 b6d3 2f43
00000010: 4eb8 be42 2f50 6442 0fe4 9942 04d1 3742
00000020: 4664 9a42 660b 4043 eb67 9a42 0ce1 9c41
00000030: ab5e 1b43 4275 9243 4ac1 1542 55ab fd42

conv3.weight f4 [32, 16, 5, 5]
-0.065948695 0.068574704 -0.025699161 0.017609147 0.005762529 0.28095835 -0.45342636 0.19925144
-0.0042209034 -0.023328722 0.030149369 -0.028166816 0.026906854 -0.017947858 3.9398394e-05 0.038450368
0.008464224 0.04582813 -0.021862349 0.0066932007 0.11232346 -0.21680008 0.12891975 -0.0036117942
0.022028582 -0.25886783 -0.36183274 -0.37117338 0.023566252 0.08386833 0.05262094 0.032745562
-0.044576403 0.069153495 0.02376159 -0.071923785 0.10298796 -0.041705035 0.013054562 -0.00986493
-0.10385841 0.08341698 -0.016416412 -0.026708681 0.0112687275 -0.038542017 0.073623545 0.020949213
-0.016035829 0.025017971 -0.13427198 0.25237277 0.06084458 0.010912316 -0.050263964 -0.008159702
-0.070860185 0.032220665 -0.014978339 -0.034440193 0.011993002 0.012299371 -0.008015423 0.008612488
-0.009107138 0.054110534 -0.0036609396 -0.04166301 0.014274548 0.008347374 0.031864654 0.061743595
-0.022040594 0.05607811 -0.010348525 -0.25510007 0.3644655 -0.001177837 0.017817238 -0.032053936
-0.008512456 0.06283413 -0.006864492 -0.012856516 0.014342254 0.034017954 -0.03021184 0.0034050494
0.00881284 0.013872825 0.018146273 -0.046516914 0.0075875195 0.045853954 -0.027347991 -0.07177332
-0.01629341 -0.052782558 0.018297452 0.024809904 0.055875905 -0.1311496 0.117480345 -0.07649837
-0.004849762 0.008265732 -0.028639272 0.009919335 -0.013528426 0.031378552 -0.021499736 0.04244737
-0.027991833 0.018597243 -0.0029366594 -0.077433795 0.078990065 -0.049242165 0.010055061 -0.020195916
-0.009455434 0.10536166 -0.044186972 -0.0010445628 -0.028282689 -0.02306119 0.1394128 -0.25037238
0.079105034 0.036402375 -0.06699441 0.07343966 0.041954596 -0.030034382 -0.0056130723 0.012986634
-0.016585154 -0.020947028 0.012279857 0.024448548 0.008322856 -0.023768168 0.002780769 0.0031786026
-0.03144936 0.07585443 -0.21215338 0.14838022 -0.035585918 -0.0026803801 0.1131027 0.11835838
0.02878214 0.012311474 -0.07581484 0.14169915 -0.051314883 0.07313183 -0.010704967 -0.072006874
0.024012152 0.0051292297 0.0529647 0.054754265 0.014601059 -0.071033806 -0.06446059 0.037420142
-0.026007041 0.016544627 0.020172803 0.038333524 0.0035633508 -0.06088531 -0.009753597 -0.093116805
0.09574416 -0.052561425 -0.012224753 -0.022778478 0.14099868 -0.10379586 -0.07077911 0.067956656
0.02197099 0.0305012 0.024582855 -0.039663803 0.023395693 0.009770633 -0.008297713 0.013789213
0.0144033 -0.008978115 0.008404873 0.08540919 -0.039046694 -0.005598876 -0.024236824 0.05306712
-0.060970467 0.12608825 -0.09313471 0.051282205 -0.0021050766 -0.03933975 0.26411363 -0.040513746
0.046964884 0.01849992 -0.029637551 -0.007439133 -0.028911678 -0.01255106 0.0016159107 0.09112931
-0.10654022 0.043943673 0.007685731 0.007273583 0.07403922 -0.022591678 -0.024957228 -0.012309795
-0.029433165 0.23236182 -0.2333573 -0.31224474 -0.00091040926 0.13936533 0.03369147 0.070939235
-0.020259686 0.056193132 0.017707612 -0.05590188 0.017005831 -0.03552534 0.026062734 -0.0003143736
-0.034505475 -0.03245727 0.031314157 0.00955011 -0.04676354 0.0078453515 0.049864408 0.029848427
-0.012009699 -0.0042834287 0.027657898 -0.011139699 -0.087091185 0.04019899 0.03636039 -0.022678562
00000000: 1c10 87bd e570 8c3d 0c87 d2bc 0f41 903c
00000010: 99d3 bc3b c6d9 8f3e 8027 e8be 9208 4c3e
00000020: 814f 8abb e01b bfbc cffb f63c 18be e6bc
00000030: c36b dc3c 6307 93bc b43f 2538 227e 1d3d
00000040: 87ad 0a3c 47b6 3b3d ab18 b3bc a352 db3b
00000050: d809 e63d d700 5ebe 8a03 043e dab3 6cbb
00000060: 4975 b43c 538a 84be 2442 b9be 700a bebe
00000070: 030e c13c 29c3 ab3d 0e89 573d 3620 063d
00000080: bf95 36bd 59a0 8d3d aaa7 c23c c74c 93bd
00000090: 5aeb d23d e6d2 2abd cde2 553c 84a0 21bc
000000a0: b8b3 d4bd 86d6 aa3d b67b 86bc 2acc dabc
000000b0: 78a0 383c 3cde 1dbd f1c7 963d af9d ab3c
000000c0: 925d 83bc 7df2 cc3c 987e 09be 0137 813e
000000d0: 2b38 793d 92c9 323c 96e1 4dbd 45b0 05bc
000000e0: 251f 91bd d1f9 033d b567 75bc 2911 0dbd
000000f0: 4c7e 443c 4d83 493c 1f53 03bc 651b 0d3c
00000100: 1b36 15bc 02a3 5d3d 60ec 6fbb d5a6 2abd
00000110: cbdf 693c 6dc3 083c 8384 023d dae6 7c3d
00000120: 7a8e b4bc 29b2 653d dc8c 29bc 7a9c 82be
00000130: 399b ba3e a761 9aba 75f5 913c fd4a 03bd
00000140: d477 0bbc 2eaf 803d 88ef e0bb 23a4 52bc
00000150: c6fb 6a3c 6956 0b3d d27e f7bc 4027 5f3b
00000160: bb63 103c d84a 633c 7ea7 943c 8588 3ebd
00000170: baa0 f83b 5bd1 3b3d e508 e0bc e4fd 92bd
00000180: c279 85bc 8632 58bd 8ae4 953c 243e cb3c
00000190: 22de 643d 154c 06be 8999 f03d 2dab 9cbd
000001a0: c1ea 9ebb fe6c 073c e89c eabc b584 223c
000001b0: 55a6 5dbc cc86 003d 3720 b0bc 4bdd 2d3d
000001c0: 214f e5bc 3f59 983c f874 40bb 9c95 9ebd
000001d0: 8bc5 a13d 27b2 49bd fcbd 243c e871 a5bc
000001e0: f7ea 1abc dbc7 d73d 66fd 34bd b6e9 88ba
000001f0: 19b1 e7bc d2ea bcbc 3bc2 0e3e cf30 80be
00000200: d201 a23d a81a 153d 5d34 89bd 8867 963d
00000210: 95d8 2b3d aa0a f6bc dded b7bb e4c5 543c
00000220: 97dd 87bc 1a99 abbc 7431 493c 5248 c83c
00000230: 975c 083c 76b5 c2bc 903d 363b 1a50 503b
00000240: 0bd1 00bd 9159 9b3d bc3e 59be fcf0 173e
00000250: 8ac2 11bd 51a9 2fbb 63a2 e73d e165 f23d
00000260: 86c8 eb3c 11b6 493c d044 9bbd 9519 113e
00000270: 8e2f 52bd 24c6 953d e363 2fbc 5778 93bd
00000280: 22b5 c43c 1913 a83b 83f1 583d 0246 603d
00000290: 4839 6f3c 2c7a 91bd ea03 84bd dd45 193d
000002a0: b80c d5bc 9988 873c 6f41 a53c 9d03 1d3d
000002b0: 1b87 693b e062 79bd 8dcd 1fbc 06b4 bebd
000002c0: 8415 c43d a64a 57bd 554a 48bc ee99 babc
000002d0: f561 103e ed92 d4bd a3f4 90bd dc2c 8b3d
000002e0: 81fc b33c a7dd f93c fc61 c93c 8376 22bd
000002f0: 53a8 bf3c 0115 203c 21f3 07bc 27ec 613c
00000300: d2fb 6b3c f218 13bc 98b4 093c 03eb ae3d
00000310: 6def 1fbd c776 b7bb 4e8c c6bc e95c 593d
00000320: 2bbc 79bd 471d 013e 69bd bebd 4a0d 523d
00000330: 53f5 09bb b822 21bd e739 873e bef1 25bd
00000340: 405e 403d 258d 973c 73ca f2bc f8c3 f3bb
00000350: 2fd8 ecbc f6a2 4dbc f7cc d33a 01a2 ba3d
00000360: c231 dabd 48fe 333d 96d8 fb3b 3d57 ee3b
00000370: e0a1 973d 2f12 b9bc 1a73 ccbc 06af 49bc
00000380: d21d f1bc 42f0 6d3e 37f5 6ebe 8bde 9fbe
00000390: 88a8 6eba c9b5 0e3e 1100 0a3d 9748 913d
000003a0: a4f7 a5bc c52a 663d 8e0f 913c 5ff9 64bd
000003b0: d04f 8b3c 0583 11bd 8481 d53c 83d2 a4b9
000003c0: 9d55 0dbd eaf1 04bd 4643 003d 1178 1c3c
000003d0: 208b 3fbd ca89 003c 9f3e 4c3d b084 f43c
000003e0: 54c4 44bc 015c 8cbb d192 e23c 4983 36bc
000003f0: dd5c b2bd b2a7 243d a2ee 143d 64c8 b9bc

conv3.bias f4 [32]
-0.00011332133 -0.00054984394 3.5622594e-05 0.00011848315 9.602902e-05 0.001053876 5.514452e-05 -5.956863e-05
5.6692097e-05 7.513918e-05 0.00020202111 -3.2469743e-05 -1.4412813e-05 0.00012562826 -0.00019285984 8.685968e-05
-2.7767977e-05 0.00092523516 -5.4568092e-05 -3.2657346e-05 8.7619606e-05 -6.000857e-06 5.2377385e-05 0.00011930315
0.00029456706 -3.406007e-05 7.024592e-06 8.2485196e-05 0.00019636641 -6.839671e-05 -2.628723e-06 0.000112768284
00000000: eda6 edb8 6723 10ba 7869 1538 287a f838
00000010: 3063 c938 3622 8a3a fa4a 6738 54d9 79b8
00000020: adc8 6d38 0a94 9d38 a1d5 5339 1f30 08b8
00000030: 8fce 71b7 14bb 0339 6b3a 4ab9 7028 b638
00000040: 47ef e8b7 7b8b 723a 0be0 64b8 8ff9 08b8
00000050: 6bc0 b738 f85a c9b6 caaf 5b38 6432 fa38
00000060: 1f70 9a39 b9db 0eb8 c9b4 eb36 e7fb ac38
00000070: b5e7 4d39 3470 8fb8 1e69 30b6 037e ec38

bn2.weight f4 [32]
0.48161316 0.94931513 0.7757034 0.44821587 0.80711365 1.0268086 0.32972208 0.5077763
0.38262543 0.5086643 0.53905845 0.91402745 0.6167721 0.88471615 0.3740177 0.34227178
0.6158604 0.44659406 0.69323456 1.0344799 0.5207493 0.5957678 0.6871585 0.91765684
0.59274846 0.56648856 0.4445932 0.44968268 0.34833005 1.0295331 1.0755142 0.8681807
00000000: 0096 f63e 5106 733f 7f94 463f 8d7c e53e
00000010: 009f 4e3f 776e 833f 55d1 a83e a1fd 013f
00000020: 7be7 c33e d337 023f bcff 093f b4fd 693f
00000030: c7e4 1d3f c27c 623f 3f7f bf3e 3f3e af3e
00000040: 07a9 1d3f faa7 e43e d277 313f d669 843f
00000050: d34f 053f 3d84 183f 9fe9 2f3f 8feb 6a3f
00000060: 5dbe 173f 6505 113f b8a1 e33e cf3c e63e
00000070: 5158 b23e bec7 833f 73aa 893f 1741 5e3f

bn2.bias f4 [32]
1.1560878 0.40338856 0.4287705 0.9427751 0.18515556 0.20344716 0.84410334 1.1612874
0.86583704 1.1224924 1.1192745 0.14133248 0.45630965 0.14104076 0.8134434 0.92528856
0.36329404 0.91466004 0.40674183 -0.058354776 0.8333449 0.5085127 1.2355664 0.22887012
0.8489772 1.1271607 0.50793815 0.90771735 0.8580067 0.33041027 0.21226926 0.55366606
00000000: affa 933f f288 ce3e cf87 db3e b559 713f
00000010: 6b99 3d3e 7454 503e 2817 583f 11a5 943f
00000020: 7fa7 5d3f d5ad 8f3f 6344 8f3f 76b9 103e
00000030: 6ba1 e93e fd6c 103e d43d 503f b6df 6c3f
00000040: ad01 ba3e 2927 6a3f 7740 d03e 6b05 6fbd
00000050: 1756 553f e32d 023f 0a27 9e3f ee5c 6a3e
00000060: 9256 593f cd46 903f 3c08 023f 2a60 683f
00000070: 54a6 5b3f 892b a93e 1d5d 593e 0fbd 0d3f

bn2.running_mean f4 [32]
0.79661685 3.293564 0.15799311 -1.2845416 -0.6171496 -2.9306574 0.3498442 0.11564709
-0.75024426 0.47384527 -0.5859226 -2.414321 0.52516323 0.8538184 -0.68814695 1.0566399
1.3703996 0.98605174 -0.30561283 -1.1413451 0.78419524 0.7994556 -0.09159827 -0.88949126
0.6127229 0.38465983 -0.6577497 -0.53240716 -0.21405151 1.3308111 1.0335888 -0.7528726
00000000: 15ef 4b3f c1c9 5240 f2c8 213e dc6b a4bf
00000010: 84fd 1dbf e48f 3bc0 c71e b33e 62d8 ec3d
00000020: 0210 40bf d99b f23e 06ff 15bf 3c84 1ac0
00000030: 1971 063f d893 5a3f 662a 30bf fa3f 873f
00000040: 4169 af3f e36d 7c3f 4979 9cbe 9917 92bf
00000050: 05c1 483f 1fa9 4c3f e097 bbbd b3b5 63bf
00000060: 68db 1c3f 22f2 c43e 4962 28bf d64b 08bf
00000070: 5230 5bbe 0558 aa3f a34c 843f 42bc 40bf

bn2.running_var f4 [32]
0.10241994 1.0479403 2.085817 0.21871059 0.7539802 0.86505646 0.19762468 0.16141467
0.1364464 0.24358958 0.2656329 0.9518747 0.70856255 1.1186451 0.20188548 0.16277297
0.5841975 0.21460368 1.2112715 1.4502039 0.11611218 0.29430822 0.30527958 1.0317988
0.124476455 0.1255193 0.2536747 0.21869586 0.18559179 2.1712382 1.4388534 1.2869036
00000000: 8cc1 d13d e822 863f 077e 0540 abf5 5f3e
00000010: d904 413f 5774 5d3f 205e 4a3e e349 253e
00000020: 9bb8 0b3e 8c6f 793e 0901 883e 0fae 733f
00000030: 5b64 353f c32f 8f3f 11bb 4e3e f5ad 263e
00000040: f88d 153f 11c1 5b3e f20a 9b3f 48a0 b93f
00000050: 39cc ed3d 91af 963e 9b4d 9c3e fc11 843f
00000060: 83ed fe3d 2288 003e a6e1 813e cff1 5f3e
00000070: c60b 3e3e 91f5 0a40 592c b83f 42b9 a43f

fc1.weight f4 [256, 736]
0.08338302 0.0024687368 0.014632655 -0.010232323 0.022984432 0.06920814 0.017231653 0.039644517
-0.025590718 -0.045073032 -0.0056608184 0.036430772 0.1546696 0.007677149 -0.007278106 -0.09815337
-0.042269632 0.064821 0.0063510616 0.04305737 0.0013810066 -0.0022646412 0.05810095 0.045578025
0.006190275 0.087613225 0.0036030258 -0.07679449 -0.023580857 0.08487118 0.08463796 -0.064490095
-0.016822651 0.060725957 0.023465117 0.050300896 -0.032831393 0.045357976 0.039406355 0.054180145
-0.027317937 -0.015632259 0.07386617 -0.0316744 -0.03380511 -0.080235474 -0.11441326 0.0143393045
0.077798486 0.011178564 -0.0727329 -0.15446097 -0.085764416 -0.07383501 -0.073791824 -0.025417512
-0.050020035 0.0069943853 -0.025172051 -0.018928943 -0.01279167 -0.0027216861 -0.082239665 -0.031204412
-0.024174735 0.075113766 0.051320046 0.049450982 0.021845745 -0.029607162 -0.052344754 -0.045094293
0.04900014 -0.07995262 0.03830387 -0.0035872173 -0.048854377 -0.050690547 0.020742126 -0.06126678
0.043714467 0.031317756 -0.024912322 0.07406451 -0.100605235 -0.07229275 0.030105198 0.11701331
-0.10575574 -0.0028366966 0.018940574 -0.07489313 -0.0517941 -0.01974808 0.014390037 -0.026573421
-0.003436869 0.032834 -0.02153316 -0.024315597 -0.05751716 -0.010467628 0.04787318 0.058680695
-0.015633821 -0.028089583 -0.016416209 -0.028299417 -0.015485804 0.0047384608 0.012350697 -0.0011247058
-0.008259613 0.0023499322 0.21346031 -0.10607823 0.042027343 -0.033873983 -0.05975944 0.064973556
0.06839315 -0.023320245 -0.07187424 -0.018148514 0.06682838 -0.06490206 -0.043272566 -0.09553392
0.011634682 -0.002993336 -0.011716141 -0.004917064 0.025214264 0.06347218 -0.018415084 -0.029707959
0.09505484 0.022363484 -0.10135434 -0.06291783 -0.05670515 0.058957722 0.10742251 0.043209
0.006410389 -0.037679378 0.045345314 0.02549236 0.032258485 0.031376086 0.19517638 0.07466844
-0.014041769 0.0793455 -0.0049187937 0.0047277147 -0.01829239 0.064792104 0.14417796 0.036526993
-0.21306695 0.078480124 0.12205005 -0.102492824 -0.09275767 -0.0027979766 0.050305564 0.19016394
0.048309915 -0.023130734 -0.0071977023 -0.087124035 -0.013529481 -0.011252832 0.088623084 0.08446045
0.027298313 0.01815896 0.044077907 0.12005511 0.10048246 -0.13453971 -0.048171297 -0.009127188
0.060794942 0.11523335 -0.119758934 0.017603967 0.053014245 -0.057468947 0.014416141 -0.01075746
-0.068840645 0.054749094 -0.0890953 0.052120898 -0.074620984 0.0775763 0.0069062123 0.003977328
-0.027046738 0.06772497 0.03140825 -0.10385661 0.0018276849 0.062249906 0.06488082 0.10965618
0.098225124 -0.05231416 -0.17330018 0.018566277 0.05386174 0.06997676 0.08465396 0.012053589
0.022144109 -0.0046925647 -0.12379125 -0.040940158 0.040769912 -0.004495707 0.007703912 -0.09818652
0.10422296 0.05664204 0.117334165 -0.06314548 0.026389228 -0.078449585 -0.019579928 -0.09209698
0.057771113 0.1797342 0.0075897477 -0.027677778 -0.046955638 -0.06373799 0.007886761 -0.009951645
0.018971734 0.12531541 0.0654984 -0.007870924 0.029355628 0.008422427 0.10714571 -0.07433898
-0.02365964 -0.09801969 0.09445552 0.010735395 0.05836534 -0.0067499946 0.092360064 -0.016081007
00000000: b7c4 aa3d 88ca 213b cebd 6f3c 79a5 27bc
00000010: d949 bc3c ffbc 8d3d 6529 8d3c 4a62 223d
00000020: a0a3 d1bc 809e 38bd 637e b9bb 6f38 153d
00000030: b561 1e3e 9890 fb3b 2e7d eebb a204 c9bd
00000040: ec22 2dbd dfc0 843d 911c d03b ed5c 303d
00000050: e402 b53a 606a 14bb 43fb 6d3d 06b0 3a3d
00000060: cad7 ca3b 906e b33d be20 6c3b 6e46 9dbd
00000070: a42c c1bc f1d0 ad3d ab56 ad3d 6213 84bd
00000080: a8cf 89bc c8bb 783d eb39 c03c 5008 4e3d
00000090: 367a 06bd 49c9 393d 8f68 213d 00ec 5d3d
000000a0: dec9 dfbc 390f 80bc 2647 973d 04bd 01bd
000000b0: 3a77 0abd 7f52 a4bd 8051 eabd 67ef 6a3c
000000c0: d054 9f3d 4c26 373c fdf4 94bd 042b 1ebe
000000d0: 41a5 afbd cf36 97bd 2b20 97bd 6338 d0bc
000000e0: cfe1 4cbd 2831 e53b 9e35 cebc df10 9bbc
000000f0: 2794 51bc 515e 32bb 456d a8bd 65a0 ffbc
00000100: 180a c6bc 3fd5 993d f834 523d 1d8d 4a3d
00000110: d9f5 b23c b88a f2bc 7467 56bd cbb4 38bd
00000120: 5fb4 483d 33be a3bd 85e4 1c3d 8517 6bbb
00000130: 871b 48bd e4a0 4fbd 64eb a93c e0f2 7abd
00000140: f10d 333d 0c47 003d ed14 ccbc 22af 973d
00000150: 1e0a cebd 390e 94bd 2d9f f63c ada4 ef3d
00000160: 7796 d8bd dfe7 39bb 4329 9b3c 9261 99bd
00000170: 0d26 54bd bac6 a1bc 31c4 6b3c 81b0 d9bc
00000180: 183d 61bb f27c 063d 4f66 b0bc 8131 c7bc
00000190: 1d97 6bbd 6a80 2bbc ab16 443d 2b5b 703d
000001a0: 8012 80bc 201c e6bc 497b 86bc 2ed4 e7bc
000001b0: 2bb8 7dbc 1745 9b3b 945a 4a3c dd6a 93ba
000001c0: 5453 07bc 5201 1a3b 5795 5a3e 8b3f d9bd
000001d0: dd24 2c3d 72bf 0abd 51c6 74bd db10 853d
000001e0: b511 8c3d 190a bfbc cd32 93bd 31ac 94bc
000001f0: 51dd 883d 5feb 84bd 933e 31bd 4aa7 c3bd
00000200: 659f 3e3c d82b 44bb 0ff5 3fbc 531f a1bb
00000210: 258e ce3c b4fd 813d 3bdb 96bc 1b5e f3bc
00000220: 1dac c23d a033 b73c dd92 cfbd 10db 80bd
00000230: a943 68bd a77d 713d 5500 dc3d ecfb 303d
00000240: 3e0e d23b b155 1abd 02bc 393d 5bd5 d03c
00000250: 7921 043d 3684 003d 51dc 473e c4eb 983d
00000260: 730f 66bc e57f a23d d52d a1bb f2ea 9a3b
00000270: ecd9 95bc b9b1 843d 63a3 133e 549d 153d
00000280: 392e 5abe 30ba a03d 60f5 f93d c2e7 d1bd
00000290: bcf7 bdbd 425e 37bb 350d 4e3d 56ba 423e
000002a0: 9ee0 453d aa7c bdbc b4da ebbb 166e b2bd
000002b0: c2aa 5dbc cc5d 38bc 0580 b53d 9af9 ac3d
000002c0: b6a0 df3c 19c2 943c 098b 343d 74df f53d
000002d0: bfc9 cd3d c7c4 09be 444f 45bd 338a 15bc
000002e0: 1e04 793d 76ff eb3d 2c44 f5bd 3236 903c
000002f0: 7725 593d 8f64 6bbd ae31 6c3c 0f40 30bc
00000300: 53fc 8cbd 9640 603d 9977 b6bd b97c 553d
00000310: e3d2 98bd 53e0 9e3d 824d e23b 3f54 823b
00000320: 1f91 ddbc 64b3 8a3d f0a5 003d c6b2 d4bd
00000330: ee8e ef3a c2f9 7e3d 3ce0 843d 6b93 e03d
00000340: 412a c93d 5f47 56bd 9a75 31be 4e18 983c
00000350: 219e 5c3d fa4f 8f3d 0e5f ad3d 6b7c 453c
00000360: 9067 b53c 16c4 99bb 4486 fdbd deb0 27bd
00000370: 5afe 263d b950 93bb 1971 fc3b 0416 c9bd
00000380: d972 d53d 7c01 683d e54c f03d 6b52 81bd
00000390: 392e d83c 2daa a0bd 1666 a0bc 579d bcbd
000003a0: 67a1 6c3d 3e0c 383e 6bb3 f83b 82bc e2bc
000003b0: 8e54 40bd 1089 82bd 7937 013c 390c 23bc
000003c0: 9c6a 9b3c af52 003e 0624 863d 0cf5 00bc
000003d0: 377b f03c 38fe 093c 366f db3d 093f 98bd
000003e0: ddd1 c1bc 8cbe c8bd e571 c13d 83e3 2f3c
000003f0: 7f10 6f3d 0f2f ddbb 4627 bd3d 51bc 83bc

fc1.bias f4 [256]
-0.02962085 -0.016017064 0.0372869 -0.055991437 -0.096922785 0.021475961 0.010424807 0.023632115
0.055234697 0.0022134762 0.05970083 -0.020384729 0.020983366 -0.10201259 0.13587599 -0.106789924
-0.05815855 0.12569936 0.013116139 0.003102789 0.09431045 -0.042488553 -0.005612245 0.041999508
-0.12060454 0.04218627 -0.09566258 0.07050934 -0.018936234 0.007883448 -0.008646361 0.0058136787
-0.056630697 -0.06452237 0.023099398 0.017376268 0.010038824 0.059672195 0.011336923 -0.029603912
0.04222859 0.071248844 0.056550343 -0.0147086 -0.05962408 -0.088893294 -0.04543275 -0.17569195
-0.0120520415 0.089282006 0.042360164 -0.08731365 0.056790825 0.10548329 -0.10541682 -0.0012096432
0.024872947 -0.011133296 0.02920722 0.045664396 0.028064724 -0.008453753 -0.0066060657 -0.054020472
-0.018042687 -0.043731585 0.057377025 0.05989966 -0.037384126 0.04161047 -0.0998731 0.036054622
0.049551465 0.06333945 -0.001679291 0.06284963 0.062643625 0.06124347 -0.092835836 0.13137378
-0.0041998457 -0.011284572 -0.036184482 -0.062445983 -0.018658768 -0.043583006 -0.027275953 0.040610205
0.059639916 -0.06558317 0.024198685 -0.057573404 -0.039704468 -0.058887962 0.049211066 0.06100998
-0.009160524 0.029120702 -0.060395334 0.05279351 -0.055595938 0.104417376 0.09818729 0.01885461
-0.031155428 -0.03855281 -0.09345619 -0.05106039 -0.017490273 -0.07905194 0.0046050344 0.020702397
-0.02608017 0.01340949 0.027760139 -0.019915812 -0.03305278 0.0066842884 0.036696307 -0.023806963
-0.027863784 0.06740921 0.09932756 -0.05133839 0.08356562 0.06614054 0.06347519 0.052645553
-0.060488362 -0.059793163 -0.040072225 -0.037937574 -0.000880149 0.10074334 -0.048425514 -0.024313446
-0.1795763 -0.035820846 -0.054085903 -0.030577231 -0.06965291 0.038952287 -0.007710715 -0.1317693
-0.023757631 -0.032840822 -0.09852467 -0.0057810843 -0.052703027 -0.11193315 -0.02832839 -0.0034404644
0.02110611 0.035243683 0.010696725 -0.15658084 -0.0060075168 0.042721033 -0.043766588 0.06126034
0.20064577 -0.067913786 0.0016222255 -0.038618118 0.20438765 0.05919946 -0.0111911455 0.060909573
0.060121395 0.023903832 0.029746028 -0.005348111 0.047490004 -0.04375454 0.018241577 0.05100028
-0.006525313 -0.053015403 0.006146995 0.07653899 -0.0497062 -0.09151652 -0.019022727 -0.04299549
0.027784979 -0.009198076 -0.047268048 -0.022958333 -0.05396403 0.06308329 -0.014659945 0.07716079
-0.05684504 0.06154076 -0.020704357 -0.042862184 -0.03682295 -0.11400933 0.021647569 -0.029643819
0.043539364 -0.008348071 0.01452192 -0.03063752 -0.027639315 -0.009553692 0.084321834 -0.027448654
-0.02182359 -0.122964166 -0.060224157 0.044737328 -0.04716449 0.08235691 -0.08653654 -0.0017601383
0.0039905105 -0.07875976 -0.032489657 0.014501339 -0.11691028 -0.048551444 0.050267823 0.1887752
0.025366185 -0.12658107 0.003055127 0.0047997963 0.08177148 0.0685149 -0.021441713 -0.025734285
0.062157936 0.05767006 -0.032958567 -0.038523912 -0.029232418 0.13109957 0.048180245 -0.113783985
-0.07999511 0.06830248 0.062136445 0.014881205 0.0037360573 0.014807528 -0.023147924 -0.031009424
-0.06021926 -0.13170576 -0.04621906 0.004134256 -0.038105227 0.00819569 0.05192251 0.038968835
00000000: 6da7 f2bc 3836 83bc 26ba 183d 4757 65bd
00000010: 747f c6bd 5bee af3c cfcc 2a3c 2398 c13c
00000020: c73d 623d f80f 113b dc88 743d e0fd a6bc
00000030: 4fe5 ab3c faeb d0bd 1323 0b3e adb4 dabd
00000040: a937 6ebd 55b7 003e 13e5 563c 2958 4b3b
00000050: d625 c13d 7a08 2ebd ece6 b7bb ad07 2c3d
00000060: 83ff f6bd 83cb 2c3d beea c3bd 3367 903d
00000070: 2920 9bbc 9429 013c 77a9 0dbc ac80 be3b
00000080: 97f5 67bd 4e24 84bd f33a bd3c ad58 8e3c
00000090: e179 243c d56a 743d 80be 393c e783 f2bc
000000a0: e3f7 2c3d eaea 913d 55a1 673d 57fc 70bc
000000b0: 6138 74bd b00d b6bd b117 3abd 97e8 33be
000000c0: ed75 45bc 7cd9 b63d da81 2d3d 80d1 b2bd
000000d0: 7f9d 683d a007 d83d c6e4 d7bd e48c 9eba
000000e0: 5ac2 cb3c 6e68 36bc fb43 ef3c 970a 3b3d
000000f0: fee7 e53c 9c81 0abc b277 d8bb 9244 5dbd
00000100: 42ce 93bc e41f 33bd 2c04 6b3d 5959 753d
00000110: 1920 19bd bd6f 2a3d 458a ccbd 03ae 133d
00000120: 7af6 4a3d 1db8 813d a81b dcba 4fb7 803d
00000130: 4d4b 803d 6fda 7a3d b720 bebd d986 063e
00000140: dc9e 89bb ede2 38bc 2e36 14bd 5cc7 7fbd
00000150: 46da 98bc 1884 32bd d271 dfbc e356 263d
00000160: fc48 743d 7850 86bd 523c c63c 17d2 6bbd
00000170: 27a1 22bd 8134 71bd 8b91 493d 9ae5 793d
00000180: 0616 16bc 8a8e ee3c 1961 77bd 023e 583d
00000190: 91b8 63bd c7d8 d53d 6b16 c93d fc74 9a3c
000001a0: ab39 ffbc 8de9 1dbd f565 bfbd b324 51bd
000001b0: c347 8fbc fce5 a1bd d4e5 963b 1398 a93c
000001c0: 15a6 d5bc 7ab3 5b3c 3b69 e33c 7c26 a3bc
000001d0: 5a62 07bd e007 db3b de4e 163d d206 c3bc
000001e0: 9742 e4bc d70d 8a3d 3f6c cb3d 3448 52bd
000001f0: 7424 ab3d b174 873d 48ff 813d dda2 573d
00000200: a5c2 77bd ade9 74bd c622 24bd 6e64 1bbd
00000210: cdb9 66ba 8652 ce3d d559 46bd fe2c c7bc
00000220: d9e2 37be e1b8 12bd 2e89 5dbd 1a7d fabc
00000230: 2fa6 8ebd 6f8c 1f3d 2aaa fcbb 88ee 06be
00000240: 5d9f c2bc 1984 06bd 4dc7 c9bd 406f bdbb
00000250: 21df 57bd 353d e5bd f110 e8bc 6a79 61bb
00000260: b9e6 ac3c ae5b 103d 5141 2f3c ba56 20be
00000270: b4da c4bb 40fc 2e3d 9844 33bd 1fec 7a3d
00000280: 1676 4d3e 6216 8bbd dba0 d43a 082e 1ebd
00000290: ff4a 513e 227b 723d 115b 37bc 517c 793d
000002a0: da41 763d f8d1 c33c f1ad f33c 353f afbb
000002b0: e184 423d f637 33bd 5c6f 953c abe5 503d
000002c0: 4bd2 d5bb ae26 59bd bb6c c93b 79c0 9c3d
000002d0: ba98 4bbd 036d bbbd 8dd5 9bbc 0a1c 30bd
000002e0: 539d e33c 87b3 16bc 249c 41bd 1d13 bcbc
000002f0: 6309 5dbd d031 813d 4430 70bc 7a06 9e3d
00000300: 58d6 68bd 2a12 7c3d 2f9c a9bc 4290 2fbd
00000310: a9d3 16bd b97d e9bd 3e56 b13c 98d7 f2bc
00000320: 5556 323d 59c6 08bc 59ed 6d3c 89fb fabc
00000330: d86b e2bc 1787 1cbc edb0 ac3d 00dc e0bc
00000340: 63c7 b2bc a3d4 fbbd 9bad 76bd 7d3e 373d
00000350: 8d2f 41bd bdaa a83d 123a b1bd 71b4 e6ba
00000360: d4c2 823b cc4c a1bd e013 05bd 0697 6d3c
00000370: a86e efbd e1dd 46bd a2e5 4d3d 494e 413e
00000380: bfcc cf3c 789e 01be 8738 483b 9c47 9d3b
00000390: ce77 a73d 8a51 8c3d 88a6 afbc b5d0 d2bc
000003a0: 5299 7e3d 7137 6c3d 90ff 06bd 40cb 1dbd
000003b0: d378 efbc f73e 063e a658 453d 9407 e9bd
000003c0: 7ad4 a3bd 2ce2 8b3d c982 7e3d 4cd0 733c
000003d0: a4d8 743b 469b 723c b7a0 bdbc 7a07 febc
000003e0: 79a8 76bd e0dd 06be 3250 3dbd a778 873b
000003f0: 3a14 1cbd 3747 063c b3ac 543d c99d 1f3d
