model/Autoencoder/encoder_20d.pt (torch, 129855 bytes, 16 tensors)

conv1.weight f4 [8, 1, 3, 3]
0	0xbda4b63b	-0.0804257
1	0x3e47e9f0	0.19522834
2	0x3e3830f0	0.17987418
3	0xbeb1ee58	-0.34752154
4	0x3d8b543a	0.06803174
5	0x3e842930	0.25812674
6	0xbe49f72a	-0.19723192
7	0xbe828d17	-0.25498268
8	0x3eadd283	0.3394967
9	0xbe554621	-0.20827533
10	0xbe53f782	-0.20699885
11	0xbdfb14cf	-0.12259828
12	0xbeb6625e	-0.35621923
13	0xbe3676ad	-0.17818709
14	0x3dbf5168	0.09341699
15	0xbd081226	-0.033220433
16	0x3ead12b2	0.33803326
17	0xbc25bec3	-0.010116282
18	0xbe224760	-0.1584754
19	0x3e41ec65	0.18937834
20	0x3e808ed4	0.2510897
21	0xbbf4e0da	-0.0074730935
22	0xbb942161	-0.0045205806
23	0xbe952293	-0.2912794
24	0xbeab2fc6	-0.33434886
25	0xbe8a0e8d	-0.26964226
26	0x3de9b902	0.114122406
27	0x3e6b9dd1	0.23009421
28	0xbd8e0593	-0.06934657
29	0x3d0f48ee	0.03498166
30	0x3e1afe53	0.1513608
31	0xbd92653a	-0.07148214
32	0x3cb0ed3a	0.021597493
33	0xbe16df80	-0.14733696
34	0xbe8d70bc	-0.27625072
35	0x3d32527c	0.043535694
36	0x3e18b240	0.14911747
37	0x3e583183	0.21112637
38	0xbcd665ec	-0.026171647
39	0xbe4685bb	-0.19386952
40	0x3effc877	0.4995763
41	0x3d7b86fd	0.06140803
42	0xbdeec7a9	-0.11659176
43	0xbea5de7b	-0.32396302
44	0xbcb23570	-0.021753997
45	0x3e7f8993	0.24954824
46	0x3e7bc584	0.24587065
47	0xbdb5591b	-0.08854886
48	0xbe9366e5	-0.2878944
49	0xbe6ab1aa	-0.22919336
50	0xbdbc91cc	-0.09207496
51	0x3e32063f	0.17385195
52	0x3d6e85df	0.05823314
53	0xbe6963f8	-0.22792041
54	0x3db79890	0.08964646
55	0xbe327121	-0.17425968
56	0xbca75f35	-0.02043114
57	0xbdd8c066	-0.10583572
58	0x3e56721c	0.20941967
59	0xbe50d2b4	-0.20392877
60	0x3d060ac1	0.0327251
61	0xbda22847	-0.079178385
62	0xbe9e7b3e	-0.309534
63	0xbea6f9b9	-0.32612398
64	0x3e558900	0.20853043
65	0x3d84ae24	0.06478527
66	0x3e1eaf79	0.15496625
67	0xbd78200f	-0.06057745
68	0xbe6cb57a	-0.23116103
69	0x3e753fc5	0.23950107
70	0xbe40c5cc	-0.18825454
71	0xbd885b93	-0.066580914

conv1.bias f4 [8]
0	0x3f27ab2e	0.65495574
1	0x3f094f80	0.5363693
2	0xbdb61869	-0.088913746
3	0x3dbfa59f	0.093577616
4	0x3f2cfe51	0.67575556
5	0x3ec5d15a	0.38636285
6	0x3eb7ea0c	0.3592075
7	0xbd6ee116	-0.058320127

conv2.weight f4 [16, 8, 5, 5]
0	0x3e0e90c3	0.1392241
1	0xbd1381ca	-0.03601245
2	0xbd949a69	-0.07256014
3	0x3ca39330	0.019967645
4	0xbc51dc85	-0.012808924
5	0x3c6f14d9	0.014592373
6	0x3e256e88	0.16155446
7	0xbe02f707	-0.12789546
8	0x3d3bb4e9	0.045826826
9	0xbe6d29c4	-0.23160464
10	0x3c27dc93	0.01024546
11	0xbe4bb990	-0.19895005
12	0xbe098b94	-0.13432151
13	0xbda6a60e	-0.08137141
14	0x3e1af833	0.15133743
15	0x3ef96446	0.48709315
16	0x3edc5c7b	0.43039307
17	0x3e435fb8	0.19079483
18	0xbe2e2481	-0.17006113
19	0x3eb9ecc5	0.36313453
20	0x3e574a86	0.21024522
21	0xbdb84e50	-0.08999312
22	0xbd3a4c38	-0.045482844
23	0xbe94b6a6	-0.290456
24	0xbdf64346	-0.1202455
25	0x3d125439	0.035724852
26	0x3d6f6136	0.058442317
27	0xbc75b74f	-0.014997317
28	0xbd3f9ccf	-0.046780404
29	0x3d501517	0.050801363
30	0x3cd938e2	0.026516382
31	0x3d1b8a06	0.037973426
32	0x3da7f2a6	0.082005784
33	0x3d8c5941	0.06852961
34	0x3d8cc6ca	0.068738535
35	0x3d924f62	0.07144047
36	0x3e1c2db8	0.15251815
37	0x3d23a545	0.039952535
38	0x3dbfe709	0.09370238
39	0x3c9860b4	0.0186008
40	0xbc70baeb	-0.014693002
41	0xbceb7f3f	-0.0287472
42	0x3cab146e	0.020883765
43	0x3dec1fba	0.11529489
44	0x3ddb28ea	0.10701163
45	0xbbfc0514	-0.007691035
46	0xbbbe973d	-0.005816369
47	0x3c8986a6	0.016787838
48	0xbd0351c8	-0.032060415
49	0xbd19fa8c	-0.037592456
50	0x3d33696f	0.04380172
51	0xbc8ced84	-0.0172031
52	0x3d889708	0.06669432
53	0xbd0f279c	-0.034949884
54	0x3d55ef25	0.05223002
55	0xbd245746	-0.040122293
56	0x3dbf67e1	0.09345985
57	0x3d7d4710	0.06183535
58	0x3d728617	0.05920991
59	0x3d53afc2	0.051681288
60	0xbd819c06	-0.06328587
61	0x3da539ea	0.08067687
62	0x3dd97c93	0.10619464
63	0x3cb4ff21	0.022094311
64	0x3d17a892	0.037025996
65	0xbb6c6abf	-0.0036074368
66	0x3d9c1b4f	0.07622396
67	0xbc86a603	-0.016436582
68	0xbc65647d	-0.014001009
69	0xbd00bd69	-0.031430636
70	0xbda3c265	-0.07996062
71	0xbd947e02	-0.072505966
72	0xbd9cc8a7	-0.07655459
73	0x3c9a75b4	0.018854953
74	0xbdb4e839	-0.088333555
75	0x3db5df29	0.08880455
76	0x3d397afc	0.045283303
77	0xbca86f31	-0.020560833
78	0xbdf19cae	-0.117974624
79	0x3d95e82f	0.07319676
80	0xbd0ab429	-0.03386322
81	0xbcabb1b3	-0.020958757
82	0xbd6dd8af	-0.058067974
83	0xbd7d517d	-0.06184529
84	0xbd8ab15b	-0.06772109
85	0x3dc0aa59	0.09407491
86	0x3e161f8e	0.14660475
87	0xbda8a731	-0.08235014
88	0x3db7aeba	0.08968873
89	0x3de55d63	0.11199453
90	0x3d75c1c7	0.059999254
91	0xbc5ec759	-0.013597333
92	0x3d01f53d	0.031728018
93	0xbc87518e	-0.01651838
94	0xbd3a4770	-0.045478284
95	0xbe1444d2	-0.14479378
96	0xbd5cc6c6	-0.053900503
97	0xbdc6a4f7	-0.09699433
98	0xbe0855d1	-0.13313986
99	0xbe40110f	-0.18756507
100	0x3bc044ce	0.005867577
101	0xbe2e236d	-0.17005701
102	0xbc0cf8d9	-0.008604252
103	0xbd587570	-0.052846372
104	0x3cf254e4	0.029581495
105	0xbe197bfb	-0.14988701
106	0xbe8852d0	-0.2662568
107	0xbe67041a	-0.22560158
108	0xbe244161	-0.16040565
109	0xbda807a9	-0.08204586
110	0xbdb63d2d	-0.08898387
111	0xbf5f0608	-0.8711858
112	0xbf72e9ad	-0.9488781
113	0xbf1a6dab	-0.6032359
114	0xbeb43e5b	-0.35203823
115	0xbe0b333f	-0.13593768
116	0xbe0879b9	-0.13327684
117	0xbd721ee8	-0.059111506
118	0x3d4f68fd	0.050637234
119	0xbe74eaf0	-0.23917747
120	0x3ee21592	0.44157082
121	0x3ea19871	0.31561616
122	0x3e83065f	0.25590798
123	0x3e8be9a0	0.2732668
124	0x3e93c99c	0.28864753
125	0x3c8fd771	0.017558785
126	0xbd093ff7	-0.033508267
127	0x3d0625d0	0.032750905
128	0x3bf7ca00	0.007561922
129	0xbc8bd599	-0.017069625
130	0xbda64e53	-0.08120408
131	0x3dc4ef6c	0.096159786
132	0xbda3d94d	-0.08000431
133	0x3de10eb9	0.10989136
134	0xb90babc4	-0.0001332006
135	0x3d1ae07f	0.037811752
136	0xbc1978fd	-0.009367225
137	0xbdae2995	-0.08504025
138	0x3dc30dc1	0.09524108
139	0x3db9656f	0.0905255
140	0x3d9cb271	0.076512225
141	0x3ce64991	0.028111251
142	0x3c1fb61c	0.009748008
143	0xbbe76d29	-0.0070625735
144	0xbbe49d19	-0.0069767353
145	0x3d4ff3f6	0.05076977
146	0x3d30ff4a	0.043212213
147	0x3d8aec0a	0.06783302
148	0x3d938c51	0.072044976
149	0xbc294ac1	-0.010332764
150	0xbcc5ecd1	-0.024160774
151	0xbd3a8213	-0.045534205
152	0xbd93db82	-0.07219602
153	0x3d3fc212	0.04681594
154	0xbd83ef32	-0.06442107
155	0x3c9a9ab0	0.018872589
156	0x3d9034ad	0.07041297
157	0x3cae94b6	0.021311145
158	0x3df7b166	0.12094383
159	0x3e1b0ff9	0.15142812
160	0xbd207dcc	-0.03918247
161	0x3dae4685	0.08509544
162	0x3c0b25f5	0.008492936
163	0x3c8588eb	0.01630064
164	0x3d92125c	0.07132408
165	0xbbb94630	-0.005654119
166	0xbd231374	-0.039813474
167	0xbd9a2704	-0.07526973
168	0x3d2f31ed	0.042772222
169	0x3d801dd5	0.0625569
170	0xbdc51657	-0.096234016
171	0xbc78390e	-0.015150322
172	0xbd0413a9	-0.032245312
173	0xbd68e835	-0.056862075
174	0xbd221a1f	-0.039575692
175	0x3d5143f0	0.05109018
176	0x3d978214	0.07397857
177	0x3b8cf52c	0.0043016877
178	0xbd9ca8f4	-0.07649413
179	0xbcfa8027	-0.030578686
180	0xbb1cc43f	-0.0023920683
181	0x3d966616	0.0734369
182	0x3dbab6ac	0.09116873
183	0x3ca4c1f0	0.020112008
184	0x3d1acb6c	0.037791654
185	0x3dea847c	0.11451051
186	0x3d7b47d4	0.061347798
187	0x3d8b0c92	0.06789507
188	0x3cea7bc5	0.028623471
189	0x3da6ce88	0.081448615
190	0x3cfadb05	0.030622015
191	0xbcbd3964	-0.023098655
192	0x3dad112b	0.0845054
193	0xba508385	-0.0007954168
194	0x3d5900e1	0.052979354
195	0xbd93e7da	-0.072219566
196	0x3d79dfb3	0.06100435
197	0xbd8a99c4	-0.0676761
198	0xbc7a3965	-0.015272473
199	0x3b61f70e	0.0034479531
200	0xbd6994c2	-0.057026632
201	0xbdb3f21d	-0.08786414
202	0x3dead821	0.114670046
203	0xbde4709e	-0.111542925
204	0xbd4d51b6	-0.050126754
205	0xbd0392d4	-0.032122448
206	0xbd0e860b	-0.034795802
207	0xbdeb75fa	-0.114971116
208	0xbd69a954	-0.05704625
209	0x3bb08311	0.005386718
210	0xbda7043e	-0.08155106
211	0xbe1b083c	-0.1513986
212	0xbde3f5c0	-0.111308575
213	0xbd24dedc	-0.040251598
214	0xbdc389cc	-0.09547767
215	0xbe6c129b	-0.23053972
216	0xbe3958d7	-0.18100296
217	0xbe4e1aef	-0.20127462
218	0xbe2e5183	-0.17023282
219	0xbe0ddcd5	-0.13853772
220	0xbcc6f6f5	-0.02428768
221	0x3e07e90a	0.13272491
222	0xbe36e049	-0.17858995
223	0xbe04a1e5	-0.12952383
224	0xbdbae17d	-0.0912504
225	0x3b6ec379	0.0036432429
226	0xbc0ccc3f	-0.008593618
227	0x3d421967	0.047387507
228	0x3b703958	0.0036655273
229	0x3dae7b7c	0.085196465
230	0xbcbed7ab	-0.023296198
231	0x3cf13b2a	0.029447157
232	0xbc74197b	-0.014898653
233	0xbd670d12	-0.05640895
234	0x3db5fcd3	0.08886113
235	0x3d8e2cea	0.069421604
236	0x3dd0abe3	0.10189035
237	0xbd32cd7a	-0.04365299
238	0x3da2c907	0.07948499
239	0xbccf225a	-0.025284935
240	0x3dd252d5	0.10269705
241	0x3d2361f4	0.039888337
242	0x3d5573c0	0.05211234
243	0x3c99d19f	0.018776713
244	0x3de5cee1	0.112211
245	0x3dee58a2	0.11637999
246	0x3e05677f	0.13027762
247	0x3ce4c20f	0.027924566
248	0x3c8f43ef	0.017488448
249	0x3e0f0671	0.13967301
250	0x3c7cb6b3	0.015424418
251	0xbc2ce056	-0.010551533
252	0xbd3ac148	-0.045594484
253	0x3db2f922	0.087389246
254	0x3d833f6d	0.06408582
255	0x3cd74d10	0.026281863

conv2.bias f4 [16]
0	0xb6422f7e	-2.8935897e-06
1	0x370a9209	8.259442e-06
2	0x379b681f	1.8525925e-05
3	0xb73de91d	-1.1319554e-05
4	0xb655b115	-3.1842549e-06
5	0xb51ff6e5	-5.9591395e-07
6	0xb75eb88b	-1.3275198e-05
7	0xb62640f0	-2.4773726e-06
8	0xb70bdf75	-8.337073e-06
9	0xb7ddf187	-2.6457723e-05
10	0xb7429572	-1.15980965e-05
11	0xb740c1fc	-1.1489257e-05
12	0xb7b1483c	-2.1133681e-05
13	0xb7e88835	-2.7719982e-05
14	0xb720bcf2	-9.580735e-06
15	0xb68198e0	-3.8622966e-06

bn1.weight f4 [16]
0	0x3f7ee07b	0.9956128
1	0x3f62c2be	0.88578403
2	0x3f826d17	1.0189542
3	0x3f6f4f74	0.9348061
4	0x3f89aa0a	1.0755017
5	0x3f84604e	1.034189
6	0x3f802489	1.001115
7	0x3f8d4b01	1.1038514
8	0x3f813489	1.0094157
9	0x3f64f0d8	0.8943
10	0x3f7928d0	0.973279
11	0x3f60e25c	0.87845397
12	0x3f8e78ae	1.1130579
13	0x3f89dc0e	1.077028
14	0x3f4edf11	0.8080912
15	0x3f85878a	1.0431988

bn1.bias f4 [16]
0	0xbc0cd9a7	-0.008596814
1	0x3e04f1e8	0.12982905
2	0x3d6b5b23	0.05745996
3	0xbd18fde7	-0.037351515
4	0x3d91460d	0.07093439
5	0xb9cb3565	-0.0003875896
6	0xbc5c3a00	-0.013441563
7	0xbe03177b	-0.12801926
8	0x3d188f77	0.037246194
9	0xbd8f2cd6	-0.06990974
10	0xbdf79ba5	-0.12090234
11	0xbcc869f2	-0.024464581
12	0xbd02a849	-0.03189877
13	0xbd519c25	-0.0511743
14	0x3d937ab0	0.07201135
15	0x3cad7e2d	0.02117833

bn1.running_mean f4 [16]
0	0x421bf6aa	38.990883
1	0x42563869	53.555088
2	0x419a0040	19.250122
3	0xc113b2e7	-9.231177
4	0xc14f89b8	-12.971123
5	0xc233964b	-44.89677
6	0xc2231de6	-40.779198
7	0xc1e6be84	-28.843025
8	0xc24ce23b	-51.22093
9	0x4283d95b	65.92452
10	0x4115552d	9.333295
11	0x41b2bf84	22.343513
12	0xc2039c9f	-32.90295
13	0xc2412e34	-48.29512
14	0x40828b67	4.079517
15	0xc18e040b	-17.751974

bn1.running_var f4 [16]
0	0x440bd71f	559.36127
1	0x44359cca	726.4498
2	0x43c019d9	384.20193
3	0x43013b00	129.23047
4	0x434963d3	201.38994
5	0x43c91b9d	402.21573
6	0x43735166	243.31796
7	0x43fe053b	508.04086
8	0x43b68cae	365.09906
9	0x440d5e96	565.4779
10	0x440c68dd	561.6385
11	0x43aacfa0	341.62207
12	0x43b015db	352.17075
13	0x44095b7f	549.4296
14	0x42e6ee84	115.46585
15	0x432303af	163.01439

conv3.weight f4 [32, 16, 5, 5]
0	0xbd494be8	-0.049144655
1	0xbae6df22	-0.0017614106
2	0xbdf46780	-0.119338036
3	0xbe32ebcb	-0.1747276
4	0xbe2eefcf	-0.17083667
5	0x3d0eb510	0.034840643
6	0x3d9da382	0.07697202
7	0xbb5896d1	-0.0033048878
8	0x3c6eef7f	0.0145834675
9	0x3da8ba1f	0.08238625
10	0xbcc0729e	-0.023492154
11	0x3dcf0680	0.10108662
12	0x3d4ed274	0.050493672
13	0x3cde28ff	0.027119158
14	0x3e05d461	0.13069297
15	0xbbb8192e	-0.005618236
16	0x3d4542e7	0.048159506
17	0x3c4edc4e	0.012625767
18	0xbca8e689	-0.02061774
19	0xbd52e5da	-0.051488735
20	0x3c86ff8d	0.016479278
21	0x3d9d4698	0.0767948
22	0x3d7947e1	0.060859565
23	0xbc53d643	-0.012929502
24	0xbd417ce9	-0.047238264
25	0x3c7fdc35	0.015616466
26	0x3c8c0028	0.017089918
27	0xbd71269e	-0.05887472
28	0xbd9cbc42	-0.07653095
29	0xbd404a3f	-0.046945807
30	0xbc6dfbe0	-0.014525384
31	0xbb82cb6e	-0.003991536
32	0x3daee11a	0.085390285
33	0x3c985e15	0.01859955
34	0xbda913d6	-0.082557365
35	0x3d49ad46	0.049237512
36	0x3d9f8acd	0.07790146
37	0x3df55c76	0.11980526
38	0x3db16631	0.086620696
39	0x3a193dd9	0.0005845703
40	0x3d520bdc	0.05128084
41	0x3b7d4b5d	0.0038649656
42	0x3d8850bb	0.06656023
43	0x3cb782fe	0.02240133
44	0xbd79960c	-0.06093411
45	0x3b9f836a	0.0048679607
46	0xbcc72b1d	-0.02431255
47	0x3ca66d2d	0.020315731
48	0x3bf35f81	0.0074271564
49	0xbd198e1d	-0.037489045
50	0x3c31ec11	0.010859505
51	0xbce6c1a9	-0.028168516
52	0xbd114f9f	-0.035476323
53	0xbd0eda9a	-0.034876443
54	0x3a7f2dcb	0.0009734302
55	0x3d125e8d	0.035734702
56	0xbca48774	-0.02008412
57	0xbd38a231	-0.045076553
58	0xbdb64e1d	-0.08901618
59	0xbde42c5a	-0.11141272
60	0x3d522825	0.051307816
61	0xbe4a0b80	-0.1973095
62	0xbe441ba4	-0.19151169
63	0xbdaa97b0	-0.08329713
64	0xbdd0efd6	-0.10201995
65	0xbdcf5198	-0.10122985
66	0xbd362d55	-0.044476826
67	0xbb6f032b	-0.0036470394
68	0xbc70a812	-0.014688509
69	0xbcbe7aea	-0.02325197
70	0x3c90d4c8	0.017679587
71	0x3c8d458b	0.017245075
72	0x3d84934a	0.06473406
73	0xbd8d18e6	-0.068895146
74	0xbd82eb3f	-0.06392526
75	0xbb641667	-0.0034803392
76	0xbd9bdb98	-0.076102436
77	0xbd0f0a9b	-0.034922224
78	0x3d410492	0.0471235
79	0x3b6ac4ef	0.0035822948
80	0xbdb66823	-0.08906581
81	0xbd84eaad	-0.06490073
82	0x3c6405f9	0.01391744
83	0xbcbd969e	-0.023143109
84	0xbb96a114	-0.0045968387
85	0xbd36bedb	-0.044615608
86	0xbcecfca8	-0.02892907
87	0xbd3c9bdb	-0.046047073
88	0xba6522c0	-0.0008740835
89	0xbbcb24af	-0.0061994414
90	0xbcb75a17	-0.022381825
91	0xbe5137aa	-0.2043139
92	0x3d5a9a83	0.05337001
93	0xbd4c3ff3	-0.049865674
94	0xbcbcb790	-0.023036748
95	0xbe014c68	-0.12626803
96	0xbd16c6b6	-0.0368106
97	0xbd7c767d	-0.061636437
98	0x3d37a45a	0.044834472
99	0x3d1fc5e5	0.039007086
100	0x3d2960af	0.04135197
101	0x3d868585	0.065684356
102	0xbd9b4080	-0.07580662
103	0xbd584a90	-0.052805483
104	0xbc79ffee	-0.015258772
105	0x3ca8d763	0.020610517
106	0xbe13e78a	-0.14443794
107	0xbcfb4e5c	-0.030677013
108	0xbe2fced4	-0.17168742
109	0xbde950a4	-0.11392334
110	0xbc374984	-0.011186961
111	0xbe0c87e3	-0.13723712
112	0xbdccb8a1	-0.09996153
113	0x3be80785	0.0070809745
114	0x3e2f480a	0.17117324
115	0x3d8c5e1b	0.06853887
116	0xbe518d20	-0.20463991
117	0x3e3cf2b0	0.18451953
118	0x3df95a94	0.121754795
119	0x3df65a14	0.120289
120	0xbb5f0a98	-0.0034033414
121	0xbccc6dfb	-0.024954787
122	0xbcbb8443	-0.022890216
123	0xbdf1f658	-0.118145645
124	0x3c6dff77	0.01452624
125	0xbdbeb434	-0.09311715
126	0xbdcad834	-0.09904519
127	0xbda66a94	-0.08125797
128	0x3dca720e	0.098850355
129	0x3cd51c33	0.026014423
130	0x3c0c4d09	0.0085632885
131	0x3bd6a5f9	0.006550547
132	0xbd745318	-0.059649557
133	0xbd15cb9a	-0.036571123
134	0x3d877b57	0.06615322
135	0x3d86283b	0.06550642
136	0x3dc9aab5	0.09847013
137	0x3e28c781	0.16482355
138	0x3cf77e89	0.030211704
139	0x3d63b896	0.055595957
140	0x3dddc1ed	0.10828004
141	0x3d9a0fcb	0.075225435
142	0xbd27e2b7	-0.040987696
143	0xbce4cd98	-0.027930066
144	0x3e05ffce	0.13085863
145	0x3e505065	0.20343168
146	0xba18bb1b	-0.0005826221
147	0x3d247013	0.040145945
148	0xbdf4223d	-0.11920593
149	0x3de0be75	0.10973827
150	0xbd792fce	-0.060836606
151	0xbdc09a92	-0.09404482
152	0xbe04597e	-0.12924764
153	0x3d059264	0.032610312
154	0x3db30aaf	0.08742272
155	0xbdd3b24a	-0.1033674
156	0xbdd9a475	-0.10627071
157	0xbd3f005a	-0.046631195
158	0xbd351882	-0.044212826
159	0x3d4626bb	0.04837678
160	0x3bcc1a9b	0.0062287576
161	0xbab78fac	-0.001400461
162	0x3e06da86	0.13169298
163	0xbcd65ceb	-0.026167354
164	0xbdc5dc31	-0.09661139
165	0x3c335ddc	0.010947671
166	0xbc4c41e6	-0.012466883
167	0xbd9ea394	-0.07746044
168	0xbd7b2d87	-0.061322715
169	0x3da798c9	0.08183438
170	0xbd860a59	-0.065449424
171	0xbe3d5a56	-0.18491492
172	0xbdf53f08	-0.11974913
173	0x3dc7e340	0.097601414
174	0x3e040cd0	0.12895513
175	0x3cd41afd	0.025891775
176	0xbd917e74	-0.07104197
177	0x3bad1e27	0.0052831355
178	0x3ccc4196	0.024933618
179	0x3d999e5d	0.075009085
180	0x3d8a73d7	0.06760376
181	0x3e0021e0	0.12512922
182	0x3cb2eec4	0.021842368
183	0x3db09663	0.08622434
184	0xbe4ceeea	-0.20013013
185	0x3d4cdb66	0.050013922
186	0x3d92608b	0.0714732
187	0x3e36c91d	0.17850156
188	0x3e9538ca	0.2914489
189	0xbeafe2e0	-0.3435278
190	0x3e060ddc	0.13091224
191	0xbdcfd07b	-0.10147186
192	0xbd4f412f	-0.050599273
193	0xbd430197	-0.047608938
194	0xbe4095ad	-0.18807097
195	0xbd423231	-0.047411148
196	0xbdf8a192	-0.12140192
197	0xbd9ef912	-0.0776235
198	0xbd28f33d	-0.041247595
199	0xbda4c6ce	-0.080457315
200	0xbcd51217	-0.026009602
201	0xbce101fb	-0.027466765
202	0xbda32986	-0.07966904
203	0xbce7414c	-0.028229378
204	0x3db7c2c8	0.089726985
205	0xbd8f3e1f	-0.069942705
206	0xbe0766d6	-0.13222823
207	0x3d2d1306	0.04225447
208	0xbd91403a	-0.07092328
209	0xbdb202f8	-0.086919725
210	0x3de1505f	0.11001658
211	0xbcb4317c	-0.021996252
212	0xbcef4274	-0.029206492
213	0xbd8f6622	-0.07001902
214	0xbdf33c75	-0.11876766
215	0x3e01235f	0.12611149
216	0xbd99776c	-0.07493481
217	0x3d301a89	0.042994056
218	0x3dd0732d	0.10178218
219	0x3d1f7427	0.03892913
220	0x3ccfac95	0.025350848
221	0xbdb88748	-0.09010178
222	0xbd461dbf	-0.04836821
223	0xbc802de5	-0.015646884
224	0x3db57610	0.08860409
225	0x3b805cde	0.0039173206
226	0x3cb899fb	0.022534361
227	0xbce9ff8a	-0.028564233
228	0xbccbd30d	-0.02488091
229	0xbdcc64c1	-0.09980155
230	0x3bd63087	0.0065365466
231	0x3c80568b	0.015666267
232	0x3d0e8aee	0.034800462
233	0x3d92223f	0.07135438
234	0xbd014b00	-0.031565666
235	0x3d38442a	0.04498688
236	0x3d846822	0.06465174
237	0x3d5de180	0.05417013
238	0x3c831feb	0.01600643
239	0xbd06c28d	-0.03290038
240	0x3da0a6e4	0.07844332
241	0x3e2cb5e5	0.16866262
242	0x3dc95074	0.09829798
243	0x3d9aea47	0.07564216
244	0xbd881d9f	-0.06646275
245	0xbe1732fa	-0.1476554
246	0xbdb8c949	-0.09022767
247	0x3cd54337	0.026033027
248	0x3dec8f68	0.1155079
249	0x3e0b4165	0.13599165
250	0xbda1edc3	-0.079066776
251	0x3badd386	0.0053047566
252	0x3cf248ae	0.029575672
253	0x3d34c498	0.0441328
254	0x3d7bee45	0.06150653
255	0x3c556aed	0.013025981

conv3.bias f4 [32]
0	0xb88139f0	-6.161991e-05
1	0x37f8df38	2.9667848e-05
2	0x37e6d8f5	2.7519165e-05
3	0x380cd1da	3.357404e-05
4	0xb8b11654	-8.444177e-05
5	0xb8350622	-4.3159474e-05
6	0x376fea04	1.4299996e-05
7	0xb922dfc4	-0.00015532883
8	0x395d4f35	0.0002110571
9	0xb8db9c27	-0.000104718194
10	0xb5a5da83	-1.2357053e-06
11	0xb84ff629	-4.95819e-05
12	0x378a191c	1.6462574e-05
13	0x38d5d91f	0.000101970734
14	0x377a9750	1.4936391e-05
15	0xb82c39ce	-4.106183e-05
16	0x3898ac7d	7.280053e-05
17	0x381626ea	3.579903e-05
18	0xb84de424	-4.908828e-05
19	0xb8011356	-3.0774005e-05
20	0xb8621a6a	-5.39072e-05
21	0x392ed4b1	0.00016673167
22	0xb78727ae	-1.6111731e-05
23	0x37b44f73	2.1494669e-05
24	0x380a3c59	3.2957967e-05
25	0xb7a4d1a4	-1.9647945e-05
26	0xb88acc64	-6.6184235e-05
27	0x387d37e8	6.0371967e-05
28	0xb827c525	-3.9999508e-05
29	0xb89e60c5	-7.552052e-05
30	0x3a03ca17	0.0005027367
31	0xb90b7357	-0.0001329904

bn2.weight f4 [32]
0	0x3f71b693	0.9441921
1	0x3f97f398	1.1871214
2	0x3f612272	0.87943184
3	0x3f88df53	1.0693153
4	0x3f812707	1.0090035
5	0x3f869e15	1.0516993
6	0x3f82df78	1.0224447
7	0x3f6096f4	0.87730336
8	0x3f850a4e	1.039377
9	0x3f85a98a	1.0442364
10	0x3f8c9f8d	1.0986191
11	0x3f862715	1.0480677
12	0x3f7b79f4	0.9823296
13	0x3f8160d1	1.0107671
14	0x3f72951f	0.9475879
15	0x3f99b6d8	1.2008924
16	0x3f8525fc	1.0402217
17	0x3f723e01	0.9462586
18	0x3f919951	1.1374913
19	0x3f697964	0.9120085
20	0x3f6e003c	0.9296911
21	0x3f83f256	1.030833
22	0x3f6ad4a7	0.9173073
23	0x3f8ef785	1.1169287
24	0x3f7293b8	0.9475665
25	0x3f77026b	0.96488065
26	0x3f6f76de	0.9354075
27	0x3f615acd	0.88029176
28	0x3f632b61	0.88738066
29	0x3f821e61	1.0165521
30	0x3f76785b	0.962774
31	0x3f757154	0.9587605

bn2.bias f4 [32]
0	0x3eadab81	0.3391991
1	0x3e034030	0.12817454
2	0x3e01cf13	0.12676649
3	0x3e92a4bd	0.2864131
4	0xbe71ef80	-0.23626518
5	0x3e032a0b	0.12809007
6	0x3e440b52	0.19144943
7	0xbc0dc6f4	-0.008653391
8	0x3d50bf04	0.050963417
9	0xbd7dbf8d	-0.061950255
10	0x3e4af90b	0.19821565
11	0x3e630665	0.22170408
12	0x3e1f8788	0.15579045
13	0x3e8125b4	0.25224078
14	0x3e433fb5	0.19067271
15	0x3d421bb3	0.047389697
16	0x3dfcb649	0.12339456
17	0x3e704965	0.23465498
18	0xbda13aba	-0.07872529
19	0x3ea70838	0.32623458
20	0x3e631206	0.22174844
21	0x3e538b57	0.20658623
22	0x3e62fc3e	0.22166535
23	0x3d48a128	0.048981816
24	0x3e5a14d3	0.21297006
25	0xbdb2322e	-0.08700977
26	0xbd793178	-0.060838193
27	0x3e584cf9	0.21123113
28	0x3d8f092d	0.06984172
29	0xbd244dde	-0.040113322
30	0xbc7b92a5	-0.015354787
31	0x3d4613a4	0.048358575

bn2.running_mean f4 [32]
0	0x3f0e9852	0.5570117
1	0x3f829ce0	1.0204124
2	0xbdcab1b6	-0.09897177
3	0xbcd3e92c	-0.025868021
4	0x3ede5c79	0.43429926
5	0x4028725d	2.6319802
6	0xbf2398e4	-0.6390517
7	0x3f54f3e2	0.83184636
8	0xbda4ddfa	-0.08050151
9	0xbf9a7a0f	-1.2068499
10	0xbeb8ea6b	-0.36116347
11	0x3f8e10a4	1.1098828
12	0x40206bd0	2.5065804
13	0xbe94e047	-0.2907736
14	0xbf529fd5	-0.82275134
15	0x3fc86d42	1.5658343
16	0xbf563c95	-0.8368619
17	0x4063eb65	3.5612423
18	0xbf0ee4c7	-0.55817837
19	0xbf56a673	-0.8384773
20	0xbf34dbc6	-0.7064785
21	0xbe447c4e	-0.19188043
22	0x3e3bb126	0.18329296
23	0xbfb0f4fd	-1.3824764
24	0x3de734b4	0.11289349
25	0x3fb60526	1.4220321
26	0xbec37b97	-0.3818023
27	0x3f8d678c	1.1047225
28	0xbfe2b028	-1.7710009
29	0x3fbafcc0	1.4608383
30	0xbed10bfc	-0.40829456
31	0xbf75d7ae	-0.96032226

bn2.running_var f4 [32]
0	0x3fb4484b	1.4084562
1	0x3fe40a89	1.7815715
2	0x3e8f70b7	0.28015682
3	0x3f237de3	0.6386396
4	0x3f062946	0.5240673
5	0x3f742104	0.9536288
6	0x3f8c5e82	1.0966341
7	0x3e8523ac	0.26003778
8	0x3ebcd5ca	0.36881858
9	0x3ec8125f	0.39076516
10	0x3f604c2f	0.87616247
11	0x3f083de8	0.5321946
12	0x3f40dbc0	0.7533531
13	0x3fc4b9f9	1.5369254
14	0x3ec1d1ef	0.3785548
15	0x3f8514e0	1.0396996
16	0x3f90dee9	1.1318027
17	0x3f6b11b6	0.918239
18	0x3f4a8f0a	0.7912451
19	0x3efecb46	0.4976446
20	0x3f62577d	0.88414747
21	0x3f1b9743	0.6077768
22	0x3f21ad51	0.63155085
23	0x3f809dfb	1.0048212
24	0x3fb37a40	1.4021683
25	0x3ead6fb6	0.3387429
26	0x3f6e3ab9	0.93058354
27	0x3f5f06b7	0.8711962
28	0x3ec685d4	0.38773978
29	0x3f0f675f	0.56017107
30	0x3e3d074c	0.18459815
31	0x3ea7379d	0.32659617

fc1.weight f4 [20, 736]
0	0xbd8bdddc	-0.06829426
1	0x3c9d4af1	0.019200774
2	0x3d53a7fe	0.05167388
3	0x3cc2983e	0.023754235
4	0xbccdc6f0	-0.025119275
5	0x39c66120	0.00037837867
6	0x3d848c80	0.06472111
7	0x3cbd4b09	0.023107069
8	0xbd41729b	-0.047228437
9	0xbd12317e	-0.03569173
10	0x3d88a6a6	0.06672411
11	0x3d3cd6a6	0.046103142
12	0xbd9fce86	-0.07803063
13	0xbdb25d0f	-0.08709156
14	0x3ce9902e	0.028511133
15	0x3d2cf978	0.0422301
16	0xbc2247ce	-0.009904815
17	0x3d3d2b08	0.046183616
18	0x3d297327	0.041369583
19	0xbe1372e5	-0.14399298
20	0xbdd07b56	-0.101797745
21	0x3b806000	0.003917694
22	0x3bc7a3a1	0.006092504
23	0xbd45e964	-0.04831828
24	0xbc4ac631	-0.012376354
25	0xbc74b6ba	-0.0149361435
26	0xbcd74a3d	-0.026280517
27	0x394b95fc	0.00019415462
28	0x3d9de69d	0.077100016
29	0x3ccbf913	0.024899041
30	0x3d1d2a8a	0.038370647
31	0x3dbdc8be	0.09266804
32	0x3e25e7d3	0.16201715
33	0x3dbb9153	0.09158578
34	0x3d0b8074	0.03405805
35	0x3de21015	0.11038224
36	0x3e31b961	0.17355873
37	0x3d9ce28b	0.07660397
38	0xbd20ebd0	-0.03928739
39	0x3c5916ba	0.013250047
40	0xbc9ec02c	-0.019378744
41	0xbd905449	-0.07047326
42	0xbd6675d6	-0.05626472
43	0x3c5c899d	0.013460544
44	0xbd4d8a50	-0.050180733
45	0xbe09fd11	-0.13475443
46	0xbd8028d4	-0.06257787
47	0xbd91f14f	-0.07126104
48	0xbc770e2d	-0.015079063
49	0x3d21d586	0.039510272
50	0x3c72917b	0.014805193
51	0xbd36d458	-0.0446361
52	0xbd71e0de	-0.05905234
53	0xbbf099b7	-0.007342543
54	0xbc16e2cb	-0.009209345
55	0xbdbf647c	-0.09345338
56	0xbdb026a1	-0.08601118
57	0x3d24fb90	0.04027897
58	0x3dda3b39	0.10655827
59	0xbd045937	-0.032311644
60	0xbd891069	-0.06692583
61	0x3cfbccac	0.030737244
62	0x3cdf5bc0	0.02726543
63	0xbc619895	-0.013769289
64	0x3d34ca8e	0.044138484
65	0x3dee4f41	0.1163621
66	0x3c39a1b9	0.011330062
67	0xbe11ff69	-0.14257587
68	0xbd3209ef	-0.043466505
69	0xbd425483	-0.047443878
70	0x3d17155e	0.03688561
71	0xbc4a26e9	-0.0123383785
72	0xbdc5858c	-0.09644613
73	0xbc8e03bb	-0.017335763
74	0x3d74b908	0.059746772
75	0x3c8b7159	0.017021822
76	0xbdb4b8e8	-0.088243306
77	0xbd2663a5	-0.040622372
78	0x3df4f00f	0.1195985
79	0x3d3f1871	0.04665417
80	0xbdcef927	-0.10106116
81	0xbd29ac60	-0.041424155
82	0x3ddf90f6	0.10916321
83	0x3d768ca8	0.060192734
84	0xbd22f53a	-0.039784648
85	0xb937be05	-0.00017523028
86	0x3d8e4f6e	0.06948744
87	0xbd4e09fb	-0.050302487
88	0xbd44414f	-0.047913846
89	0x3e14603a	0.14489833
90	0x3e1e9ef9	0.15490331
91	0xbd6aa7a4	-0.05728878
92	0xbcff1607	-0.031138433
93	0x3d9d4faa	0.0768121
94	0x3dfdad4f	0.123865716
95	0x3daf6a12	0.08565153
96	0x3d9cb3c2	0.076514736
97	0x3d91deb5	0.07122556
98	0x3e1d04a4	0.15333802
99	0x3dda700e	0.10665904
100	0x3d8807bd	0.06642101
101	0xbc63b79b	-0.013898755
102	0x3e0e635f	0.13905095
103	0x3e0da984	0.13834196
104	0x3c335c25	0.010947262
105	0xbd82dfae	-0.0639032
106	0x3d116b9a	0.035503007
107	0x3c63c325	0.013901507
108	0xbdabd523	-0.08390262
109	0xbd17913b	-0.037003737
110	0xbc3b8e57	-0.011447511
111	0xbe230404	-0.159195
112	0xbe4923a0	-0.19642496
113	0x3ba866eb	0.005139222
114	0xbd2daa88	-0.04239896
115	0x3c7b5546	0.015340155
116	0xbd39e5f5	-0.04538532
117	0xbd22a112	-0.03970439
118	0xbce2df5d	-0.027694399
119	0xbd37ffc0	-0.044921637
120	0xbd73ec3e	-0.05955147
121	0xbd8f5777	-0.069991045
122	0xbdac800c	-0.084228605
123	0xbd6a72a6	-0.057238244
124	0xbc0a68e0	-0.008447856
125	0xbbcf9c3d	-0.0063357637
126	0xbc1b4581	-0.00947702
127	0xbda382fb	-0.07983967
128	0xbd4cc2bc	-0.0499904
129	0x3d28af37	0.041182723
130	0x3b16797a	0.002296059
131	0xbb77fd40	-0.0037840158
132	0xbb2df6ce	-0.0026544812
133	0xbadd6fc6	-0.0016894273
134	0xbcd092e5	-0.02546067
135	0xbd0a6ab7	-0.033793177
136	0x3d0d36d0	0.0344761
137	0xbba71176	-0.005098517
138	0xbd4ad9ca	-0.049524106
139	0x3c902f3e	0.017600652
140	0x3d42c4ac	0.047550842
141	0x3d355584	0.044271007
142	0xbcef9b3e	-0.02924883
143	0xbcfd5bf7	-0.030927641
144	0xbc7d1e9b	-0.015449191
145	0xbca8f303	-0.02062369
146	0xbdbe4ed6	-0.092923805
147	0xbdccbdd0	-0.09997141
148	0xbda105b0	-0.07862413
149	0xbcfdb3b8	-0.030969486
150	0xbcc5bbb8	-0.024137363
151	0xbd206512	-0.03915889
152	0xbc1d5828	-0.009603538
153	0x3cbfec63	0.023428148
154	0x3d816387	0.063178115
155	0x3d3a12e1	0.04542816
156	0x3d649449	0.05580548
157	0x3cfb57fc	0.030681603
158	0x3d538abf	0.05164599
159	0x3d04bead	0.032408405
160	0x3e27dd0b	0.16392915
161	0xbcafd286	-0.02146269
162	0xbc23d288	-0.009998925
163	0xbbfcd81d	-0.0077161924
164	0x3c89b0d1	0.016807945
165	0x3c877795	0.016536513
166	0x3d21e7b3	0.039527606
167	0x3d200f42	0.03907705
168	0x3c69c9f1	0.014269338
169	0xbc2c2f20	-0.010509282
170	0x3cbac435	0.022798637
171	0xbc10c03a	-0.008834893
172	0xbd8b4532	-0.06800307
173	0xbcb64e39	-0.022254096
174	0x3d348484	0.04407169
175	0xbd00dcb8	-0.031460494
176	0xbdce8b23	-0.10085132
177	0x3bb926cf	0.0056503783
178	0xbc726399	-0.014794254
179	0xbdfb6d9d	-0.122767664
180	0xbd408970	-0.04700607
181	0x3cd188d2	0.025577936
182	0xbcee4a73	-0.029088235
183	0xbd7855ec	-0.060628816
184	0x3999cc64	0.00029334717
185	0xbda9c9ba	-0.082904294
186	0xbd812457	-0.063057594
187	0xbdd576d7	-0.104230575
188	0xbdee1ba8	-0.11626369
189	0xbd13ecdd	-0.036114562
190	0xbccda66d	-0.025103772
191	0xbdc0c9ce	-0.09413491
192	0xbd9efcbe	-0.077630505
193	0xbcccd166	-0.025002193
194	0xbd0dc906	-0.03461554
195	0xbd8801c5	-0.066409625
196	0xbdd820c2	-0.10553123
197	0xbdd00a07	-0.101581626
198	0xbda3bd61	-0.079951055
199	0xbdbb73e6	-0.09152965
200	0xbdc6897b	-0.09694191
201	0xbd9085c9	-0.070567675
202	0xbdb4ef6f	-0.08834731
203	0xbd71548f	-0.058918532
204	0xbcd82686	-0.026385557
205	0x3d364f07	0.04450896
206	0xbc77b58a	-0.015118966
207	0x3d24f6f4	0.040274575
208	0xbc59b7b3	-0.013288426
209	0xbcdf392f	-0.027248947
210	0xbc1ecda6	-0.009692585
211	0xbd351a0d	-0.044214297
212	0xbe0887af	-0.13333009
213	0xbdeb9f45	-0.115049876
214	0xbcf5c1be	-0.02999961
215	0xbb186753	-0.0023254945
216	0xbe0c05c6	-0.13674077
217	0xbdc57d6d	-0.09643064
218	0x3d74841f	0.059696313
219	0x3d941470	0.07230461
220	0xbceec19a	-0.02914505
221	0xbd434fb2	-0.047683425
222	0xbce26ff6	-0.027641278
223	0x3ac4928a	0.0014997285
224	0x3cb31c50	0.021864086
225	0x3da0f150	0.07858527
226	0x3e052f77	0.13006388
227	0x3d97edcb	0.07418402
228	0x3d59eec2	0.053206213
229	0x3ce55caa	0.027998287
230	0x3d9952d9	0.07486505
231	0x3dd40e1f	0.10354256
232	0xbcd16d24	-0.025564738
233	0xbcc9e643	-0.02464593
234	0xbd175a65	-0.03695144
235	0xbd49ee67	-0.049299624
236	0xbe08a59d	-0.13344426
237	0xbddfa94b	-0.10920962
238	0xbdc070a4	-0.093964845
239	0xbdd663c2	-0.10468246
240	0xbe24492b	-0.16043536
241	0xbdd9d84c	-0.106369585
242	0xbd07e542	-0.03317762
243	0xbd6eb3b8	-0.058276862
244	0xbd264015	-0.040588457
245	0xbcfd21ff	-0.0309
246	0xbc45b20f	-0.012066378
247	0xbaf924b9	-0.0019008137
248	0xbc9601fd	-0.018311495
249	0xbd2139c4	-0.03936173
250	0xbd42ea9f	-0.047587033
251	0x3c02d7e5	0.007986044
252	0xbc60dbf0	-0.013724312
253	0x3c35a5fb	0.011086936
254	0x3ca0d11b	0.01963096
255	0x3d6cfcf9	0.05785844

fc1.bias f4 [20]
0	0xbd7538c7	-0.0598686
1	0x3d0a576a	0.03377477
2	0xbcc7df7b	-0.024398556
3	0x3ce8f948	0.028439179
4	0x3d8a0b6d	0.067404605
5	0xbd44d03a	-0.048050143
6	0xbc81091a	-0.01575141
7	0xbd3992fc	-0.04530619
8	0xbd8d7b7c	-0.069083184
9	0x3cd50521	0.026003422
10	0xbb18bc1c	-0.0023305481
11	0xbdc2029f	-0.09473156
12	0x3c917814	0.017757453
13	0x3cea8265	0.02862663
14	0x3df3a556	0.1189677
15	0x3d3a0d63	0.045422923
16	0xbd74c2fd	-0.059756268
17	0xbd80d80e	-0.06291209
18	0x3e075fb1	0.13220097
19	0x3c9bdade	0.019025262
