model/Autoencoder/encoder_8d.pt (torch, 94443 bytes, 16 tensors)

conv1.weight f4 [8, 1, 3, 3]
000000 ef 76 d0 3e e1 12 54 be 62 9e 24 be 65 ed c1 3e
       0.4071574 -0.20710327 -0.16076043 0.3787643
000010 0e b4 e7 bd 8d 7a 83 be e9 e0 bf 3e eb 08 75 be
       -0.113136396 -0.25679436 0.3747628 -0.23929183
000020 6c cf 09 3e 42 c3 cc 3c 15 af 13 be 9d 09 3c 3e
       0.13458031 0.02499545 -0.14422257 0.18363042
000030 00 ff 7c 3e b6 b4 89 be 0e 5f 15 be 75 38 f5 3d
       0.2470665 -0.26895684 -0.14587042 0.11973659
000040 69 22 30 3d a8 14 47 be 96 32 a8 3d 61 e0 37 be
       0.043001566 -0.19441473 0.082127735 -0.17956688
000050 ca 08 ba be 80 77 80 bd f4 1f 20 bd 10 2b 7f 3e
       -0.3633483 -0.06272793 -0.039092973 0.24918771
000060 f6 56 b9 3e b0 af 53 3e 58 c4 99 be b1 ed 61 be
       0.36199158 0.20672488 -0.3003261 -0.22063328
000070 43 97 57 be 0a d4 24 be ca 5e 55 3e 38 43 21 3e
       -0.21053796 -0.16096511 0.2083694 0.15748298
000080 6c c1 48 be 8e 56 4e 3d a8 a5 3a be 67 9f 3a 3e
       -0.19605035 0.050375514 -0.18227255 0.1822487
000090 cc 09 27 3d fa 4e b1 be 79 20 1c 3e 6a 00 d6 be
       0.040780827 -0.34630567 0.15246762 -0.4179719
0000a0 c0 fd a2 3e 10 92 8b 3e d2 af 81 be 07 68 be 3d
       0.3183422 0.27259874 -0.25329453 0.092971854
0000b0 b4 ad e6 3e 9b 78 8f be dd 5a ea 3d e0 8e e0 3c
       0.450544 -0.28021702 0.11443112 0.027411878
0000c0 34 2a 2b be 97 b4 55 3e 29 61 97 be 4e 22 b7 bd
       -0.16715318 0.20869671 -0.29566315 -0.0894209
0000d0 2e 68 f7 3d 75 c2 6f be 6a 14 57 3e 2b 92 9d bd
       0.120804176 -0.23414023 0.21003881 -0.07693895
0000e0 44 74 09 bd a3 01 b4 be 25 49 23 be 93 ca f4 3c
       -0.033558145 -0.351575 -0.15945871 0.029881751
0000f0 9c 10 10 3e b1 ca 54 be 92 b4 85 3e 95 dc 07 05
       0.14068836 -0.20780446 0.26114327 6.388184e-36
000100 18 ec e0 04 1c 14 f6 04 46 fb 3e 05 1f 86 28 05
       5.2878965e-36 5.785279e-36 8.979909e-36 7.923956e-36
000110 d7 66 35 05 a2 ae 77 05 1d d2 63 05 25 85 6c 05
       8.529468e-36 1.1645959e-35 1.07120804e-35 1.11211215e-35

conv1.bias f4 [8]
000000 1f 05 b7 bd f9 23 2e 3e 7c cb b1 3e b5 7b a0 bc
       -0.08936524 0.1700591 0.3472556 -0.019590238
000010 5a 5b 2e 3e 5a 07 18 3f 8d 7b 68 3e 36 a9 ea 81
       0.17027035 0.5938622 0.22703381 -8.620083e-38

conv2.weight f4 [16, 8, 5, 5]
000000 a3 74 1e bd 19 db 08 3e 1c 99 2a be 7d 24 17 be
       -0.038685452 0.13364829 -0.16659969 -0.14760013
000010 4b 83 14 3e a4 1b 8a 3c f3 76 46 be 33 14 12 3e
       0.1450321 0.016858883 -0.19381313 0.14265518
000020 8c 76 06 be 1b a3 1f 3e e2 e3 94 bb e1 cb fe 3b
       -0.1313116 0.15589564 -0.0045437673 0.007775769
000030 bf b8 15 3d 22 6d a0 3c ed 1f 1b be 4b 90 8c 3d
       0.03655314 0.019583289 -0.15148897 0.06863459
000040 f3 53 c2 bd c2 89 28 3d 47 ab 50 3e 46 c7 97 3d
       -0.09488668 0.041147 0.20377837 0.07411055
000050 13 15 1e bd 7a d3 98 bc 80 d5 9a bc ca cd 7c be
       -0.038594317 -0.018655527 -0.018900633 -0.24687877
000060 52 9c 1e be f1 27 a6 bc 2a b0 0b bd 0c 32 d5 bb
       -0.15489319 -0.020282717 -0.03410355 -0.00650621
000070 17 30 0a be 15 a9 06 be ca 7b 03 3d 63 43 bf 3d
       -0.13494907 -0.13150437 0.032100476 0.09339025
000080 09 68 ae bc a4 d8 3a bd 79 70 21 bd a2 26 d9 bc
       -0.021289842 -0.04561676 -0.039413903 -0.02650768
000090 80 92 54 3d 6e e3 9f bc f4 75 cf bc bc da 59 3d
       0.051897526 -0.019517627 -0.0253248 0.053187117
0000a0 9d 28 51 3d 4f ff df bc f4 e7 83 bb 10 86 80 bd
       0.051064122 -0.02734342 -0.0040254537 -0.062755704
0000b0 a2 4e 1d be 19 db 0b bd 60 ba 65 3c 81 33 9c 3d
       -0.15362027 -0.034144495 0.014021486 0.07627011
0000c0 46 13 0c 3d 05 b2 4d bb b2 a9 88 3c 4e d7 56 3d
       0.034198068 -0.0031386625 0.01668248 0.052451424
0000d0 ad 22 d0 3d 71 28 b2 bc f5 73 e6 bd 0f 43 8f 3d
       0.10162864 -0.0217478 -0.11252586 0.06995212
0000e0 c5 75 cd ba 0d a1 6c 3d c8 75 02 3e df 7f b1 bd
       -0.0015675357 0.057770777 0.12740242 -0.086669676
0000f0 98 06 9f 3d b7 72 c4 3c 49 22 31 be c0 36 dd 3d
       0.077649295 0.023980482 -0.17298235 0.10801458
000100 0d 0c 03 bf d9 cf e3 b9 06 88 05 bc d1 08 b2 bb
       -0.51190263 -0.00043451673 -0.008150106 -0.00543318
000110 c5 73 0a bd 93 a5 c2 3d e8 76 93 3d c0 e1 81 3d
       -0.033801813 0.09504237 0.07200414 0.063418865
000120 1a 30 01 3c 40 79 80 be cc 56 70 3d 6c 65 7a 3d
       0.007885003 -0.25092506 0.058676526 0.06113188
000130 01 07 50 bb 6c 4e 3d 3d 0f 8b 01 3e 0e 1b c8 3d
       -0.0031742456 0.046217367 0.12650703 0.09770785
000140 9d 7b e0 3d b3 0a 9b 3c 20 ee ce 3b 20 35 9d 3d
       0.10961077 0.018926 0.006315008 0.076761484
000150 bd 40 36 bc d6 e9 62 bc 14 f2 b8 3c 08 c6 86 bd
       -0.011123833 -0.013849696 0.02257637 -0.0658074
000160 d3 e3 b7 bc 1a 7a 23 bd 94 90 f2 3c c6 43 22 bd
       -0.022447502 -0.039911367 0.029609956 -0.039615415
000170 08 21 83 3d d3 88 23 bd 38 36 06 be 29 03 8c bd
       0.064027846 -0.039925408 -0.1310662 -0.0683654
000180 2d 4f 4a bb 29 ff e2 bd 45 9f 00 bd 20 a7 a8 bd
       -0.0030869946 -0.11083824 -0.03140189 -0.082350016
000190 68 60 57 3e 62 09 85 3d 24 ec 60 bc 96 19 75 be
       0.2103287 0.0649593 -0.013728175 -0.23935542
0001a0 a3 00 e9 bd 88 c4 52 be 7b 24 e3 bd 94 7f 8f 3d
       -0.113770746 -0.20582783 -0.110909425 0.070067555
0001b0 cf a9 bd bd 9e 7d 09 bc b0 23 fc bd 54 66 0d bd
       -0.09260904 -0.008391766 -0.12311494 -0.034521416
0001c0 5b f6 32 bd 23 52 8f 3c b0 49 ad 3d 93 0f 39 3c
       -0.043691974 0.01749522 0.084613204 0.011295217
0001d0 8c 3b 1b 3d 5e 01 71 3c b0 d3 fe 3c 2f 03 2a 3d
       0.037898585 0.014709799 0.0311068 0.041506942
0001e0 f5 6b 09 be 74 af 55 be e8 a4 e7 3d 5a fa 62 bd
       -0.13420089 -0.20867711 0.1131075 -0.055414535
0001f0 00 85 28 be 71 3a 97 3c fc 60 b4 3d 51 0d 7e 3d
       -0.16456985 0.018460484 0.08807561 0.06202442
000200 fb 5d 4e bd 8a d0 ee bb 71 1c da 3c 6e b5 4f 3d
       -0.050382596 -0.0072880434 0.02662489 0.050710134
000210 43 56 5f 3b 41 f4 b7 bd 04 05 a8 bd 21 4c 73 3d
       0.0034078516 -0.089821346 -0.08204082 0.059398774
000220 7e 35 93 bc 87 9d 3a bd 3c a8 49 be fa 1a 19 bd
       -0.017969843 -0.045560386 -0.19693083 -0.037379242
000230 0b 38 8d 3d 67 a1 e1 3c ad d1 18 bc 13 6e 33 be
       0.06895455 0.027542783 -0.009327334 -0.17522459
000240 11 50 74 be 8c b4 da 3b f8 df 92 3c 65 fb f3 3c
       -0.23858668 0.006674355 0.017929062 0.02978296
000250 07 3b 00 be 32 29 c3 bd b5 19 66 3d 5e ce 83 3a
       -0.12522517 -0.09529342 0.05617686 0.0010056009
000260 6c 5f 99 3d 49 13 96 3d 3f 40 14 3e b7 cd e3 3d
       0.074889034 0.07327897 0.14477633 0.11123221
000270 68 77 e4 bc c6 79 9e 3a d7 2a c0 bd f0 bb 34 bc
       -0.027888969 0.0012090735 -0.09383171 -0.011031136
000280 7b bf 91 bd 55 51 f6 bd 1a 52 5c bd 7b d1 9a bd
       -0.071166 -0.120272316 -0.053789236 -0.075594865
000290 34 68 61 be 01 a3 4e 3d d5 4c 08 3c 76 61 71 bb
       -0.22012407 0.05044842 0.008319099 -0.0036831773
0002a0 ed 1e c8 bd 7c 5d b0 3c 57 fa 9b 3d 21 37 a0 3c
       -0.097715236 0.021528952 0.07616108 0.019557538
0002b0 5b 19 b7 3d 37 6e 20 be b4 e9 8e bd 30 07 e4 07
       0.08940383 -0.15667044 -0.06978169 3.4309852e-34
0002c0 b3 35 c1 07 1a 69 d1 07 93 7c 0c 08 a5 7c 0b 08
       2.9070974e-34 3.1508598e-34 4.2276154e-34 4.197531e-34
0002d0 67 60 0e 08 ff b1 e5 07 f5 4e cf 07 4b 0c cb 07
       4.284489e-34 3.4560707e-34 3.1192305e-34 3.055127e-34
0002e0 ad 2c d0 07 ae 01 1a 08 9d 56 f5 07 a7 43 be 07
       3.132262e-34 4.6344664e-34 3.691441e-34 2.8627785e-34
0002f0 cf 52 91 07 ce bb 89 07 6f b3 17 08 2c 35 f5 07
       2.1865846e-34 2.072385e-34 4.5650833e-34 3.6894754e-34
000300 07 91 ae 07 5f b8 ad 07 7e 33 94 07 0f 05 e7 07
       2.626585e-34 2.613851e-34 2.229883e-34 3.475999e-34
000310 97 eb c2 07 95 f4 71 07 e2 07 83 07 cb 9d 2f 07
       2.9328343e-34 1.8202701e-34 1.9715322e-34 1.3211908e-34
000320 ef 8d eb 3c 72 04 67 bd d1 91 93 bc 5c 07 62 3d
       0.028754203 -0.056400724 -0.018013867 0.0551828
000330 54 4a 03 3e 74 fc e5 bd 37 3c c6 3c 97 23 4b be
       0.12821323 -0.11229792 0.024198635 -0.19837795
000340 1f c0 33 bd a9 5d ed 3e fc 78 06 be 8b 17 85 3c
       -0.043884393 0.4636052 -0.1313209 0.016246578
000350 9e 0a e4 3c 5b b4 3c be 65 a0 11 3d 39 6c b8 bc
       0.027837094 -0.18428175 0.035553355 -0.022512542
000360 90 fa b0 3d c7 f2 30 3e 60 e7 14 3e 70 f7 09 3d
       0.08641541 0.17280112 0.14541388 0.03368324
000370 cf 73 5f 3e e3 eb 45 bd bf 94 99 bd d2 ec 2b 3d
       0.21821521 -0.048320662 -0.07499074 0.041973896
000380 38 46 53 bb f1 01 b6 bc d1 f4 89 3d c0 49 13 3e
       -0.0032237899 -0.022217723 0.06736148 0.14383602
000390 32 62 44 bd b5 39 c1 bd 7b db 5b 3d 3b 53 02 3d
       -0.04794521 -0.09434835 0.05367611 0.031817656
0003a0 b5 6e d4 bd 86 42 c4 bd 55 f2 d3 bd b6 e6 2a 3b
       -0.10372678 -0.09583001 -0.103489555 0.0026077456
0003b0 f4 10 9e bb 21 24 92 3d bf aa b8 3d 24 1c 53 3e
       -0.0048237983 0.07135797 0.09016942 0.20616204
0003c0 b1 1b 10 3d de 82 05 3c 5c 84 20 bd 37 aa ad 3d
       0.03518266 0.008148877 -0.039188728 0.084797315
0003d0 33 d0 36 bd f8 32 fc bc e3 48 ab bd 0f c9 03 3d
       -0.044632148 -0.030786023 -0.083635114 0.032174166
0003e0 18 62 c8 3c b0 e1 b8 bc b8 be 35 bd 5a 31 c5 bd
       0.024460837 -0.022568554 -0.044371337 -0.09628554
0003f0 7f 92 ce bd fa 50 f4 bb 68 ce 99 be f8 27 6b be
       -0.10086536 -0.007455942 -0.30040288 -0.22964466

conv2.bias f4 [16]
000000 ed 00 de b7 c1 65 c0 b7 69 b4 cb b7 20 8b c1 37
       -2.6464893e-05 -2.2935566e-05 -2.4283496e-05 2.3072178e-05
000010 ea 0e 12 39 18 3d 1f b7 06 b2 70 37 8a 26 92 b8
       0.00013929201 -9.491363e-06 1.4346564e-05 -6.969001e-05
000020 52 16 9f 36 3c 5b 90 b8 4e 19 03 b9 1d b7 09 38
       4.7411677e-06 -6.883449e-05 -0.0001250256 3.2833883e-05
000030 a5 ab 3f b6 4e fd b9 b8 ad 9f 94 b7 cd 60 b1 b7
       -2.8561128e-06 -8.868669e-05 -1.771733e-05 -2.114512e-05

bn1.weight f4 [16]
000000 96 5f 80 3f 4f 47 7e 3f 97 c1 73 3f f7 78 79 3f
       1.002917 0.9932756 0.9521727 0.974502
000010 13 73 8a 3f 15 6b 71 3f 0b c0 66 3f 4f e1 69 3f
       1.0816368 0.9430402 0.90136784 0.9135942
000020 05 3d 71 3f ca 94 7a 3f 66 2e 84 3f 73 ab 8d 3f
       0.94233733 0.97883284 1.032666 1.1067947
000030 bb 40 92 3f 4a c9 82 3f a2 bd 77 3f 42 5f 8d 3f
       1.1426004 1.0217679 0.9677373 1.1044695

bn1.bias f4 [16]
000000 72 d6 ec 3d 6c ba 23 be 1e b4 89 bd ea 43 1a be
       0.1156434 -0.15989083 -0.06723808 -0.1506497
000010 9a 2a e6 bc d1 6a 01 be c7 13 9e bd 41 7c 19 bd
       -0.028096486 -0.12638403 -0.07718616 -0.037472013
000020 cd 98 1a be 3f 4b cc 3d 53 fa e1 bd c4 c0 94 bd
       -0.15097351 0.099752896 -0.11034074 -0.072633296
000030 91 10 9f bd 1c 00 96 3d f0 c5 31 ba 84 96 00 bd
       -0.07766832 0.073242396 -0.0006781509 -0.031393543

bn1.running_mean f4 [16]
000000 bf ad 92 c1 9a ad 38 c1 93 fc eb 41 96 ad e5 c0
       -18.334837 -11.542383 29.498327 -7.1774397
000010 b3 a8 68 c1 79 08 d0 3f d8 58 9d 41 b4 ac 39 c1
       -14.541186 1.6252586 19.66838 -11.604664
000020 f0 40 aa 41 85 c4 b3 c1 b4 99 47 c0 35 bc b3 c1
       21.281708 -22.470957 -3.1187563 -22.466898
000030 fa 58 9a c1 f6 b7 d5 c1 ee 64 96 41 02 32 5a c1
       -19.293446 -26.714825 18.799282 -13.637209

bn1.running_var f4 [16]
000000 93 53 b8 42 4a 30 18 42 ee f4 29 43 00 ed 27 42
       92.16323 38.047157 169.95676 41.981445
000010 41 46 5d 42 b6 7f c8 41 71 1c d4 42 32 1e e1 41
       55.318607 25.062359 106.05555 28.139744
000020 bc 0c af 42 29 53 f7 42 bd e7 3b 42 1a 0f e6 42
       87.52487 123.66242 46.976307 115.029495
000030 0e c8 bc 42 e2 f8 01 43 56 e4 f9 42 79 74 ac 42
       94.39073 129.9722 124.94597 86.227486

conv3.weight f4 [32, 16, 5, 5]
000000 62 c4 69 bd 02 18 4d be 4a 29 2f be 2b e1 01 be
       -0.05707205 -0.2002869 -0.17105594 -0.12683551
000010 19 cb df bd 04 3e 18 bd 93 81 e6 bc d3 3a 6d bd
       -0.1092741 -0.037168518 -0.028137958 -0.057917427
000020 43 7c 30 bd 50 e5 fb bb 92 01 89 bc ff 6f fa bc
       -0.043087255 -0.0076872483 -0.016724382 -0.030570982
000030 aa 62 81 3a 7a c5 43 3c fb 24 24 bc e0 d8 cd bd
       0.0009871323 0.011948938 -0.010018582 -0.10051131
000040 74 6a 97 bc 16 0e 7b bd da 2b e6 bc af 64 22 3d
       -0.018483378 -0.06129273 -0.028097082 0.0396468
000050 aa 53 a6 bd bd 06 39 bb d8 74 0d 3d da 2e a2 3d
       -0.081214264 -0.0028232776 0.03453526 0.079190925
000060 93 0d bb 3c fd b7 44 bd f1 5d 1e bd 0c 3c 90 3a
       0.022833621 -0.048027027 -0.03866381 0.0011004223
000070 9b d8 10 3d d1 98 fa 3c 0a 32 04 be f5 e5 aa bd
       0.03536282 0.030590447 -0.12909713 -0.08344642
000080 4e fe 17 be 90 55 d3 bd 7c 4e 5d bd b0 1e 95 bd
       -0.14843103 -0.10319054 -0.054029927 -0.07281244
000090 5f 57 27 be d3 9a f0 bc de be 54 3d 5d 39 1e 3a
       -0.16341923 -0.029370701 0.051939838 0.00060357695
0000a0 f5 ab e8 bc 5a 01 8d 3b af bc 85 3d d7 f5 8f 3c
       -0.028402308 0.0043031396 0.06530129 0.01757328
0000b0 ac 4c 55 3c 9f 07 24 bc c7 d0 5c 3e 1b b5 f9 3c
       0.013018768 -0.010011583 0.21564017 0.030481866
0000c0 a6 92 cc bd e0 be 5d 3d 7f d2 7d be 0f bb cb bc
       -0.099889085 0.05413711 -0.24787329 -0.02486947
0000d0 3b 55 c1 bd 0b 2e 23 bd f4 af 74 bd ea bc cc 3b
       -0.094400845 -0.039838832 -0.059738114 0.0062481062
0000e0 38 a2 fd 3d 6a 0b 80 3d 3c e3 78 3d 54 62 86 3c
       0.123844564 0.06252177 0.060763583 0.016404308
0000f0 53 42 25 bd 8a 35 15 bd 30 27 4b 3c 5b 03 a1 bc
       -0.040346455 -0.036428012 0.01239948 -0.01965492
000100 53 d4 f5 3c 6d fd 32 3d c3 f5 a7 bc 78 69 81 3b
       0.03000847 0.043698717 -0.02050293 0.0039493404
000110 d1 34 a3 3c 50 ac c4 ba fb 49 16 bd 60 55 a2 bc
       0.019922646 -0.0015004966 -0.036691647 -0.0198161
000120 d5 10 09 3b 14 4b aa bc da 34 17 bd dc c3 80 3e
       0.0020914574 -0.020787753 -0.036915638 0.2514943
000130 e1 83 df 3d 69 0a 08 3d 06 b0 27 3e 9d 96 58 3e
       0.10913826 0.033213053 0.16375741 0.21151204
000140 8f 2d 08 be a0 2e db bd 46 0f db bd 10 37 61 bd
       -0.13298629 -0.107022524 -0.106962726 -0.054984152
000150 60 0a e0 bc 4a 88 05 bb 61 01 a6 3d 83 ad 05 3d
       -0.027348697 -0.0020375424 0.08105732 0.032636177
000160 00 c6 39 bd ce 32 5d bd 2a af e0 3d 9e 37 c4 3d
       -0.045354843 -0.05400353 0.1097091 0.09580921
000170 e4 c4 37 3e e5 0c 74 bc bf f0 59 3d 8a 77 a3 bd
       0.17946202 -0.014895652 0.05320811 -0.07981785
000180 8e 72 bd 3d 2c 23 23 3a f0 c9 89 bd 89 6e 85 bd
       0.09250365 0.00062231976 -0.0672797 -0.065152235
000190 de ec 9c bd e6 3c 9c bd 14 8a 58 bd 34 c0 9d bc
       -0.07662366 -0.07628803 -0.052866057 -0.019256689
0001a0 dc c7 8e bc d6 a8 3a 3e 07 0d 57 bb 29 f8 03 be
       -0.017429285 0.18228468 -0.0032814161 -0.12887634
0001b0 6e f9 60 bd 33 e9 b2 bd 4b 76 33 bc b3 22 8d 3d
       -0.054925375 -0.087358855 -0.010953496 0.06891384
0001c0 a7 1f 86 3d 3a bb c2 bc 19 3c a1 3c fb c6 4a 3d
       0.06549006 -0.023770917 0.019681977 0.04950617
0001d0 47 6a 9b bc 1a 78 a7 bc 88 df f7 3c 3c ac dd bc
       -0.018971575 -0.020443011 0.030257955 -0.027059667
0001e0 30 98 3e be 96 17 31 be 03 3f 4e be fe ab 1b be
       -0.18612742 -0.17294154 -0.20141225 -0.15202329
0001f0 46 f1 49 be c8 f1 ac 3d 10 d0 27 3e cb 4f 93 3d
       -0.19720945 0.084445536 0.16387963 0.07192954
000200 7e c4 a4 3d 1e a0 09 3b f5 c3 82 3e e6 0a 4c 3e
       0.080452904 0.0020999978 0.25540128 0.19926032
000210 7f 42 73 3d f9 a2 34 bc 67 2b 17 bc 1c 1b bc bd
       0.059389587 -0.011025184 -0.0092266565 -0.09184858
000220 ee 8b fc 3c 1a 44 5a bd a2 53 95 3c 80 57 8d bd
       0.030828442 -0.053287603 0.018228356 -0.06901455
000230 cd 88 cb bd 20 84 1b be be 1b 06 bd 69 a5 29 3d
       -0.09938202 -0.1518712 -0.0327413 0.041417513
000240 a9 b3 58 3e 1d 2f ab bc ef 84 10 bc da 57 51 3d
       0.21162285 -0.020896489 -0.008820756 0.051109172
000250 35 28 b2 bd 1a 24 6f bd 70 0d 2a 3f 80 e0 c0 3e
       -0.08699075 -0.05838404 0.66426754 0.3767128
000260 15 59 e4 be d1 47 1f bf c4 84 8a be a5 e3 31 b9
       -0.44599214 -0.6221896 -0.27054417 -0.0001696484
000270 41 cb d0 bc c9 d5 80 bb 00 e0 49 3c e2 e7 38 3d
       -0.025487544 -0.003931735 0.012321472 0.045143016
000280 a0 f0 26 3d 2c 64 3a 3d 19 02 0d bd ef c1 db 3c
       0.04075682 0.045505688 -0.03442583 0.026825873
000290 42 38 87 3d ea d7 4e bc 75 43 11 3d c8 c4 89 3c
       0.06602527 -0.01262472 0.035464723 0.016817465
0002a0 c4 eb 42 3d e1 7b 3f 3c 80 c7 ad 3d 44 12 79 3d
       0.047588125 0.01168725 0.08485317 0.060808435
0002b0 59 fe c7 bc ef 4a 61 bd d0 df 51 bc a6 4b 5e 3d
       -0.024413275 -0.055003103 -0.012809709 0.054271363
0002c0 32 85 62 bd 1e bd a9 bb 76 b6 31 bd 67 9f 4f bc
       -0.055302806 -0.005180015 -0.0433869 -0.012672282
0002d0 df df d4 bc 29 92 1c be 14 3a 15 be 46 a5 b3 bc
       -0.025985656 -0.1529013 -0.14572936 -0.021929394
0002e0 f6 97 26 bd ab 20 11 bb e1 f7 76 3d 94 22 aa 3d
       -0.040672265 -0.0022144716 0.06029499 0.083073765
0002f0 e1 b7 9d 3d a6 15 d6 3d 21 d4 ab 3d 2d 67 29 3d
       0.07701088 0.10453348 0.0839007 0.04135816
000300 e1 cf 39 3d 44 e8 af 3d eb 97 c1 3d 17 cd 9f 3d
       0.045364264 0.08589223 0.09452804 0.0780279
000310 51 77 43 bb 82 1a d4 3d 9a 5e bc 3d 3b ea d9 3d
       -0.0029825757 0.103566185 0.09197731 0.10640379
000320 7d 02 52 3e 31 0b 86 3c 5d 90 d8 bd 49 07 30 3d
       0.20508762 0.016362758 -0.1057441 0.042975698
000330 62 ec 57 be 85 8f 4c 3d 8c d4 20 bd c9 0c 1e bd
       -0.21086267 0.04994156 -0.0392652 -0.03858641
000340 5a f9 a1 bc 78 a8 0e bd 4f 1d 11 3d aa 64 d9 b9
       -0.01977222 -0.034828633 0.03542834 -0.00041464466
000350 16 97 ce 3b 14 49 d0 bc d0 4c 84 bd 92 a2 43 bd
       0.006304632 -0.025425471 -0.06459963 -0.04776246
000360 1e 48 e0 bd f6 0c ca bd 69 6c 09 be 5c ce ee bd
       -0.10951255 -0.09865753 -0.13420261 -0.11660454
000370 d0 73 1a 3d 96 54 83 3c 1a 6a b4 bc 2a d3 79 bc
       0.037708104 0.016031545 -0.02202325 -0.015248099
000380 79 2a 38 bc 14 8b fc 3c 80 19 ea bc d9 e2 86 3d
       -0.011240595 0.030828036 -0.028576612 0.065862365
000390 07 f0 98 3d 36 7c b0 3d 84 c2 fe 3b 47 a7 03 be
       0.074676566 0.08617441 0.007774653 -0.1285678
0003a0 80 49 b5 3b 3d 71 17 be 31 de d1 bd 0d 39 05 3c
       0.0055324435 -0.1478929 -0.10247458 0.008131278
0003b0 60 a5 a3 3d 68 46 d4 3d 22 7a 46 3d 1c 51 bf 3d
       0.07990527 0.103649914 0.04845632 0.09341642
0003c0 e4 5c 30 3c 41 49 b4 3b f1 46 f2 bc aa 28 29 bd
       0.010764334 0.0055018966 -0.029574843 -0.041298546
0003d0 c3 0d c9 bd f6 12 35 bd 50 57 ce bd b9 88 ba bd
       -0.09817078 -0.044207536 -0.10075247 -0.09108109
0003e0 1d b5 26 be e3 fd 52 be 13 d0 d4 3d 8a d2 48 3e
       -0.16280027 -0.20604663 0.103912495 0.19611564
0003f0 80 65 c2 3d c8 db ef bd 15 da 80 be 13 4f 34 bd
       0.09492016 -0.11711842 -0.25166383 -0.044020724

conv3.bias f4 [32]
000000 77 01 fd 36 d4 83 31 b9 74 53 0d b8 40 50 c8 38
       7.540158e-06 -0.00016929145 -3.369474e-05 9.551691e-05
000010 10 ab 41 39 aa df a8 b8 2e 26 dc 38 eb 3a 96 38
       0.0001846964 -8.052525e-05 0.00010497529 7.163532e-05
000020 6f 0b c7 b7 b7 04 9a 36 3c 0b f7 37 65 e3 90 38
       -2.3727973e-05 4.5901065e-06 2.9449926e-05 6.9088106e-05
000030 49 4c 59 b8 db 3a 29 38 7f 64 c7 b8 2e 76 d5 37
       -5.1807878e-05 4.0347553e-05 -9.507778e-05 2.544661e-05
000040 c2 de 0a 38 68 f2 92 b8 a0 26 05 b5 03 56 5b b7
       3.3109223e-05 -7.006974e-05 -4.960257e-07 -1.3073443e-05
000050 6d c1 a3 38 ae ad d0 b7 2f 3f 90 b8 b1 a8 a3 b8
       7.808474e-05 -2.4876408e-05 -6.878224e-05 -7.803867e-05
000060 b5 d0 8e 38 9a 48 47 b9 39 b5 24 b8 06 01 c2 37
       6.809962e-05 -0.00019005165 -3.9269424e-05 2.3127079e-05
000070 02 37 1e b9 ac 31 9b 38 c0 fc 62 38 e3 84 26 b8
       -0.00015088546 7.400228e-05 5.411799e-05 -3.9701245e-05

bn2.weight f4 [32]
000000 3c e6 74 3f 65 d7 7b 3f 6e b2 70 3f fe ed 81 3f
       0.9566381 0.9837554 0.9402226 1.0150754
000010 58 f9 8d 3f a4 74 61 3f 4a ab 8a 3f 9b 3d 59 3f
       1.1091719 0.88068604 1.0833523 0.8485963
000020 7e 74 8a 3f dd 25 9f 3f de 24 89 3f 1f 52 95 3f
       1.08168 1.243343 1.0714376 1.1665686
000030 d8 57 74 3f 85 2a 62 3f af 62 5c 3f 12 df 7f 3f
       0.9544654 0.8834613 0.8608808 0.99949753
000040 8f 93 82 3f 6d 84 80 3f 51 f5 92 3f 1c 5c 67 3f
       1.0201281 1.0040413 1.1481115 0.9037492
000050 36 9f 7a 3f e7 f4 9e 3f 36 53 64 3f 42 30 71 3f
       0.97899187 1.2418488 0.8918947 0.9421426
000060 4c 9a 90 3f 84 08 86 3f 75 19 77 3f 8b ed 5e 3f
       1.1297088 1.0471349 0.9652322 0.8708121
000070 e5 4b 84 3f 1a d3 8f 3f 10 49 74 3f 71 5a 6c 3f
       1.0335661 1.1236298 0.95423985 0.923255

bn2.bias f4 [32]
000000 9e 2a 24 3e 86 69 86 be 30 aa 9a be 23 61 cb 3d
       0.16031882 -0.26252383 -0.30207968 0.09930637
000010 1c 5d 40 3d af ed ac bb 88 23 23 3d c5 60 cd bd
       0.046963796 -0.0052773575 0.039828807 -0.10028223
000020 7a f8 95 be 4f a3 b9 bd 15 ff f4 3d 2b 7e 69 3d
       -0.29291135 -0.09064352 0.119627155 0.05700509
000030 d6 5f 8c bc d5 03 7a bc fc 38 2c 3e 23 c2 a5 bd
       -0.017135542 -0.015259703 0.16818613 -0.08093669
000040 f9 f9 b0 bd e1 f0 43 be 60 95 36 3d b1 c4 0c 3c
       -0.086414285 -0.19134857 0.04457605 0.008591817
000050 17 f2 3d 3d 00 95 0c be ea 64 11 3e f1 7e 2c 3e
       0.046373453 -0.13728714 0.14198652 0.168453
000060 01 44 89 3d 65 d8 cc 3c 30 2f 79 bd 9b 04 fa bd
       0.06702424 0.025005529 -0.060836017 -0.1220791
000070 57 4d 48 bd e9 53 d9 3c 33 8d ca bd 85 31 5d 3d
       -0.048901882 0.02652927 -0.09890213 0.054002304

bn2.running_mean f4 [32]
000000 a9 66 54 bd 15 9e 8f 3a 4e 51 16 40 c2 ba bd 3f
       -0.051855717 0.0010957146 2.3487124 1.4822619
000010 1e b0 43 3f 2f ff 27 bf 68 ad e9 bd e0 10 24 3f
       0.7644061 -0.65623754 -0.11410028 0.6408825
000020 2c 63 42 bf 95 c1 57 3f a7 71 86 3f 1c ef 6e 3f
       -0.75932574 0.8427976 1.0503434 0.933336
000030 54 af 94 3e 34 22 b5 bd 99 64 21 3f e2 33 9e 3b
       0.29040015 -0.08844414 0.63044125 0.0048279623
000040 10 ea 52 3e 73 a4 5f be f9 61 72 3e ae 06 3d bf
       0.205971 -0.21840076 0.23670186 -0.7383832
000050 57 74 63 be 02 62 79 3e cd ac 96 be 5e 2f ac 3f
       -0.22212349 0.24353793 -0.29428712 1.3451955
000060 d7 a2 51 be e0 b1 10 3f 34 f5 0e 40 45 17 2d be
       -0.20472275 0.56521416 2.233716 -0.16903408
000070 a1 a3 20 bf 6a 4b 3b bd b8 6b b2 be db 4d 9e be
       -0.6274968 -0.045726217 -0.34847808 -0.30918774

bn2.running_var f4 [32]
000000 62 68 a5 3f f8 9a 8b 3e 0c 1c 95 3e 5b 01 45 3f
       1.292248 0.2726667 0.2912296 0.76955193
000010 2b 81 66 3f 86 f1 67 3e 9c 5e 1a 3f 93 ea 1d 3e
       0.90040845 0.22650728 0.6030061 0.15421514
000020 5e 0a e2 3e 9b 08 23 3f 7a f8 57 3f 1b 06 62 3f
       0.44148535 0.63685006 0.8436352 0.88290566
000030 f4 9d 1a 3e 66 11 b8 3e fb 78 97 3e fb 63 4f 3f
       0.15099317 0.35950774 0.29584488 0.81011933
000040 ff b3 f3 3e cb e6 06 3f d8 fd 9d 3f 9e f9 ba 3e
       0.47598264 0.5269591 1.2343092 0.36518568
000050 4c f0 af 3e 97 f8 8a 3f a4 65 84 3f 94 31 99 3f
       0.3436302 1.0857114 1.0343518 1.1968255
000060 58 f3 ad 3f 0f 7c c5 3e 43 b8 20 3f b5 57 9c 3e
       1.3589888 0.38571212 0.6278116 0.30535665
000070 6d e6 c8 3e dc ee 20 3f f3 69 a5 3e 2b 30 1a 3f
       0.392383 0.6286447 0.32307395 0.6022975

fc1.weight f4 [8, 736]
000000 0b 8f 86 3d 0b ad 21 bd 9a 00 fc 3c 76 56 9a 3c
       0.06570252 -0.039471667 0.030762006 0.018840056
000010 bf ae da 3a f6 65 a1 3d 92 87 93 3d 66 d2 33 3d
       0.0016684158 0.07880776 0.07203592 0.043901823
000020 3b a3 68 3d eb b6 9a 3d a1 23 65 3d 64 dd 52 3d
       0.056796294 0.0755442 0.05594218 0.051480666
000030 fe d5 9b 3d 0a 93 72 3d 80 42 37 3d 53 88 85 3d
       0.07609175 0.05922226 0.044741154 0.065201424
000040 99 b4 3f 3d fc 68 8e 3d a5 3e 8b 3d 1c 59 a3 3c
       0.04680309 0.06953618 0.06799058 0.019939952
000050 54 41 1f 3c e8 6c 8f 3d 84 61 ba 3d 9f 9e 13 bd
       0.009720165 0.07003194 0.09100631 -0.036039945
000060 a8 03 1e be 12 59 ac bd 09 8b ea bc 48 fc ca 3c
       -0.15431082 -0.08415426 -0.02863075 0.0247785
000070 5e 15 a0 3d af 19 be 3d cf 51 a3 3d 77 c7 52 3d
       0.078165755 0.092822425 0.07974588 0.051459756
000080 f4 bf 08 3c 4e ea 2b bd fc fa ea bd 92 f0 26 be
       0.008346546 -0.041971497 -0.11473653 -0.16302708
000090 12 02 02 be 7e 3a d9 bd 2d 1b 5d bd e3 96 1e bd
       -0.12696102 -0.106068596 -0.053980995 -0.038718116
0000a0 f5 24 7b 3c af f5 65 3b f8 ba e0 bc c6 b3 96 3b
       0.015328635 0.0035089066 -0.027432904 0.0045990674
0000b0 a8 e2 4b 3d f3 0d 47 3d 27 e1 64 bd 11 53 f9 3d
       0.049776703 0.048597287 -0.055878785 0.12174047
0000c0 42 a4 e6 3d ce ff a3 bc 96 9d fa bd cd 17 79 3c
       0.112617984 -0.020019438 -0.122370884 0.015203428
0000d0 72 4c 00 3e b1 e4 23 3e ad a5 21 3e dc ff e5 3c
       0.12529162 0.16005208 0.15785857 0.028076105
0000e0 91 3d ce bd 1a 9c 05 be 7f 54 26 bd 7d 6b 44 3d
       -0.100703366 -0.1304783 -0.040607926 0.04795407
0000f0 93 4c 14 3e 61 61 c1 3d ec 1c 2e bc 06 7d 6d bd
       0.14482336 0.09442402 -0.010627013 -0.05798056
000100 87 fc 52 3c 28 43 17 3d f2 77 0a 3e a7 34 03 3e
       0.01287759 0.03692928 0.13522318 0.12813054
000110 79 62 d1 bb e4 a2 ec bc 67 fd 1e bd 37 6a f4 bc
       -0.0063899127 -0.028886266 -0.038815882 -0.029835803
000120 21 4a 23 bd 73 03 a6 bd 58 1d 72 bd 75 10 db bb
       -0.039865617 -0.08106127 -0.059110016 -0.0066853114
000130 fc c8 3a bc 8b 7a 98 3c 2f 81 1a bd 4c 02 ca bd
       -0.0114004575 0.01861312 -0.037720855 -0.09863719
000140 41 b2 1d be c6 84 d6 bd d4 74 11 be 85 81 da bd
       -0.1540003 -0.10474543 -0.14204723 -0.10669235
000150 88 b0 2b bd b1 7b 8d bc 2e 63 cf 3b d6 9f c9 3c
       -0.0419164 -0.017270895 0.006328962 0.024612349
000160 82 d2 1a bc 26 e6 63 3b 22 7a cf 3d 8b 49 df 3d
       -0.009449603 0.003477463 0.10130717 0.10902699
000170 ad 59 17 bd 27 c1 24 3e 86 2d d0 3d f8 9f 39 3d
       -0.036950756 0.16089307 0.10164933 0.045318574
000180 2a d6 3e 3d 2f 9b 35 3d 48 c6 27 3d af 18 a3 3d
       0.04659096 0.044337448 0.04096058 0.079636924
000190 88 0b b0 3d 0f 2a e4 3d 6c f1 15 3e cf a3 04 3e
       0.085959494 0.111408345 0.14642876 0.12953113
0001a0 04 19 41 3e 7a e9 5b 3e e1 70 69 3e 3b f7 33 3e
       0.18857199 0.21475783 0.22796966 0.1757478
0001b0 3a 26 3d 3e ca de 20 3e ac 97 e7 3d e9 33 ee 3d
       0.18471614 0.15709987 0.11308226 0.11630995
0001c0 a9 51 ee 3d f5 bf f9 3d cb d1 9c 3d ed cb 80 3c
       0.11636669 0.12194816 0.07657202 0.01572224
0001d0 0a fa 10 3d d6 96 7e 3d 42 26 81 3d a3 77 27 3d
       0.035394706 0.062155567 0.06306125 0.04088558
0001e0 1e 90 cc 3c 37 88 aa bb eb fe 05 bd b3 cc 5f bd
       0.024971064 -0.0052042264 -0.03271381 -0.054638576
0001f0 40 c9 6d bd ba b2 a8 bc 84 ff f2 3b 12 6c d9 ba
       -0.058053255 -0.020593036 0.0074157137 -0.0016587994
000200 d7 66 5d 3c d7 61 7c 3c 0e 78 ba 3c 28 5f 84 3c
       0.013513288 0.015404186 0.022762325 0.016158655
000210 8c 35 05 bb 16 2a 3b 3c 50 31 af 3c 8e 80 9c 3c
       -0.0020326106 0.011423608 0.021385819 0.019104268
000220 fb b5 37 ba db 1e 87 bc ec dd ac 3c 38 81 fd 3d
       -0.0007008013 -0.016494205 0.021101914 0.12378162
000230 2a ec 20 3e 45 b0 e0 3d 4c a0 0c 3e 5e db fa 3d
       0.1571509 0.10971121 0.13733023 0.12248872
000240 64 59 a8 3d 2a 79 b3 3d 27 a8 d6 3d 3d a0 ec 3d
       0.08220175 0.087633446 0.10481291 0.115540005
000250 20 1a fe 3d a7 b8 0b 3e 00 05 09 3e 3b 7f 03 3e
       0.12407327 0.13644658 0.13380814 0.12841503
000260 3e 78 ed 3d 74 c0 0e 3e dd 0e 2d 3e e3 e6 1f 3e
       0.115952 0.13940603 0.16900201 0.1561542
000270 c9 e4 98 3d 95 43 08 3d 60 fe f6 3c af 6a 8c bc
       0.07465512 0.033267576 0.030150592 -0.017140714
000280 fe 22 5e bd dc d1 d3 3c b1 0d 65 3d 9d b0 60 3d
       -0.05423259 0.025856905 0.05592126 0.05485593
000290 cd 67 94 3d 72 6a d0 3d 70 03 59 3d 9b 55 26 bc
       0.07246361 0.10176553 0.052981794 -0.010152246
0002a0 cf 49 28 bd 70 2c 9d bd a5 74 a4 bd eb f7 69 bd
       -0.041086014 -0.076744914 -0.08030061 -0.0571212
0002b0 54 cd 59 bc 69 5c 15 3d 51 a7 09 3d 9b ab 3a 3c
       -0.013293583 0.036465082 0.03360683 0.011393453
0002c0 ce 96 80 3c 1f 44 07 3d 2f b0 2c 3d 6a 51 99 3c
       0.01569691 0.03302395 0.04216021 0.018715579
0002d0 82 5a c0 3b 8c f8 26 bd 87 42 7b bd 7a 46 d3 bc
       0.0058701644 -0.040764377 -0.061342742 -0.025790442
0002e0 9c 1b c6 3b 3f c7 24 bd 20 3f 7c 3b 8d b4 29 3d
       0.0060457718 -0.04022908 0.0038489774 0.041431952
0002f0 ac 20 e6 3d 93 15 16 3e 02 f3 24 3e 07 97 04 3e
       0.112367004 0.14656667 0.16108325 0.12948237
000300 c6 c3 b2 3d 1a d6 86 3d 9c 8a 3a 3a e4 2c 4b bd
       0.08728747 0.065838054 0.00071159913 -0.049603358
000310 b0 32 83 bd 53 5b 2d bd 25 08 b3 bc 80 70 c3 3c
       -0.06406152 -0.04232342 -0.02185447 0.023857355
000320 70 d3 15 3d 93 e9 6e 3d b5 d8 8e 3d b2 d6 5c 3d
       0.036578596 0.058328222 0.06974927 0.053915687
000330 5f f2 77 bb 3e a3 93 bc 43 94 9a bd 09 b6 ca 3d
       -0.0037833673 -0.018022176 -0.0754781 0.09898002
000340 de cb b8 bd 39 67 e5 bd 18 7b e5 bd 41 1d 07 be
       -0.090232596 -0.11201329 -0.11205119 -0.13194753
000350 a3 f3 0d be c0 5c e3 bd c2 9f d3 bd 2f d9 3e be
       -0.13862471 -0.11101675 -0.10333206 -0.18637536
000360 8c f0 4e be 1a bc 69 be 62 e0 66 be 7c f4 81 be
       -0.20208949 -0.22825661 -0.22546533 -0.2538184
000370 d4 c4 63 be 7b 68 5f be 50 3f 62 be d8 d0 4a be
       -0.22243053 -0.218172 -0.22094464 -0.1980623
000380 5a 96 2d be 76 84 02 be c6 94 dd bd 80 74 0d be
       -0.16951886 -0.12745842 -0.10819392 -0.13813972
000390 a4 2c 44 bd a3 7d 14 3e a3 8f c5 3b e8 c8 c3 bb
       -0.047894135 0.14501052 0.0060290857 -0.0059748776
0003a0 51 7d ab 3c 31 19 47 3d 41 1c 6c 3d 1b 08 de 3d
       0.020933779 0.04860801 0.057644133 0.1084139
0003b0 ea be 27 3e 3e bb 37 3e 90 32 17 3e 49 7c 6d 3d
       0.16381422 0.17942521 0.14765382 0.057979856
0003c0 61 07 a0 bc 6d c2 18 3c ec bb d2 3c 79 24 94 3d
       -0.019534769 0.0093236985 0.025724374 0.07233519
0003d0 e3 b6 6e 3d 61 82 cf 3d 24 4d b1 3d 8a 1c 8e 3d
       0.058279883 0.1013229 0.086572915 0.06939037
0003e0 c0 d8 ac 3d 23 4c 93 3d 46 e9 9e 3d 31 c7 a2 3d
       0.08439779 0.07192256 0.07759337 0.07948149
0003f0 94 d8 6a 3d c2 4b 10 3c 64 2a 94 bd 86 74 f9 bd
       0.05733545 0.008807125 -0.07234648 -0.12180428

fc1.bias f4 [8]
000000 ae 41 0a 3e cc b6 05 3e c2 37 c4 bd df 6b f2 bd
       0.13501617 0.13058013 -0.095809475 -0.11836981
000010 3b d5 f4 3c b0 f5 04 be b2 70 e9 3d 3e 71 d3 bd
       0.029886832 -0.12984347 0.11398448 -0.103243336
